audio_classifier3.pth (torch, 178924 bytes, 6 tensors)

conv1.weight f4 [64, 1, 5]
-0.21087609 -0.11307569 0.40071777 0.43654025 -0.36352256 -0.43327603 0.21456128 -0.14815594
0.37975717 -0.24130265 -0.29427603 0.4019202 -0.015305725 0.275143 0.24591887 0.40425706
0.13393003 -0.0553817 0.22267857 -0.3443432 0.15174317 0.34415638 -0.43874696 -0.14559115
0.43789664 -0.24876569 -0.32354635 -0.0433017 -0.38596636 0.2774787 -0.39784807 0.23305933
0.25202408 0.23307471 0.20732829 -0.1364579 0.37721252 0.32702953 0.32907268 -0.07425304
0.11217043 0.34984314 0.2900636 -0.1532031 0.09768088 0.28694987 -0.2908151 -0.3876024
-0.26134807 0.0675191 -0.026026199 0.17939502 0.15846588 0.2733133 0.15588734 -0.21953972
0.028241795 -0.43278995 0.030034663 -0.0570506 0.4280262 0.21357417 0.1700438 0.028174419
-0.18570372 0.09909943 0.11664575 0.0745372 0.31239018 0.30817774 -0.41583884 -0.072492845
-0.1315052 -0.03647578 0.34636593 -0.10639053 0.0070699123 0.29255083 -0.41710764 -0.059445683
0.049660847 0.17434691 -0.3129693 0.11532085 0.23885718 0.08947657 0.082728945 -0.21030134
-0.27653825 0.38007158 -0.43972763 0.12405081 -0.25276738 -0.18391506 -0.15780243 0.18345657
0.07836113 -0.27777174 0.3987686 0.032591056 -0.22477439 -0.123484775 0.12863855 0.185037
-0.398177 0.23364627 0.2302774 -0.14399533 0.06076953 0.31227002 0.019371593 0.31144515
0.0033332012 0.03778309 -0.1578519 -0.06765731 0.17550458 -0.43615124 -0.35508338 0.29941273
-0.43617943 -0.19243911 0.1155097 -0.31897408 -0.32889003 0.2168192 -0.3671404 0.057249572
0.30724654 -0.11182824 0.3766391 -0.22967622 -0.39622793 -0.043348905 -0.010598093 -0.38338903
-0.35427576 0.12388322 0.10672345 -0.3896959 0.014356691 0.02097511 -0.26752627 0.25645968
0.09492515 0.2704045 0.3595688 -0.08586646 0.42641443 0.16063361 -0.10486083 -0.09406866
0.017857464 0.18680033 -0.02694914 -0.086638235 0.06249656 -0.09010525 0.17625801 -0.22409159
0.3768598 0.018431658 -0.11800712 0.12442133 0.1370789 -0.26829484 -0.15174356 -0.047019355
0.089349896 0.222618 -0.35726583 -0.15103337 0.2243447 -0.1697723 0.040358257 0.35438022
-0.23562299 -0.1844147 -0.36421683 0.30780312 0.37248862 -0.21315974 -0.41118258 0.06531129
0.035508167 -0.3882176 0.28731892 -0.39557287 0.27590576 -0.060036544 -0.05321536 -0.028179126
-0.3884525 -0.085016206 0.3696804 0.04015456 0.17724253 0.18469866 0.434806 -0.020339157
0.23500618 0.4290732 0.10099448 -0.15359 0.09665728 -0.2659089 0.089707114 0.1451842
0.4447735 0.17115755 0.33554655 0.24975319 0.35854146 0.015685104 -0.26695654 0.050171368
-0.099918105 -0.31757832 0.02846736 -0.32227585 -0.2781643 -0.038683485 -0.123347014 0.018156417
0.13437395 0.3964665 0.22704442 0.4455723 -0.35735187 0.27853343 -0.19253546 0.25211582
0.27235645 0.23660086 0.1848173 0.00021350464 0.10540203 -0.110863484 0.10356117 0.21776515
0.17220345 -0.37475345 0.14178789 -0.10135377 -0.1169291 0.25412536 -0.31813255 -0.08149146
0.08380183 0.23138003 0.26619697 -0.15000792 -0.36458752 0.43296012 0.028921077 -0.10533128
00000000: e7ef 57be 3a94 e7bd e12a cd3e 3482 df3e
00000010: a11f babe 5bd6 ddbe f4b5 5b3e 31b6 17be
00000020: 886f c23e 0b18 77be 59ab 96be 7cc8 cd3e
00000030: ddc4 7abc 8bdf 8c3e 28d2 7b3e c8fa ce3e
00000040: f424 093e ecd7 62bd da05 643e c04d b0be
00000050: 9062 1b3e 4435 b03e 71a3 e0be d915 15be
00000060: fd33 e03e 6fbc 7ebe dea7 a5be 205d 31bd
00000070: 629d c5be b011 8e3e beb2 cbbe 1ba7 6e3e
00000080: 4d09 813e 23ab 6e3e de4d 543e 9fbb 0bbe
00000090: 0022 c13e 6a70 a73e 377c a83e fa11 98bd
000000a0: 9cb9 e53d a41e b33e 3783 943e 46e1 1cbe
000000b0: ea0c c83d 18eb 923e b7e5 94be d273 c6be
000000c0: 6acf 85be 7447 8a3d e534 d5bc 54b3 373e
000000d0: e144 223e b9ef 8b3e eea0 1f3e 05cf 60be
000000e0: 565b e73c a596 ddbe 410b f63c e4ad 69bd
000000f0: 4026 db3e 30b3 5a3e f61f 2e3e 0ace e63c
00000100: 1e29 3ebe a4f4 ca3d f8e3 ee3d f6a6 983d
00000110: 9bf1 9f3e 79c9 9d3e d4e8 d4be 2177 94bd
00000120: 4da9 06be a167 15bd e056 b13e 47e3 d9bd
00000130: b9aa e73b 39c9 953e 228f d5be 517d 73bd
00000140: 2c69 4b3d ff87 323e 833d a0be 562d ec3d
00000150: fa96 743e 7e3f b73d cb6d a93d 3c59 57be
00000160: 6c96 8dbe be98 c23e fb23 e1be 5a0e fe3d
00000170: ba6a 81be 3b54 3cbe f696 21be 0adc 3b3e
00000180: cd7b a03d 1938 8ebe 662b cc3e 337e 053d
00000190: 422b 66be 96e5 fcbd d3b9 033e 577a 3d3e
000001a0: dbdd cbbe f840 6f3e d7cd 6b3e 8373 13be
000001b0: 78e9 783d dbe1 9f3e 2db1 9e3c bd75 9f3e
000001c0: d671 5a3b 71c2 1a3d eea3 21be ea8f 8abd
000001d0: 79b7 333e 374f dfbe 7dcd b5be a04c 993e
000001e0: e952 dfbe c20e 45be 5990 ec3d 9250 a3be
000001f0: 4664 a8be da05 5e3e d4f9 bbbe 877e 6a3d
00000200: 6b4f 9d3e 3406 e5bd d7d6 c03e 3e30 6bbe
00000210: 63de cabe 9f8e 31bd a0a3 2dbc 914b c4be
00000220: a263 b5be 7cb6 fd3d d391 da3d 3986 c7be
00000230: 5438 6b3c fed3 ab3c 34f9 88be af4e 833e
00000240: 1e68 c23d 7572 8a3e 6719 b83e c1da afbd
00000250: fe52 da3e 237d 243e 46c1 d6bd 12a7 c0bd
00000260: d149 923c 9648 3f3e 71c4 dcbc 636f b1bd
00000270: 65fc 7f3d 1a89 b8bd fb7c 343e 4478 65be
00000280: c5f3 c03e fdfd 963c b8ad f1bd 9cd0 fe3d
00000290: 695e 0c3e f15d 89be aa62 1bbe 5e97 40bd
000002a0: 14fd b63d f9f5 633e 8ceb b6be 7ea8 1abe
000002b0: 9eba 653e cad8 2dbe b34e 253d 5371 b53e
000002c0: 2747 71be 35d7 3cbe a17a babe 5f98 9d3e
000002d0: d4b6 be3e 8c46 5abe 8686 d2be edc1 853d
000002e0: 0371 113d 75c4 c6be 771b 933e 8788 cabe
000002f0: 8543 8d3e e1e8 75bd 59f8 59bd e9d7 e6bc
00000300: 3fe3 c6be fa1c aebd c046 bd3e 1c79 243d
00000310: 117f 353e a521 3d3e e49e de3e 4e9e a6bc
00000320: 76a5 703e 7caf db3e 32d6 ce3d b246 1dbe
00000330: 41f4 c53d 3625 88be 5db8 b73d 2bab 143e
00000340: 5ab9 e33e ed43 2f3e c2cc ab3e 4dbf 7f3e
00000350: bf92 b73e 0c7e 803c 87ae 88be 7e80 4d3d
00000360: dda1 ccbd a099 a2be 6234 e93c 5701 a5be
00000370: 8d6b 8ebe 9372 1ebd 5c9d fcbd c4bc 943c
00000380: 5399 093e a8fd ca3e 557e 683e 0d22 e43e
00000390: d3f6 b6be ef9b 8e3e 0428 45be 5315 813e
000003a0: 4e72 8b3e 7f47 723e bf40 3d3e 37e0 5f39
000003b0: 05dd d73d 650c e3bd e117 d43d d4fd 5e3e
000003c0: 1a56 303e afdf bfbe d830 113e 9192 cfbd
000003d0: 8678 efbd b81c 823e 45e2 a2be ffe4 a6bd
000003e0: 4ba0 ab3d e3ee 6c3e f84a 883e ad9b 19be
000003f0: 37ab babe f3ac dd3e e5eb ec3c edb7 d7bd

conv1.bias f4 [64]
0.3935271 -0.06438813 0.39523038 -0.25339398 0.34912112 0.2616594 0.15443692 -0.3196343
-0.30348867 -0.26876938 0.34894457 0.10092074 -0.18871996 0.1150192 -0.30298942 0.4006203
0.049001623 -0.25833908 -0.20016861 -0.26840332 0.11681091 0.009554963 0.00094303786 -0.109841436
0.03380092 0.06199913 -0.1451268 -0.3905924 0.3224841 -0.0066020982 0.18976007 -0.3976916
-0.10900934 0.14223303 0.2755739 -0.07428865 -0.03213078 -0.41217217 -0.1350342 -0.0038927686
0.07968403 0.36613026 0.115219496 -0.007960997 0.010384187 0.24178988 -0.2484162 0.059416927
0.221517 -0.15022792 0.36529025 0.094896235 -0.4286663 0.2456745 0.20277344 0.008030608
0.40980798 -0.22124727 0.426673 -0.016022356 -0.13301955 0.44031352 0.3613847 -0.12073359
00000000: 627c c93e eddd 83bd a35b ca3e dbbc 81be
00000010: 01c0 b23e 39f8 853e b624 1e3e 1ba7 a3be
00000020: de62 9bbe 249c 89be dda8 b23e 88af ce3d
00000030: ce3f 41be 308f eb3d 6e21 9bbe 1b1e cd3e
00000040: edb5 483d 0545 84be 00f9 4cbe 296c 89be
00000050: 8f3a ef3d 6b8c 1c3c 3336 773a 8cf4 e0bd
00000060: d572 0a3d cdf2 7d3d 1f9c 14be bafb c7be
00000070: a31c a53e 6a56 d8bb 7750 423e 3c9e cbbe
00000080: 4a40 dfbd 89a5 113e 0618 8d3e a624 98bd
00000090: 919b 03bd 3b08 d3be 6846 0abe d21d 7fbb
000000a0: 6131 a33d 6d75 bb3e 33f8 eb3d d76e 02bc
000000b0: 7022 2a3c c497 773e d160 7ebe 2a5f 733d
000000c0: 5ad5 623e 59d5 19be 5307 bb3e f558 c23d
000000d0: 267a dbbe 1992 7b3e d7a3 4f3e d092 033c
000000e0: 5ad2 d13e a58e 62be e274 da3e 5141 83bc
000000f0: 4736 08be c670 e13e 6a07 b93e 2c43 f7bd

conv2.weight f4 [128, 64, 5]
-0.043440007 0.048342507 0.010260468 0.021993717 -0.054127466 0.027630854 0.009465997 -0.0064365524
0.026383124 -0.0039249347 -0.047461737 -0.05437367 0.014811846 0.038552932 0.013061143 -0.015729878
0.030527428 0.05256636 0.053235985 0.018725479 -0.051357795 0.005970163 -0.04227118 -0.021960555
-0.015641838 0.024290951 -0.024227908 0.039279222 -0.029840887 0.022163697 0.011125946 0.008984228
0.058020785 -0.008356838 -0.04187655 0.048087493 0.013314003 0.03911719 -0.039014876 -0.052397165
-0.01413043 0.04818889 -0.055645365 -0.026057124 -0.01935206 0.05375292 -0.016480654 -0.048860513
-0.016963312 0.019274205 -0.039748784 -0.008209699 0.04735211 0.024191746 0.057754677 0.016250763
0.028780546 0.04176756 0.0040999255 0.010015675 -0.02423083 0.035137083 -0.050695747 -0.029737338
-0.03925109 0.05117128 0.0019881136 -0.034147978 -0.012135145 0.030797942 -0.0152210845 0.02878732
-0.032466378 -0.04091552 0.03836772 0.055715818 -0.038872495 -0.05050817 -0.054477476 -0.044248108
-0.024838598 0.011375758 0.037477158 -0.03905458 -0.030508755 -0.012251486 0.045596004 0.008073004
-0.028653556 0.0060814186 -0.022935603 -0.023915565 -0.032678593 -0.00074215134 0.029701937 0.039428405
-0.034431737 -0.001989362 -0.026949126 0.052029964 -0.018764054 -0.019202199 -0.018384857 0.015049276
-0.026950119 -0.0029553615 0.038699094 0.016162472 0.040502705 -0.03212779 -0.00097185135 0.047387876
0.016580012 0.043363824 0.043747224 -0.006655665 -0.039205067 -0.02700497 -0.004355017 -0.019099502
0.020200351 -0.030503783 0.017842455 -0.049358975 0.032360543 -0.024171114 -0.00011010695 -0.0465404
-0.013881542 0.039663587 0.037659768 0.044731226 -0.049478732 0.0056189196 0.04558012 0.053723283
-0.014042297 0.028429376 0.00062411116 -0.032254267 -0.04173881 -0.040121358 -0.04397831 0.02078043
0.01685812 -0.019600451 0.042100184 0.02816859 -0.009319624 0.02573286 -0.015363359 0.01543283
-0.050907418 0.026089795 0.03661122 -0.025144111 0.036061894 0.048011225 0.056644395 0.036050797
0.045202985 -0.034900907 0.04718434 0.025693538 0.041303214 0.053492106 0.044996656 0.010931153
0.014409219 -0.026099272 0.03323942 -0.03541048 -0.043268077 -0.019980853 0.039335668 -0.035649456
-0.03112382 -0.023012875 0.04265896 -0.031499885 0.027932178 0.004571536 -0.0408003 0.016459731
0.046950735 0.03600613 -0.015717234 -0.0043470743 0.04230042 -0.015415638 0.027219612 0.04316426
-0.043251183 0.041369088 0.0005399458 -0.05430967 0.006999401 -0.045394845 -0.028595401 -0.043183565
-0.047204487 -0.028097628 0.024358321 0.025593342 -0.035327792 -0.052391846 -0.018309226 -0.041853026
0.012465827 0.017851857 -0.01551059 -0.038631488 -0.024172818 0.029847667 -0.015765024 0.0028287764
0.025548937 0.03449334 0.052610867 -0.01730283 -0.055047985 -0.043043476 0.0034165126 0.028239671
0.02385602 0.030979553 0.021570934 -0.050289925 -0.016159346 0.0042995014 0.0029987956 -0.022449126
0.02563444 0.003214227 0.0042917533 -0.054506183 0.011216347 -0.048086993 0.0076318043 -0.0273561
0.0090288855 -0.042386383 -0.008799196 0.0556866 0.040563896 -0.013666576 0.021693349 0.015358068
0.008825206 -0.023455493 0.04155437 -0.037490796 0.040090628 -0.017091535 -0.006905751 0.033377152
00000000: 26ee 31bd cb02 463d 861b 283c 2b2c b43c
00000010: c3b4 5dbd 1a5a e23c 4517 1b3c b7e9 d2bb
00000020: 6c21 d83c bd9c 80bb 3d67 42bd edb6 5ebd
00000030: 63ad 723c aee9 1d3d 68fe 553c f2db 80bc
00000040: a814 fa3c d34f 573d fa0d 5a3d 2d66 993c
00000050: 8d5c 52bd 5ba1 c33b 8b24 2dbd 9fe6 b3bc
00000060: 5023 80bc d1fd c63c 9b79 c6bc 40e3 203d
00000070: e074 f4bc a490 b53c 9a49 363c 9532 133c
00000080: 34a7 6d3d 1eeb 08bc bf86 2bbd 64f7 443d
00000090: fa22 5a3c 5939 203d 10ce 1fbd 699e 56bd
000000a0: 5283 67bc b761 453d 65ec 63bd c075 d5bc
000000b0: 3688 9ebc 062c 5c3d 7002 87bc f621 48bd
000000c0: a5f6 8abc f0e4 9d3c 9fcf 22bd f981 06bc
000000d0: 49f4 413d c52d c63c 2b90 6c3d 5220 853c
000000e0: 2ec5 eb3c 7614 2b3d ab58 863b c918 243c
000000f0: bc7f c6bc e7eb 0f3d 58a6 4fbd b89b f3bc
00000100: c0c5 20bd fa98 513d 034b 023b c0de 0bbd
00000110: 7dd2 46bc f74b fc3c db61 79bc 63d3 eb3c
00000120: 77fb 04bd 0897 27bd 7827 1d3d 4536 643d
00000130: c438 1fbd a8e1 4ebd c623 5fbd 813d 35bd
00000140: 517a cbbc 6361 3a3c a681 193d b2f7 1fbd
00000150: 7fed f9bc 75ba 48bc e0c2 3a3d a244 043c
00000160: ddba eabc a346 c73b 72e3 bbbc 93ea c3bc
00000170: fdd9 05bd ef8c 42ba 7a51 f33c ae7f 213d
00000180: 4b08 0dbd f55f 02bb 6ac4 dcbc 5f1d 553d
00000190: 13b7 99bc ee4d 9dbc d79b 96bc 3d91 763c
000001a0: 7fc6 dcbc bdae 41bb f182 1e3d 2967 843c
000001b0: 2ae6 253d 6e98 03bd d7c3 7eba ca19 423d
000001c0: ced2 873c 449e 313d 4a30 333d c417 dabb
000001d0: 7e95 20bd 8739 ddbc 88b4 8ebb 8f76 9cbc
000001e0: 357b a53c 12e3 f9bc 572a 923c a32c 4abd
000001f0: 7d8c 043d 8002 c6bc 38e9 e6b8 25a1 3ebd
00000200: 686f 63bc 4976 223d 2141 1a3d 1738 373d
00000210: 36aa 4abd ea1e b83b 38b2 3a3d f20c 5c3d
00000220: aa11 66bc b9e4 e83c 649b 233a 0d1d 04bd
00000230: 50f6 2abd 4b56 24bd 9a22 34bd b83b aa3c
00000240: 0a1a 8a3c 2091 a0bc 3e71 2c3d d1c1 e63c
00000250: 56b1 18bc b8cd d23c 99b6 7bbc fbd9 7c3c
00000260: 4c84 50bd 44ba d53c a6f5 153d 06fb cdbc
00000270: a3b5 133d 6ba7 443d f403 683d 00aa 133d
00000280: c426 393d 41f4 0ebd 5e44 413d 417b d23c
00000290: 8f2d 293d 8a1a 5b3d 6a4e 383d 9418 333c
000002a0: a514 6c3c 24ce d5bc 0f26 083d 940a 11bd
000002b0: de39 31bd e3ae a3bc 701e 213d 2a05 12bd
000002c0: 62f7 febc 7f85 bcbc 29bb 2e3d 0606 01bd
000002d0: 06d2 e43c d3cc 953b 371e 27bd 8fd6 863c
000002e0: 6a4f 403d 2a7b 133d 6ec1 80bc e771 8ebb
000002f0: 3543 2d3d df91 7cbc aafb de3c 02cd 303d
00000300: 2728 31bd a272 293d 268b 0d3a d173 5ebd
00000310: 3b5b e53b f2ef 39bd e740 eabc 40e1 30bd
00000320: 7e59 41bd ff2c e6bc 1a8b c73c 21a9 d13c
00000330: e0b3 10bd d598 56bd 3bfd 95bc 146e 2bbd
00000340: 783d 4c3c 0f3e 923c 2120 7ebc 0d3c 1ebd
00000350: 1306 c6bc 1883 f43c a725 81bc fe62 393b
00000360: 014c d13c e348 0d3d 7e7e 573d aabe 8dbc
00000370: ff79 61bd 5b4e 30bd 92e7 5f3b e256 e73c
00000380: b36d c33c d5c8 fd3c 87b5 b03c cffc 4dbd
00000390: 9b60 84bc d5e2 8c3b 7187 443b 3be7 b7bc
000003a0: 51ff d13c c8a5 523b d6a1 8c3b e041 5fbd
000003b0: c5c4 373c def6 44bd 3714 fa3b e619 e0bc
000003c0: e4ed 133c 589d 2dbd 812a 10bc a217 643d
000003d0: 5426 263d c6e9 5fbc 40b6 b13c 68a0 7b3c
000003e0: 9997 103c bc25 c0bc ea34 2a3d f38f 19bd
000003f0: 1236 243d 8c03 8cbc a349 e2bb 7bb6 083d

conv2.bias f4 [128]
0.039301734 0.041653857 0.011600966 -0.031735938 -0.050603267 -0.008684023 0.056035794 -0.040175863
0.025784865 -0.011177795 0.023567444 -0.049024384 -0.044268996 -0.03358328 -0.018752636 0.010329032
-0.0051695737 0.019170815 0.01410232 0.04457656 0.024016617 0.043445934 0.03894637 0.051907234
0.02235446 0.018908367 -0.034630418 -0.047760442 -0.02316975 0.0064647775 -0.039192777 -0.035023797
-0.03995173 0.03583977 0.003948261 -0.038464032 -0.03591719 0.0407277 -0.016871253 0.027496453
-0.03425516 0.04167308 0.03617952 -0.0028647324 0.027425773 0.048388258 -0.0009920939 0.039984114
-0.025939457 -0.03641682 0.01328802 -0.008234227 0.027775075 0.052430872 -0.023958936 -0.033489868
0.046933103 -0.049301483 0.046530534 0.02443013 -0.031511314 0.022840356 0.043923568 -0.03313441
-0.018036714 0.0012980426 -0.029856283 0.026186341 -0.026059821 -0.023070564 0.026962902 0.009639451
-0.02566291 -0.025885103 0.0161291 -0.014922499 -0.033463787 -0.025639663 -0.05529451 -0.03617604
-0.03627732 0.011106448 0.004283157 0.0536983 -0.053363204 -0.032080337 -0.039738152 -0.04389103
0.019133396 0.046159573 -0.04867527 -0.004944753 -0.019826015 0.011796228 0.0027517397 0.0008998364
0.04502603 0.016196528 -0.038054258 -0.043825384 -0.004975318 0.019715419 0.005116816 0.050306216
0.050285026 0.033713855 0.009319719 -0.007845057 -0.04196207 -0.03571063 0.0032709637 0.03242595
0.0055845617 0.052370485 -0.027907781 0.03848207 -0.03195919 -0.0042157816 0.028358998 -0.045673806
-0.052921783 0.04771908 0.0035320483 0.010989478 0.0121133765 0.033542443 0.0027395673 0.01500003
00000000: dbfa 203d 3c9d 2a3d fa11 3e3c 8bfd 01bd
00000010: 5f45 4fbd 6f47 0ebc ca85 653d 728f 24bd
00000020: c83a d33c 1223 37bc 8310 c13c cbcd 48bd
00000030: 6853 35bd 9f8e 09bd 219f 99bc 1a3b 293c
00000040: 8765 a9bb 1d0c 9d3c 6b0d 673c e995 363d
00000050: 7fbe c43c 5df4 313d 3b86 1f3d ae9c 543d
00000060: b320 b73c b8e5 9a3c a0d8 0dbd 74a0 43bd
00000070: 7dce bdbc 7cd6 d33b 9b88 20bd 1d75 0fbd
00000080: 6da4 23bd b9cc 123d 6a60 813b 768c 1dbd
00000090: e71d 13bd 17d2 263d 9535 8abc 3e40 e13c
000000a0: 234f 0cbd 64b1 2a3d fa30 143d 3cbe 3bbb
000000b0: 04ac e03c c432 463d 2609 82ba 62c6 233d
000000c0: fc7e d4bc ce29 15bd ffb5 593c dae8 06bc
000000d0: 8e88 e33c c1c1 563d 8845 c4bc ac2c 09bd
000000e0: ed3c 403d 5af0 49bd cd96 3e3d b221 c83c
000000f0: 0212 01bd b31b bb3c 33e9 333d f2b7 07bd
00000100: bbc1 93bc 1523 aa3a 2a95 f4bc bd84 d63c
00000110: 687b d5bc 7bfe bcbc 4ee1 dc3c caee 1d3c
00000120: 063b d2bc ff0c d4bc 2d21 843c 7f7d 74bc
00000130: 5311 09bd 450a d2bc 7f7c 62bd 542d 14bd
00000140: 8797 14bd d2f7 353c ba59 8c3b c0f2 5b3d
00000150: 6093 5abd ac66 03bd 79c4 22bd 15c7 33bd
00000160: a4bd 9c3c d211 3d3d b85f 47bd 9807 a2bb
00000170: 2b6a a2bc f744 413c 8856 343b 00e3 6b3a
00000180: 376d 383d 95ae 843c c8de 1bbd 3f82 33bd
00000190: fe07 a3bb 3b82 a13c f7aa a73b e40d 4e3d
000001a0: acf7 4d3d 8a17 0a3d bcb1 183c 8e88 00bc
000001b0: 6be0 2bbd 4f45 12bd aa5d 563b 13d1 043d
000001c0: b3fe b63b 6f82 563d dc9e e4bc 609f 1d3d
000001d0: a4e7 02bd 8a24 8abb 2151 e83c 7514 3bbd
000001e0: 83c4 58bd 1575 433d f079 673b 360d 343c
000001f0: 2f77 463c cd63 093d 508a 333b b0c2 753c

fc.weight f4 [2, 1280]
-0.0252844 -0.022452539 0.008541914 0.0060279868 0.014191379 0.0015406392 0.004138986 0.019681249
0.02428556 -0.027966434 0.007897238 0.0053657084 0.01738252 0.011533379 -0.01803822 0.008717573
-0.0030233548 -0.013229036 0.019956356 0.0126763135 -0.020367114 -0.006593991 -0.013590923 -0.018594908
-0.025260072 0.009923081 0.017500237 0.018881546 0.01277865 -0.015115439 -0.009271447 0.022330515
0.004745947 0.025295036 0.003906995 -0.02577562 0.012657663 -0.0045623044 -0.011267576 -0.026860239
-0.029436577 -0.01225843 0.0014043942 0.020404428 -0.027903313 -0.011872797 -0.008401226 0.02215422
0.027337782 -0.0054305214 0.008585593 0.008843578 -0.016866868 0.00089884683 0.01889948 0.012248902
-0.020560596 -0.00017450974 -0.009218651 0.010937732 -0.014950976 0.012858486 0.004315405 -0.0021611787
0.028004125 0.0109706 -0.029034747 -0.016928814 -0.00022912683 0.02957797 0.011211347 -0.010366827
-0.012911143 -0.026658919 -0.0030792658 -0.010918805 -0.00954657 0.026585635 0.027362304 -0.002456581
-0.02515196 0.02689841 -0.016860882 -0.028550465 -0.00593092 0.013144954 -0.013148936 -0.02583365
0.02464556 0.024741339 0.015096911 -0.008428527 0.005422535 -0.0023316033 -0.0031810594 -0.022066155
0.0017951246 0.015105927 -0.013695813 -0.025845766 -0.008201669 -0.0277554 -0.02111752 0.0067892508
-0.027702503 -0.0056928946 -0.011632933 0.0074126185 -0.012784696 0.0068223733 0.008857258 -0.01669292
-0.020856906 0.02298152 0.004635578 0.020938562 -0.0195307 -0.017444715 -0.007904071 -0.0002750134
0.018127443 -0.021732643 -0.027754208 -0.014785389 0.0070448765 -0.02793727 0.019802896 -0.00039222432
0.010556427 -0.0008814974 -0.014076517 0.01565081 0.0019710085 0.026882939 0.013816007 -0.0048326515
0.0077019185 -0.013766704 0.029883003 -0.0072879703 -0.0060553527 0.004272835 -0.01897154 -0.011362182
-0.02221053 0.0191301 0.028310552 -0.012548241 -0.026678806 0.0061110775 0.015907224 -0.021178467
0.0052964073 -0.031700514 0.0010950952 -0.009275963 -0.022404168 -0.005310947 -0.005592095 0.023920855
-0.00021433242 -0.026346538 -0.024650246 0.021745954 0.009874796 -0.008920904 0.016765555 -0.024902962
-0.029379906 0.008869209 0.005066295 0.003380878 0.017209953 0.035828512 -0.0024340018 0.0113415625
0.0070444806 -0.020040175 0.012737565 -0.025571978 -0.023390422 -0.020232026 0.018414093 0.018762823
0.018881565 0.018905265 -0.009979657 -0.0039068265 0.0009213338 -0.0057564266 -0.005564628 0.018285701
0.009906284 -0.0041037155 -0.01936072 -0.0029564444 -0.013187178 0.021755664 -0.015866397 0.027271608
0.016275747 0.017873712 -0.021630362 0.004248861 0.0053067156 0.007242658 0.016034724 0.021054601
-0.019541238 0.017053138 0.0006040819 0.01266178 -0.010376089 -0.022134876 -0.009286829 0.020153135
0.013716181 -0.02840908 0.021928884 -0.012584779 -0.0069352477 -0.023820963 0.020053547 -0.00020875418
-0.021816766 0.00020893416 -0.02053648 -0.0010166534 -0.007593907 0.021027707 0.013324305 0.020186994
0.0017316483 0.0062878556 0.01912057 -0.020808605 -0.023211876 -0.017359138 -0.0012009928 0.001665311
0.020026509 -0.003664894 -0.023082117 0.005699109 -0.014379449 -0.013358179 -0.006370948 0.029205302
-0.024311004 0.009960366 0.022898188 -0.016542558 0.0077898824 0.007823892 0.0017261276 0.025500355
00000000: 3b21 cfbc 63ee b7bc 62f3 0b3c 6b86 c53b
00000010: f582 683c 46ef c93a 55a0 873b 923a a13c
00000020: 83f2 c63c dd19 e5bc 6b63 013c d3d2 af3b
00000030: c965 8e3c 7ff6 3c3c e4c4 93bc 27d4 0e3c
00000040: 7a23 46bb 99be 58bc 837b a33c 50b0 4f3c
00000050: efd8 a6bc 6812 d8bb 76ac 5ebc 5954 98bc
00000060: 36ee cebc 6b94 223c a85c 8f3c 79ad 9a3c
00000070: 8b5d 513c bfa6 77bc 44e7 17bc 7cee b63c
00000080: e483 9b3b 8937 cf3c 4006 803b 6527 d3bc
00000090: 1662 4f3c 627f 95bb a49b 38bc 010a dcbc
000000a0: fa24 f1bc 95d7 48bc a613 b83a 3027 a73c
000000b0: 7d95 e4bc 1f86 42bc 4ca5 09bc c47c b53c
000000c0: 7cf3 df3c 84f2 b1bb 96aa 0c3c a8e4 103c
000000d0: 632c 8abc 97a0 6b3a 15d3 9a3c 9eaf 483c
000000e0: b26e a8bc 9afc 36b9 d309 17bc 2c34 333c
000000f0: f0f4 74bc 66ac 523c 3e68 8d3b 90a2 0dbb
00000100: e868 e53c 08be 333c 47da edbc 4cae 8abc
00000110: c441 70b9 804d f23c ccaf 373c a0d9 29bc
00000120: 4289 53bc ce63 dabc 82cd 49bb cae4 32bc
00000130: 3769 1cbc 1eca d93c e926 e03c 97fe 20bb
00000140: 7c0b cebc 0e5a dc3c d51f 8abc aae2 e9bc
00000150: 2a58 c2bb ef5d 573c a36e 57bc 17a1 d3bc
00000160: 7ce5 c93c 59ae ca3c 0959 773c ce17 0abc
00000170: 85af b13b d0cd 18bb 5279 50bb 15c4 b4bc
00000180: 634a eb3a da7e 773c 6764 60bc 80ba d3bc
00000190: 4b60 06bc 4b5f e3bc a6fe acbc 5d78 de3b
000001a0: 5cf0 e2bc 768b babb 0f98 3ebc 8de5 f23b
000001b0: e776 51bc 378e df3b 081e 113c 97bf 88bc
000001c0: 1adc aabc be43 bc3c 0ce6 973b 5987 ab3c
000001d0: d9fe 9fbc 38e8 8ebc 1480 01bc ac2f 90b9
000001e0: 0180 943c a808 b2bc cb5c e3bc 6b3e 72bc
000001f0: b5d8 e63b b4dc e4bc af39 a23c 75a3 cdb9
00000200: ddf4 2c3c 4a14 67ba 31a1 66bc 2136 803c
00000210: 092c 013b 9c39 dc3c 895c 623c 385b 9ebb
00000220: 6060 fc3b be8d 61bc 33cd f43c edcf eebb
00000230: fb6b c6bb 2303 8c3b 346a 9bbc 7228 3abc
00000240: dbf2 b5bc bab6 9c3c 88eb e73c 2397 4dbc
00000250: 838d dabc 6f3f c83b de4f 823c 777e adbc
00000260: 7c8d ad3b 66d8 01bd 4c89 8f3a 35fa 17bc
00000270: f288 b7bc 7407 aebb e53d b7bb abf5 c33c
00000280: 6cbe 60b9 b2d4 d7bc 50ef c9bc 9224 b23c
00000290: e5c9 213c fc28 12bc eb57 893c 4c01 ccbc
000002a0: 21ae f0bc 2950 113c 2a03 a63b b891 5d3b
000002b0: e3fb 8c3c ebc0 123d c683 1fbb f6d1 393c
000002c0: 63d5 e63b 4b2b a4bc 38b1 503c 537c d1bc
000002d0: 459d bfbc a2bd a5bc 27d9 963c 7eb4 993c
000002e0: 83ad 9a3c 37df 9a3c b781 23bc d604 80bb
000002f0: aa85 713a 68a0 bcbb 7c57 b6bb e5cb 953c
00000300: f74d 223c 7678 86bb 5f9a 9ebc e8c0 41bb
00000310: 090f 58bc ef38 b23c 3ffa 81bc b568 df3c
00000320: b754 853c e46b 923c 2832 b1bc 083a 8b3b
00000330: f5e3 ad3b d253 ed3b 415b 833c b37a ac3c
00000340: f214 a0bc 06b3 8b3c 405b 1e3a 5b73 4f3c
00000350: 7900 2abc 3354 b5bc c927 18bc 3018 a53c
00000360: d5b9 603c 29ba e8bc 34a4 b33c 6430 4ebc
00000370: 1341 e3bb 2e24 c3bc 5647 a43c 06e5 5ab9
00000380: 13b9 b2bc 5615 5b39 1f3c a8bc 3a41 85ba
00000390: 4fd6 f8bb 4c42 ac3c 304e 5a3c 325f a53c
000003a0: 7af8 e23a 5b0a ce3b bea2 9c3c cf76 aabc
000003b0: d526 bebc c034 8ebc a26a 9dba 9146 da3a
000003c0: a20e a43c b82e 70bb b516 bdbc 97bf ba3b
000003d0: c897 6bbc 43dc 5abc 63c3 d0bb f53f ef3c
000003e0: df27 c7bc ce30 233c fb94 bb3c 4284 87bc
000003f0: 4542 ff3b c82f 003c 3b3f e23a 1fe6 d03c

fc.bias f4 [2]
-0.012161818 0.0141002005
00000000: 5d42 47bc 8704 673c
