audio_classifier.pth (torch, 124140 bytes, 8 tensors)

layer1.weight f4 [128, 40]
1.04380735e-08 2.9424396e-10 -3.2712433e-09 -7.94197e-10 3.8452725e-09 -4.8826876e-09 -3.5589214e-09 -1.2430266e-09
-1.1945323e-09 -1.1094272e-09 -2.2828046e-09 -5.081653e-10 -1.2154214e-09 4.871009e-10 2.9471559e-10 -5.78166e-10
-4.403175e-09 -6.661449e-10 1.6064013e-09 6.114354e-10 4.462988e-09 7.4949175e-10 4.3168233e-10 3.3963943e-11
2.422923e-11 6.5814265e-10 6.4810934e-10 1.2723697e-10 1.304964e-09 1.2373542e-09 -2.7815372e-10 2.1738578e-10
-1.556539e-09 -3.7540238e-10 1.1705431e-09 2.412935e-09 1.148122e-09 5.2572535e-10 8.6696356e-10 6.2195604e-10
2.6060477e-06 -3.4676832e-06 -1.8150854e-07 -2.0249786e-06 8.867036e-07 -1.0487416e-06 2.2890422e-06 1.8439032e-06
8.4262246e-07 1.3279989e-06 -1.605656e-09 1.5306225e-06 -7.841521e-07 1.6251884e-06 -3.6123433e-07 3.8444864e-07
9.965686e-07 -6.388919e-08 1.3781884e-06 -6.840553e-07 2.883201e-07 -1.4073203e-07 2.6688195e-07 -2.5371332e-07
7.304857e-08 6.26988e-08 -1.6664697e-07 9.027974e-08 -2.0544361e-07 -7.950196e-08 9.943878e-08 3.327597e-07
1.9610744e-07 -3.799372e-07 -6.1692504e-07 -3.24849e-07 -4.792797e-08 -4.516487e-07 -3.7729453e-07 -4.0266607e-07
0.00017405246 1.2853516e-05 -8.340321e-06 2.8290378e-05 -3.7876343e-06 0.00010195427 -2.2692904e-05 -8.841483e-05
6.488888e-05 -5.8090027e-05 -3.3664506e-05 6.922924e-05 -5.9291684e-05 3.296364e-05 -1.49993775e-05 6.364127e-05
5.154254e-05 -2.6073034e-05 2.2747718e-06 -1.7344832e-05 -1.5515307e-05 4.0279167e-05 -2.6603771e-05 1.5425616e-05
9.130408e-06 -1.567903e-05 2.5735158e-05 -2.3582274e-05 1.3721835e-05 -1.064107e-05 -2.5176756e-05 1.9818694e-05
-1.7379436e-05 3.30966e-05 3.160114e-06 1.8958519e-05 -2.8544724e-05 -1.9383933e-05 -1.742169e-05 -9.381483e-06
-0.022869252 0.010838967 -0.0024771204 0.0038291833 -0.0023140828 0.002095074 -0.001300442 -1.6326818e-05
-0.0026811722 -0.002165513 -0.0011906497 -0.0042489804 0.00090244797 -0.0032191002 -0.0006546706 -0.00022297181
-6.3316256e-05 0.00033274875 -0.00016469078 0.00035163894 -0.0010168237 0.0010764669 0.00037368093 -0.00019659536
-0.00015636862 0.00025103224 0.0010293981 0.0012174426 0.0011455056 0.0015226274 0.0012952035 0.00038838832
0.0006299995 -0.00018357416 -0.00048592946 -0.0014011565 -0.0024953703 -0.0026869718 -0.0028377783 -0.0009981814
0.002746926 -4.7360783e-05 1.9266313e-09 -1.1978081e-08 3.8307302e-08 -8.009582e-09 -6.6991625e-08 2.67171e-08
-2.1015648e-08 -2.498036e-08 1.1878803e-09 2.0461043e-08 -8.387123e-09 2.0559511e-08 1.0187773e-08 -3.2717113e-09
-3.5011811e-09 9.1538475e-09 -2.1150758e-08 1.5546098e-09 7.095929e-09 4.779971e-09 -2.1354328e-08 9.0360786e-09
2.8811318e-09 3.1740406e-08 1.035192e-08 -1.577316e-08 -9.319352e-10 7.3878215e-09 -7.4225595e-09 6.08615e-09
1.4274017e-08 7.638855e-09 -8.3681595e-10 1.6586992e-09 1.529445e-08 -3.50853e-09 1.5485774e-08 -3.5934515e-09
-0.0028998079 -0.003580524 -0.03911342 0.0006537453 -0.043823447 -0.0040722773 -0.04347914 -0.0064422367
-0.02616705 -0.030974546 -0.009199008 -0.04096555 0.0035607528 -0.03356723 0.0045373887 -0.017212082
0.0011914924 -0.0037639507 -0.010981402 0.0019277147 -0.0022408192 0.0072282525 -0.000960235 -0.0019653498
-0.0046713618 -0.00086609327 0.00788746 0.004253324 0.014630916 0.005716892 0.002698412 -0.0065783276
-0.010885784 -0.010974229 -0.006253397 -0.009816233 -0.011013209 -0.005060347 -0.009076697 0.002809686
7.376803e-11 -5.5473225e-38 4.469e-42 4.064e-42 -9.42e-43 -2.071e-42 4.623e-42 -6.39e-43
3.971e-42 -3.296e-42 -1.607e-42 4.341e-42 -6.43e-42 6.282e-42 -5.855e-42 -2.155e-42
00000000: 2253 3332 28c3 a12f 52cc 60b1 a54e 5ab0
00000010: 601f 8431 93c4 a7b1 3591 74b1 1cd7 aab0
00000020: de2c a4b0 807a 98b0 86df 1cb1 f4ae 0bb0
00000030: d70b a7b0 aee4 0530 8805 a22f d1ec 1eb0
00000040: bd4a 97b1 c81b 37b0 39c8 dc30 f111 2830
00000050: dc58 9931 cb04 4e30 e351 ed2f 0060 152e
00000060: 601f d52d ace8 3430 a426 3230 06e6 0b2f
00000070: 575a b330 880f aa30 a8ea 98af a804 6f2f
00000080: d9ed d5b0 3061 ceaf d3e0 a030 cdd0 2531
00000090: f4cb 9d30 a282 1030 234f 6e30 44f6 2a30
000000a0: 8fe3 2e36 58b6 68b6 b0e4 42b4 dee4 07b6
000000b0: cf05 6e35 7dc2 8cb5 729d 1936 087c f735
000000c0: 9330 6235 b23d b235 00ae dcb0 ca6f cd35
000000d0: 867e 52b5 0c21 da35 abef c1b4 3866 ce34
000000e0: d6c1 8535 7433 89b3 31fa b835 ec9f 37b5
000000f0: 6aca 9a34 201c 17b4 fa47 8f34 1836 88b4
00000100: e0de 9c33 08a5 8633 92ef 32b4 d0df c133
00000110: e997 5cb4 aaba aab3 0c8b d533 25a6 b234
00000120: 9a91 5234 2cfa cbb4 c49a 25b5 e866 aeb4
00000130: 5cd9 4db3 207a f2b4 f78e cab4 012e d8b4
00000140: da81 3639 6ea5 5737 68ed 0bb7 2051 ed37
00000150: 102f 7eb6 48d0 d538 a45c beb7 5a6b b9b8
00000160: f414 8838 b1a5 73b8 fd32 0db8 2a2f 9138
00000170: f6af 78b8 7042 0a38 d6a5 7bb7 2677 8538
00000180: 622f 5838 6ab7 dab7 48a8 1836 be7f 91b7
00000190: de26 82b7 6df1 2838 2a2b dfb7 4266 8137
000001a0: ce2e 1937 7686 83b7 d5e1 d737 8cd2 c5b7
000001b0: d536 6637 0c87 32b7 ac32 d3b7 5240 a637
000001c0: 0eca 91b7 34d1 0a38 5812 5436 1c09 9f37
000001d0: 5473 efb7 ae9a a2b7 cb24 92b7 2a65 1db7
000001e0: 4c58 bbbc ec95 313c 2f57 22bb 09f3 7a3b
000001f0: dea7 17bb 824d 093b 9873 aaba 93f5 88b7
00000200: 9bb6 2fbb 48eb 0dbb 930f 9cba 083b 8bbb
00000210: 4292 6c3a 8af7 52bb 339e 2bba 8acd 69b9
00000220: a8c8 84b8 c874 ae39 d8b0 2cb9 2e5c b839
00000230: f146 85ba 3c18 8d3a 9bea c339 2a25 4eb9
00000240: e2f6 23b9 fa9c 8339 deec 863a 9892 9f3a
00000250: ca24 963a e692 c73a d1c3 a93a 99a0 cb39
00000260: 8d26 253a d07d 40b9 59c4 feb9 03a7 b7ba
00000270: 5e89 23bb e817 30bb 05fa 39bb 69d5 82ba
00000280: c505 343b 41a5 46b8 a865 0431 28c8 4db2
00000290: 5387 2433 849a 09b2 09dd 8fb3 867f e532
000002a0: e685 b4b2 6494 d6b2 d342 a330 4fc2 af32
000002b0: f516 10b2 d89a b032 4d06 2f32 8ed4 60b1
000002c0: 6e99 70b1 0c43 1d32 02af b5b2 f8a9 d530
000002d0: 74d0 f331 123d a431 aa6e b7b2 183d 1b32
000002e0: 68fd 4531 f252 0833 3ad8 3132 8c7d 87b2
000002f0: 8e15 80b0 f7d7 fd31 8609 ffb1 571e d131
00000300: ca39 7532 0a3c 0332 b005 66b0 4af8 e330
00000310: da60 8332 b61a 71b1 9405 8532 abf0 76b1
00000320: b40a 3ebb 39a7 6abb 6535 20bd 1b60 2b3a
00000330: 3780 33bd bd70 85bb 2f17 32bd 6619 d3bb
00000340: 485c d6bc 55be fdbc 70b7 16bc 7ecb 27bd
00000350: 855b 693b cb7d 09bd 60ae 943b 5a00 8dbc
00000360: da2b 9c3a 9dac 76bb 57eb 33bc 5fab fc3a
00000370: b5da 12bb fada ec3b 48b8 7bba 19cd 00bb
00000380: 3912 99bb 890a 63ba 683a 013c 785f 8b3b
00000390: 82b6 6f3c c454 bb3b d7d7 303b 038f d7bb
000003a0: 4a5a 32bc 41cd 33bc 4ce9 ccbb 44d4 20bc
000003b0: bf70 34bc 44d1 a5bb 6db6 14bc b522 383b
000003c0: b637 a22e 3203 9781 750c 0000 540b 0000
000003d0: a002 0080 c605 0080 e30c 0000 c801 0080
000003e0: 120b 0000 3009 0080 7b04 0080 1a0c 0000
000003f0: ed11 0080 8311 0000 5210 0080 0206 0080

layer1.bias f4 [128]
-3.5039385e-10 2.4839804e-07 5.5048695e-06 0.0002246279 1.2786179e-08 0.0010040647 -6.834e-42 -8.69808e-08
7.931909e-09 0.0012522117 7.864747e-11 0.00026717858 0.0002999423 -2.1778e-41 7.1499264e-05 0.0009886855
8.331177e-31 1.7052e-41 0.0013060919 1.3570247e-12 7.658082e-07 0.0011357719 8.355692e-08 0.00071251474
0.00010819317 -4.274849e-06 0.000562206 0.0004830694 0.0012751565 0.00021155224 6.204e-42 2.9945554e-08
-4.9154236e-11 -0.00027472083 -2.3006884e-15 0.00019488209 0.00026753347 -0.0005546344 0.000103353006 0.000464977
0.0007016004 0.00040872052 6.641509e-05 0.00031927344 1.7932e-41 0.00033892633 0.0007508291 0.00093618955
-1.3684483e-10 0.0006862243 0.0005573716 6.4896994e-05 0.00033408188 -1.7588e-41 0.0003644717 5.846e-42
-5.6463e-41 0.00023936058 0.00012277806 -1.6563e-41 1.5781202e-07 1.6107e-41 -3.6837e-41 -7.98165e-11
0.0009854664 0.00080995227 8.88e-43 0.00054904225 9.1422204e-05 -9.02733e-15 -0.0012057507 0.0006661525
-3.0775084e-08 -2.5217886e-15 -1.7459369e-08 -2.3518242e-08 -9.441851e-10 -0.00038032906 0.000570523 5.112199e-05
5.012679e-06 -2.0780311e-11 -1.7822e-41 -0.0020728237 -0.00017542043 -7.402635e-05 0.0006091803 2.7064038e-07
-0.0010173261 -0.0012074219 0.0002708229 0.00020451925 -0.00070652395 -4.766759e-05 -1.2277425e-07 5.2872443e-23
-6.5047044e-29 1.9664877e-13 -5.5031656e-12 0.00031204376 -0.00039963558 0.0011237265 1.258e-41 -0.00013628344
6.6689e-41 0.00012854865 -0.00021083126 0.0012079622 -1.2509234e-10 5.1780606e-17 -0.0016362239 -0.00014844985
1.5547741e-09 -1.0537242e-11 0.0001585265 -0.0006349848 2.6173526e-05 0.0004318322 -6.4039013e-12 3.373e-42
0.00018920645 8.792478e-09 -0.00023894182 0.00031660844 7.783307e-05 0.00029728314 8.675e-42 1.106177e-15
00000000: 8da1 c0af 915b 8534 78b6 b836 188a 6b39
00000010: 36aa 5b32 d29a 833a 0d13 0080 33ca bab3
00000020: e844 0832 4121 a43a 97f2 ac2e 1a14 8c39
00000030: 9341 9d39 b53c 0080 e0f1 9538 c896 813a
00000040: 5b2e 870d 892f 0000 2c31 ab3a f8fb be2b
00000050: f091 4d35 2ede 943a e76f b333 0ec8 3a3a
00000060: c4e5 e238 ac70 8fb6 0261 133a 7a44 fd39
00000070: 2723 a73a 1fd4 5d39 4b11 0000 7c9d 0033
00000080: c02e 58ae 6808 90b9 36c8 25a7 4359 4c39
00000090: bc43 8c39 e264 11ba 39bf d838 28c8 f339
000000a0: 9beb 373a 8a49 d639 5448 8b38 2864 a739
000000b0: fd31 0000 ecb1 b139 4ad3 443a 9e6a 753a
000000c0: 6576 16af bce3 333a 931c 123a 4f19 8838
000000d0: b627 af39 0731 0080 9016 bf39 4c10 0000
000000e0: 659d 0080 defc 7a39 fcbd 0039 2c2e 0080
000000f0: 0a73 2934 e62c 0000 b066 0080 b284 afae
00000100: c42a 813a fa52 543a 7a02 0000 9aed 0f3a
00000110: ecb9 bf38 369f 22a8 480a 9eba bda0 2e3a
00000120: 902d 04b3 cab6 35a7 8ff9 95b2 2905 cab2
00000130: 8fc4 81b0 e766 c7b9 278f 153a d26b 5638
00000140: 9632 a836 1ac9 b6ad ae31 0080 36d8 07bb
00000150: 10f1 37b9 983e 9bb8 66b1 1f3a 884c 9134
00000160: cd57 85ba 5b42 9eba 3cfd 8d39 3874 5639
00000170: 0536 39ba afee 47b8 eed3 03b4 eaac 7f1a
00000180: f2e9 a490 2668 5d2a 1ca0 c1ac ce99 a339
00000190: 2e86 d1b9 014a 933a 1123 0000 4fe7 0eb9
000001a0: e7b9 0000 04cb 0639 9612 5db9 7c54 9e3a
000001b0: 5d8a 09af c0cb 6e24 9076 d6ba 34a9 1bb9
000001c0: c0af d530 855f 39ad 223a 2639 1c75 26ba
000001d0: 388f db37 8967 e239 3751 e1ac 6709 0000
000001e0: b865 4639 ba0d 1732 758c 7ab9 77fe a539
000001f0: 503a a338 abdc 9b39 2f18 0000 ba6a 9f26

layer2.weight f4 [128, 128]
-1.6743825e-09 -4.3196252e-08 -6.2657746e-05 0.0032229666 5.7901584e-08 0.01115586 6.128e-42 -2.5347623e-07
4.8047883e-07 0.011171609 -3.1884356e-10 0.01105296 0.0028725744 1.47e-43 -0.0002769191 0.0035194918
-1.0735103e-29 -6.33e-43 0.01023723 -1.7282347e-11 -3.0771614e-06 -0.008555806 -3.8860077e-07 0.009107005
0.008648382 -6.8022846e-06 0.003218818 -0.007756119 -0.007755206 0.0018125566 -4.25e-43 7.9648906e-08
-1.9246421e-08 0.008917264 -1.2357843e-14 0.0024457844 -0.00591 0.009978626 0.008853559 0.010115121
-0.0059481305 0.008657885 0.0011482605 0.0018327622 -3.653e-42 -0.0080722375 -0.0061612464 -0.0046121944
-1.4591672e-10 -0.008131451 0.0063897762 -0.007689774 0.010877086 2.211e-42 -0.0015893815 -5.248e-42
-5.895e-42 -0.0016247093 0.0063648964 3.55e-43 -3.7007414e-08 9.32e-43 -1.342e-42 -9.664355e-12
-0.005797095 -0.0040169028 3.918e-42 -0.0086350255 0.0030139927 1.2789674e-14 0.010918306 -0.0076377676
-3.6350312e-07 8.696404e-14 -7.57084e-09 -4.623004e-08 1.657805e-10 0.01173446 0.011566636 0.008114475
-3.4918296e-05 -6.8698315e-12 6.005e-42 0.008106549 0.0030575416 0.012874028 0.00072799623 -5.444166e-07
0.0089836335 -0.0038396448 -0.0070804586 0.012924238 0.0085502975 -0.007926263 3.4092244e-07 9.1512314e-24
-4.657519e-28 1.0104005e-14 -2.7437963e-11 0.0067547387 -0.00817507 -0.0046126484 9.4e-44 0.0025764012
5.797e-42 0.0014287804 0.012694341 -0.006395213 -3.574407e-10 -7.4336425e-17 0.008337582 -0.004572739
-2.7034623e-09 -4.756877e-11 -0.005243904 0.008920808 0.010965581 -2.8406284e-05 -2.7267203e-12 -9.61e-43
-0.009902274 3.0735692e-10 0.0011813126 -0.006768475 -0.0029583876 -0.0070539583 5.497e-42 -1.8654908e-18
3.963765e-10 2.1231651e-06 1.3953413e-05 0.004071324 -7.7198e-09 0.013181847 -5.134e-42 -1.2431146e-07
-2.610736e-07 0.0144916475 -4.592822e-11 0.011958176 0.0030956424 -3.63e-43 0.00010653632 0.0033084876
2.9043144e-30 -1.324e-42 0.012131013 4.9475805e-12 -8.924606e-06 -0.00897593 1.4459357e-07 0.012258156
0.0123064555 9.417365e-06 0.0033748748 -0.009132807 -0.012786199 -0.00043269672 -3.99e-42 -6.9269866e-08
-1.0922223e-08 0.016682755 1.3456198e-15 0.0030510034 -0.0069677723 0.01269429 0.009944693 0.012046229
-0.0100187445 0.004193985 0.004206844 0.004218678 3.156e-42 -0.009800709 -0.0068768347 -0.0050638583
2.6927537e-11 -0.007650623 0.0045907544 -0.009641442 0.017118031 -3.367e-42 0.0015133023 -4.26e-43
5.353e-42 0.0040366943 0.0023024988 5.063e-42 8.313954e-07 -4.7e-43 -2.264e-42 -1.3030557e-10
-0.009882866 -0.0057655186 -2.675e-42 -0.00883993 -0.0012620585 9.30356e-15 0.013695565 -0.009695625
-4.963643e-07 -2.6039414e-13 -1.0589578e-07 3.050783e-08 7.8551216e-10 0.0148906885 0.01658329 0.004944671
4.1024654e-05 -6.426209e-12 2.536e-42 0.010449859 0.0013539273 0.01900816 0.0011728641 5.7122e-07
0.014639656 -0.007977116 -0.00766541 0.017061023 0.013094012 -0.0067069973 4.835065e-08 2.3605944e-22
-3.4397258e-28 -1.3505442e-13 -1.690298e-11 0.0042991075 -0.00844639 -0.007972321 -5.939e-42 0.0058841733
-4.131e-42 -0.00036827123 0.016131844 -0.007461869 1.5456503e-10 5.0186712e-17 0.008343128 -0.008087039
5.938561e-09 8.798224e-12 -0.0028788925 0.012122638 0.014370605 0.00038473864 -9.507214e-12 1.536e-42
-0.008584282 7.1926185e-09 0.00097197626 -0.007250413 0.000638566 -0.0068045068 3.673e-42 -2.1623765e-17
00000000: 1920 e6b0 c886 39b3 1f67 83b8 6838 533b
00000010: 77af 7833 11c7 363c 1511 0000 8215 88b4
00000020: 41fa 0035 2009 373c 3e49 afaf 7917 353c
00000030: cd41 3c3b 6900 0000 742f 91b9 46a7 663b
00000040: d7bb 598f c401 0080 0eba 273c 6304 98ad
00000050: 3b81 4eb6 a72d 0cbc e2a0 d0b4 8c35 153c
00000060: f1b1 0d3c 2e3f e4b6 cef2 523b 0b27 febb
00000070: 621f febb 4f93 ed3a 2f01 0080 730b ab33
00000080: 5453 a5b2 b719 123c 7e9e 5ea8 7449 203b
00000090: aca8 c1bb 647d 233c 850e 113c e4b9 253c
000000a0: 89e8 c2bb cdd9 0d3c 3b81 963a 4b39 f03a
000000b0: 2f0a 0080 6b41 04bc 48e4 c9bb e421 97bb
000000c0: e86f 20af c739 05bc 5461 d13b 80fa fbbb
000000d0: ce35 323c 2a06 0000 cb52 d0ba a10e 0080
000000e0: 6f10 0080 33f4 d4ba 9f90 d03b fd00 0000
000000f0: 15f2 1eb3 9902 0000 be03 0080 6304 2aad
00000100: 8ff5 bdbb 39a0 83bb ec0a 0000 ec79 0dbc
00000110: 6886 453b f665 6628 b2e2 323c 3d46 fabb
00000120: 7d27 c3b4 5bd3 c329 e810 02b2 778e 46b3
00000130: 1047 362f e441 403c fd81 3d3c 93f2 043c
00000140: 3c75 12b8 f1b5 f1ac bd10 0000 55d1 043c
00000150: 0961 483b 96ed 523c 00d7 3e3a 0624 12b5
00000160: 1730 133c 8da2 7bbb 3103 e8bb 2fc0 533c
00000170: 8c16 0c3c 28dd 01bc 0608 b734 b402 3119
00000180: 499a 1392 8004 3628 cd58 f1ad db56 dd3b
00000190: bbf0 05bc b325 97bb 4300 0000 d7d8 283b
000001a0: 2910 0000 ea45 bb3a edfb 4f3c ef8e d1bb
000001b0: 4e81 c4af 7b68 aba4 5b9a 083c ead6 95bb
000001c0: d0c7 39b1 ac35 51ae 0ed5 abbb 9528 123c
000001d0: fba8 333c 084a eeb7 3ae0 3fac ae02 0080
000001e0: 263d 22bc a4f8 a82f 46d6 9a3a 15ca ddbb
000001f0: 82e1 41bb e424 e7bb 530f 0000 20a6 09a2
00000200: 08e9 d92f b37b 0e36 7419 6a37 be68 853b
00000210: 0aa0 04b2 acf8 573c 500e 0080 797a 05b4
00000220: af29 8cb4 606e 6d3c 94fe 49ae 3aec 433c
00000230: 43e0 4a3b 0301 0080 406c df38 36d3 583b
00000240: 40a0 6b0e b103 0080 28c1 463c d813 ae2c
00000250: e4ba 15b7 c70f 13bc 9441 1b34 6fd6 483c
00000260: 04a1 493c 46ff 1d37 012d 5d3b c5a1 15bc
00000270: 357d 51bc 92db e2b9 1f0b 0080 83c1 94b3
00000280: 72a4 3bb2 46aa 883c 9cec c126 58f3 473b
00000290: e951 e4bb b6fb 4f3c 11ef 223c 8c5d 453c
000002a0: a925 24bc b26d 893b 91d9 893b d63c 8a3b
000002b0: cc08 0000 2793 20bc 1257 e1bb b9ee a5bb
000002c0: 6cdb ec2d 14b2 fabb 0a6e 963b 24f7 1dbc
000002d0: 1d3b 8c3c 6309 0080 005a c63a 3001 0080
000002e0: ec0e 0000 3f46 843b 85e5 163b 1d0e 0000
000002f0: 0f2d 5f35 4f01 0080 5006 0080 c245 0faf
00000300: bfeb 21bc adec bcbb 7507 0080 5bd5 10bc
00000310: a86b a5ba 1999 2728 5d63 603c 66da 1ebc
00000320: e53d 05b5 c096 92aa d268 e3b3 b707 0333
00000330: 81eb 5730 13f8 733c aed9 873c e806 a23b
00000340: e311 2c38 251a e2ac 1207 0000 e335 2b3c
00000350: 4376 b13a 00b7 9b3c caba 993a f155 1935
00000360: 2bdb 6f3c 73b2 02bc 1f2e fbbb 8fc3 8b3c
00000370: 4488 563c 5fc6 dbbb 1aaa 4f33 6eb0 8e1b
00000380: be04 da91 c90e 18aa 21ae 94ad 87df 8c3b
00000390: ba62 0abc 569e 02bc 8e10 0080 06d0 c03b
000003a0: 840b 0080 8714 c1b9 ee26 843c b282 f4bb
000003b0: 30f2 292f 0372 6724 9db1 083c 807f 04bc
000003c0: 230c cc31 aec7 1a2d cdab 3cbb 079e 463c
000003d0: b072 6b3c bfb6 c939 af40 27ad 4804 0000
000003e0: 17a5 0cbc f122 f731 39cc 7e3a df94 edbb
000003f0: 7065 273a 57f8 debb 3d0a 0000 ac71 c7a3

layer2.bias f4 [128]
0.000322485 0.0016633448 -1.1947215e-08 6.220921e-07 0.0009110462 0.0016081857 0.0007950914 -2.075084e-09
2.7792485e-06 2.2587611e-07 0.0007947812 0.0012670961 0.0010364536 6.833282e-05 -1.1862272e-11 0.00032637562
0.0011893532 0.002036275 0.0015875212 3.3702316e-05 -0.0019734271 0.00091548567 -1.554717e-06 6.9496537e-09
1.3473564e-08 4.591539e-05 3.2510302e-06 0.0013482793 0.0007573721 0.00050216034 0.0009663021 0.0008531457
0.0014069722 0.00068843283 -0.00019085532 6.84092e-08 0.0005133571 0.0018912178 -0.00032738055 0.0018280478
0.001013642 0.0024633436 -2.8247396e-05 0.00035590812 -0.0005494638 -0.00013913048 0.00090817816 0.00074593665
0.0006050487 0.0006162352 0.00094730797 9.602011e-07 0.0015678518 4.2632088e-08 0.00064835744 0.001742197
0.0013002891 0.00027292874 0.0007144423 7.825674e-05 1.5820792e-10 0.00064227456 0.0002487291 0.0007305201
-6.0730844e-07 0.0007700124 0.00023859604 0.0011489122 0.0018422836 1.2262501e-06 0.0021954556 8.338102e-07
1.4678004e-07 0.0009995488 4.643669e-05 6.105125e-05 -5.2173352e-11 -0.00014947818 -0.0003303023 0.00024445582
0.0010724438 -4.6598172e-05 -7.5539965e-09 0.0009759065 -2.3211447e-07 0.0009330676 8.087211e-07 0.0007771337
0.00090211123 2.9212015e-12 0.0010325473 -1.411823e-09 -0.00095240545 -0.00027927762 0.0014771918 0.00030627893
0.0007684938 -0.0005350833 0.0011297339 0.0013172114 0.0023882126 2.7108923e-05 0.0007667772 0.0008497293
-0.0008302118 0.0011057369 0.00044663573 -1.6326262e-06 0.0018062271 0.00024273996 -0.00061412825 0.001246634
-0.00074099476 -0.00030213958 3.055296e-05 0.00030245323 0.0011470737 -4.312089e-11 -0.0007163741 0.0018895634
6.438e-42 -0.00082452595 0.00027910643 0.00017822959 -2.8810591e-08 -6.7945582e-09 0.0014641234 0.0016302278
00000000: 3413 a939 9704 da3a 6840 4db2 d8fd 2635
00000010: 47d3 6e3a c2c9 d23a ae6d 503a 4499 0eb1
00000020: 2083 3a36 5a88 7234 dd58 503a b114 a63a
00000030: 9dd9 873a e74d 8f38 ecae 50ad 651d ab39
00000040: 12e4 9b3a 0773 053b 5f14 d03a 965b 0d38
00000050: 9d54 01bb 34fd 6f3a abab d0b5 cdc9 ee31
00000060: 5c79 6732 4695 4038 462c 5a36 bfb8 b03a
00000070: 628a 463a 69a3 033a 704f 7d3a a4a5 5f3a
00000080: 276a b83a f277 343a 5620 48b9 5be8 9233
00000090: d092 063a bde2 f73a 46a4 abb9 1b9b ef3a
000000a0: 2edc 843a 0c70 213b d2f4 ecb7 2e99 ba39
000000b0: e409 10ba 8ee3 11b9 ce12 6e3a f68a 433a
000000c0: 229c 1e3a d88a 213a c354 783a 42e0 8035
000000d0: 6080 cd3a 7a1a 3733 88f6 293a 6e5a e43a
000000e0: 766e aa3a e017 8f39 6949 3b3a c41d a438
000000f0: 92f3 2d2f 515e 283a db67 8239 6080 3f3a
00000100: eb05 23b5 a8da 493a a32f 7a39 1997 963a
00000110: c878 f13a a295 a435 a2e1 0f3b 00d3 5f35
00000120: 979a 1d34 4b03 833a 04c5 4238 a408 8038
00000130: f975 65ae 3ebd 1cb9 6d2c adb9 4e2a 8039
00000140: 3e91 8c3a 6872 43b8 d4c6 01b2 fad3 7f3a
00000150: 243b 79b4 1b99 743a e416 5935 8fb8 4b3a
00000160: a97b 6c3a b08f 4d2c 8a56 873a 1b0a c2b0
00000170: d9aa 79ba 026c 92b9 559e c13a 1094 a039
00000180: bf74 493a d544 0cba 9413 943a 48a6 ac3a
00000190: 8f83 1c3b f867 e337 8c01 493a 5ec0 5e3a
000001a0: 92a2 59ba 60ee 903a 6f2a ea39 9c20 dbb5
000001b0: edbe ec3a 0388 7e39 73fd 20ba 1966 a33a
000001c0: 513f 42ba 7d68 9eb9 fe25 0038 9692 9e39
000001d0: 6859 963a cea5 3dae 0dcb 3bba 3aab f73a
000001e0: f211 0000 0025 58ba 0855 9239 24e3 3a39
000001f0: 297b f7b2 9175 e9b1 d4e7 bf3a 5ead d53a

layer3.weight f4 [64, 128]
-0.0053985654 -0.005590774 1.35016345e-08 5.0967934e-08 0.01235781 -0.0026306787 -0.007078893 1.2009225e-09
-7.999896e-06 -2.975463e-07 0.0063484055 0.009635779 0.008378424 -0.0028135497 1.651567e-11 0.0068632592
0.011559352 -0.009024653 -0.0046793194 -0.0002460468 -0.008078418 -0.0061642784 6.330586e-06 1.983397e-07
-9.767882e-09 -0.006502734 2.2894892e-05 0.011668849 -0.004288508 -0.004030801 0.008150744 -0.0027027982
0.013971485 0.0067736357 -0.0077829743 6.43825e-08 0.012269579 0.008273591 0.00250763 0.008190063
0.0046546985 -0.011045566 -0.0058065257 0.011371133 -0.0045080977 0.0053363205 -0.0049347607 0.015780488
0.011685193 -0.005497955 0.010807002 -4.0176297e-07 0.014212712 -2.7746074e-08 0.009427154 0.014696393
0.011026075 -0.0076624844 -0.0070667295 -0.0068025687 7.2992407e-10 -0.0046123457 0.010028056 -0.00379464
1.5707325e-06 -0.006766086 -0.008125053 0.012176445 0.00846532 9.643438e-07 0.011080644 0.0097867865
-2.8226978e-07 0.015555188 0.010706728 -0.0038904008 1.4435467e-10 0.008111158 -0.0051357853 -0.006326736
0.010219231 0.011569537 -3.896045e-08 0.013863768 9.056348e-07 0.009936168 -1.7389459e-07 -0.00778951
0.0040995325 -7.280511e-12 0.0017419899 -5.516058e-09 -0.004518421 0.0032652775 -0.0040555196 -0.0063023088
0.007487347 -0.004964692 -0.001996815 0.008068785 -0.008302842 -0.006392312 -0.003128948 0.006418222
-0.004109249 0.0059646154 0.011930909 -7.9654797e-07 0.009748227 0.0075318227 0.008712709 0.0063952003
-0.0025394005 -0.0055259885 8.1151855e-05 0.007370267 0.012247743 4.078596e-10 -0.0049152276 -0.009029893
-3.77e-43 -0.005951612 0.012941835 0.009000171 -8.93549e-08 -1.0695721e-08 0.0028779518 -0.0063339532
0.009570156 0.012573404 5.8473035e-09 1.1029416e-06 -0.0027823406 0.01166179 0.012378951 -1.6697546e-09
3.6900353e-06 6.643636e-08 0.00021392957 -0.0043763793 -0.0027050343 0.008762405 -2.551566e-11 0.00926473
-0.0019814887 0.01468299 0.0131381955 0.00043074685 0.015824698 0.010925056 -1.2937753e-05 1.07172e-07
7.939894e-09 0.009869413 -1.2084192e-05 -0.0067682248 0.009309122 0.013420898 0.008546512 0.008757205
-0.004237721 -0.002226971 0.017235499 -1.9002799e-07 -0.0023477983 0.002957103 -0.00116523 -0.002538787
0.007748481 0.017884357 0.011291515 -0.0071345777 0.010585737 -0.001996452 0.0105695855 -0.008022411
-0.0055133584 0.008453296 -0.0072460347 1.3768952e-06 -0.00668575 2.473109e-07 -0.0014613795 -0.0050514233
0.0022592973 0.009587169 0.012192409 0.015128677 2.700708e-10 0.007436505 -0.004155804 0.0087509835
-3.6656372e-06 0.013504182 0.016634176 7.2707924e-05 -0.0051444345 1.9489067e-05 -0.005931218 -0.0028406617
2.8368473e-07 -0.006665405 -0.0006667402 0.017989434 6.466474e-11 -0.002510807 0.011779972 0.011030716
0.007293139 -0.004831079 3.369444e-08 -0.0033061544 1.9791405e-06 -0.0044252127 1.2099308e-06 0.017093567
0.008416579 -3.1674587e-13 0.0075172056 -1.1437373e-08 0.008423353 0.011275944 0.012044095 0.010689662
0.007137235 0.014265611 0.0018920964 -0.00280781 0.013016091 0.013797099 0.005674662 -0.0024417134
0.008199479 0.008052263 -0.0057641254 2.5409367e-06 -0.0041688676 -0.0029533692 -0.0017778454 0.006163124
0.008286621 0.016111013 -0.000144732 -0.0022447805 -0.005280204 -2.3653475e-11 0.013871837 0.012303668
-4.245e-42 0.014562778 -0.004138478 -0.0035956244 -4.4490555e-08 -6.809447e-10 0.005600453 0.014556625
00000000: 73e6 b0bb d032 b7bb d1f4 6732 d6e7 5a33
00000010: 6978 4a3c 7767 2cbb 0ff6 e7bb b40d a530
00000020: 4b37 06b7 74be 9fb4 4906 d03b 63df 1d3c
00000030: a845 093c 8863 38bb fc45 912d 31e5 e03b
00000040: 7063 3d3c 23dc 13bc fa54 99bb d8ff 80b9
00000050: 575b 04bc b7fd c9bb 526b d436 34f7 5434
00000060: 99cf 27b2 e314 d5bb 680e c037 b32e 3f3c
00000070: 9d86 8cbb cf14 84bb b38a 053c 6e21 31bb
00000080: a8e8 643c 60f5 dd3b 5208 ffbb a742 8a33
00000090: 5806 493c f58d 073c 0d57 243b 9d2f 063c
000000a0: 7186 983b 76f8 34bc ab44 bebb fd4d 3a3c
000000b0: aab8 93bb 4ddc ae3b c6b3 a1bb 1546 813c
000000c0: 4073 3f3c 3028 b4bb da0f 313c e2b1 d7b4
000000d0: 6fdc 683c 4356 eeb2 5a74 1a3c 24c9 703c
000000e0: b6a6 343c 9415 fbbb 0690 e7bb 15e8 debb
000000f0: d7a3 4830 2923 97bb b74c 243c 7faf 78bb
00000100: f5d1 d235 0bb6 ddbb f11e 05bc b67f 473c
00000110: 20b2 0a3c 9a6e 8135 978b 353c c258 203c
00000120: dd8a 97b4 30db 7e3c 466b 2f3c 18f6 7ebb
00000130: 3ab8 1e2f aae4 043c 174a a8bb 8250 cfbb
00000140: 906e 273c 288e 3d3c 7855 27b3 dc24 633c
00000150: c01a 7335 4fcb 223c c8b7 3ab4 253f ffbb
00000160: 5f55 863b 8214 00ad 7b53 e43a c287 bdb1
00000170: 430f 94bb 44fe 553b 2ae4 84bb 9983 cebb
00000180: 6b58 f53b dbae a2bb ffdc 02bb f032 043c
00000190: a508 08bc 9976 d1bb 090f 4dbb f34f d23b
000001a0: e1a6 86bb d272 c33b dc79 433c 5cd2 55b5
000001b0: 07b7 1f3c 82cd f63b c0bf 0e3c d48e d13b
000001c0: 126c 26bb 5a13 b5bb 1230 aa38 4882 f13b
000001d0: c2aa 483c 2339 e02f eb0f a1bb 1ef2 13bc
000001e0: 0d01 0080 bd05 c3bb fe09 543c 7475 133c
000001f0: 60e3 bfb3 47c0 37b2 059c 3c3b 0d8d cfbb
00000200: 25cc 1c3c ae00 4e3c 6de9 c831 c908 9435
00000210: ee57 36bb 1811 3f3c 15d1 4a3c 447d e5b0
00000220: 53a2 7736 c6ab 8e33 4852 6039 bb67 8fbb
00000230: f246 31bb 3190 0f3c 2970 e0ad 18cb 173c
00000240: dddb 01bb ec90 703c 9641 573c ddd5 e139
00000250: cca2 813c 02ff 323c 3a0f 59b7 6e26 e633
00000260: 0668 0832 52b3 213c 36bd 4ab7 fcc7 ddbb
00000270: 4a85 183c 53e3 5b3c ab06 0c3c 617a 0f3c
00000280: 95dc 8abb 60f2 11bb 7631 8d3c 7f0a 4cb4
00000290: 85dd 19bb f5cb 413b a1ba 98ba c761 26bb
000002a0: f8e6 fd3b 3782 923c 0c00 393c 2dc9 e9bb
000002b0: cd6f 2d3c e8d6 02bb 0e2c 2d3c 6e70 03bc
000002c0: 67a9 b4bb b17f 0a3c 2570 edbb c2cd b835
000002d0: 2314 dbbb 27c6 8434 c28b bfba 6986 a5bb
000002e0: b810 143b 8013 1d3c abc2 473c 45de 773c
000002f0: 1679 942f edad f33b 692d 88bb 4960 0f3c
00000300: 2bff 75b6 a540 5d3c 6544 883c c57a 9838
00000310: a592 a8bb 747c a337 aa5a c2bb 652a 3abb
00000320: 554d 9834 7869 dabb 2dc8 2eba 945e 933c
00000330: 0333 8e2e 5a8c 24bb c900 413c 2dba 343c
00000340: 49fb ee3b 074e 9ebb 6eb7 1033 11ac 58bb
00000350: 60d1 0436 6001 91bb e864 a235 cf07 8c3c
00000360: b1e5 093c e44f b2aa e452 f63b 197e 44b2
00000370: 1a02 0a3c bdbe 383c 9954 453c b123 2f3c
00000380: 77df e93b 4fba 693c 3800 f83a 3c03 38bb
00000390: 7141 553c 3a0d 623c 84f2 b93b 2705 20bb
000003a0: 1c57 063c a4ed 033c fde0 bcbb f684 2a36
000003b0: ff9a 88bb 508d 41bb 9806 e9ba 08f4 c93b
000003c0: 9cc4 073c 3efb 833c 33c3 17b9 2b1d 13bb
000003d0: 9005 adbb e40e d0ad b446 633c 5395 493c
000003e0: d50b 0080 b898 6e3c 129c 87bb 91a4 6bbb
000003f0: e215 3fb3 392d 3bb0 0184 b73b e97e 6e3c

layer3.bias f4 [64]
0.002567629 0.0044237184 0.0018189569 0.0050491644 0.0038368108 0.0010219747 0.0031622837 0.0005054304
0.0011644287 0.0035686784 0.003960808 0.0030380597 0.0045120763 0.0038633924 0.0028217307 0.0038132127
0.0047869757 0.0014889699 0.00383494 0.0054524895 0.0016489542 0.002421063 0.0045114458 0.0032695383
0.0028512042 0.0028593303 0.0010225332 0.0021158166 7.971696e-08 0.0030110916 0.0016611818 0.001985677
0.0037703754 1.578487e-06 0.002622947 0.0031023372 0.002680277 0.0050831717 0.0013491036 0.0040378664
0.0043125963 0.0026949102 0.0027061263 0.004922665 0.0035466948 0.0033310107 0.00537083 0.003363631
0.0030917635 0.0034551194 0.0024895312 0.0033138224 0.0030071884 0.0035473707 0.002088696 0.001798287
0.0036650118 0.0031292813 0.0027787986 0.0031989904 0.0037351884 0.002197245 0.0034962897 0.0018250175
00000000: ab45 283b d7f4 903b 116a ee3a 7673 a53b
00000010: 0173 7b3b c8f3 853a 513e 4f3b dc7e 043a
00000020: be9f 983a 7de0 693b aac9 813b 2f1a 473b
00000030: 0ada 933b f830 7d3b c9ec 383b 18e7 793b
00000040: 10dc 9c3b 8a29 c33a 9e53 7b3b ccaa b23b
00000050: b921 d83a b2aa 1e3b c0d4 933b c045 563b
00000060: 45db 3a3b 9a63 3b3b 8506 863a 83a9 0a3b
00000070: dd30 ab33 bc55 453b 03bc d93a 2222 023b
00000080: 6718 773b 66dc d335 c0e5 2b3b 9550 4b3b
00000090: 96a7 2f3b bc90 a63b 68d4 b03a 1450 843b
000000a0: ae50 8d3b 179d 303b 4459 313b 4f4e a13b
000000b0: aa6f 683b 164d 5a3b cafd af3b 5d70 5c3b
000000c0: 2f9f 4a3b 496f 623b 6727 233b b72c 593b
000000d0: 4014 453b 017b 683b 81e2 083b 80b4 eb3a
000000e0: b230 703b a114 4d3b 811c 363b 27a6 513b
000000f0: 10ca 743b a7ff 0f3b 0222 653b 6d35 ef3a

layer4.weight f4 [3, 64]
0.066129856 -0.034120534 -0.03254638 0.07135027 0.05428041 -0.034314252 -0.036182318 -0.03125898
-0.035532117 0.080137655 0.06328817 0.06337703 0.06690677 -0.029687675 0.07739994 0.07475068
0.08046774 -0.03411303 0.068325296 0.07329034 -0.025192402 -0.028762082 -0.035452582 0.069676116
-0.037046775 -0.028393673 -0.029341046 -0.03478741 -1.0230059e-07 -0.04048089 -0.024729937 -0.034255054
0.06784508 5.7795096e-06 0.04894494 -0.029694872 -0.02780427 0.06497342 -0.033441544 -0.03326461
-0.030239077 0.06360878 -0.03900259 0.07440175 0.06975458 -0.040139902 0.072713114 0.04251857
-0.028015437 0.07373799 0.07563517 0.07743792 -0.031754352 -0.035387155 0.06216464 -0.034019373
-0.03657988 0.051503025 -0.029953478 -0.03306891 0.0737133 0.056819573 0.07230628 -0.025337521
-0.03210744 0.067697585 0.06708175 -0.034609403 -0.026097115 0.06882742 0.0745418 0.0667504
0.072136424 -0.039000977 -0.029960765 -0.029607233 -0.032414485 0.062487997 -0.037874892 -0.034524128
-0.038673583 0.06922253 -0.031915255 -0.033890624 0.05328814 0.06082624 0.070928685 -0.03164082
0.075870015 0.058337882 0.061669603 0.06888074 6.7478044e-07 0.08160306 0.05563842 0.071001545
-0.031024858 6.90825e-06 -0.021809673 0.06118433 0.05755311 -0.030378386 0.069531694 0.06682614
0.06155776 -0.03100011 0.07915126 -0.03640345 -0.03479756 0.08106609 -0.037841126 -0.014802621
0.057325885 -0.03558819 -0.03311874 -0.036842216 0.06485483 0.068758495 -0.029959109 0.06846692
0.073434636 -0.023659132 0.061463337 0.065529235 -0.034527324 -0.026624246 -0.034026083 0.054453563
-0.030193225 -0.033993423 -0.03477498 -0.03706218 -0.02672051 -0.03733796 -0.0453955 -0.028722107
-0.040017147 -0.039052088 -0.038268723 -0.027216455 -0.035699666 -0.038504355 -0.035712652 -0.03760824
-0.043482035 -0.0287508 -0.030962208 -0.044987746 -0.025186816 -0.035616927 -0.03665087 -0.0347889
-0.04047416 -0.026218222 -0.03010055 -0.040813055 -1.9152961e-07 -0.048850134 -0.027479727 -0.027573597
-0.032474723 -1.6344246e-05 -0.028676337 -0.035417844 -0.02724383 -0.035173286 -0.034760404 -0.040469307
-0.035132606 -0.03217298 -0.033671025 -0.049294975 -0.034847647 -0.049475826 -0.038129393 -0.030639412
-0.032805618 -0.033721484 -0.049802173 -0.044314034 -0.03567081 -0.038837135 -0.029517533 -0.03256837
-0.043404367 -0.033727486 -0.03010076 -0.031832077 -0.030137192 -0.024859706 -0.048965566 -0.032720994
00000000: 176f 873d f9c1 0bbd 5a4f 05bd 1720 923d
00000010: 2355 5e3d 1a8d 0cbd e933 14bd 6b09 00bd
00000020: 208a 11bd 361f a43d 3a9d 813d d1cb 813d
00000030: 6b06 893d 9133 f3bc dc83 9e3d e216 993d
00000040: 45cc a43d 1bba 0bbd 22ee 8b3d 3f19 963d
00000050: 4c60 cebc 759e ebbc ba36 11bd 5ab2 8e3d
00000060: 5cbe 17bd d999 e8bc a25c f0bc 3e7d 0ebd
00000070: 58b0 dbb3 4acf 25bd 7096 cabc 074f 0cbd
00000080: 5cf2 8a3d 9ced c136 7d7a 483d a942 f3bc
00000090: c8c5 e3bc c910 853d 00fa 08bd 7940 08bd
000000a0: f1b7 f7bc 5245 823d 2ec1 1fbd f25f 983d
000000b0: 7ddb 8e3d bd69 24bd 9dea 943d f427 2e3d
000000c0: a180 e5bc f103 973d 9de6 9a3d c697 9e3d
000000d0: da10 02bd 1ff2 10bd 59a0 7e3d e657 0bbd
000000e0: c9d4 15bd d6f4 523d ff60 f5bc 4473 07bd
000000f0: 00f7 963d a4bb 683d 5115 943d a290 cfbc
00000100: 1783 03bd 08a5 8a3d 2862 893d 97c2 0dbd
00000110: 9ec9 d5bc 64f5 8c3d 5fa9 983d 6fb4 883d
00000120: 43bc 933d 7dbf 1fbd 4770 f5bc de8a f2bc
00000130: 0dc5 04bd 6af3 7f3d b422 1bbd 2c69 0dbd
00000140: 3168 1ebd 8bc4 8d3d 92b9 02bd e5d0 0abd
00000150: aa44 5a3d ef24 793d 0f43 913d ce99 01bd
00000160: bd61 9b3d b4f3 6e3d 4499 7c3d 5811 8d3d
00000170: 8f22 3535 811f a73d 1de5 633d 4269 913d
00000180: d827 febc 6acd e736 33aa b2bc 6c9c 7a3d
00000190: cfbc 6b3d 18dc f8bc a266 8e3d 25dc 883d
000001a0: fd23 7c3d f1f3 fdbc 0e1a a23d c91b 15bd
000001b0: e387 0ebd fa05 a63d 4cff 1abd b186 72bc
000001c0: 8cce 6a3d ecc4 11bd 84a7 07bd dde7 16bd
000001d0: 9cd2 843d 41d1 8c3d ce6c f5bc 6238 8c3d
000001e0: e664 963d ccd0 c1bc fbc0 7b3d 3134 863d
000001f0: 866c 0dbd 171b dabc ef5e 0bbd b30a 5f3d
00000200: c857 f7bc b03c 0bbd 3670 0ebd 83ce 17bd
00000210: f9e4 dabc b0ef 18bd a2f0 39bd a04a ebbc
00000220: 05e9 23bd 15f5 1fbd aabf 1cbd 0bf5 debc
00000230: d039 12bd beb6 1dbd 6e47 12bd 190b 1abd
00000240: 381a 32bd cc86 ebbc 75a4 fdbc 1245 38bd
00000250: 9554 cebc 0ee3 11bd 391f 16bd ce7e 0ebd
00000260: 3cc8 25bd 99c7 d6bc 6e95 f6bc 972b 27bd
00000270: 42a7 4db4 1417 48bd 2a1d e1bc 06e2 e1bc
00000280: 3704 05bd 001b 89b7 a3ea eabc 4d12 11bd
00000290: 742e dfbc dd11 10bd ed60 0ebd 25c3 25bd
000002a0: 35e7 0fbd d1c7 03bd a1ea 09bd 87e9 49bd
000002b0: 68bc 0ebd 2aa7 4abd 912d 1cbd 81ff fabc
000002c0: 2f5f 06bd 8a1f 0abd 5dfd 4bbd a282 35bd
000002d0: 8e1b 12bd b013 1fbd c1ce f1bc 6966 05bd
000002e0: c7c8 31bd d525 0abd de95 f6bc 5a62 02bd
000002f0: 46e2 f6bc 95a6 cbbc 1e90 48bd 7306 06bd

layer4.bias f4 [3]
0.034733895 0.02738093 -0.065244794
00000000: 2145 0e3d f94d e03c 109f 85bd
