audio_classifier5.pth (torch, 72876 bytes, 5 tensors)

conv1.weight f4 [48, 24, 3]
0	0x3d8097e2	0.06278969
1	0xbdcfc329	-0.10144646
2	0x3de014ab	0.10941442
3	0xbdc3119f	-0.09524845
4	0xbda8dce8	-0.082452595
5	0xbcedddef	-0.02903649
6	0xbc39b842	-0.011335434
7	0x3db53886	0.088486716
8	0x3d9b8bf2	0.07595052
9	0xbd375678	-0.044760197
10	0xbcdf67eb	-0.027271232
11	0xbcd38d12	-0.025824104
12	0xbc0a0573	-0.008424151
13	0xb715268d	-8.890068e-06
14	0x3c9d0dee	0.019171681
15	0xb992d61f	-0.00028006823
16	0xbaaa8cf2	-0.0013011976
17	0xbb81f8d9	-0.0039664325
18	0x3d7ba6f4	0.061438516
19	0x3bd97b91	0.0066370447
20	0xbd1da607	-0.038488414
21	0xbc11b75f	-0.008893817
22	0xbb985be0	-0.004649624
23	0xbd4e8f99	-0.050429914
24	0xbda83d48	-0.082148135
25	0xbdd18bc0	-0.10231733
26	0x3a9613ee	0.0011450031
27	0x3d02cc60	0.03193319
28	0xbc029601	-0.007970334
29	0xbbb27e0c	-0.005447155
30	0xbc38f639	-0.011289173
31	0xbd151ab1	-0.036402408
32	0x3d4788fa	0.048714615
33	0xbc8093ef	-0.01569554
34	0x3cba4386	0.022737276
35	0x3d513636	0.05107709
36	0x3d811420	0.06302667
37	0x3dc94048	0.09826714
38	0x3d9d4e29	0.076809235
39	0x3d023e27	0.031797554
40	0xbd5f406e	-0.054504804
41	0x3dd130af	0.10214364
42	0xbdd7dd60	-0.10540271
43	0x3de0e162	0.10980488
44	0xbc8b0ae6	-0.01697297
45	0x3dbf7320	0.0934813
46	0x3d1063de	0.03525149
47	0x3d7888f6	0.06067749
48	0xbd61eada	-0.055155613
49	0x3d43f3a0	0.04783976
50	0x3d7a2273	0.06106801
51	0x3cd60c97	0.02612905
52	0x3bfa939a	0.00764699
53	0xbdf18e4a	-0.117947176
54	0x3d82b504	0.06382182
55	0x3d957b6c	0.072989315
56	0x3dd2538a	0.1026984
57	0x3dc457a9	0.09587032
58	0x3d1f81ce	0.03894215
59	0xbcc9a638	-0.024615392
60	0x3dc21c1f	0.0947802
61	0xbdeb592a	-0.11491616
62	0xbc80e15c	-0.01573246
63	0xbd2385be	-0.03992247
64	0x3db036b7	0.08604186
65	0x3c9ce6c1	0.019153
66	0xbcb74c3a	-0.022375215
67	0x3c5f6475	0.013634791
68	0xbdbf66f9	-0.09345812
69	0x3dd001f9	0.10156626
70	0xbda06456	-0.078316376
71	0xbd7fe780	-0.062476635
72	0xbd163b5f	-0.036677714
73	0xbdab36f0	-0.08360088
74	0xbd865519	-0.065592
75	0x3cd0e721	0.025500836
76	0xbcfa6f4d	-0.03057065
77	0x3bb0f6d5	0.0054005184
78	0x3db1c64f	0.086804025
79	0x3c5fd6d7	0.013662062
80	0xbcb5b02d	-0.022178734
81	0x3aa99876	0.0012939114
82	0xbb27f665	-0.002562904
83	0x3d2efd06	0.04272177
84	0xb7480798	-1.1922697e-05
85	0xbd018eb2	-0.031630225
86	0x3cb45ba7	0.02201636
87	0x3c17c086	0.00926221
88	0x3c66c65e	0.01408538
89	0x3c8b6081	0.01701379
90	0xbd10da95	-0.035364706
91	0xbccdad8e	-0.025107171
92	0xba6e633d	-0.0009093767
93	0x3d2ae3f3	0.041721296
94	0xbd60d34a	-0.054889
95	0xbaf5dd89	-0.0018758039
96	0xbd46b9b9	-0.048516963
97	0x3a81bc94	0.000989812
98	0xbd30d634	-0.04317303
99	0xbd15f0d4	-0.036606625
100	0xbd1e2eae	-0.038618736
101	0x3d09f936	0.03368493
102	0xbb88d327	-0.004175562
103	0x3d176960	0.036965728
104	0xbb9e96fa	-0.004839775
105	0xbde2370a	-0.11045654
106	0x3dc03a31	0.09386099
107	0x3c1df55c	0.009641018
108	0x3d9334ee	0.0718783
109	0x3db3a65e	0.087719664
110	0x3c532f4c	0.012889694
111	0x3dcb72d8	0.09934014
112	0x3cb6e87b	0.022327652
113	0xbdb76b0b	-0.08955964
114	0xbd939933	-0.07206955
115	0x3de9809b	0.11401483
116	0xbd9359d0	-0.07194865
117	0x3c985db9	0.018599378
118	0x3cf5d050	0.030006558
119	0x3d10f82d	0.03539293
120	0x3d0208e2	0.031746753
121	0x3d473ef5	0.048644025
122	0xbc4defc3	-0.012569371
123	0xbd324dae	-0.043531112
124	0xbdcbb822	-0.0994723
125	0xbd7fd59d	-0.062459577
126	0x3dd95a12	0.10612883
127	0x3df45d5c	0.119318694
128	0x3df7f48f	0.12107193
129	0x3c6ca60e	0.014443887
130	0x3d241895	0.040062506
131	0xbd97b786	-0.07408051
132	0xbdae6d15	-0.085168995
133	0x3c3ae58d	0.011407268
134	0xbd0507c9	-0.032478128
135	0x3dad7223	0.084690355
136	0x3dbe64b6	0.09296553
137	0x3da46d04	0.080286056
138	0xbd8dd131	-0.06924666
139	0xbdb7c08f	-0.089722745
140	0xbd6e5222	-0.058183797
141	0xbdbfcfb5	-0.09365789
142	0xbd80d124	-0.062898904
143	0x3d09c6f7	0.033637013
144	0x3d7dc3ea	0.061954416
145	0xbdbfe5af	-0.093699805
146	0xbda50cd0	-0.080590844
147	0xbdcd5b97	-0.10027235
148	0x3c7255e2	0.014790984
149	0x3db44226	0.08801679
150	0xbdb7064e	-0.089367494
151	0xbd90fce5	-0.07079486
152	0xbd563ff0	-0.05230707
153	0x3d3ece11	0.04658324
154	0xbd4a3763	-0.049369227
155	0xbd174b58	-0.036937088
156	0x3d6be968	0.05759564
157	0x3d3179c8	0.04332903
158	0x36d3794a	6.30241e-06
159	0xbd2937fb	-0.041313153
160	0x3a19a580	0.0005861148
161	0xbccf1c52	-0.025282059
162	0xba388cd6	-0.0007040029
163	0xbd597a2f	-0.05309504
164	0xbd49088d	-0.04908042
165	0x3d8dca68	0.069233716
166	0x3cf02307	0.029313577
167	0xbd837a43	-0.06419804
168	0xbccd34a7	-0.02504952
169	0x3d0b738d	0.034045745
170	0xbd994672	-0.074841395
171	0x3d7fb7de	0.06243121
172	0x3d279e1e	0.040922277
173	0xbc9e187b	-0.019298783
174	0x3c958a25	0.018254349
175	0xbce0a1ce	-0.027420904
176	0x3b4d2cda	0.0031307251
177	0x3c128b8a	0.0089444015
178	0x3d82dce8	0.06389791
179	0x3dcba4ec	0.09943566
180	0x3df0751a	0.11741085
181	0xbdca1f45	-0.098692454
182	0x3def81c8	0.11694676
183	0xbde4cbef	-0.1117171
184	0x3ddcc4a1	0.107796915
185	0xbdcb752d	-0.09934459
186	0xbcdc8665	-0.026919553
187	0x3dc06ab8	0.09395355
188	0xbda206a9	-0.079114266
189	0x3c5a1984	0.013311747
190	0xbd46f0ac	-0.048569366
191	0xbd254662	-0.040350325
192	0x3ccb4611	0.024813684
193	0xbb81b030	-0.0039577708
194	0x3db323ec	0.08747086
195	0x3d99c2c3	0.07507851
196	0x3d815857	0.063156776
197	0x3d861852	0.065476075
198	0xbdd5e173	-0.10443392
199	0xbd98fe81	-0.07470418
200	0xbc6ec20d	-0.0145726325
201	0x3c32aa57	0.01090487
202	0xbdb4eeb4	-0.088345915
203	0x3d3481fe	0.044069283
204	0x3d8ab4ee	0.06772791
205	0x3d8d7e48	0.06908852
206	0xbcecdff1	-0.028915377
207	0x3cbb2e21	0.022849144
208	0xbc7ceb77	-0.015436999
209	0x3ccf2a40	0.025288701
210	0x3d2489f7	0.040170636
211	0xbd677b3d	-0.056514014
212	0xbda48b7b	-0.08034416
213	0xbd3c8531	-0.04602546
214	0x3d825463	0.06363752
215	0x3bc40e3f	0.0059831436
216	0x3d3b145f	0.045673724
217	0x3ca0c9a0	0.019627392
218	0x3c580ed5	0.01318713
219	0x3d77e947	0.060525205
220	0xbd35d16b	-0.04438917
221	0xbd37d7ba	-0.044883467
222	0x3d3e2181	0.04641867
223	0x3da65aa2	0.081227556
224	0x3ddaa55c	0.10676071
225	0xbcfbc527	-0.030733658
226	0xbd0c7996	-0.03429564
227	0xbc3138e9	-0.010816791
228	0xbb9bf21e	-0.004759087
229	0xbd6a8212	-0.05725295
230	0xbcb9d76a	-0.022685725
231	0xbd62527e	-0.055254452
232	0xb77bdce0	-1.5012192e-05
233	0x3d2222df	0.039584037
234	0x3cd6e025	0.026229927
235	0xbaeefb13	-0.0018232785
236	0x3d2f7230	0.042833507
237	0x3d969376	0.07352345
238	0x3cbeee69	0.023307042
239	0xbd7d7a74	-0.06188436
240	0xbdcdba74	-0.10045329
241	0x3d6d62ea	0.05795566
242	0xbb9925f9	-0.004673716
243	0x3cdf3396	0.027246278
244	0xbc9bc7a3	-0.019016093
245	0x3bb2e479	0.005459365
246	0xbc61c4cc	-0.01377983
247	0xbc3ccd49	-0.011523553
248	0x3d89252f	0.06696545
249	0xb904a0a5	-0.00012648346
250	0xbdc6cc0d	-0.09706888
251	0x3dd884d7	0.10572212
252	0xbddeba3e	-0.10875367
253	0x3dc0be7f	0.09411334
254	0x3dc4f59f	0.09617161
255	0xbc8f9b07	-0.017529977

conv1.bias f4 [48]
0	0x3dd73101	0.10507394
1	0xbd8521e6	-0.06500606
2	0x3e00e498	0.12587202
3	0xbda29bf2	-0.079399005
4	0x3cfddfe2	0.030990545
5	0xbd027a64	-0.031855002
6	0xbc9e97a4	-0.019359417
7	0x3dfb8ef9	0.12283129
8	0x3da5b2a9	0.08090717
9	0x3d0b88f4	0.034066156
10	0x3d81a8d5	0.0633103
11	0xbd7ea2f1	-0.06216711
12	0xbba80e8f	-0.0051286886
13	0x3c8dc017	0.01730351
14	0x3d736939	0.05942652
15	0x3cf2c421	0.029634537
16	0x3cb6274d	0.022235537
17	0x3dc1a041	0.09454394
18	0xbb48c104	-0.0030632624
19	0xbafae8fb	-0.001914292
20	0xbd95e6bc	-0.073194
21	0xbbc5d050	-0.0060367957
22	0xbd16ca03	-0.036813747
23	0x3d59b993	0.053155493
24	0xbd23b087	-0.03996327
25	0x3d3530a4	0.04423584
26	0xbdb3167a	-0.087445214
27	0x3ce761d1	0.028244885
28	0x3e00298b	0.12515847
29	0xbd1708b0	-0.03687352
30	0x3da0e985	0.0785704
31	0x3d5a7653	0.0533355
32	0x3d93a2a2	0.07208754
33	0x3d37e0ff	0.044892307
34	0x3d7c998f	0.061669882
35	0x3bfd1e2c	0.007724544
36	0xbd86dbde	-0.06584905
37	0xbd69cfdf	-0.057083007
38	0xbdcd64bf	-0.100289814
39	0x3d422dc2	0.04740692
40	0xbbedb86d	-0.0072546513
41	0xbdb0af97	-0.08627241
42	0x3de1e104	0.110292464
43	0xbd0f1003	-0.03492738
44	0x3caf5b68	0.02140589
45	0x3d19c95b	0.037545543
46	0xbde461ad	-0.11151443
47	0x3ce41b63	0.02784509

conv2.weight f4 [96, 48, 3]
0	0xbd83c436	-0.06433909
1	0x3d97bb99	0.07408828
2	0xbce7dbf1	-0.028303118
3	0x3c79a355	0.015236695
4	0xbce5a043	-0.02803052
5	0xbd7b462c	-0.061346218
6	0x3d381db3	0.0449502
7	0x3cf612d0	0.030038267
8	0xbd447c9a	-0.04797039
9	0xbc5c8c99	-0.0134612555
10	0xbd3cbb44	-0.046077028
11	0xbbde2111	-0.006778844
12	0x3cddc5e1	0.027071895
13	0xbd8e037c	-0.06934258
14	0xbd985a05	-0.07439045
15	0xbc40ea23	-0.011774573
16	0x3b505336	0.0031787879
17	0xbc9ab266	-0.018883895
18	0xbd0a4eda	-0.033766605
19	0x3d35bd26	0.04436984
20	0xbba03eeb	-0.004890313
21	0x3cdb08d4	0.026737608
22	0x3d46894b	0.048470777
23	0xbcf17e00	-0.029479027
24	0x3cfe89a7	0.031071497
25	0xbd8646f5	-0.06556503
26	0xbd2b26fc	-0.041785225
27	0x3d8e9298	0.06961554
28	0x3d55d91a	0.052208997
29	0xbc56d311	-0.013111846
30	0xba2bb887	-0.0006550629
31	0xbc0bba07	-0.008528239
32	0xbda8eb41	-0.08247996
33	0x3d909112	0.0705892
34	0x3d1d284f	0.03836852
35	0x3ca36ff9	0.019950854
36	0x308001d5	9.313746e-10
37	0x3b2fd888	0.0026831944
38	0x3cbc64bb	0.02299725
39	0xbc8df53e	-0.017328855
40	0xbd8662b3	-0.06561794
41	0x3d2d6010	0.04232794
42	0xbcf7e6fe	-0.030261513
43	0x3d823f58	0.06359738
44	0xbd6adc18	-0.057338804
45	0xbd532d40	-0.051556826
46	0x3d32516b	0.043534677
47	0x3d49bb85	0.0492511
48	0xbd9ac864	-0.07557753
49	0x3d80a774	0.06281939
50	0xbda4e4dc	-0.08051464
51	0xbcff73c1	-0.031183125
52	0x3d87a66a	0.06623538
53	0xbd639e55	-0.05557092
54	0x3bd34dd3	0.0064484864
55	0x3db4d8fd	0.0883045
56	0xbc3c177f	-0.011480211
57	0xbd1397ad	-0.03603332
58	0x3bd9445a	0.0066304626
59	0x3d1dc94a	0.038522042
60	0xbd3c8af0	-0.04603094
61	0xbc135cc8	-0.008994289
62	0x3ca198f9	0.019726263
63	0xbc661d16	-0.014045021
64	0x3d298d61	0.041394595
65	0x3c627f8f	0.013824358
66	0xbd615db9	-0.05502102
67	0xbd3669e4	-0.04453458
68	0xbdaceea2	-0.08443953
69	0x3d2d381f	0.04228985
70	0xbc57d60a	-0.0131735895
71	0xbd13d35e	-0.036090247
72	0x3bb4abdd	0.0055136518
73	0x3b79b218	0.0038100537
74	0xb998ecbe	-0.00029168086
75	0x3da28971	0.07936371
76	0x3ce9f515	0.028559247
77	0x3be1c2f9	0.0068896976
78	0x3d19755b	0.037465435
79	0x3d87f0f5	0.06637756
80	0xbd9d4dfc	-0.0768089
81	0xbda6b4f8	-0.08139986
82	0x3cfca259	0.030839132
83	0xbd57b30b	-0.052660983
84	0xbd50a12d	-0.05093496
85	0x3c823fb9	0.015899526
86	0x3b5ba341	0.0033514055
87	0xbd9b5095	-0.07583729
88	0xbccda826	-0.025104593
89	0x3d85ec23	0.0653918
90	0xbca1f234	-0.019768812
91	0xbcfd5bad	-0.030927503
92	0x3d2b4bd1	0.04182035
93	0x3d79c406	0.06097796
94	0x3d78492d	0.06061666
95	0x3d991b23	0.07475879
96	0xbd228a33	-0.03968258
97	0x3c5db812	0.013532655
98	0x3d9d0a87	0.076680236
99	0x3d51db90	0.05123478
100	0xbcae6c95	-0.02129201
101	0x3d48079a	0.048835374
102	0x3d63f545	0.05565383
103	0x3d145ec4	0.036223188
104	0xbd7db47b	-0.061939698
105	0xbd125dcc	-0.035733983
106	0x3b0bb8d2	0.0021319878
107	0x3d8b690c	0.068071455
108	0xbda11617	-0.078655414
109	0x3d1b59d3	0.03792746
110	0x3c7512f0	0.014958128
111	0xbceb3644	-0.0287124
112	0xbd0151d4	-0.031572178
113	0xbb917501	-0.004438997
114	0x3d63204d	0.055450726
115	0x3d16785f	0.03673589
116	0xbda7d967	-0.08195763
117	0xbd01a2a6	-0.031649254
118	0xbd0f07f2	-0.034919687
119	0xbcddec46	-0.027090203
120	0xb02f0f05	-6.3685973e-10
121	0xbbf6f7f9	-0.007536885
122	0x3cbfeaeb	0.023427447
123	0x3d800bc2	0.062522426
124	0x3d9bcf6a	0.076079205
125	0xbbfc0b76	-0.007691796
126	0x3c0f9b5a	0.008765066
127	0xbd62f4e6	-0.055409335
128	0x3c53671c	0.012903001
129	0xbd4bd7ab	-0.049766224
130	0xbd12429c	-0.035708055
131	0xbd9a677e	-0.07539271
132	0xbc279700	-0.010228872
133	0x3cd6df8d	0.026229644
134	0x3c546c2d	0.012965244
135	0xbd71a91c	-0.058999166
136	0x3da5f733	0.0810379
137	0xbda23b5c	-0.07921478
138	0x3d22534b	0.039630216
139	0x3cb40112	0.021973167
140	0x3d8ba89f	0.06819271
141	0x3d2db00c	0.04240422
142	0xbc5b9056	-0.013401112
143	0xbd89a4b7	-0.0672087
144	0x3c840569	0.016115861
145	0xbc474883	-0.012163284
146	0xbd1f47ee	-0.038886957
147	0x3d6f2e27	0.058393624
148	0x3da0aa12	0.07844938
149	0x3d7a77ae	0.06114929
150	0xbd73415e	-0.05938851
151	0x3d8c9f19	0.06866283
152	0x3cf65b7d	0.030072922
153	0x3d9c7e9c	0.07641336
154	0xbbd5db8e	-0.006526417
155	0x3d7550e0	0.05989158
156	0x3d4d44da	0.05011449
157	0xbc34f71c	-0.011045244
158	0xbcd5e359	-0.026109384
159	0xbc642eea	-0.013927201
160	0x3d429db9	0.047513697
161	0x3ba2a021	0.0049629365
162	0x3d24edad	0.040265728
163	0x3adf21d6	0.0017023634
164	0xbc8163be	-0.015794631
165	0xbd354df8	-0.04426381
166	0x3ce1189d	0.027477557
167	0x3d002d84	0.031293407
168	0x3c4b9c82	0.012427451
169	0xbd1577c6	-0.036491178
170	0xbce3b85c	-0.02779787
171	0x3d886f6b	0.06661876
172	0x3d9ee258	0.077580154
173	0x3d9a0f2e	0.075224265
174	0xbd04cdc0	-0.03242278
175	0x3c537ec2	0.012908639
176	0x3d47e986	0.04880669
177	0xbd7b64f3	-0.06137557
178	0x3d356d67	0.044293787
179	0x3cb79fa9	0.022415
180	0x3d9f413a	0.07776113
181	0xb92b4e56	-0.00016337013
182	0x3a0eb62f	0.00054440176
183	0xbd5e343e	-0.05424904
184	0x3c44e44d	0.012017322
185	0x3d8f55db	0.069987975
186	0xbcf45457	-0.029825373
187	0xbd606606	-0.054784797
188	0xbd533632	-0.051565357
189	0xbd6b8acd	-0.057505418
190	0xbce213af	-0.027597276
191	0x3c226656	0.009912094
192	0xb6a94150	-5.044196e-06
193	0x3d0fb48f	0.035084303
194	0xbbc4482d	-0.0059900493
195	0xbd9058f6	-0.07048218
196	0xbd90889c	-0.07057306
197	0x3d638e91	0.055555884
198	0xbd4d831d	-0.050173867
199	0xbc6aa78e	-0.014322175
200	0xbccddbca	-0.025129218
201	0x3d7026ca	0.058630742
202	0xbcd9c006	-0.026580822
203	0x3d89c57f	0.067271225
204	0x3d6a627f	0.05722284
205	0x3d2d297a	0.042275883
206	0xbb309562	-0.0026944508
207	0x3da5da98	0.08098334
208	0x3c95aa61	0.01826972
209	0xbbdd814d	-0.0067597986
210	0xba115a69	-0.0005544783
211	0x3c7e8091	0.015533582
212	0xbbf961b0	-0.007610522
213	0x3d8271be	0.06369351
214	0x3d70cc97	0.058788862
215	0xbd347e37	-0.04406568
216	0x3db8b30e	0.09018527
217	0x3d42a48a	0.047520198
218	0x346d4ecb	2.210101e-07
219	0x3d56c1c4	0.052430883
220	0x3d39dffd	0.045379627
221	0xbcc3da3e	-0.023907777
222	0xbd4dbb82	-0.05022765
223	0xbc1f17ec	-0.009710293
224	0x3d408d95	0.047010023
225	0xbdbd819b	-0.09253236
226	0xbd7c2682	-0.06156016
227	0xbd1f2977	-0.038857903
228	0x3d9f45df	0.07776999
229	0xbc007643	-0.007840696
230	0xbc24ff4f	-0.010070636
231	0x3d6b6a67	0.05747452
232	0xbd315cac	-0.04330127
233	0x3d893110	0.06698811
234	0x3cacb119	0.02108054
235	0xbd39f3b5	-0.045398433
236	0x3db30149	0.087404795
237	0x3db1f61d	0.086895205
238	0x3d0c9e0e	0.03433042
239	0x3b70ec7e	0.0036762054
240	0xbcd9fbb0	-0.026609272
241	0x3b7af995	0.0038295735
242	0xbd277ec6	-0.040892385
243	0x3d02fbd6	0.03197845
244	0x3d7e34d6	0.062062107
245	0xbcf74229	-0.030182915
246	0x3aa21746	0.0012366555
247	0xbd99fc67	-0.07518845
248	0x3d4d98c5	0.05019452
249	0x3d8e4602	0.06946947
250	0xbc8111eb	-0.015755614
251	0x3d3d5e75	0.04623266
252	0x3cb23302	0.021752838
253	0x3d1f6f5d	0.038924564
254	0xbcc86ff6	-0.02446745
255	0xbda341de	-0.079715475

conv2.bias f4 [96]
0	0x3d65338c	0.055957362
1	0xbd0a2fc9	-0.033736978
2	0xbd5ba23a	-0.05362151
3	0xbc54a94c	-0.012979817
4	0x3bd7257e	0.0065657487
5	0xbd45d06a	-0.048294462
6	0xbcb7198b	-0.022351047
7	0x3b9875cc	0.0046527144
8	0x3bbbd347	0.0057319733
9	0xbdacfef6	-0.084470674
10	0xbc8014cd	-0.015634919
11	0xbd7defc4	-0.061996236
12	0x3d1e980f	0.038719233
13	0x3d674866	0.05646553
14	0xbd93d841	-0.072189815
15	0x3d69f166	0.05711498
16	0xbc948d82	-0.018133882
17	0x3dba1f3c	0.09087989
18	0x3d45fc58	0.048336357
19	0x3d780a42	0.060556658
20	0x3cf4d632	0.029887293
21	0xbd47adba	-0.048749663
22	0xbd16791e	-0.0367366
23	0xbb900edc	-0.0043963026
24	0xbd3ca1f4	-0.046052888
25	0x3dc15e06	0.09441762
26	0x3dc49c60	0.09600139
27	0xbce7b0df	-0.02828258
28	0x3dae3913	0.0850698
29	0x3d3edd8b	0.046598
30	0xbce615eb	-0.028086623
31	0x3cf9a7ff	0.030475615
32	0x3d89678f	0.06709205
33	0x3c3b8aad	0.011446637
34	0x3dad1f82	0.08453275
35	0x3d5fcfa5	0.054641385
36	0x3c9ee443	0.019395953
37	0xbd03b638	-0.0321562
38	0xbc6c451f	-0.014420777
39	0xbbdb2956	-0.0066882772
40	0x3bdf1226	0.0068075834
41	0x3cd4251f	0.025896607
42	0xbc3a426b	-0.011368374
43	0xbcb145fb	-0.021639815
44	0xbd49fa08	-0.049310714
45	0x3d34a050	0.0440982
46	0xbcd7de41	-0.026351096
47	0x3d337240	0.04381013
48	0xbd2cf5d0	-0.042226613
49	0x3db04832	0.0860752
50	0x3d53f447	0.051746633
51	0x3d8df9a5	0.069323815
52	0xbd8e8f7a	-0.0696096
53	0x3d33188d	0.043724585
54	0x3bc60b6e	0.006043843
55	0xbd04941a	-0.032367803
56	0xbc573f45	-0.013137643
57	0x3cbbe7d6	0.022937696
58	0x3d20c597	0.039250936
59	0x3d9fad94	0.07796779
60	0xbc91b36b	-0.017785748
61	0x3cd3a9d1	0.02583781
62	0x3cf1fd20	0.029539645
63	0xbc92e0ee	-0.01792952
64	0x3d7b999b	0.061425786
65	0x3d537cc5	0.05163266
66	0xbd7c2b4c	-0.06156473
67	0x3db8dd37	0.090265684
68	0xbd00540f	-0.031330165
69	0x3c90767a	0.017634619
70	0x3d49dee3	0.049284827
71	0x3daf2481	0.085518844
72	0x3a8d80be	0.0010795814
73	0x3d22fbf7	0.039791074
74	0x3c9b3d73	0.0189502
75	0xbb0707a8	-0.0020603929
76	0x3d0504e5	0.03247537
77	0x3d84ed1c	0.064905375
78	0xbd1485fb	-0.036260586
79	0x3d15d723	0.036582123
80	0xbd3c9b4f	-0.04604655
81	0xbd1dc89b	-0.03852139
82	0xbd86a865	-0.065750875
83	0x3d6229e5	0.055215735
84	0x3d3af316	0.04564198
85	0x3d88066f	0.06641852
86	0xbced7208	-0.028985038
87	0xbd280ac3	-0.04102589
88	0x3d50bd94	0.050962046
89	0xbd2656b6	-0.040610038
90	0x3dc2ea26	0.095173165
91	0x3d686de3	0.05674542
92	0xbc9f4be4	-0.019445367
93	0xbce21d5f	-0.027601896
94	0x3d1d501d	0.03840648
95	0xbb9eb098	-0.004842829

fc.weight f4 [1, 96]
0	0x3d57bf28	0.052672535
1	0x3dc5e83f	0.09663438
2	0x3c41d898	0.011831425
3	0xbd23d826	-0.040001057
4	0xbd13c75d	-0.0360788
5	0x3da2a8a9	0.079423256
6	0xbda72e5a	-0.08163138
7	0xbdc69748	-0.09696823
8	0x3d9d9eb7	0.07696288
9	0x3d94faea	0.072744206
10	0xbc90b893	-0.017666137
11	0x3d8fd390	0.07022774
12	0x3da25fb8	0.07928413
13	0x3d97d999	0.0741455
14	0x3d38a97f	0.04508352
15	0x3d18e1ff	0.0373249
16	0xbc944048	-0.018097058
17	0xbd41676e	-0.04721778
18	0x3d9470f0	0.072481036
19	0x3dae2daf	0.08504807
20	0xbdab9e53	-0.08379807
21	0xbd0a727a	-0.03380058
22	0x3d945c18	0.07244128
23	0x3c131fca	0.008979747
24	0xbc161a3b	-0.009161527
25	0xbd65b944	-0.056084886
26	0xbd529f21	-0.05142129
27	0x3cad4e57	0.02115552
28	0xbc50d755	-0.012746652
29	0xbd825f2e	-0.0636581
30	0x3d7fd0ab	0.06245486
31	0x3dc2a94f	0.09504949
32	0xbd8007c4	-0.06251481
33	0x3d1e8e2d	0.03870981
34	0xbd113576	-0.035451375
35	0xbd8d8786	-0.06910615
36	0xbd96903b	-0.073517285
37	0x3d037aa7	0.032099392
38	0x3dc9cd11	0.098535664
39	0x3db6cc52	0.0892569
40	0x3d630b32	0.0554306
41	0xbdb998e4	-0.09062365
42	0x3da3716e	0.07980619
43	0x3da53ce8	0.080682576
44	0xbc95aec4	-0.018271811
45	0x3dc22350	0.094793916
46	0xbd88ef20	-0.066862345
47	0xbd85baf4	-0.06529799
48	0x3d1f3359	0.03886733
49	0xbdbe8dbb	-0.09304377
50	0x3d9ba2da	0.07599421
51	0xbd1715fc	-0.0368862
52	0x3d32963f	0.043600317
53	0xbb75da3d	-0.0037514113
54	0x3d5296f4	0.05141349
55	0xbd4a5154	-0.049393967
56	0xbd5e4bb0	-0.0542714
57	0x3d5e6923	0.054299485
58	0xbc0a92bb	-0.008457835
59	0xbd198f8d	-0.037490416
60	0xbd839855	-0.064255394
61	0x3d4b6638	0.04965803
62	0x3c84f4d4	0.016230024
63	0x3dbdd146	0.09268431
64	0x3d3290bc	0.04359506
65	0x3ca7b17f	0.020470379
66	0xbd638bbb	-0.05555318
67	0xbdca7c00	-0.098869324
68	0x3d567303	0.052355777
69	0x3ce11b53	0.02747885
70	0x3ca5f9b3	0.020260667
71	0xbcf84723	-0.030307358
72	0xbc1d86cc	-0.009614658
73	0xbc8dfff3	-0.01733396
74	0x3cebc85f	0.028782068
75	0xbd14c38e	-0.036319308
76	0xbd818e1b	-0.063259326
77	0xbd77bb07	-0.060481098
78	0x3dd13a13	0.10216155
79	0x3da20fa3	0.07913139
80	0x3db169c4	0.08662751
81	0x3d8e1d07	0.0693913
82	0xbd4a87b3	-0.04944582
83	0x3dbfc1d7	0.09363144
84	0xbd3742b6	-0.044741355
85	0xbd4c3207	-0.049852397
86	0xbcebfcee	-0.02880713
87	0x3c8b3d75	0.016997078
88	0xbc9ee0a3	-0.019394225
89	0x3d0fd10f	0.035111483
90	0xbd7f4757	-0.062323894
91	0x3c642d13	0.013926762
92	0x3d2b9040	0.041885614
93	0xbbb337e7	-0.0054693106
94	0x3dc1572f	0.09440457
95	0x3de6b071	0.11264122
