audio_classifier4.pth (torch, 72876 bytes, 5 tensors)

conv1.weight f4 [48, 24, 3]
0.11008149 0.09693417 0.07577997 0.0454014 -0.11700086 -0.08704066 0.12823524 0.026424121
-0.018016752 0.011291585 0.029009601 0.06807418 -0.0012913862 -0.00015884147 -0.00014171054 -0.08384241
-0.055004116 0.022181757 -0.070580855 -0.06527034 -0.035212338 -0.1696666 0.009093982 0.04602832
-0.16492671 -0.008406403 -0.117665164 -0.10388999 -0.090704195 -0.123563044 -0.018954348 -0.033374745
0.08136119 0.057193354 -0.060846493 0.03789755 0.060553163 0.024525408 0.005374915 0.0025476138
0.062186286 -0.03957336 0.071058184 -0.025116177 0.058625687 -0.047911692 0.11155263 -0.0331499
0.074586555 0.12601432 0.050460055 -0.054493885 -0.057588823 0.01978566 0.03247491 0.11031288
0.09078111 0.119455606 -0.018599214 0.06696638 0.070186764 0.12722729 -0.10869872 0.012858364
0.099552944 0.0418523 -0.046203986 0.0884775 -0.062469978 -0.043327134 0.01626834 0.093504466
-0.053965222 0.09240591 -0.022497881 0.038796067 0.14425562 -0.045683067 0.10496707 0.065380864
-0.04872329 0.00020682425 0.100349054 4.879614e-06 1.4941254e-06 0.0065716743 -9.086816e-09 -7.320858e-08
0.12955086 6.25459e-05 6.683871e-07 0.07980164 -6.247812e-07 0.0015138522 0.16202797 -5.7701553e-05
0.075928986 0.22589225 0.031425674 -3.7986688e-06 0.112284936 -4.6465625e-06 2.1646942e-05 0.10714758
-1.9686122e-05 -0.11200993 -0.015860895 -0.028130248 0.0027198163 -0.0716374 -0.07608193 0.032401547
0.061784245 0.0108141545 -0.08749326 0.05873811 0.04715115 0.09692058 0.03630096 0.043331712
0.073879644 -0.1277468 0.024143258 0.098584436 -0.15952827 0.056952417 -0.06024626 -0.12814313
0.07578616 0.024445869 0.09226007 0.05315479 -0.035426527 -0.04365547 0.04388015 0.060457937
-0.10456631 -0.0020012348 0.08639577 0.018771935 -0.10393208 -0.09531706 -0.12192309 0.024509586
0.07636504 0.12352403 0.099965185 0.097229175 -0.115966626 -0.07189997 -0.04461153 -0.024932684
-0.025124134 0.015850794 -0.033968996 0.004876187 -0.00056620635 -0.006720619 -1.7727324e-06 -0.04171709
-0.1044793 0.0064537176 -0.045963794 -0.114903465 -0.0021846038 -0.073232 -0.17696379 -0.0633736
-0.19479267 -0.015906155 0.101407126 -0.11660357 -0.19953093 -0.018797722 -0.14900456 -0.14422244
0.057694547 -0.002499434 -0.0077837403 -0.055390876 -0.08321673 -0.06462917 0.027796287 0.0907869
0.09867115 0.06720212 -0.14482272 -0.02337842 0.017224543 0.07259901 -0.069502935 0.026856571
-0.0751925 0.12966517 -0.11415754 0.006036903 0.21015745 -0.022795986 0.11670448 -0.081949666
0.043549836 -0.15810002 0.03920157 0.068932444 0.07002883 0.011944743 -0.0037873595 -0.14559585
0.024885602 -0.009323334 0.043844797 -0.041955814 0.12890822 0.07395739 -0.024138846 0.020751951
0.0056732637 0.0046012136 -0.034566324 0.018334191 -0.07789141 0.038223058 0.08035626 -0.12416633
-0.00015417668 0.08509726 2.995188e-06 -2.9240422e-31 0.0006180821 4.4925386e-13 -1.9080771e-32 0.04674474
9.265034e-05 -6.9864494e-05 0.021485386 -1.3767794e-09 -0.00011181928 0.18608285 -0.017417587 -1.5543368e-07
0.17015202 -0.092186116 7.7020304e-05 0.07200141 0.00054894056 -2.1422699e-07 0.08119878 0.004432028
-9.112836e-30 -0.029773302 -0.052892074 -0.083675176 0.106003866 -0.08979093 -0.033217944 -0.02241633
00000000: 6772 e13d 6c85 c63d 8732 9b3d d2f6 393d
00000010: 269e efbd 6042 b2bd 1950 033e 6677 d83c
00000020: de97 93bc 5700 393c 8ba5 ed3c 7a6a 8b3d
00000030: bb43 a9ba af8e 26b9 2298 14b9 92b5 abbd
00000040: ff4b 61bd 84b6 b53c b28c 90bd 75ac 85bd
00000050: d03a 10bd 15bd 2dbe edfe 143c 3188 3c3d
00000060: 8ce2 28be 02bb 09bc 6ffa f0bd 46c4 d4bd
00000070: 1fc3 b9bd 9f0e fdbd 2646 9bbc f5b3 08bd
00000080: b2a0 a63d 9443 6a3d 2c3a 79bd 763a 1b3d
00000090: 9806 783d 82e9 c83c 0e20 b03b def5 263b
000000a0: 0cb7 7e3d ad17 22bd f486 913d 71c0 cdbc
000000b0: 7d21 703d 0d3f 44bd b575 e43d 31c8 07bd
000000c0: d6c0 983d e609 013e 34af 4e3d fb34 5fbd
000000d0: 42e2 6bbd 8915 a23c 6904 053d b8eb e13d
000000e0: 72eb b93d 24a5 f43d 615d 98bc ab25 893d
000000f0: 14be 8f3d df47 023e 6f9d debd e3ab 523c
00000100: 6ae2 cb3d 516d 2b3d 6440 3dbd b133 b53d
00000110: 85e0 7fbd cb77 31bd 2f45 853c 457f bf3d
00000120: a30a 5dbd 4f3f bd3d 7a4d b8bc a0e8 1e3d
00000130: bfb7 133e 2b1e 3bbd faf8 d63d 67e6 853d
00000140: 1392 47bd f6de 5839 ce83 cd3d 91bb a336
00000150: c289 c835 3357 d73b 3d1c 1cb2 d836 9db3
00000160: fba8 043e 132b 8338 366b 3335 0b6f a33d
00000170: a3b6 27b5 736c c63a a9ea 253e 9204 72b8
00000180: a880 9b3d 4c50 673e 35b8 003d a2ec 7eb6
00000190: a5f5 e53d abe9 9bb6 7496 b537 3170 db3d
000001a0: a023 a5b7 7665 e5bd b5ee 81bc 6871 e6bc
000001b0: f23e 323b a1b6 92bd d8d0 9bbd 7cb7 043d
000001c0: 7a11 7d3d da2d 313c ab2f b3bd 5f97 703d
000001d0: 9021 413d 4c7e c63d 51b0 143d 987c 313d
000001e0: 364e 973d 0fd0 02be 15c8 c53c a3e6 c93d
000001f0: 615b 23be f046 693d c8c4 76bd f437 03be
00000200: c635 9b3d b442 c83c d9f2 bc3d d6b8 593d
00000210: 681b 11bd 14d0 32bd acbb 333d bea2 773d
00000220: dd26 d6bd 2627 03bb 44f0 b03d 9ac7 993c
00000230: 58da d4bd 9735 c3bd d0b2 f9bd 54c8 c83c
00000240: 4665 9c3d 2bfa fc3d 8cba cc3d 1720 c73d
00000250: e97f edbd 4b40 93bd 94ba 36bd a13f ccbc
00000260: 21d1 cdbc 86d9 813c 1323 0bbd 6cc8 9f3b
00000270: 776d 14ba a338 dcbb 9fee edb5 8adf 2abd
00000280: 3ef9 d5bd b579 d33b 8844 3cbd 8252 ebbd
00000290: 922b 0fbb a9fa 95bd ff35 35be 05ca 81bd
000002a0: bb77 47be a04d 82bc 8aae cf3d dacd eebd
000002b0: d651 4cbe aefd 99bc a794 18be 0caf 13be
000002c0: 1e51 6c3d 8bcd 23bb bf0e ffbb 8be1 62bd
000002d0: 886d aabd 4c5c 84bd 0ab5 e33c 7bee b93d
000002e0: 1a14 ca3d 44a1 893d 684c 14be 1a84 bfbc
000002f0: 7c1a 8d3c caae 943d 8e57 8ebd 5002 dc3c
00000300: 87fe 99bd f2c6 043e 6ecb e9bd 36d1 c53b
00000310: 8433 573e a6be babc c202 ef3d 3ad5 a7bd
00000320: 5061 323d f9e4 21be d391 203d 742c 8d3d
00000330: 466b 8f3d e2b3 433c 5935 78bb 1417 15be
00000340: e4dc cb3c e6c0 18bc 9a96 333d dcd9 2bbd
00000350: 8400 043e f976 973d d4be c5bc ffff a93c
00000360: c9e6 b93b c7c5 963b 6b95 0dbd 9631 963c
00000370: 8885 9fbd c88f 1c3d d391 a43d eb4a febd
00000380: 7daa 21b9 7947 ae3d f000 4936 fcc7 bd8c
00000390: ca06 223a 4ee8 fc2a 6425 c68a 6a77 3f3d
000003a0: 464d c238 3784 92b8 1f02 b03c 1e39 bdb0
000003b0: 8580 eab8 818c 3e3e 54af 8ebc 49e5 26b4
000003c0: 553c 2e3e 13cc bcbd f685 a138 7a75 933d
000003d0: c7e6 0f3a 4406 66b4 8c4b a63d 8c3a 913b
000003e0: 8dd4 388f 24e7 f3bc 5ca5 58bd e45d abbd
000003f0: 8e18 d93d 4fe4 b7bd 8a0f 08bd 74a2 b7bc

conv1.bias f4 [48]
0.007731355 0.20763399 -0.112351306 -0.046183754 0.048183072 0.1934298 0.100231595 -0.0012290285
0.0010881374 -0.018827595 -0.008859323 0.01224164 0.20980829 0.15883102 0.17836525 0.058111522
0.1350859 -0.052106485 -0.0050904537 -0.01661968 0.09348358 -0.06977528 -0.017036429 0.004292819
0.10885609 0.20066573 -0.0010092133 -0.008771334 -0.081214495 0.06298031 0.04471487 0.0876737
0.09779764 0.0474116 0.06520421 0.05967477 -0.12622668 -0.10817885 -0.006550809 -0.0002278251
0.15363704 0.019547813 -0.12155895 0.015095546 0.115896754 -0.048648134 -0.089370444 0.16528755
00000000: 4e57 fd3b 019e 543e 7118 e6bd 2d2b 3dbd
00000010: 9d5b 453d 7612 463e 3946 cd3d 5a17 a1ba
00000020: d59f 8e3a 543c 9abc b226 11bc 2991 483c
00000030: fcd7 563e 99a4 223e 61a5 363e 5906 6e3d
00000040: f553 0a3e 9c6d 55bd d2cd a6bb ff25 88bc
00000050: 5274 bf3d 58e6 8ebd fb8f 8bbc c7aa 8c3b
00000060: f1ef de3d 517b 4d3e 9447 84ba a4b5 0fbc
00000070: c953 a6bd d2fb 803d f126 373d 458e b33d
00000080: 214a c83d aa32 423d c989 853d 886d 743d
00000090: 9141 01be df8c ddbd 2ba8 d6bb 56e4 6eb9
000000a0: 0753 1d3e bc22 a03c e6f3 f8bd 4f53 773c
000000b0: 475b ed3d 4443 47bd da07 b7bd 2441 293e

conv2.weight f4 [96, 48, 3]
-0.051150743 -0.016387634 -0.016987104 -0.008349657 -0.041933548 0.06786749 -0.070704885 -0.04903936
-0.071615644 -0.022950687 -0.07055628 -0.03018441 0.036353756 0.027019057 -0.05698368 -0.019654922
0.046771687 -0.037901193 -0.04900589 -0.071100295 -0.018602807 0.032591153 -0.04276656 -0.027369317
0.0075739413 0.0068024374 0.005852018 -0.07186814 0.029613217 0.042478453 0.04622181 -0.018655565
0.029437717 0.03169234 0.047211587 -0.0397391 0.015595356 0.06963997 -0.063571066 0.07678212
-0.025579013 -0.07647663 -0.027481092 -0.03446874 0.05264456 0.05078434 -0.025325615 0.03833382
-0.052229524 -0.03318402 -0.060650323 -0.06662606 0.059706017 0.0026922065 0.008122622 -0.044979602
0.067908674 -0.018633464 -0.041845772 -0.014588845 -0.057512287 0.008910065 0.023638874 0.061522137
-0.021142293 0.037158586 0.06467118 -0.026674237 0.044955343 -0.09161857 0.018333515 -0.10036017
0.03964796 -0.076476656 0.06495927 -0.04427503 0.08108165 -0.072404206 -0.042368315 0.06409284
0.053890996 -0.050480016 -0.038489677 0.04805909 -0.06267479 -0.08045768 0.053968422 -0.075668044
0.049386624 0.08688029 0.01216206 0.07762566 0.04976376 0.080183394 -0.08145272 -0.069629505
0.03319187 -0.06758774 -0.018806279 -0.0068171 -0.0037230526 0.024677346 0.07765147 -0.052290227
-0.028694134 0.061993733 0.067779005 0.0006258023 -0.0019134396 0.06833018 0.021705715 -0.0764933
-0.003684102 0.019928074 -0.0071461415 0.061003447 -0.08325278 0.025122222 -0.074676014 0.004422387
0.022797402 -0.0038558012 -0.010235601 -0.026927914 -0.06377766 0.01344898 0.017798087 0.03275769
0.055797588 -0.041786592 -0.072423704 0.013717534 -0.094603255 -0.08149289 -0.07265888 -0.007479057
0.0095639415 0.012556983 -0.0064029824 -0.02625667 0.020576928 -0.07550488 0.0018279295 -0.08031309
-0.02660118 0.070034236 -0.064791374 -0.08935777 -0.022269217 0.029059693 0.13032109 0.05616504
0.0065550716 0.10615379 0.041348938 -0.0536445 0.104114495 0.022722488 -0.025277205 -0.021538367
-0.025341675 0.058320623 -0.010647149 0.021396173 -0.079542615 0.010277988 0.11038114 0.0081871245
0.09944836 0.072500855 -0.030150292 -0.029128036 0.07544293 -0.005819889 -0.12645486 0.08030173
0.0071781813 -0.11029408 0.12095515 -0.007908934 0.0060314904 0.040166926 -0.0034568263 0.06569397
-0.024297614 -0.0019908445 0.074651055 0.041856006 0.039165914 -0.02639312 -0.0017168022 -0.0455014
0.015009796 0.0029196474 -0.04415683 0.07387679 0.034530617 -0.011354077 0.10569405 -0.026206648
-0.031580012 -0.06334705 0.011871861 0.052634023 -0.029279497 0.00712863 -0.028564915 0.051998466
-0.067968205 0.06510741 -0.007794521 -0.009261153 0.034147643 0.054769672 -0.006764859 -0.026481478
0.06756052 -0.076704346 0.04145677 0.07331851 -0.03326981 -0.018371668 0.030075606 0.026007406
0.009096364 0.010104195 -0.0047736126 -0.021969493 -0.03795959 0.063714534 0.027708696 -0.011284203
-0.06916863 -0.087615676 -0.06751268 0.041495465 -0.056126494 -0.068941906 -0.083423115 -0.020412553
0.033084553 0.0041304557 0.017693408 0.018607495 0.031960726 0.026592202 -0.00097179576 -0.029373836
0.022999711 0.036516394 -0.08040611 -0.07524055 0.024499035 0.09186686 0.018655065 0.10061538
00000000: 7183 51bd 5c3f 86bc 8a28 8bbc 00cd 08bc
00000010: 83c2 2bbd 1cfe 8a3d b9cd 90bd 7fdd 48bd
00000020: 39ab 92bd 1403 bcbc d07f 90bd 4c45 f7bc
00000030: ade7 143d 1257 dd3c b867 69bd 5c03 a1bc
00000040: ab93 3f3d 483e 1bbd 66ba 48bd 089d 91bd
00000050: ea64 98bc 4d7e 053d fd2b 2fbd 9e35 e0bc
00000060: d32e f83b fbe6 de3b 49c2 bf3b 9a2f 93bd
00000070: 6b97 f23c e3fd 2d3d 1553 3d3d 8ed3 98bc
00000080: 5e27 f13c d4cf 013d f060 413d 77c5 22bd
00000090: aa83 7f3c 679f 8e3d 8c31 82bd f23f 9d3d
000000a0: 148b d1bc c89f 9cbd 0720 e1bc 182f 0dbd
000000b0: d2a1 573d 3d03 503d aa77 cfbc ec03 1d3d
000000c0: a0ee 55bd f8eb 07bd 796c 78bd 3e73 88bd
000000d0: 4c8e 743d bb6f 303b bf14 053c 883c 38bd
000000e0: b413 8b3d 35a5 98bc 7966 2bbd 0d06 6fbc
000000f0: 0192 6bbd 85fb 113c 50a6 c13c a3fe 7b3d
00000100: 9a32 adbc 9a33 183d 5372 843d ee83 dabc
00000110: 1823 383d 84a2 bbbd 2b30 963c a289 cdbd
00000120: e665 223d cb9f 9cbd 5e09 853d bc59 35bd
00000130: 230e a63d a848 94bd 668a 2dbd 1b43 833d
00000140: cebc 5c3d 22c4 4ebd 5aa7 1dbd 9cd9 443d
00000150: a45b 80bd ffc6 a4bd fe0d 5d3d d9f7 9abd
00000160: a149 4a3d 4bee b13d 6043 473c 34fa 9e3d
00000170: 16d5 4b3d 3137 a43d afd0 a6bd ea99 8ebd
00000180: 33f4 073d 716b 8abd a00f 9abc fb61 dfbb
00000190: 75fe 73bb 2528 ca3c bc07 9f3d 472e 56bd
000001a0: f60f ebbc 24ed 7d3d b8cf 8a3d e20c 243a
000001b0: 61cc faba b2f0 8b3d 2fd0 b13c 85a8 9cbd
000001c0: fa70 71bb 3340 a33c 2e2a eabb c0de 793d
000001d0: 6f80 aabd 1ecd cd3c bdef 98bd ace9 903b
000001e0: 9ec1 ba3c 9cb1 7cbb 39b3 27bc ee97 dcbc
000001f0: dd9d 82bd 1c59 5c3c 4bcd 913c ed2c 063d
00000200: 038c 643d 6b28 2bbd e152 94bd 82bf 603c
00000210: 5abf c1bd bfe5 a6bd 2ece 94bd e112 f5bb
00000220: 14b2 1c3c cebb 4d3c 1cd0 d1bb 3a18 d7bc
00000230: f290 a83c 4da2 9abd 2397 ef3a 307b a4bd
00000240: b8ea d9bc 1c6e 8f3d 57b1 84bd 3501 b7bd
00000250: ef6d b6bc 980e ee3c e472 053e 500d 663d
00000260: edcb d63b 2967 d93d 815d 293d 56ba 5bbd
00000270: fb39 d53d 8324 ba3c 2412 cfbc 3b71 b0bc
00000280: 5899 cfbc 9be1 6e3d 6171 2ebc 0747 af3c
00000290: 3de7 a2bd 0265 283c 820f e23d 4a23 063c
000002a0: 95ab cb3d 547b 943d bffd f6bc eb9d eebc
000002b0: d381 9a3d c4b4 bebb 627d 01be 3c75 a43d
000002c0: f336 eb3b dde1 e1bd 55b7 f73d 7994 01bc
000002d0: cfa3 c53b 1386 243d ec8b 62bb 8f8a 863d
000002e0: ca0b c7bc d478 02bb a7e2 983d 3471 2b3d
000002f0: 706c 203d 6236 d8bc 5306 e1ba ad5f 3abd
00000300: a6eb 753c 8e57 3f3b cbdd 34bd b74c 973d
00000310: fa6f 0d3d 7306 3abc 1f76 d83d 53af d6bc
00000320: 0b5a 01bd 19bc 81bd 3282 423c c696 573d
00000330: 8edb efbc 4897 e93b f800 eabc 58fc 543d
00000340: ea32 8bbd 0957 853d 2e69 ffbb 17bc 17bc
00000350: 66de 0b3d 2a56 603d c0ab ddbb afef d8bc
00000360: 2b5d 8a3d 2b17 9dbd 93ce 293d 0428 963d
00000370: ed45 08bd 2e80 96bc 1e61 f63c 7c0d d53c
00000380: ea08 153c 118c 253c f76b 9cbb 5ef9 b3bc
00000390: 847b 1bbd c47c 823d 59fd e23c 61e1 38bc
000003a0: 48a8 8dbd d96f b3bd 1744 8abd 26f7 293d
000003b0: e5e4 65bd 6a31 8dbd bdd9 aabd 3a38 a7bc
000003c0: ab83 073d c658 873b c4f1 903c bf6e 983c
000003d0: 40e9 023d e4d7 d93c 1cc0 7eba 66a1 f0bc
000003e0: e469 bc3c 3792 153d f5ab a4bd b817 9abd
000003f0: 33b2 c83c b124 bc3d 82d2 983c 700f ce3d

conv2.bias f4 [96]
-0.03901247 -0.082364134 0.03368448 -0.09047665 -0.060519367 0.041701913 0.03674001 0.07356788
-0.059852794 -0.027981885 0.12920201 0.07361196 0.034222182 0.00063421053 -0.1026595 -0.098998465
-0.036643133 -0.054010995 0.08794575 0.008493185 0.07814599 -0.034458775 0.039576236 0.07615108
0.039368514 0.017679086 -0.066717625 -0.017027728 0.004851501 -0.065997116 0.12599915 0.020691566
0.11670038 -0.08726626 0.0203659 0.008516803 0.02045667 -0.09342656 0.12011675 0.0071894233
-0.034514792 0.041613143 -0.028628027 0.12730895 -0.024284681 0.094213866 -0.017322902 0.035665303
-0.05672484 0.010892883 0.0860249 -0.049679875 0.045545235 -0.063470654 0.043243784 -0.013683973
-0.040408276 0.078257464 0.0024719364 -0.0028783148 0.069639474 0.01897329 0.01548082 -0.034898065
-0.010104206 0.0026101337 -0.060184117 0.11887494 -0.05208547 0.0033821191 -0.04931136 0.0017601858
0.063489236 -0.0702577 -0.02038597 -0.06505542 -0.027380753 0.061348144 -0.048223186 -0.04509579
-0.04735289 -0.016985107 -0.09442806 -0.012661096 0.14856349 -0.048600998 0.018717192 -0.017955156
0.047668952 0.07159676 0.025021538 0.014317984 -0.09172487 -0.0056417207 0.0641459 -0.03712823
00000000: 8acb 1fbd 87ae a8bd bdf8 093d d24b b9bd
00000010: 28e3 77bd a0cf 2a3d b17c 163d c2aa 963d
00000020: 3428 75bd 443a e5bc 884d 043e dec1 963d
00000030: 8f2c 0c3d 2641 263a 253f d2bd b5bf cabd
00000040: 1c17 16bd a23a 5dbd e71c b43d 0027 0b3c
00000050: 010b a03d a524 0dbd b11a 223d 19f5 9b3d
00000060: e140 213d bbd3 903c 40a3 88bd bc7d 8bbc
00000070: 57f9 9e3b 7f29 87bd ec05 013e 5c81 a93c
00000080: 9c00 ef3d a7b8 b2bd 63d6 a63c 108a 0b3c
00000090: bf94 a73c 6d56 bfbd c5ff f53d 4195 eb3b
000000a0: 625f 0dbd 8b72 2a3d 5385 eabc 475d 023e
000000b0: abf0 c6bc 33f3 c03d c2e8 8dbc c815 123d
000000c0: 4e58 68bd 1078 323c d32d b03d 207d 4bbd
000000d0: a48d 3a3d e7fc 81bd 6520 313d be32 60bc
000000e0: 2683 25bd 7345 a03d 3600 223b 1ca2 3cbb
000000f0: 249f 8e3d e06d 9b3c 44a3 7d3c 46f1 0ebd
00000100: 1d8c 25bc c70e 2b3b 9f83 76bd b474 f33d
00000110: 9357 55bd 8ba6 5d3b b5fa 49bd 09b6 e63a
00000120: a506 823d 45e3 8fbd 7a00 a7bc c73b 85bd
00000130: 9a4d e0bc 3148 7b3d ad85 45bd 5db6 38bd
00000140: 1bf5 41bd 5a24 8bbc 8063 c1bd 7c70 4fbc
00000150: 0721 183e d711 47bd cc54 993c b116 93bc
00000160: 8540 433d 52a1 923d f8f9 cc3c fa95 6a3c
00000170: 40da bbbd 2fde b8bb ed5e 833d c513 18bd

fc.weight f4 [1, 96]
-0.100237586 0.12168978 -0.07205644 0.1178553 0.049530696 -0.088396445 0.010116716 -0.08323668
-0.029672626 0.105352275 -0.0669459 -0.107784264 0.06091534 -0.04101123 0.031386785 0.048207745
-0.016973006 -0.07296354 -0.085588545 -0.04369831 -0.085333325 0.0074213906 -0.060411695 -0.024838584
-0.031180657 0.10652691 0.09195376 0.10018229 0.047593825 0.154103 -0.16653453 0.11412615
-0.09106187 0.06403102 -0.044804063 0.025806466 0.040572826 0.094628654 -0.047607552 -0.11698098
0.06164875 -0.027087862 0.053052876 -0.04888036 -0.080552325 -0.08719613 -0.09939598 0.036588978
0.07263889 0.08494727 -0.097814605 0.09918001 -0.08818445 0.07503516 0.09688226 0.085026905
0.027475547 -0.101596355 0.020385304 0.12900329 -0.056030888 -0.042773556 0.09548156 -0.07854054
-0.09150547 0.03434726 0.044888932 -0.03612898 -0.047712974 0.109785125 0.09642311 0.078220226
-0.030266566 0.06900287 0.059495974 0.15748523 0.06408491 -0.09943417 -0.09722996 0.06576857
0.13439305 0.09848733 0.16938834 -0.03548878 -0.14779797 0.1161222 -0.092555024 0.05974515
-0.025228797 -0.08936769 0.038662814 -0.075930245 0.023774277 0.028192135 -0.11827559 0.12575224
00000000: 5d49 cdbd 7e38 f93d 5492 93bd 1f5e f13d
00000010: b3e0 4a3d 3209 b5bd 95c0 253c fe77 aabd
00000020: 0214 f3bc efc2 d73d ef1a 89bd ffbd dcbd
00000030: 5d82 793d 64fb 27bd 6e8f 003d 7c75 453d
00000040: f90a 8bbc e96d 95bd 0c49 afbd 00fd 32bd
00000050: 3dc3 aebd 232f f33b 4172 77bd 497a cbbc
00000060: 946e ffbc c82a da3d 4152 bc3d 5f2c cd3d
00000070: bef1 423d 2dcd 1d3e 0788 2abe f9ba e93d
00000080: a57e babd b222 833d 7784 37bd 1568 d33c
00000090: b12f 263d abcc c13d 2300 43bd b993 efbd
000000a0: 6683 7c3d 5de7 ddbc f94d 593d c636 48bd
000000b0: 9ef8 a4bd e293 b2bd 1f90 cbbd 53de 153d
000000c0: b3c3 943d d6f8 ad3d 0653 c8bd e41e cb3d
000000d0: 0d9a b4bd 09ac 993d 356a c63d 9622 ae3d
000000e0: 6614 e13c c011 d0bd 15ff a63c 7019 043e
000000f0: a580 65bd 5333 2fbd d68b c33d ddd9 a0bd
00000100: 3867 bbbd b6af 0c3d 75dd 373d fbfb 13bd
00000110: ae6e 43bd 06d7 e03d 7b79 c53d ed31 a03d
00000120: 97f1 f7bc 6051 8d3d 0db2 733d cf43 213e
00000130: f33e 833d 24a4 cbbd 8020 c7bd acb1 863d
00000140: 559e 093e bab3 c93d 2374 2d3e af5c 11bd
00000150: 5a58 17be 7ad1 ed3d 7d8d bdbd 55b7 743d
00000160: 9fac cebc 6806 b7bd e65c 1e3d 5181 9bbd
00000170: 46c2 c23c 31f3 e63c 793a f2bd 32c5 003e
