audio_classifier.pth (torch, 124140 bytes, 8 tensors)

layer1.weight f4 [128, 40]
000000 31 18 80 26 ca 03 00 00 3b 17 00 00 95 00 00 80
       8.888341e-16 1.359e-42 8.334e-42 -2.09e-43
000010 9a 04 00 80 1a 0c 00 80 60 18 00 00 29 15 00 00
       -1.651e-42 -4.341e-42 8.744e-42 7.591e-42
000020 b8 23 00 00 1c 0d 00 00 e6 10 00 00 0c 0e 00 00
       1.2813e-41 4.703e-42 6.062e-42 5.039e-42
000030 65 10 00 80 ff 17 00 00 9a 08 00 80 0a 02 00 80
       -5.881e-42 8.608e-42 -3.086e-42 -7.31e-43
000040 58 0b 00 00 21 08 00 80 46 08 00 00 b6 06 00 80
       4.07e-42 -2.916e-42 2.968e-42 -2.407e-42
000050 e3 15 00 80 b8 1c 00 00 df 1d 00 80 67 01 00 80
       -7.851e-42 1.0302e-41 -1.0716e-41 -5.03e-43
000060 9a 16 00 00 cc 15 00 00 17 0c 00 80 ab 10 00 80
       8.108e-42 7.819e-42 -4.337e-42 -5.98e-42
000070 f1 05 00 00 e2 0a 00 00 c4 06 00 80 8c 17 00 80
       2.131e-42 3.904e-42 -2.427e-42 -8.447e-42
000080 9e 08 00 00 c2 04 00 00 73 17 00 80 b3 1a 00 80
       3.091e-42 1.707e-42 -8.412e-42 -9.578e-42
000090 08 14 00 80 f8 0b 00 80 5c 1f 00 80 f7 13 00 00
       -7.186e-42 -4.294e-42 -1.125e-41 7.162e-42
0000a0 40 4e 79 bb 4a aa 19 3c 79 73 3c 3d 59 b1 2b 3b
       -0.0038041025 0.009378979 0.04600856 0.0026198237
0000b0 f7 d8 4a 3d fc c7 c8 ba 1d fb 2e 3d b7 3c 81 3b
       0.04952332 -0.0015318389 0.04271995 0.0039440054
0000c0 36 54 b2 3c 35 6f e3 3c 2a 63 82 3c 61 a3 3f 3d
       0.02176867 0.027762989 0.015916426 0.04678667
0000d0 7b 6d 15 bb 06 1a 24 3d cd 42 97 bc ff c1 84 3c
       -0.002280085 0.04006388 -0.01846447 0.016205786
0000e0 41 af 0b bc e2 75 49 bb 1e 15 44 3c ff 70 4e bb
       -0.0085256705 -0.003074043 0.011967925 -0.0031500456
0000f0 da 34 0b bb 05 6a 4f bc e9 c2 d1 ba f4 7a 60 bb
       -0.0021241219 -0.012659554 -0.0016003522 -0.0034252973
000100 59 7c 4c 3b b8 81 70 bb 63 c4 41 bc fa 87 0b bc
       0.0031202047 -0.0036698412 -0.011826607 -0.008516306
000110 cb 45 9a bc 85 06 d3 bb 1f ed 75 bb 62 44 1f 3c
       -0.018832108 -0.006439986 -0.0037525368 0.009720894
000120 ec e6 09 3c 83 45 0f 3c ac af 90 35 57 df c1 3b
       0.0084168725 0.0087446 1.0779963e-06 0.0059165168
000130 06 33 8c 3c f0 e8 fe 3b 83 66 58 3c 3c d7 17 bb
       0.017114174 0.007779233 0.013208034 -0.0023169061
000140 95 5f 02 bc c5 67 84 3c 65 30 19 3d 20 f9 5e 3b
       -0.007957359 0.016162762 0.03739967 0.0034023002
000150 51 72 2f 3d 2e bf 89 3b 0b 0b 53 3d 24 4c 44 3c
       0.04283363 0.0042036986 0.051524203 0.011981044
000160 00 4a 0b 3d 09 df c4 3c 93 10 4f 3c e0 51 4c 3d
       0.03400612 0.024032133 0.012638229 0.04988277
000170 db 7d 4c bb 2c 8b 33 3d c4 e8 b7 bc 56 c8 b7 3c
       -0.0031202945 0.043833897 -0.022449858 0.022434395
000180 48 72 0c bc 23 84 0e bc fb 3e 92 3c ae 93 c5 bb
       -0.008572169 -0.008698496 0.017852297 -0.0060295677
000190 bb 8d f4 bb a7 6c 5c bc f7 4d b8 39 76 c5 bb ba
       -0.0074631847 -0.013453639 0.00035153303 -0.0014325816
0001a0 c3 71 41 3b c5 e7 7d bb e1 fa 87 bc f4 9d 77 bc
       0.002951727 -0.0038742882 -0.01659912 -0.015113343
0001b0 e6 cc ad bc 01 90 18 bc 8f 44 8e 3b 4f 81 8c 3c
       -0.021215867 -0.009311677 0.004341669 0.017151503
0001c0 48 28 94 3c f0 45 5f 3c 16 72 05 ba f5 9d 92 3b
       0.018085614 0.013627514 -0.00050905475 0.0044743964
0001d0 8f 52 23 3c a4 66 90 3a 63 05 85 3c 7a 92 2d 3b
       0.009968414 0.0011016917 0.01623792 0.0026485012
0001e0 e9 29 31 bb 7d ef e7 bb e7 2b 41 bd 21 e9 3b 3b
       -0.0027033037 -0.00707811 -0.04716101 0.0028672891
0001f0 b8 cc 43 bd 2f ef 73 3c 6a d4 69 bd 87 39 48 3c
       -0.047802657 0.014888569 -0.05708734 0.012220747
000200 28 b1 c4 bc b2 8a 03 bd 82 3b ae bb 81 db 40 bd
       -0.024010256 -0.032114692 -0.0053171525 -0.047084335
000210 c6 ea fa 3b d1 1b 2a bd 45 22 8c 3c bd e4 75 bc
       0.0076573817 -0.041530434 0.017106185 -0.015008149
000220 87 09 eb 3b e6 04 31 3b d5 45 70 bc 6c 83 1b 3b
       0.0071727666 0.0027010976 -0.014665087 0.0023729457
000230 fb be 4c 3a 46 c1 bb 3c d5 c1 e9 ba 9e 23 93 3b
       0.0007810441 0.022919308 -0.0017834256 0.00449033
000240 6f cb 0c bb 7f 21 1f 3b 55 92 69 3c f8 c1 20 3c
       -0.002148356 0.002428144 0.01425608 0.009811871
000250 89 1e c3 3c c8 60 68 3c 7d 4c 0b 3c fd 55 e3 bb
       0.023818271 0.014183231 0.008502123 -0.006937741
000260 63 9b ed bb 2a 62 e4 bb d9 3c e9 39 97 69 fb bb
       -0.0072511896 -0.00696971 0.00044486558 -0.0076724994
000270 9b 9e 72 bc 94 4c a2 bb 94 81 79 bc f8 58 79 ba
       -0.014808322 -0.0049529765 -0.015228648 -0.00095118536
000280 91 54 93 ba f4 d4 89 3c 97 3b 18 3d 4f 81 19 3a
       -0.0011240413 0.016825177 0.037166204 0.00058557553
000290 39 69 30 3d 5d bc 00 bc 5d 11 1a 3d 32 fb 98 3a
       0.0430691 -0.007857409 0.037614215 0.0011671542
0002a0 d2 5c bb 3c 2f 53 8a 3c d7 2e 1e 3b bb a2 28 3d
       0.022871409 0.016885368 0.0024136805 0.041170817
0002b0 a3 d4 64 bb 82 fc fb 3c 6c 1c 8c bc 79 32 9c 3c
       -0.003491678 0.030760054 -0.017103396 0.019067036
0002c0 e0 a3 09 bc 90 81 95 bb 3b a4 4b 3c ca 31 bd bb
       -0.008400887 -0.004562564 0.012429292 -0.0057737576
0002d0 87 b8 98 bb c6 94 86 bc a3 ce cc 3a ef 29 bd bb
       -0.0046606692 -0.016428363 0.0015625547 -0.005772821
0002e0 ad 8e 89 3b 71 79 2d 3b 3c 0a 26 bc 08 66 2e bc
       0.0041979165 0.002647009 -0.010134276 -0.010644443
0002f0 75 48 a7 bc c0 5e 33 bc fd e0 cc bb 2b ce 20 3c
       -0.020420292 -0.010947883 -0.0062524066 0.009814779
000300 cd 27 05 3c bf 67 b5 3b 6a 12 b7 bb a3 80 40 bb
       0.008127165 0.005536049 -0.005586912 -0.0029373548
000310 bf 47 a9 3b 35 0c 82 3b db 99 3d 3c 3a f3 82 ba
       0.0051660235 0.0039687403 0.0115723265 -0.00099907
000320 07 bd 4f 0e ff 09 00 80 fe 03 00 00 07 07 00 00
       2.5605733e-30 -3.586e-42 1.432e-42 2.521e-42
000330 af 20 00 80 8e 07 00 80 e7 24 00 80 aa 1e 00 80
       -1.1725e-41 -2.71e-42 -1.3238e-41 -1.1e-41
000340 7d 1e 00 80 4f 18 00 00 1f 18 00 00 e5 19 00 00
       -1.0937e-41 8.72e-42 8.653e-42 9.289e-42
000350 0f 23 00 80 2f 0c 00 80 19 13 00 00 94 08 00 80
       -1.2577e-41 -4.37e-42 6.851e-42 -3.077e-42
000360 4c 1b 00 00 3a 01 00 80 c2 26 00 80 90 00 00 80
       9.792e-42 -4.4e-43 -1.3904e-41 -2.02e-43
000370 55 02 00 80 ed 25 00 80 5e 02 00 80 78 00 00 00
       -8.37e-43 -1.3605e-41 -8.49e-43 1.68e-43
000380 d4 17 00 00 e4 07 00 80 b2 03 00 80 a0 1b 00 80
       8.548e-42 -2.83e-42 -1.326e-42 -9.91e-42
000390 0d 19 00 00 ae 07 00 00 51 08 00 00 a0 0d 00 80
       8.987e-42 2.755e-42 2.983e-42 -4.888e-42
0003a0 fc 13 00 80 d0 21 00 80 2b 13 00 00 92 14 00 80
       -7.169e-42 -1.213e-41 6.876e-42 -7.379e-42
0003b0 48 10 00 80 92 22 00 00 2d 04 00 00 ac 17 00 00
       -5.84e-42 1.2401e-41 1.498e-42 8.492e-42
0003c0 85 69 8e 2f 10 09 00 80 7b 10 00 80 68 0d 00 80
       2.5904626e-10 -3.251e-42 -5.912e-42 -4.809e-42
0003d0 1c 0f 00 00 f4 02 00 00 f8 23 00 80 63 17 00 80
       5.42e-42 1.06e-42 -1.2903e-41 -8.39e-42
0003e0 f6 12 00 00 34 04 00 00 f0 20 00 00 b5 08 00 00
       6.802e-42 1.508e-42 1.1816e-41 3.123e-42
0003f0 66 12 00 00 12 02 00 00 ef 18 00 00 4c 1a 00 00
       6.6e-42 7.43e-43 8.944e-42 9.434e-42

layer1.bias f4 [128]
000000 45 00 00 00 f5 b8 cd b9 64 eb d6 39 8e 82 e1 3a
       9.7e-44 -0.0003923845 0.0004099264 0.0017205046
000010 2e 50 b7 ba 08 02 00 80 11 08 00 00 67 0c 00 00
       -0.0013985687 -7.29e-43 2.894e-42 4.449e-42
000020 6d 07 00 00 50 06 00 80 34 3b ae 3a ad 73 e4 38
       2.664e-42 -2.264e-42 0.001329279 0.000108934335
000030 94 75 4a 3a bc 53 2e 2a 51 1b 00 80 e0 d3 c5 3a
       0.0007723209 1.5483356e-13 -9.799e-42 0.0015093051
000040 fa 01 64 b9 ea 99 05 3b d0 2a d5 87 00 64 00 80
       -0.00021744511 0.002038593 -3.207384e-34 -3.5873e-41
000050 90 3b ad 25 66 f0 ff 3a d4 a3 05 b8 f8 08 00 00
       3.0051077e-16 0.00195266 -3.1862248e-05 3.217e-42
000060 fd 6e 41 3a 35 47 00 80 cf 01 00 00 8a 07 00 00
       0.0007378904 -2.5544e-41 6.49e-43 2.705e-42
000070 2d 53 00 00 75 b8 a7 b7 be f2 c4 b4 92 54 c5 3a
       2.9838e-41 -1.9993846e-05 -3.6684463e-07 0.0015055111
000080 fe 59 ac 3a 30 ce 97 9c 59 09 00 00 ee 05 c3 b9
       0.0013149378 -1.004564e-21 3.353e-42 -0.00037197716
000090 28 52 1e 16 a6 dc fd a8 14 70 8f 3a c2 6e 1c 89
       1.2789062e-25 -2.8184334e-14 0.0010943436 -1.8829895e-33
0000a0 5e 31 1d b4 0f 7d 6b ba af 68 f2 3a c1 48 06 3a
       -1.4639724e-07 -0.0008983174 0.0018494333 0.00051225355
0000b0 0b 32 7d 3a 5a 0b 00 80 d1 06 83 ba 38 06 00 80
       0.0009658641 -4.072e-42 -0.0009996538 -2.231e-42
0000c0 af 7f 1c 31 18 19 28 31 a4 b7 59 b5 1d 7e f0 3a
       2.2773567e-09 2.4461482e-09 -8.110603e-07 0.0018348132
0000d0 7c 06 56 8c 21 8e a3 3a 21 71 0b ba ef 1f 00 80
       -1.6487912e-31 0.0012478271 -0.0005319287 -1.1456e-41
0000e0 6a 81 f6 b8 f6 e0 97 3a 8f f5 05 3a 58 0d 00 80
       -0.00011754299 0.0011587429 0.00051101384 -4.787e-42
0000f0 d8 0f 00 00 bd 4b 14 b9 0f 18 00 80 40 21 00 00
       5.684e-42 -0.00014142595 -8.63e-42 1.1928e-41
000100 d9 1f 47 bb 49 00 00 00 9b 74 41 3a ec 1e 00 00
       -0.0030383973 1.02e-43 0.00073797413 1.1093e-41
000110 ab 25 20 3b 5a f0 3c ba 5f 0e 91 39 e0 20 d9 b0
       0.0024436514 -0.0007207446 0.00027667262 -1.5798172e-09
000120 59 0d 4c ba c4 19 00 00 71 13 00 80 f8 76 3f 39
       -0.00077839714 9.243e-42 -6.974e-42 0.00018259499
000130 f2 e8 8b b9 82 27 22 28 6d 73 c1 ba e7 0f 00 00
       -0.00026685704 9.001373e-15 -0.0014759131 5.705e-42
000140 41 67 70 3a 9d c2 fa 39 e2 81 00 00 03 66 00 80
       0.00091706595 0.00047828714 4.6593e-41 -3.6595e-41
000150 ff b8 8c ba 09 6c 98 39 93 06 00 00 38 eb f2 39
       -0.0010736285 0.00029072192 2.358e-42 0.00046333089
000160 79 f0 d3 b9 4b 1b d8 3a 5f 8d ab ba a1 c4 ae b9
       -0.00040424222 0.0016487626 -0.0013088397 -0.00033334366
000170 e7 ee 1e 85 6f 00 00 00 63 1b 00 00 28 da 20 aa
       -7.473004e-36 1.56e-43 9.825e-42 -1.4286543e-13
000180 c0 1c 27 b5 e0 e6 b7 b7 f3 90 5b ad 07 03 00 80
       -6.2254185e-07 -2.192281e-05 -1.2480894e-11 -1.086e-42
000190 1d aa a6 3a 33 46 9b ac 24 16 32 ba 3c 29 2e bb
       0.0012715493 -4.4131586e-12 -0.00067934603 -0.002657487
0001a0 83 21 fe b9 cd bc 9e 3a b8 4b 97 39 68 b9 13 00
       -0.00048471623 0.001211071 0.0002885738 1.811386e-39
0001b0 a5 db 7e 3a 6f 77 a6 ba c6 30 bd ae b6 0a 87 b9
       0.00097220606 -0.0012700389 -8.603389e-11 -0.00025757187
0001c0 1e 7a c2 37 c7 26 13 ba 29 21 00 80 6b 03 00 80
       2.3183467e-05 -0.0005613383 -1.1896e-41 -1.226e-42
0001d0 c4 ef cd 3a 38 08 00 00 0b 13 00 80 0b ac 49 3a
       0.0015711715 2.948e-42 -6.831e-42 0.0007693178
0001e0 f4 27 bc 39 05 a1 97 ba a7 f2 45 3a 8c 9f 39 3a
       0.00035887922 -0.0011568373 0.00075511116 0.0007080964
0001f0 f5 2c 41 bb 93 1c 38 ba 8f 44 6a 38 5c 1a 00 80
       -0.002947626 -0.0007023301 5.5853798e-05 -9.456e-42

layer2.weight f4 [128, 128]
000000 a7 0b 00 80 4e 13 61 bc 2e 99 e7 bb 7c d2 29 3c
       -4.18e-42 -0.013737513 -0.007067821 0.010365125
000010 9b 24 b3 bb 3c 04 00 00 63 14 00 80 7b 09 00 00
       -0.00546701 1.519e-42 -7.313e-42 3.401e-42
000020 37 02 00 00 0c 14 00 00 5c 9a 33 bc f2 5d 15 bc
       7.95e-43 7.191e-42 -0.010962095 -0.009116637
000030 51 03 0d 3c d2 cb 0c 28 46 09 00 00 3c db 0a bc
       0.008606748 7.815758e-15 3.327e-42 -0.008475121
000040 e5 90 5c 3c d2 84 74 3c 8c 19 d1 08 5c 09 00 00
       0.01346228 0.014924245 1.2584736e-33 3.358e-42
000050 5b 34 7b 27 7c 2e 50 3c 16 14 21 3a 2c 0d 00 80
       3.486163e-15 0.012706395 0.00061446556 -4.725e-42
000060 d4 02 0d 3c 57 09 00 80 90 12 00 80 30 12 00 00
       0.008606631 -3.35e-42 -6.659e-42 6.524e-42
000070 84 1b 00 00 2e 01 f1 b6 3c 37 21 b6 e6 10 dc bb
       9.871e-42 -7.182497e-06 -2.402302e-06 -0.0067158816
000080 81 ac a2 3b 26 37 88 1b f6 1b 00 80 df f6 2c 3c
       0.0049644117 2.2534952e-22 -1.003e-41 0.0105569055
000090 e8 28 2e ac 6e 58 58 1a 79 b2 1e 3c 20 d5 0d 06
       -2.4749595e-12 4.4739186e-23 0.009686106 2.6675732e-35
0000a0 67 24 17 b5 ae ab 9f bb 33 85 8f 3c 1f 1f 33 3c
       -5.6304856e-07 -0.0048727607 0.017519569 0.010932713
0000b0 d8 27 ef 3a 9c 10 00 80 70 6f e8 38 30 0d 00 00
       0.0018246127 -5.958e-42 0.00011083379 4.731e-42
0000c0 c6 02 37 31 98 3b 17 b0 e4 99 db b7 0c 0f af bb
       2.6631581e-09 -5.501817e-10 -2.6178495e-05 -0.00534237
0000d0 ab 29 a8 0e e0 a9 b7 3b f8 fe 78 3c 91 02 00 00
       4.1455322e-30 0.0056049675 0.015197508 9.2e-43
0000e0 5b 12 2b 3c a8 9b 8f 3c ba fb 83 3c 21 0a 00 80
       0.010441388 0.017530277 0.016111244 -3.634e-42
0000f0 53 00 00 00 ae 69 6e bc bc e7 7c 20 c3 06 00 80
       1.16e-43 -0.014551563 2.1421905e-19 -2.426e-42
000100 88 02 25 3c dc 0f 00 00 b3 a0 86 3c 39 1f 00 80
       0.010071404 5.689e-42 0.01643405 -1.12e-41
000110 8b f5 37 3c 15 f4 44 3c 8f 48 45 3c 44 44 6e b1
       0.011227976 0.012021084 0.012041225 -3.4672363e-09
000120 a0 4b d0 bb c6 07 00 00 6a 02 00 80 c7 43 43 3c
       -0.0063566715 2.789e-42 -8.66e-43 0.011918015
000130 e4 60 91 bb 02 77 e3 b3 3f 81 30 3c 6f 00 00 80
       -0.004436599 -1.05921586e-07 0.010773002 -1.56e-43
000140 42 37 e7 bb 6a d8 04 3b d4 04 00 00 d9 0b 00 80
       -0.007056148 0.0020270594 1.732e-42 -4.25e-42
000150 42 21 3c 3c df f9 57 3a 20 1f 00 00 af d7 fc 3b
       0.011482539 0.0008238833 1.1166e-41 0.007716141
000160 a1 a5 f8 bb 4b 1b 44 3b 9a c9 e4 bb 89 7f 84 ba
       -0.007588104 0.0029923494 -0.0069820406 -0.0010108809
000170 fc 83 78 10 aa 05 00 80 7b 12 00 00 d0 2e 02 ac
       4.9011053e-29 -2.032e-42 6.63e-42 -1.8500097e-12
000180 97 24 d3 35 01 ac 25 3c f0 5c 51 2d a1 07 00 80
       1.5731374e-06 0.01011181 1.1900911e-11 -2.737e-42
000190 b4 8e 28 3b 72 7a c6 ac aa 05 b9 bb c7 63 90 bb
       0.0025719823 -5.6410926e-12 -0.005646427 -0.0044064256
0001a0 da 4f 4d 3c 0a 23 9c bb 02 33 c5 bb 60 df 08 00
       0.012531245 -0.004764919 -0.0060180435 8.14816e-40
0001b0 4f cc fe bb 85 da 45 bb 6e d8 6c a5 cd f3 2a 3c
       -0.0077758203 -0.0030190062 -2.0543066e-16 0.010434103
0001c0 3d 95 70 3c 2b 8c 1c bc 49 1a 00 80 1e 0c 00 80
       0.014684019 -0.009554903 -9.43e-42 -4.347e-42
0001d0 6c 28 82 3c 15 25 00 00 0f 1f 00 00 cb a6 ed 3a
       0.015888415 1.3303e-41 1.1142e-41 0.0018131373
0001e0 5f 7a 15 3c b2 21 1f 3c bc 44 b3 ba 26 82 7e 3c
       0.009123414 0.009712623 -0.0013677101 0.0155339595
0001f0 03 38 1c bc 1d 6e 88 3c 82 56 07 bb d6 1d 00 00
       -0.009534839 0.016654069 -0.0020650928 1.0703e-41
000200 fb 0a 00 80 15 de a6 bb b9 33 de ba f1 d0 d5 3b
       -3.939e-42 -0.005092392 -0.001695267 0.006525152
000210 9c 44 25 bb 4a 0c 00 80 cd 1e 00 00 f5 01 00 00
       -0.0025217896 -4.408e-42 1.1049e-41 7.02e-43
000220 18 01 00 00 a1 09 00 00 86 f4 9c bb 93 51 71 bb
       3.92e-43 3.454e-42 -0.0047898917 -0.0036822304
000230 1f 37 05 3c 5c ea 79 a8 8c 1a 00 00 9b 6d 4f bb
       0.008130818 -1.3873095e-14 9.523e-42 -0.0031651023
000240 1c a9 16 3c c2 d3 03 3c e3 81 d1 09 28 16 00 00
       0.009195592 0.008046092 5.0437065e-33 7.948e-42
000250 b4 7e a3 a5 49 e4 e8 3b 2d 30 71 3b 9f 08 00 80
       -2.836185e-16 0.007107292 0.0036802397 -3.093e-42
000260 85 5b 16 3b 0c 1a 00 80 bc 16 00 00 5e 0a 00 00
       0.0022942733 -9.344e-42 8.156e-42 3.719e-42
000270 e4 12 00 00 46 82 0f 37 cd c0 bb 35 53 fc 41 bb
       6.777e-42 8.553796e-06 1.3988698e-06 -0.002959986
000280 35 f2 b8 3a b0 c0 67 9c 95 06 00 00 41 83 17 3c
       0.0014110269 -7.668053e-22 2.361e-42 0.009247602
000290 5c 72 88 9c c2 7f ed a7 00 a0 78 3b 5f 51 1e 89
       -9.029286e-22 -6.591923e-15 0.0037937164 -1.9056819e-33
0002a0 10 09 65 b3 42 76 25 bb a2 dd ba 3b 9f c8 19 3c
       -5.332646e-08 -0.002524749 0.00570269 0.009386211
0002b0 78 fc 43 3b 62 02 00 80 15 51 37 bb fc 14 00 80
       0.0029905122 -8.55e-43 -0.0027971913 -7.528e-42
0002c0 eb 74 3b 31 18 d7 40 ae c0 04 8f b7 6c 5b ee bb
       2.7278542e-09 -4.3846787e-11 -1.704914e-05 -0.007274082
0002d0 24 37 b2 8d 6a d0 13 3b 04 57 f9 3b 0a 1f 00 80
       -1.0983372e-30 0.0022554644 0.00760925 -1.1135e-41
0002e0 44 ea aa 3b 3e 55 f1 3b f3 7a 3b 3c 98 24 00 80
       0.005215915 0.007364898 0.011442888 -1.3127e-41
0002f0 35 12 00 00 97 80 98 bb c8 96 ac 81 80 04 00 80
       6.531e-42 -0.004654001 -6.339918e-38 -1.614e-42
000300 6a 69 13 3c 5c 19 00 80 4f bf 06 3c b4 06 00 00
       0.008997301 -9.097e-42 0.008224322 2.405e-42
000310 1e 1c 06 3c 4e 29 99 3b 95 65 f3 3b 2e 6c f0 b1
       0.008185415 0.0046741134 0.007427881 -6.997218e-09
000320 7f 15 53 bb d3 04 00 80 ca 01 00 00 d3 50 0b 3c
       -0.0032208858 -1.73e-42 6.42e-43 0.008503157
000330 3c 5d 83 bb 61 65 a4 a9 5f 1a 84 3b cb 0f 00 00
       -0.004008917 -7.3006495e-14 0.004031464 5.665e-42
000340 ad e5 8c bb bc d6 8b 3b a1 0c 00 00 cb 1a 00 00
       -0.0042998404 0.0042675417 4.53e-42 9.612e-42
000350 b6 a1 d1 3b 90 0a 51 3a 5b 1d 00 00 52 44 b4 3b
       0.0063974513 0.0007974291 1.0531e-41 0.0055013085
000360 ca a3 21 bb d6 96 4f 3a 7e 97 59 bb 5e 00 76 bb
       -0.0024664276 0.00079188996 -0.0033201869 -0.003753684
000370 c8 06 9d 01 db 07 00 80 9d 17 00 00 f8 8c 8a 2b
       5.768242e-38 -2.818e-42 8.471e-42 9.844616e-13
000380 9c 24 4e b4 88 fd cc 3b c1 e4 02 ad ef 13 00 00
       -1.9198563e-07 0.006255809 -7.440438e-12 7.151e-42
000390 49 4b 97 3b 67 3b 41 2c 34 33 5e 3a 27 0a 9c bb
       0.004617129 2.7459925e-12 0.0008476258 -0.0047619524
0003a0 fa 0c cc 3b c3 21 17 bb 60 57 98 39 eb 37 00 80
       0.006227133 -0.0023060895 0.000290568 -2.006e-41
0003b0 12 08 1a bb 50 9b ad ba 5b 79 15 25 c5 a8 47 3b
       -0.0023503345 -0.0013245139 1.2964807e-16 0.0030465585
0003c0 80 22 e5 3b 58 d6 3f bb 02 10 00 00 05 1e 00 80
       0.006992638 -0.0029272046 5.743e-42 -1.0769e-41
0003d0 f7 37 a5 3b a1 1d 00 00 f4 0b 00 80 1d 66 60 3b
       0.005042072 1.0629e-41 -4.288e-42 0.0034240552
0003e0 33 61 b4 3b 4d 32 a3 3b 91 e6 32 bb c1 4e 25 3b
       0.005504751 0.0049803616 -0.0027298073 0.0025223943
0003f0 2b d0 bf bb 3d 8f 0e 3c 3e e5 12 bb a1 00 00 00
       -0.005853673 0.008701143 -0.002241447 2.26e-43

layer2.bias f4 [128]
000000 3c 4c 5e 3b 44 cc 93 3a a7 1b 96 ba 54 35 d7 3a
       0.003391995 0.0011276086 -0.0011452333 0.0016419091
000010 2f 03 21 3b 20 81 2b 3b 29 94 10 3b 36 a3 12 3b
       0.0024568548 0.0026169494 0.0022060967 0.0022375113
000020 f1 41 3e 3a da 8c 39 3b 12 2c 9a 3a 90 f5 a2 3a
       0.0007257751 0.0028312714 0.0011762402 0.0012432802
000030 fe 32 0b 3b 8e 5d e2 39 56 33 c8 3a 2b 72 ed 3a
       0.002124011 0.00043175783 0.0015274088 0.001811569
000040 b2 19 73 3b b8 23 b7 39 1a 29 8f 3a 03 23 db 3a
       0.0037094173 0.00034931093 0.0010922283 0.0016718808
000050 95 9c 8d 3b 5f fd 54 3b f1 9c 58 b2 62 dd b4 39
       0.0043216445 0.0032499654 -1.2608539e-08 0.00034497218
000060 9d 01 3b b9 ec 7a 81 b9 d1 c0 91 3a 1a 00 63 39
       -0.0001783431 -0.0002469638 0.0011120086 0.00021648445
000070 65 2c 7b 3b 02 11 0e 3b 8a 3a 6e b8 84 24 9e 3a
       0.0038326022 0.0021677618 -5.679814e-05 0.0012065326
000080 e2 9f db 3a 6d 14 e6 3a 88 9e 24 3b f7 e9 49 3b
       0.0016756023 0.0017553695 0.0025118906 0.003080962
000090 e0 22 31 3b 8f e5 25 3b c8 84 5b 3a 7c 92 11 3b
       0.0027028844 0.002531383 0.0008373973 0.0022212556
0000a0 a8 95 d0 3a aa e1 b3 3a 76 da 06 3b dd e5 81 3a
       0.0015913742 0.0013723869 0.002057699 0.0009910424
0000b0 ec 85 5e 3a b6 ea cd 3a 83 41 92 38 b7 68 6f ba
       0.0008488584 0.0015710208 6.974025e-05 -0.000913273
0000c0 b6 17 73 3b d3 5f 1a 39 73 88 19 3b 85 76 98 3a
       0.003709299 0.00014722282 0.0023427277 0.0011632001
0000d0 a2 02 01 3b 1f d6 92 3a 36 4e e9 3a f9 5f 95 3b
       0.0019685407 0.0011202729 0.0017799798 0.00455856
0000e0 b6 0b 55 3b 65 54 ba 3b b7 dc 1c 3a 70 8f 7d 3a
       0.00325082 0.00568633 0.0005983817 0.0009672558
0000f0 e0 b4 d1 3a 1b 70 4a 3b 78 ea 57 3b b7 eb b4 3b
       0.001599934 0.0030889574 0.003294615 0.0055212635
000100 4a 57 7c 39 08 60 f5 39 bd 43 57 3b 3a 51 1a 3b
       0.0002406511 0.0004680159 0.0032846772 0.002354695
000110 68 88 81 ba d3 0b 24 3b c7 80 0b 3b 2c 3c 21 3a
       -0.0009882571 0.0025031462 0.0021286474 0.0006150629
000120 1e 22 f6 3a e5 9b 3e 3b 04 c6 ef 39 01 2c 7e 3a
       0.0018778478 0.002908462 0.00045733165 0.0009695888
000130 7b 27 91 3a a5 73 33 3b 62 49 30 3b 9c 4d 88 3b
       0.0011074388 0.0027382162 0.0026899208 0.0041596424
000140 e4 04 1d 3b 56 2b ae b6 04 cb db 3a 6b de 29 3b
       0.0023959214 -5.190649e-06 0.0016768877 0.0025919925
000150 4c 01 6d 3b 18 25 80 3b 47 50 31 b8 39 18 13 3b
       0.0036164103 0.003910672 -4.2274853e-05 0.0022444858
000160 08 55 ee 39 97 07 2c 3b 6a 2e 63 3a 0c e2 8b 3b
       0.0004545825 0.002624964 0.0008666279 0.0042688902
000170 9a dc 34 3b 65 a3 19 3b 63 3c 30 3a 6e bc ee 3a
       0.002759731 0.0023443338 0.00067228655 0.0018214115
000180 7d be 25 3b 8c 59 9d 3b ae 12 68 3b 57 9a f1 3a
       0.0025290542 0.0048019346 0.0035411525 0.0018432838
000190 41 ba fa 3a 87 61 6d 3b 64 e7 1e 3b 92 f4 70 3b
       0.0019128994 0.003622146 0.0024246806 0.003676687
0001a0 fb 97 40 3b f2 ba 83 3a 08 83 cb 3a 82 3d 1a 3b
       0.0029387462 0.0010050221 0.0015526721 0.0023535197
0001b0 fe 52 e1 b7 be e4 e2 ba 63 ce 94 3b b2 71 b9 2f
       -2.6860736e-05 -0.0017310602 0.004541205 3.373209e-10
0001c0 4e 47 cf 39 2f 41 42 3b 62 a2 35 3b 6b 10 90 3a
       0.00039535243 0.0029640903 0.0027715196 0.0010991221
0001d0 6e 13 a4 ba 57 49 67 3b c1 31 99 3b bb a8 48 3a
       -0.0012517998 0.0035291517 0.0046751206 0.00076545373
0001e0 56 43 b2 3a 95 d6 1a bb 69 52 49 3b f2 2a db 3a
       0.001360039 -0.0023626436 0.0030719286 0.0016721173
0001f0 32 0e 63 3b 42 24 a5 b9 9a d6 33 3b b6 72 87 3b
       0.0034645912 -0.00031498267 0.0027441145 0.0041335477

layer3.weight f4 [64, 128]
000000 78 ad 2e 3c 83 63 d4 3b cc 0f 03 3c 1e 21 8a 3c
       0.010661475 0.0064815893 0.007999372 0.016861495
000010 9d 8d a6 bb 13 df 13 3c 5c 76 37 3a 59 d4 cb bb
       -0.0050827996 0.009025353 0.0006998533 -0.006220382
000020 3f 79 bd bb be 13 61 3c 12 af a4 ba bc 89 62 3c
       -0.005782276 0.013737617 -0.0012564382 0.013826784
000030 08 f3 64 3b e0 64 1d bb 97 6e 69 3c c9 93 27 3c
       0.0034934897 -0.0024016425 0.014247558 0.010228106
000040 3e 14 4c 3c 1c 52 16 3b 1a e9 a2 3b a1 7c c6 3b
       0.012455998 0.0022937125 0.0049716355 0.0060573374
000050 44 42 53 3c eb 0a 85 3c 8b 40 93 34 fe 07 30 3c
       0.012894217 0.016240558 2.7427845e-07 0.010744093
000060 66 a5 e5 b9 68 2a ae bb 24 a3 57 3c d9 88 98 bb
       -0.00043801515 -0.005315114 0.013161454 -0.0046549854
000070 b1 2f 37 3c 9a 43 b1 3b d2 69 24 38 e9 ce 30 3c
       0.011180804 0.00540967 3.91992e-05 0.010791519
000080 d4 83 80 3c 95 8a 46 bb 7c 0c 80 ba 9e 55 fb 3b
       0.01568786 -0.0030295004 -0.0009769346 0.0076701185
000090 75 f4 2d 3c b5 7f b3 bb 62 48 c1 39 b1 52 20 bb
       0.010617365 -0.0054778703 0.00036865758 -0.002446335
0000a0 fe 47 6b 3c 38 c5 c6 3b d0 e2 42 3a b0 d7 01 bb
       0.014360426 0.006065991 0.00074343104 -0.0019812398
0000b0 0a 9a 21 3c 43 e5 57 3c 59 0f f1 b9 69 75 be bb
       0.009863386 0.013177219 -0.00045978537 -0.005812336
0000c0 4b 76 8d bb 0b d4 38 bb 42 f2 5c bb d8 3f 36 3c
       -0.00431708 -0.002820256 -0.0033713733 0.01112362
0000d0 5f b9 9b 39 f3 91 23 bb 36 32 24 3c fa c3 1c bb
       0.00029702016 -0.0024958819 0.010021737 -0.0023920522
0000e0 e1 39 0e 3c c7 a1 dd bb 72 a3 99 3b 63 b9 e7 bb
       0.008680792 -0.00676367 0.0046886737 -0.0070716604
0000f0 43 83 a3 ba 02 0e 54 3c f3 a6 2c 3c 32 9c 59 3c
       -0.0012475032 0.012942793 0.010537851 0.013281869
000100 99 e4 04 3c f6 c3 a8 ba d5 3c 10 3c f1 3e 1f 3c
       0.008111143 -0.0012875784 0.008803566 0.009719596
000110 8a ea 4a 3c f6 cc d4 3b 2d 7c 3f 3c 59 d3 06 bb
       0.01238502 0.00649416 0.011687321 -0.002057275
000120 6e d2 be 3b 73 5a e6 bb 0a 4a 15 3c a2 b0 05 bb
       0.005823425 -0.0070298254 0.009111891 -0.002039947
000130 a0 92 1c 3c a1 a1 87 bb ce 72 8c 3c b8 65 aa bb
       0.0095564425 -0.0041391407 0.017144587 -0.005200114
000140 71 fe 92 3c 4c de 92 b6 a1 3f 08 bb ef a4 86 b9
       0.017943593 -4.377018e-06 -0.002078988 -0.00025681357
000150 ec 7d 84 3c 4f 3f 01 bb e8 ea b9 3b 22 06 1d 3c
       0.016173325 -0.0019721573 0.005673755 0.009583982
000160 1d c2 56 3c ac 4b 61 3c 0f 4f 09 bb 52 e0 e0 39
       0.013107804 0.013750952 -0.0020951664 0.0004289174
000170 90 ad 09 3c 26 00 2e 3c e3 78 af 3b 5a 23 1e b9
       0.008403197 0.010620153 0.005354987 -0.00015081224
000180 57 c1 4f 3c ba e0 12 3c b0 84 cd 3b 0d cb 43 bb
       0.012680373 0.008964712 0.006271921 -0.0029875666
000190 c9 d9 14 bb d3 53 b5 bb 1c b8 61 b9 bb cc 59 3c
       -0.0022712818 -0.0055336743 -0.00021526258 0.01329344
0001a0 5a 11 a7 bb b6 f6 56 ba c4 2e d0 38 d4 e5 93 3b
       -0.005098504 -0.0008200215 9.926924e-05 0.0045134816
0001b0 f5 6e 24 bb 47 6f 33 3c 37 8f 89 ba 70 19 cb 31
       -0.002509055 0.010951824 -0.0010494952 5.9109695e-09
0001c0 cc 17 65 ba 4c a9 a6 bb fe 33 2c 3c c7 e9 95 3b
       -0.0008739203 -0.0050860997 0.010510443 0.0045749876
0001d0 f2 f3 fc ba 23 d0 8d bb 88 74 87 3c 19 22 d6 ba
       -0.0019298776 -0.0043277903 0.016535059 -0.0016337066
0001e0 a0 17 f6 3b bd 1d fd ba 68 56 0c bb 07 22 12 3c
       0.0075101405 -0.0019311231 -0.0021413807 0.008919246
0001f0 a8 77 41 3c 81 6a 57 bb 51 f8 21 3c c9 79 2f 3c
       0.011808313 -0.0032869878 0.009885863 0.010710188
000200 32 ba 70 ba eb a6 f0 39 cc 1a 82 bb 2c e3 32 39
       -0.00091830187 0.0004590073 -0.0039704796 0.00017060031
000210 d7 a2 7a 3c 16 ad af b9 80 ac 5d 3c 95 f5 c0 3c
       0.015297613 -0.0003350756 0.013529897 0.023554603
000220 c9 31 65 3c 8b ad 62 bb 03 6c 07 3c a0 a9 c0 bb
       0.0139889205 -0.0034588303 0.008265498 -0.005879596
000230 23 5f 99 3c 8e 66 92 3c c7 2b 17 ba e3 86 0e 3b
       0.018722123 0.017871168 -0.0005766716 0.002174788
000240 8e 69 61 bb 89 9d b5 3c aa f0 62 3b 54 35 08 bb
       -0.003439519 0.022169845 0.003462831 -0.002078374
000250 67 24 7b bb 80 94 99 bb 17 c3 8c 34 63 60 2b bb
       -0.0038321258 -0.004686892 2.621898e-07 -0.002614998
000260 1c 4b 24 3c 14 17 b9 3c 7a 27 69 3b 13 a7 72 3c
       0.010027673 0.022594012 0.0035576508 0.014810341
000270 1f 3e 5b 3a e5 13 03 bb 37 ce 19 b8 c3 09 f7 3a
       0.0008363444 -0.0020000872 -3.6670095e-05 0.0018847514
000280 92 61 18 ba 4d 1d 6b 3c 35 d4 8a 3c 18 ff 47 3b
       -0.0005812879 0.014350248 0.016946891 0.0030517038
000290 08 c3 85 bb 94 af 33 3c 5c 73 b2 3b 32 9d 82 3c
       -0.0040820874 0.010967154 0.005445881 0.015944097
0002a0 1b f2 dd bb e0 58 bc 3a 66 13 36 3c 38 22 90 3c
       -0.006773246 0.0014369749 0.011113023 0.017594442
0002b0 ab 8e 22 bb 0c f9 e5 3b a4 b8 63 b7 65 c1 9c 3c
       -0.0024804275 0.007018214 -1.3573244e-05 0.019135186
0002c0 6e 0d 94 3c 4f b8 1f 3c c3 6e 93 3c 1a 83 18 bb
       0.01807281 0.009748532 0.017997151 -0.0023271502
0002d0 9f 7e d6 3b e7 27 60 3c fc 01 75 bb 64 f5 0a 3c
       0.006545856 0.013681388 -0.0037385216 0.008481357
0002e0 da 47 38 3a cb 58 9a 3c 07 9f 81 3b 58 d8 84 3c
       0.00070297497 0.018841168 0.003955725 0.016216442
0002f0 fb ee 4f 3c 22 57 b9 ba 0e aa 9c ba ef 7f 20 bc
       0.012691255 -0.0014140347 -0.0011952536 -0.009796127
000300 3e 0f 93 bb 77 26 5f 3c 03 4e 6d bb fb 1a 09 bb
       -0.004487901 0.013620011 -0.0036209829 -0.0020920623
000310 2e 08 95 bb d7 fb b2 b9 c5 ea a8 3a fe 46 5d 3c
       -0.0045480942 -0.0003413844 0.001288735 0.013505695
000320 7f ba b9 ba 94 26 9e 3c 6e e3 dc 39 cd b9 13 3c
       -0.001416996 0.019305505 0.00042131118 0.009016466
000330 39 4d 0f 3b 96 74 8d 3c 30 28 35 bb 0d ee c9 3c
       0.0021866097 0.017267507 -0.0027642362 0.024649644
000340 5c 00 83 bc 0a 61 4d 38 6d 0c 09 3c 9a 50 52 3c
       -0.015991382 4.8966183e-05 0.008364779 0.0128366
000350 34 0d a8 bb 94 52 9b 3c c0 08 41 ba 74 8c de b8
       -0.005128527 0.018960275 -0.00073636696 -0.00010611946
000360 0a a9 92 bb 57 75 87 3b 18 37 2d 3c bf f6 73 3c
       -0.0044757174 0.004133861 0.010572217 0.014890372
000370 79 e7 3f bb a4 7a 29 ba 31 94 93 3b 49 42 8c 3c
       -0.0029282256 -0.0006465113 0.00450375 0.017121451
000380 04 ea ce ba 30 d0 1b bb 25 d6 a1 bb f4 44 1e 3c
       -0.0015786295 -0.0023775212 -0.004938858 0.009659994
000390 b5 de 26 3c af 47 94 3c ab b5 23 3c a0 e0 51 ba
       0.010184933 0.018100588 0.0099920435 -0.0008006189
0003a0 d4 44 59 3c f9 e9 31 3c 3f 13 5c 3c 10 00 df ba
       0.013261039 0.010859006 0.013432323 -0.0017013568
0003b0 9a 49 17 3c c6 ca b3 3b 5a 7e a8 3c de ff 0f b1
       0.009233857 0.005486819 0.020568062 -2.0954682e-09
0003c0 4e 38 24 3c 23 35 41 3c 23 76 27 3b 76 e0 41 3b
       0.01002319 0.011792454 0.0025552593 0.0029583252
0003d0 89 41 2c 3c 29 53 86 3c d3 08 20 ba d3 f2 6b 3c
       0.010513672 0.016397076 -0.00061048305 0.0144011555
0003e0 e6 89 54 bb cc 74 c2 3c 10 14 89 3c 5d 3c 84 bb
       -0.0032430827 0.023737334 0.0167332 -0.004035516
0003f0 5b 5d 51 ba 8e 17 5b 3c b4 39 99 3b 40 23 8d b7
       -0.00079866283 0.013372315 0.004676068 -1.6824924e-05

layer3.bias f4 [64]
000000 8d ac c0 3b 78 5d 2f 3c d2 67 e5 3b 57 5b ec 3b
       0.0058799447 0.010703437 0.0070009017 0.007213037
000010 1c cc 0f 3c 6b 4b 1e 3c f5 91 ef 3a 5e f1 98 3b
       0.008776691 0.009661536 0.0018277752 0.004667445
000020 79 d6 9b 3b 48 a8 b2 3b 90 d5 13 3c ba a6 dd 3b
       0.0047557917 0.0054521896 0.009023085 0.00676426
000030 aa f2 c5 3b 40 30 88 3b 89 2b 0d 3c 85 d0 e8 3b
       0.0060408907 0.0041561425 0.008616337 0.0071049356
000040 cd d9 81 3b b6 25 cd 3b 6e 56 16 3c 0a d9 c7 3b
       0.0039627315 0.006260599 0.00917588 0.006098871
000050 e5 07 94 3b e4 43 1f 3c 36 03 17 3c df 6a df 3b
       0.0045175427 0.009720776 0.009217074 0.00681816
000060 5e 45 ca 3b 68 d9 cd 3b f2 22 c6 3b be 04 dd 3b
       0.00617282 0.0062820204 0.0060466463 0.00674495
000070 f8 64 c9 3b c0 25 be 3b 43 e2 06 3c a3 96 37 3c
       0.0061460696 0.00580284 0.008232656 0.011205348
000080 9c 55 98 3b e2 e3 c9 3b b8 8a ab 3b 1d b1 13 3c
       0.0046488773 0.006161199 0.0052350424 0.009014395
000090 80 b3 91 3b ca ce e4 3b 26 37 b1 3b cc 78 07 3c
       0.004446447 0.006982659 0.0054081855 0.008268546
0000a0 24 5c e5 3b ac 16 8e 3b f1 e3 0f 3c 5c d4 e1 3b
       0.0069995094 0.004336199 0.008782373 0.0068917703
0000b0 bb 28 b8 3b e7 3e bb 3b d5 5f b9 3b ad 4a 19 3c
       0.00562009 0.0057142857 0.005657176 0.009356183
0000c0 92 b8 a3 3b d5 13 24 3c bb 3f c5 3b db 86 f2 3b
       0.0049963677 0.010014494 0.00601956 0.00740133
0000d0 13 e7 40 3c b5 68 89 3b 45 8f b4 3b da 9d a9 3b
       0.011773842 0.0041933903 0.005510243 0.005176288
0000e0 5f 95 a8 3b 58 1c f2 3b d2 11 1d 3c a0 b1 bd 3b
       0.0051447595 0.0073886327 0.009586768 0.005788997
0000f0 dc ea 9e 3b 39 78 b9 3b 55 f6 d4 3b 80 6e 86 3b
       0.0048497748 0.0056600836 0.0064990916 0.004102528

layer4.weight f4 [3, 64]
000000 50 a2 09 bd c2 14 aa 3d 8a 26 07 bd b7 29 1e bd
       -0.03360206 0.083047405 -0.032995738 -0.038614
000010 58 71 9e 3d fe bd 36 bd 78 06 1e bd 0b c9 91 3d
       0.07736462 -0.044614784 -0.038580388 0.07118424
000020 e1 f5 a7 3d f8 28 21 bd 4f 65 11 bd d1 4a 05 bd
       0.082011946 -0.03934571 -0.035497006 -0.032542054
000030 09 15 93 3d 7c 36 0b bd d7 f7 a0 3d 1a 9a a4 3d
       0.071817465 -0.033987507 0.07859772 0.08037205
000040 30 f5 dc bc 4b 6a 8f 3d 7e 45 9a 3d 0c 1e b8 3d
       -0.026972383 0.07002696 0.07532786 0.08990106
000050 17 c2 20 bd 81 e6 b2 3d 74 f2 1d bd 8f 0b 82 3d
       -0.0392476 0.087353714 -0.0385613 0.06349861
000060 4b 50 2f bd ff 6f 91 3d 33 56 8e 3d fc 14 25 bd
       -0.042801183 0.0710144 0.06950035 -0.040303215
000070 e0 fd 93 3d 22 dd 82 3d f1 54 35 bd 25 98 53 bd
       0.07226157 0.06389834 -0.04427046 -0.05165877
000080 63 62 e8 bc bd ba 99 3d 90 a2 1a bd a7 b9 4b bd
       -0.028367227 0.075063206 -0.037752688 -0.0497376
000090 f3 d7 91 3d ad 33 92 3d fe d6 fb bc 0a 76 a6 3d
       0.07121267 0.071387626 -0.030742165 0.08127983
0000a0 9c f5 a5 3d 89 45 9c 3d ec 8a 17 bd 34 09 a8 3d
       0.08103487 0.0763045 -0.03699772 0.0820488
0000b0 ec b8 07 bd c1 4d a5 3d 84 85 8e 3d 1e b8 ac 3d
       -0.03313534 0.08071471 0.0695906 0.08433555
0000c0 ee e1 29 bd 09 f1 ae 3d bc d0 90 3d 0a 43 1f bd
       -0.04147523 0.085420676 0.07071063 -0.038882293
0000d0 e7 1f 2a bd 8f b9 90 3d cd 2d 00 bd 1c 30 78 3d
       -0.04153433 0.070666425 -0.03129368 0.060592756
0000e0 36 d8 95 3d f3 e4 03 bd 0f f9 98 3d 81 31 16 bd
       0.073166296 -0.032200765 0.07469379 -0.036668304
0000f0 6f 85 ee bc 92 a9 27 bd 20 7a 2c bd 33 51 81 3d
       -0.02911636 -0.0409332 -0.042108655 0.06314316
000100 6b 39 94 3d 77 ce 2a bd b1 62 90 3d 2c 80 a5 3d
       0.07237514 -0.041700806 0.07050074 0.080810875
000110 80 f7 1a bd 5b bc bb 3d b7 cf a8 3d b0 d0 f8 bc
       -0.03783369 0.09166785 0.082427435 -0.030372947
000120 f3 ae 1b bd d5 13 a3 3d be f0 91 3d d8 dd 94 3d
       -0.03800864 0.07962767 0.07125996 0.07268876
000130 1f 7d 04 bd 08 64 96 3d 1e 85 1f bd 8a 1b 20 bd
       -0.032345887 0.07343298 -0.03894531 -0.039088763
000140 25 44 75 3d 79 89 fc bc 32 cc 0f bd 64 6a 2c bd
       0.05987944 -0.03082727 -0.035106845 -0.04209365
000150 27 0e ae 3d ca 0a 32 bd ee 89 a1 3d e4 ae f3 bc
       0.08498793 -0.04346732 0.07887636 -0.02974648
000160 fc 4c b5 3d 3b 75 09 bd 78 dc 03 bd 69 81 ac 3d
       0.08852574 -0.033559065 -0.032192677 0.084231205
000170 bb 55 07 bd f6 77 e1 bc 2c 2e b3 3d b3 cd c9 3d
       -0.033040743 -0.027523022 0.08749041 0.09853687
000180 60 02 89 3d 04 3c 10 bd f6 3e a8 3d 71 ce c1 3d
       0.06689906 -0.035213485 0.08215134 0.09463204
000190 c8 00 06 bd 4f e4 0b bd c2 dd 8d 3d dd f0 25 bd
       -0.03271559 -0.03415328 0.069270626 -0.04051291
0001a0 61 97 1a bd df d3 16 bd 83 40 a1 3d 74 1c 1c bd
       -0.037742022 -0.03682315 0.07873633 -0.038113073
0001b0 d4 37 93 3d ee da 1c bd 7f 91 f0 bc fb 20 2e bd
       0.07188383 -0.038294725 -0.029366253 -0.04251192
0001c0 c6 1a b3 3d 66 aa 2d bd 53 89 0b bd b8 91 a4 3d
       0.08745341 -0.042398833 -0.03406651 0.08035606
0001d0 60 67 a9 3d 3b c2 f7 bc ed 53 94 3d c0 bc d3 bc
       0.0827167 -0.030243983 0.0724257 -0.025846839
0001e0 b9 dd 0f bd b6 46 93 3d 71 fc 19 bd 7c be a4 3d
       -0.03512356 0.071912214 -0.037594263 0.080441445
0001f0 10 93 7c 3d 07 15 af 3d 4b 74 aa 3d 16 46 ed bc
       0.061663687 0.085489325 0.083229624 -0.028964084
000200 2a 32 0c bd 13 e8 3e bd 16 7d 14 bd b7 c2 3b bd
       -0.034227528 -0.046608042 -0.036252104 -0.04583999
000210 33 2b 24 bd 53 c3 39 bd 0f cf 1a bd b7 8f 2e bd
       -0.04008026 -0.04535229 -0.037795123 -0.042617526
000220 79 71 35 bd f8 d0 36 bd 06 c0 1b bd 45 30 1e bd
       -0.04429767 -0.044632882 -0.038024925 -0.038620252
000230 72 50 0d bd f6 63 11 bd 00 c3 1b bd 62 9f 32 bd
       -0.034500547 -0.03549572 -0.038027763 -0.04360903
000240 5d 38 03 bd f5 44 11 bd a7 0b 3e bd 59 0a 4b bd
       -0.032036174 -0.035466153 -0.04639783 -0.049570415
000250 99 e1 43 bd ad 89 7a bd a1 df 2c bd e6 20 1e bd
       -0.04782257 -0.061166454 -0.042205457 -0.038605593
000260 84 4b 2d bd ff 25 0e bd d3 4c 0e bd e7 c9 1c bd
       -0.042308345 -0.034704205 -0.034741234 -0.038278487
000270 2b 4d 17 bd 16 7e 04 bd 14 ca 4b bd f8 3a 5a bd
       -0.036938827 -0.032346807 -0.049753264 -0.053278893
000280 96 1d 0f bd 65 3e 33 bd 86 42 20 bd 75 b8 4d bd
       -0.034940325 -0.043760676 -0.03912594 -0.05022474
000290 2c cd 19 bd 11 e8 24 bd f3 a0 1d bd da 87 23 bd
       -0.037549183 -0.04026038 -0.03848357 -0.03992448
0002a0 12 b4 3a bd e2 9a 1f bd d4 22 2e bd 15 4c 3a bd
       -0.045581885 -0.038966067 -0.042513683 -0.045482714
0002b0 d1 e5 26 bd 3d 23 26 bd 40 44 1b bd bb a4 34 bd
       -0.040746514 -0.04056095 -0.037906885 -0.04410241
0002c0 a8 d2 40 bd 2c 8f 49 bd 88 2c 1e bd 63 7e 3b bd
       -0.047075897 -0.049208805 -0.038616687 -0.04577483
0002d0 83 ef 40 bd 36 f6 25 bd 1d 93 25 bd b0 9c d7 bc
       -0.047103416 -0.04051801 -0.0404235 -0.026319832
0002e0 33 64 32 bd 47 dd 10 bd c8 8a 21 bd 46 f7 17 bd
       -0.04355259 -0.035367277 -0.039438993 -0.037101053
0002f0 d7 32 ee bc 8c 1e 4a bd b7 13 3e bd 45 4c f8 bc
       -0.029076977 -0.049345538 -0.04640552 -0.030309806

layer4.bias f4 [3]
000000 7c 51 6a 3d 61 22 34 3d 3b d7 d4 bd
       0.057206616 0.0439781 -0.103926145
