audio_classifier3.pth (torch, 73260 bytes, 6 tensors)

conv1.weight f4 [48, 24, 3]
0	0xbd48d340	-0.04902959
1	0xbdd767eb	-0.10517868
2	0x3d57a7fb	0.052650433
3	0xbdea5c97	-0.11443441
4	0xbd19d65e	-0.037557952
5	0xbd56c4a3	-0.05243362
6	0xbae0fe0c	-0.0017165556
7	0x3e01d9a6	0.12680683
8	0xbd941d6b	-0.072321735
9	0xb9953f7e	-0.000284668
10	0xba61f65c	-0.0008619779
11	0xb9959c6b	-0.00028536035
12	0x32ee7b50	2.7762923e-08
13	0xb6c3f94f	-5.840476e-06
14	0xb42d603a	-1.6146888e-07
15	0x391681a2	0.00014353407
16	0xb9f974bd	-0.00047579958
17	0xb7304894	-1.0507316e-05
18	0xb706b7be	-8.029803e-06
19	0xba0ad225	-0.0005295596
20	0x3729eeda	1.0128797e-05
21	0xb8b29721	-8.5158514e-05
22	0xbc455c36	-0.012045911
23	0x39941c5e	0.00028249895
24	0xbbbc1821	-0.005740181
25	0xbd80b76c	-0.06284985
26	0xbc8060c1	-0.015671136
27	0x3a1238a3	0.00055778975
28	0xbbc31d02	-0.0059543857
29	0xb8a1fc70	-7.7240984e-05
30	0xb85d645a	-5.2783966e-05
31	0xbc08be25	-0.008346115
32	0xb8e4fd9c	-0.000109191256
33	0xbcb49b1f	-0.022046624
34	0x3d934236	0.07190363
35	0x3d047012	0.03233344
36	0x3d8879dd	0.066638686
37	0x3caf97e3	0.02143473
38	0x3c9c091c	0.019047312
39	0x3b5ce8a2	0.0033707996
40	0xbd152015	-0.03640755
41	0xbd91248a	-0.070870474
42	0xbcc9ec81	-0.024648907
43	0x3d487a10	0.048944533
44	0x3dd1494d	0.10219059
45	0xbdb6450e	-0.0889989
46	0xbd8844c6	-0.066537425
47	0xbcd3adc4	-0.025839694
48	0x3db28020	0.08715844
49	0x3dfc86bd	0.12330387
50	0xbd9ce63f	-0.076611035
51	0x3c4b95b9	0.012425833
52	0x3d705054	0.058670357
53	0x3d6c3e41	0.057676557
54	0x3dc58002	0.09643556
55	0x3d23b266	0.039965056
56	0xbd887bbb	-0.06664225
57	0x3db4fe6c	0.088375896
58	0xbd50baab	-0.05095927
59	0xbc440d2f	-0.011966034
60	0x3c2395ec	0.009984475
61	0x3d46ad0d	0.048504878
62	0x3cbd509f	0.023109732
63	0xbceb2a95	-0.028706828
64	0xbd9032be	-0.07040928
65	0x3ca6ac59	0.020345854
66	0x3c5cd2db	0.013478006
67	0xbdfc4eb6	-0.123197004
68	0xbc7a5a4c	-0.0152803175
69	0x3d48cc30	0.049022853
70	0xbdaf4400	-0.08557892
71	0xbd98d9a6	-0.07463388
72	0x3db251c0	0.08706999
73	0xbdcff1ad	-0.10153518
74	0x3d7c2d55	0.06156667
75	0x3daf1dac	0.08550581
76	0x3d1d06bf	0.03833651
77	0xbbda545f	-0.00666289
78	0x3dc65f0d	0.09686098
79	0x3cb88cfe	0.022528168
80	0x3dc53aab	0.09630331
81	0x390b1450	0.0001326364
82	0xbaf432b5	-0.0018630835
83	0xb8279e51	-3.9963346e-05
84	0xb9e2e48c	-0.0004327636
85	0x36f21174	7.214194e-06
86	0x39fc4c03	0.0004812182
87	0x3879e14c	5.957605e-05
88	0xba86fec2	-0.0010299312
89	0xb7a8bd46	-2.0115298e-05
90	0x38ab8f57	8.1806145e-05
91	0xba94a415	-0.0011340404
92	0xb86b6f72	-5.6132158e-05
93	0x39acb912	0.00032944285
94	0xbc971c79	-0.018446194
95	0xb9ea2506	-0.00044659543
96	0x3c15d639	0.009145313
97	0xbd26543f	-0.040607687
98	0x3b64e07d	0.0034923845
99	0x38862a16	6.397457e-05
100	0xbc2ad767	-0.0104273325
101	0xb90fe845	-0.0001372407
102	0xba33998f	-0.000685119
103	0xbc663d5a	-0.014052713
104	0xb93ecf71	-0.0001819709
105	0xbd6f054c	-0.05835466
106	0x3c5f7023	0.013637575
107	0xbc5deb4d	-0.01354487
108	0x3c57a942	0.013162913
109	0x3d5839da	0.052789547
110	0x3df152eb	0.117833935
111	0xbd15ba74	-0.03655477
112	0x3ba5cac7	0.0050595733
113	0xbd8d1c8b	-0.0689021
114	0x3debe757	0.11518734
115	0xbc105e96	-0.008811614
116	0xbcec4b1f	-0.028844414
117	0x3c21ffb9	0.009887629
118	0xbd6cc34b	-0.057803433
119	0xbce44fdc	-0.027870111
120	0x3c79275d	0.015207139
121	0x3dd4d107	0.10391431
122	0x3db31280	0.08743763
123	0x3dab9648	0.08378273
124	0xbb8c0a45	-0.004273685
125	0xbd80359d	-0.06260226
126	0x3d00d9d8	0.031457752
127	0xbd4c979a	-0.049949266
128	0xbd0ca6c1	-0.034338716
129	0x3d8e4a8b	0.06947812
130	0x3df255e3	0.11832788
131	0xbd2285df	-0.03967845
132	0x3d9b5dd4	0.07586256
133	0xbc0fa166	-0.008766508
134	0x3d91919f	0.07107853
135	0x3d1cfa23	0.038324486
136	0x3dd16dba	0.10226007
137	0xbce31bb1	-0.027723165
138	0xbbf31c42	-0.00741914
139	0xbe039c42	-0.12852576
140	0x3c0e01a8	0.008667387
141	0x3d353b1b	0.04424582
142	0x3c50d524	0.012746129
143	0x3d9a8255	0.0754439
144	0xbbb97448	-0.0056596138
145	0xbdda9dbe	-0.10674618
146	0x3d80b2d8	0.06284112
147	0xbd7a7d5a	-0.0611547
148	0xbdcae1d0	-0.099063516
149	0x3d67820c	0.056520507
150	0x3cd7ee28	0.026358679
151	0x3e1f10e1	0.15533783
152	0x3d9aa4de	0.07550977
153	0x39e93265	0.0004447877
154	0xbadec60c	-0.0016996278
155	0xb811a0da	-3.47205e-05
156	0xb3bd839a	-8.8249365e-08
157	0xb740f6a5	-1.1501518e-05
158	0x376874d8	1.3855482e-05
159	0x38819580	6.179046e-05
160	0xba5e8846	-0.0008488934
161	0x37f5832b	2.9267356e-05
162	0x39cc6f52	0.00038992852
163	0xba89dc78	-0.0010517975
164	0xb70bda09	-8.335811e-06
165	0xb92303dd	-0.0001554633
166	0xbcbf33f9	-0.023340212
167	0xb97e1256	-0.00024230158
168	0xbc16f3eb	-0.009213428
169	0xbcd90a30	-0.026494116
170	0xbd231ec7	-0.039824273
171	0xb8a2204d	-7.7307785e-05
172	0xbc3efa78	-0.011656396
173	0xb8cab790	-9.666302e-05
174	0xb8fb6578	-0.00011987513
175	0xbc84148e	-0.016123082
176	0xb9056799	-0.00012722462
177	0x3ca9f6c1	0.020747544
178	0x3dd7aa08	0.10530478
179	0x3c339dd8	0.010962926
180	0xbd8f4b17	-0.06996744
181	0x3dcf42fb	0.101201974
182	0x3d57a19d	0.05264436
183	0xbd594624	-0.053045407
184	0x3e02871a	0.1274685
185	0x3ceb8f88	0.028754964
186	0x3d9b9e57	0.0759856
187	0x3dfd9937	0.12382739
188	0xbdd52e35	-0.10409204
189	0xbd03a406	-0.032138847
190	0x3da7cd8d	0.081935026
191	0x3dc236ad	0.09483085
192	0xbdbdfc0d	-0.092765905
193	0x3e008b71	0.12553193
194	0x3cb711e1	0.022347393
195	0x3d91c084	0.071167976
196	0x3dabacaf	0.08382546
197	0x3c1d58e4	0.009603713
198	0xbd47cfb0	-0.04878205
199	0x3d49c638	0.0492613
200	0x3d11622a	0.035494007
201	0xbd6e66f6	-0.05820366
202	0x3c002fc0	0.0078238845
203	0xbc105936	-0.008810332
204	0x3dc72473	0.09723749
205	0x3d35b725	0.044364113
206	0xbd904747	-0.07044845
207	0x3dbff261	0.09372402
208	0x3de568ed	0.11201654
209	0x3caf2ba3	0.021383112
210	0x3d9972b9	0.07492585
211	0xbd73a393	-0.05948217
212	0x3d526fe0	0.051376224
213	0x3c536082	0.012901427
214	0x3e163298	0.14667737
215	0xbc128179	-0.0089420015
216	0x3d03adcc	0.032148167
217	0x3dcb7490	0.09934342
218	0xbdcb3586	-0.09922318
219	0xbc508ba9	-0.01272861
220	0x3d90b4e7	0.070657544
221	0x3d82a2b6	0.06378691
222	0xbd344f1e	-0.044020765
223	0xbd055a9e	-0.032557122
224	0xbb4315c7	-0.002976762
225	0x3945aba5	0.00018851327
226	0x3a26d7f7	0.0006364579
227	0xb76c71a2	-1.4093153e-05
228	0x34698c28	2.1750805e-07
229	0xb9902cb5	-0.0002749913
230	0x330af084	3.2349377e-08
231	0x3689794b	4.0970385e-06
232	0x39aff11e	0.00033558247
233	0x36564bd3	3.193262e-06
234	0x368bbb22	4.164308e-06
235	0x3a55c6ab	0.0008154909
236	0x373e0b30	1.1327487e-05
237	0x381107b3	3.4577864e-05
238	0x3c01ecc8	0.007929988
239	0x37cf285c	2.4695117e-05
240	0x36bbb332	5.5938954e-06
241	0x3dbf7e40	0.09350252
242	0x3a3f4d49	0.0007297588
243	0x3921010c	0.00015354546
244	0x3b7ad448	0.0038273502
245	0x37a4df41	1.9654284e-05
246	0x37a148c3	1.9226578e-05
247	0x3bb1e89a	0.0054293396
248	0x39e869a0	0.00044329185
249	0xbd4e4dd5	-0.050367195
250	0x3d93763a	0.07200284
251	0xbd8d0b88	-0.06886965
252	0x3d416c8c	0.04722266
253	0x3d5d0aff	0.053965565
254	0x3d26f342	0.040759332
255	0xbca33b8c	-0.019925855

conv1.bias f4 [48]
0	0x3bfb788a	0.0076742815
1	0x3ce469c6	0.027882468
2	0xbc3db13d	-0.011577901
3	0x3ceab4b7	0.028650625
4	0xbba3bf9c	-0.004997207
5	0x3d305a15	0.04305466
6	0xbb9b7661	-0.0047443365
7	0xbc51256d	-0.012765271
8	0x3d9e4a31	0.07728995
9	0x3dd6d1c1	0.10489226
10	0xbc9c8f6d	-0.01911136
11	0x3be4edfa	0.006986377
12	0xbc8af713	-0.016963517
13	0x3d953872	0.07286157
14	0xbcf3422f	-0.029694645
15	0xbd189ec2	-0.03726078
16	0x3e1840b4	0.14868432
17	0xb9045995	-0.00012621873
18	0xbd379077	-0.044815507
19	0x3de3ddf0	0.111263156
20	0x3d8505e1	0.06495262
21	0x3d861479	0.065468736
22	0xbc5bee06	-0.013423448
23	0xbd0c5c8a	-0.03426794
24	0x3e0c7841	0.13717748
25	0xbd99cce9	-0.07509787
26	0xbcfcb60d	-0.030848527
27	0x3b9c5357	0.004770677
28	0x3e03402a	0.12817445
29	0xba1590a0	-0.000570545
30	0xbb6d5da6	-0.003621915
31	0xb94bb470	-0.00019426807
32	0x3da45b11	0.08025182
33	0xbbb14286	-0.0054095415
34	0xbbc48a14	-0.0059979055
35	0xbc91c340	-0.017793298
36	0x3dc7e2ed	0.097600795
37	0xbcb2cff8	-0.021827683
38	0x3d78953a	0.06068919
39	0xbd26295f	-0.0405668
40	0xbb5b9d69	-0.0033510572
41	0xbd81eb69	-0.06343729
42	0xbab5cf4a	-0.0013870981
43	0xbd37ff2b	-0.04492108
44	0xbc210625	-0.009828125
45	0x3d3b4260	0.045717597
46	0xbcf0e277	-0.029404862
47	0x3daf2666	0.08552246

conv2.weight f4 [96, 48, 3]
0	0x3c98e2c6	0.018662822
1	0x3d28f59d	0.04124986
2	0x3d23c9d0	0.039987385
3	0x396b2eec	0.00022428826
4	0x3c7759c8	0.015097089
5	0x3c1b5106	0.009479767
6	0xbd032f0e	-0.032027297
7	0x3d17f8b0	0.0371024
8	0x3babd790	0.005244203
9	0x3aae6f3d	0.0013308298
10	0x3d9351bc	0.07193324
11	0x3c9c7b05	0.019101629
12	0xbc56781f	-0.013090163
13	0x3d03cf5c	0.032180175
14	0x3d252a7a	0.040323712
15	0x3b456e22	0.0030125459
16	0xbab7bab5	-0.0014017435
17	0x3b45e583	0.0030196614
18	0xb9e21581	-0.000431221
19	0xbd04ad17	-0.032391634
20	0xb86fbbb3	-5.715685e-05
21	0xb803c6ca	-3.141797e-05
22	0xbb794a8a	-0.0038038814
23	0xbb0709fc	-0.0020605316
24	0x3ba66820	0.0050783306
25	0x3ba523bf	0.0050396617
26	0x3ba1ac27	0.0049338522
27	0xbd132385	-0.035922546
28	0x3c0cf6f8	0.008603804
29	0x3d83306d	0.06405721
30	0xbc83b298	-0.016076371
31	0xbd45263e	-0.048132174
32	0xbd277164	-0.040879622
33	0x3aa80331	0.0012818334
34	0xbd565e34	-0.052335933
35	0xbb150ea1	-0.0022744315
36	0x3709f927	8.223847e-06
37	0xbc72a99a	-0.014810944
38	0xbc41afd4	-0.011821706
39	0x3b99d8be	0.004695027
40	0xbd2450af	-0.04011601
41	0x3bab102a	0.0052204328
42	0xbd2c6006	-0.042083763
43	0x3d0e02b1	0.034670535
44	0x3c892fe8	0.016746476
45	0xb5144edc	-5.524905e-07
46	0xbcf87042	-0.030326966
47	0xb88ac284	-6.616584e-05
48	0x3c0f4f3c	0.008746918
49	0x3b93b1d2	0.004507282
50	0x3c196739	0.009362989
51	0xb5a5732e	-1.232698e-06
52	0xbb59aa2b	-0.0033213
53	0x3362a220	5.2767177e-08
54	0xbbed4c61	-0.007241771
55	0x3d0564c9	0.03256682
56	0x3c63140c	0.01385976
57	0x3be74f02	0.007058979
58	0x3ad645f1	0.0016347748
59	0x3bdb680e	0.006695754
60	0x3b79b755	0.003810366
61	0x3d28dc2a	0.04122559
62	0xbc9deffb	-0.01927947
63	0xbbb2e344	-0.005459221
64	0x3cac6c9a	0.021047879
65	0xbb2df9b6	-0.0026546544
66	0xbc814ed2	-0.015784655
67	0x3d25df5a	0.040496208
68	0x3d2c276b	0.04202978
69	0x3bfa8f66	0.007646489
70	0xbcedfdd2	-0.029051695
71	0x3d68f45f	0.056873675
72	0x3c0e4edf	0.0086857965
73	0x3c38b3f9	0.011273378
74	0x3c0db146	0.008648222
75	0xbc94b182	-0.018151049
76	0xbcdf9470	-0.02729246
77	0x3a37fffe	0.0007019042
78	0x3d10790d	0.035271693
79	0xbd8ba127	-0.06817847
80	0x3d80357d	0.06260202
81	0x3b7d24b0	0.0038626604
82	0xbd5c07a3	-0.05371822
83	0xbb293769	-0.002582038
84	0x3c04efee	0.008113844
85	0xbc528329	-0.012848654
86	0x39e22a1d	0.00043137456
87	0x37841148	1.5743673e-05
88	0xbd7b21dd	-0.06131159
89	0xbb734168	-0.0037117843
90	0x392f03de	0.00016690741
91	0x3b198644	0.0023425976
92	0x39de4afe	0.00042399013
93	0xb69b194a	-4.622304e-06
94	0x3b1b7076	0.0023718155
95	0x3489654e	2.5591947e-07
96	0x3b288c2a	0.002571831
97	0xbd2224c5	-0.039585847
98	0xbcf25123	-0.029579705
99	0xbd55395d	-0.05205666
100	0xbd684c52	-0.05671341
101	0xbd59271f	-0.053015824
102	0xb7388942	-1.09992125e-05
103	0x3d180e36	0.037122928
104	0x36e69273	6.871583e-06
105	0x36c1dd78	5.7776306e-06
106	0x3c003eba	0.007827455
107	0xb8a3ef4d	-7.817019e-05
108	0x3c35b833	0.01109128
109	0xbc80f4d3	-0.015741741
110	0x3cd4cee5	0.025977561
111	0xbcfe5ee5	-0.031051109
112	0xbd2f1e8e	-0.04275375
113	0x3cace2a0	0.021104157
114	0x3c6f0aac	0.014589947
115	0xbd0c7d65	-0.034299273
116	0x3c99249f	0.01869422
117	0x3347743f	4.6439023e-08
118	0xbbe47fe5	-0.006973254
119	0x2d4d5f46	1.1674056e-11
120	0xbce595ec	-0.02802559
121	0xbb425703	-0.0029653914
122	0xbd0b06b6	-0.033941947
123	0xb2d9aa66	-2.5339613e-08
124	0x3d553fdb	0.05206285
125	0xb732eb39	-1.0664394e-05
126	0x3ae5f0cc	0.0017543077
127	0x3d121a4b	0.035669606
128	0xada55abb	-1.879862e-11
129	0xbc3ea508	-0.011636026
130	0x3c85a8a8	0.016315773
131	0x3b29edef	0.0025929173
132	0x3ce46016	0.027877849
133	0xbd051866	-0.03249397
134	0xbcb00785	-0.02148796
135	0xbd16f664	-0.03685607
136	0xbd21be59	-0.03948817
137	0x3d88371f	0.066511385
138	0x3cbff45e	0.023431953
139	0xbd0f2263	-0.034944903
140	0xbd28abb5	-0.041179378
141	0x3ce0eb75	0.027456025
142	0x3cc8d630	0.024516195
143	0x3d132178	0.03592059
144	0xbae16604	-0.0017196541
145	0xbd1af905	-0.03783514
146	0xbd736c73	-0.059429597
147	0x3db6d3ae	0.089270934
148	0xbbb79197	-0.0056020725
149	0xbca05d6d	-0.019575799
150	0x3d81d316	0.063390896
151	0x3cbf51ab	0.023354372
152	0xbc50d827	-0.012746847
153	0x3d8aa6f2	0.067701235
154	0x3d1c0bd2	0.03809721
155	0xbcd73542	-0.026270512
156	0xbda8b29e	-0.082371935
157	0xbcdb49ad	-0.02676853
158	0x3d28b94f	0.04119235
159	0x3b148d6f	0.0022667309
160	0xbb89d7c2	-0.0042066285
161	0xba599d31	-0.00083013164
162	0xbd99471f	-0.074842684
163	0x3c9d550a	0.019205589
164	0xbc5ba41e	-0.013405828
165	0x3b089d1d	0.00208456
166	0xbd6ddfe6	-0.058074854
167	0x3c4748ec	0.012163382
168	0xbda6349b	-0.081155024
169	0xbacc9444	-0.0015608151
170	0xbbef3cfe	-0.007300972
171	0xbd95dd7f	-0.07317638
172	0x3bf1b61b	0.007376445
173	0x3c97eb08	0.018544689
174	0xbccea7b6	-0.025226455
175	0xbd64424f	-0.0557273
176	0x3c25f1ca	0.010128448
177	0x3d1d714a	0.03843812
178	0x3ab86109	0.0014067005
179	0x3d9b82da	0.07593317
180	0x3cc4d63a	0.024027932
181	0xbd1bc341	-0.038028006
182	0x3d439977	0.047753777
183	0x3d003c8b	0.03130774
184	0x3cfaa79a	0.030597497
185	0x3ba6e666	0.0050933836
186	0x3d9d9acf	0.07695543
187	0xbd44678f	-0.047950324
188	0x3b273484	0.002551348
189	0x3d5ae8d8	0.053444713
190	0xbcac99e4	-0.021069475
191	0x3b785ed7	0.0037898326
192	0xbd9e0833	-0.077164076
193	0x3c98ef08	0.018668666
194	0xbbd3032e	-0.006439588
195	0x3c8ff4df	0.017572818
196	0xbcb2f51a	-0.02184539
197	0xb1d1cd41	-6.1060352e-09
198	0x3d48cbdc	0.04902254
199	0xbb6532b8	-0.0034972858
200	0x3d97cc64	0.07412031
201	0xbd4aaa78	-0.049478978
202	0xbbaaf1e1	-0.0052168225
203	0xbadaca47	-0.0016692363
204	0xbd3d7ecd	-0.046263505
205	0x3d862b84	0.06551269
206	0x3ca3af59	0.019981073
207	0xbd3cb196	-0.046067797
208	0xbca784a9	-0.020449
209	0xbbb5c0db	-0.005546672
210	0x3d63fbe7	0.055660155
211	0x3d64928d	0.055803824
212	0x3c2182d4	0.009857852
213	0xbcc7a849	-0.024372237
214	0x3d23493d	0.039864767
215	0x3d6b1629	0.05739418
216	0x3c6d6ce4	0.014491294
217	0xbb9ce28a	-0.0047877477
218	0xbb2658cd	-0.002538252
219	0x3b23e7e1	0.0025010037
220	0xbd0813bf	-0.033221956
221	0xbd54e5f7	-0.051977124
222	0xbc90ad2f	-0.017660705
223	0xbd821d21	-0.06353212
224	0x3d07b2e2	0.03312958
225	0x3dc6a4dd	0.09699414
226	0x3cf79987	0.030224575
227	0x3d2801bd	0.041017283
228	0x3cf23273	0.029565072
229	0x3c68b102	0.014202358
230	0x3c99d8ca	0.01878013
231	0x3cf7733a	0.030206311
232	0xbc225d68	-0.009909965
233	0x3cfca995	0.030842582
234	0xbdf051b0	-0.11734331
235	0x3d259f92	0.04043538
236	0xbbd40157	-0.0064698863
237	0x3cbb1426	0.022836756
238	0xbca93e39	-0.020659553
239	0xb5840a8a	-9.837834e-07
240	0x3d38a4fc	0.045079216
241	0xbd197f0b	-0.037474673
242	0xbcd6777f	-0.026180027
243	0x3d124491	0.03570992
244	0xbd092fc2	-0.03349281
245	0xbc41b6c4	-0.01182336
246	0xbd2a588a	-0.041588344
247	0xbc4e6f70	-0.012599811
248	0xba6a980a	-0.0008949047
249	0xbdcfb5df	-0.10142111
250	0x3a0d4c8d	0.000539013
251	0x38e52480	0.000109263696
252	0xbd3d61f9	-0.046236012
253	0x3d8aca59	0.06776876
254	0xbda63888	-0.08116251
255	0x3c989af4	0.018628575

conv2.bias f4 [96]
0	0x3d789458	0.060688347
1	0xbc8db44e	-0.01729789
2	0x3ddf8db6	0.10915701
3	0xbc8914cf	-0.016733555
4	0xbbbc9109	-0.005754594
5	0xbcaaf044	-0.02086652
6	0x3d08ff19	0.033446405
7	0x3ca4f11d	0.020134503
8	0xbd8e265b	-0.069409095
9	0x3d1ffcf5	0.039059598
10	0x3ca4f960	0.020138443
11	0xbcc666e6	-0.024218988
12	0xbd39adf8	-0.045331925
13	0x3d972299	0.07379646
14	0xb8aa32dc	-8.115705e-05
15	0x3d14e401	0.036350254
16	0x3d631dd4	0.05544837
17	0xbccaabdd	-0.024740154
18	0x3dd2d37e	0.10294245
19	0x3d10ed21	0.035382394
20	0x3c0f93c3	0.0087632565
21	0xbcdae98e	-0.026722696
22	0x3cc52b55	0.024068514
23	0xbc511c9e	-0.0127631705
24	0xbc962fb5	-0.018333295
25	0x3c8b9121	0.017036976
26	0x3d7e04a0	0.06201613
27	0xbd4a0819	-0.04932413
28	0xbc9743ae	-0.01846489
29	0x3ca9c555	0.020723978
30	0x3bf51e15	0.0074803927
31	0x3dbe5bf7	0.09294885
32	0xbb2cc113	-0.0026360198
33	0x3bfe59ad	0.007762155
34	0xbd34abcc	-0.04410915
35	0x3d19cd80	0.037549496
36	0xbc0e87fa	-0.0086994115
37	0xbd47164f	-0.04860526
38	0x3cfd1721	0.030894818
39	0xbd60e9ea	-0.054910578
40	0x3c6e44a7	0.014542735
41	0x3bccbc50	0.0062480345
42	0xbcc00eb1	-0.023444505
43	0x3be7ac84	0.007070126
44	0x3c2d8702	0.01059127
45	0xbc945e6b	-0.018111428
46	0xbd63f0f6	-0.05564972
47	0xbc9b9b02	-0.018994812
48	0xbca11688	-0.019664064
49	0x3c16acf4	0.009196509
50	0xbd12dc26	-0.03585448
51	0x3d4ec38e	0.050479464
52	0x3ddbc105	0.10730175
53	0x3cd69ac7	0.02619685
54	0xbba9706c	-0.0051708724
55	0x3db39ebb	0.0877051
56	0xbc97a4ee	-0.018511262
57	0x3dad646e	0.08466421
58	0x3c1f7e14	0.009734649
59	0x3cccbd70	0.024992675
60	0x3bac78d9	0.0052634296
61	0xbb4e6337	-0.0031492242
62	0xb9cd189f	-0.0003911899
63	0xbcff97c7	-0.031200303
64	0xbcf04998	-0.029331967
65	0x3d779f38	0.060454577
66	0xb9326a82	-0.0001701508
67	0xbd6be632	-0.05759258
68	0x3b6f78e7	0.003654057
69	0xbc78f63f	-0.015195428
70	0x3c886c52	0.016653214
71	0x3d6aa1fe	0.057283394
72	0x3d83eece	0.06442033
73	0x3d58a92e	0.052895717
74	0xbac52d54	-0.0015043416
75	0xbd1b2e13	-0.037885737
76	0x3ca60ccf	0.02026978
77	0x3b8b6352	0.0042537833
78	0xbc30dcec	-0.010794859
79	0x3dab5dcd	0.083675005
80	0x3c82c903	0.01596499
81	0xbca31985	-0.01990963
82	0x3c25f5d1	0.010129408
83	0x3c93069d	0.01794749
84	0xbc380c46	-0.011233395
85	0x3d2d4989	0.042306457
86	0x3db2b22a	0.08725388
87	0x3d0eda8b	0.034876388
88	0xbd508ca8	-0.05091539
89	0xbbd1b9e2	-0.006400333
90	0x3d39f375	0.045398194
91	0x3dac6d2b	0.0841926
92	0xbc51b519	-0.012799525
93	0xbb2f37b5	-0.0026736085
94	0xbd16c028	-0.03680435
95	0xbb963dc9	-0.004585002

fc.weight f4 [2, 96]
0	0xbd6cbc73	-0.057796907
1	0xbcce64dc	-0.025194578
2	0x3d3ad370	0.0456118
3	0x3d2b9746	0.041892312
4	0x3c8ad15a	0.01694553
5	0x39753394	0.00023384235
6	0x3da38911	0.07985128
7	0x3c3d210a	0.011543522
8	0xbe19966c	-0.14998788
9	0xbb8f2b61	-0.004369185
10	0x3a17bfaa	0.0005788753
11	0xbcda3792	-0.026637826
12	0x3dc5d35b	0.096594535
13	0x3e09387d	0.13400455
14	0x3dc64819	0.0968172
15	0x3d578c65	0.052624125
16	0x3d30eee2	0.043196566
17	0xbccdbe24	-0.02511508
18	0x3e04dc0c	0.12974566
19	0x3da32409	0.079658575
20	0xbdbcfb0b	-0.0922757
21	0xbdd40516	-0.103525326
22	0xbc8fe180	-0.017563581
23	0xbd3c8fc9	-0.04603556
24	0x3c284502	0.010270359
25	0x3da4af5d	0.080412604
26	0x3d0fbf42	0.035094507
27	0xbd5b6b9b	-0.053569417
28	0x3e0a86f9	0.1352805
29	0x3d63f157	0.05565008
30	0xbd8783fe	-0.066169724
31	0x3e1fa118	0.15588796
32	0x3dcd9be2	0.10039498
33	0xbd660b68	-0.05616322
34	0xbc148288	-0.009064324
35	0x3c1ced6f	0.009578093
36	0xbddf06a9	-0.10889942
37	0xbd65df60	-0.05612123
38	0xbcb8ecc6	-0.02257384
39	0xbd78e9a7	-0.060769703
40	0x3ddb24a4	0.10700348
41	0xbdd16cf0	-0.10225856
42	0x3db9e854	0.09077516
43	0x3d855f4d	0.06512318
44	0xbcc34020	-0.023834288
45	0xbd397ad2	-0.045283146
46	0xbdc82be5	-0.09773997
47	0xbdcd02e4	-0.10010317
48	0xbdaa71a0	-0.083224535
49	0x3d147c4c	0.03625135
50	0xbe024dad	-0.12724943
51	0x3dbc4986	0.09193711
52	0x3d8791b9	0.06619591
53	0x3dc37245	0.095432796
54	0xbcde0ddb	-0.027106216
55	0xbd2badbe	-0.04191374
56	0x3d602b62	0.054728873
57	0x3dcd2624	0.1001704
58	0x3cedffcb	0.029052636
59	0xbd5db1e3	-0.054124724
60	0xbdb559cf	-0.0885502
61	0xbdea3ef9	-0.11437792
62	0x3ce81b2b	0.028333267
63	0x3bf8c6a9	0.0075920415
64	0xbdd6ff72	-0.10497941
65	0x3da3253a	0.07966085
66	0xbcbd6859	-0.023121046
67	0x3c67d143	0.014149013
68	0xbd4ebceb	-0.050473135
69	0xbd3a59bf	-0.045495745
70	0x3c0c4805	0.008562093
71	0x3d6b636a	0.057467856
72	0x3d8dcbcb	0.06923636
73	0x3d725716	0.059165083
74	0x3d3dab96	0.046306215
75	0xbdfd16df	-0.12357878
76	0x3daf3d54	0.08556619
77	0xbd0aa640	-0.033849955
78	0xbdcdba36	-0.100452825
79	0xbd2b5ebb	-0.04183839
80	0xbdee866a	-0.11646731
81	0x3d895179	0.06704993
82	0xbe02fe45	-0.12792309
83	0x3e0d4c67	0.13798676
84	0xbd8957f6	-0.0670623
85	0x3d0a807b	0.033813935
86	0x3ca37e36	0.019957643
87	0xbd6ee9a9	-0.058328304
88	0x3d974950	0.0738703
89	0x3e006807	0.12539683
90	0x3d6a6305	0.05722334
91	0x3dea069b	0.11427041
92	0xbd30b931	-0.043145362
93	0xbdeda307	-0.116033606
94	0xbc0b8c94	-0.008517403
95	0xbdc5e4db	-0.09662791
96	0xbdbe20b0	-0.092835784
97	0x3d36ca6e	0.044626646
98	0xbcc807be	-0.024417754
99	0x3d845b08	0.06462675
100	0x3da9cf23	0.08291461
101	0x3cfef906	0.031124603
102	0xbcce9f07	-0.025222315
103	0xbde0456a	-0.1095074
104	0x3e0837d1	0.13302542
105	0xbdf08d27	-0.11745673
106	0x3dee1c64	0.11626509
107	0x3d42d57d	0.04756688
108	0xbde2019a	-0.11035462
109	0xbc8d2f95	-0.017234603
110	0xbb8d2310	-0.0043071583
111	0xbc3409ae	-0.010988636
112	0xbdafd099	-0.08584709
113	0x3d595165	0.05305614
114	0xbe08f4f8	-0.13374698
115	0xbcea1d28	-0.028578356
116	0x3cbed8cf	0.023296742
117	0x3dd77445	0.105202235
118	0x3d984536	0.07435076
119	0xbc5bb52b	-0.013409893
120	0x3d3c3da8	0.045957237
121	0x3dc1e194	0.09466854
122	0xbd500f90	-0.05079609
123	0x3daf0fec	0.08547959
124	0xbd675d86	-0.056485675
125	0xbd234cb1	-0.03986806
126	0x3db59d09	0.08867843
127	0x3b2a9984	0.0026031444
128	0x3da55577	0.08072942
129	0xbc5b3ed3	-0.013381678
130	0x3dac959c	0.08426973
131	0xbccade67	-0.024764253
132	0x3d3d4a7d	0.046213616
133	0x3d022408	0.031772643
134	0x3de7118f	0.11282646
135	0x3d13b911	0.036065165
136	0xbc4d1979	-0.01251828
137	0x3ddc9e66	0.107723996
138	0xbaa4643c	-0.0012542079
139	0xbc465292	-0.012104647
140	0xbd927c53	-0.07152619
141	0x3d2d6680	0.04233408
142	0x3d8ec434	0.069710165
143	0x3d4a5c15	0.049404223
144	0xbcb1c779	-0.021701561
145	0x3db77fe0	0.08959937
146	0x3c9df225	0.019280503
147	0xbd72aa0c	-0.0592442
148	0xbdfd5424	-0.12369564
149	0x3db16955	0.086626686
150	0x3da1c95b	0.07899734
151	0xbdeea40f	-0.116523854
152	0x3dfcf9ce	0.12352334
153	0xbd0f10c8	-0.034928113
154	0xbd402f8e	-0.04692035
155	0x3dcefd4e	0.10106908
156	0x3dcab077	0.09896939
157	0x3d5903c9	0.052982125
158	0x3d986e70	0.07442939
159	0x3dc6cb62	0.09706761
160	0x3d28409d	0.041077245
161	0x3bd08885	0.0063639306
162	0xbd8d2ebd	-0.0689368
163	0x3daf9192	0.08572687
164	0xbbeff38d	-0.0073227347
165	0x3c8ceb7f	0.017202137
166	0x3b31871e	0.0027088593
167	0xbd510e90	-0.05103928
168	0xbd86e915	-0.065874256
169	0x3d1d0226	0.038332127
170	0x3dc74e05	0.09731678
171	0x3cc1de56	0.023665588
172	0x3cce4ae6	0.025182199
173	0xbd134541	-0.035954718
174	0xbbc8b82a	-0.0061254697
175	0xbdb29fe4	-0.08721903
176	0x3d298401	0.041385654
177	0xbd963143	-0.07333615
178	0xbd6efc1b	-0.058345895
179	0xbe17f69e	-0.1484017
180	0xbd02e4b9	-0.03195641
181	0xbd01160f	-0.031515177
182	0xbdea502c	-0.11441073
183	0xbd8ca7ca	-0.06867941
184	0xbdd7ac65	-0.105309285
185	0xbe0528be	-0.13003823
186	0xbc7a2892	-0.015268462
187	0x3d3c69c9	0.045999322
188	0x3d010167	0.031495478
189	0x3d8410cc	0.06448516
190	0x3dab53c8	0.083655894
191	0xbda51432	-0.080604926

fc.bias f4 [2]
0	0x3e107655	0.1410764
1	0xbe141161	-0.14459755
