audio_classifier.pth (torch, 124140 bytes, 8 tensors)

layer1.weight f4 [128, 40]
-1.0610256e-09 -2.0408907e-11 -1.8986167e-12 1.7377193e-12 -6.008201e-13 1.3025116e-11 -2.1337559e-05 8.9419314e-07
8.425064e-07 5.740403e-06 -3.7790643e-10 1.0116103e-12 1.0871149e-06 -5.636609e-13 1.5608093e-13 -9.7256404e-14
1.9008434e-05 -4.3564023e-09 1.301868e-13 3.9080383e-08 1.9924362e-05 6.939099e-07 4.4589854e-07 -2.4202848e-11
-1.2669178e-09 1.6582118e-05 1.2585478e-13 -3.0674236e-08 -6.3639134e-05 -2.6313564e-11 -7.102291e-14 -1.0679481e-11
-5.499976e-06 -5.4199267e-16 -7.749788e-09 1.2096118e-13 3.1015433e-14 -7.337878e-13 -1.1890775e-12 1.01132576e-13
-3.0802412e-06 6.6042594e-10 -1.594136e-13 -3.5635782e-13 -1.5264191e-11 1.2866055e-13 -5.940751e-11 -8.1334956e-14
-2.9365838e-13 6.531799e-09 -1.5631713e-06 3.876417e-11 -1.0528355e-10 1.0677386e-05 -1.53955e-12 -1.0561478e-14
-6.976091e-10 1.482693e-05 1.4514023e-10 -4.712777e-08 -1.9853796e-06 -7.700971e-13 2.9845565e-14 -6.5755534e-14
1.9433735e-06 -6.7754255e-13 -7.2850524e-11 3.9173564e-10 2.3234804e-06 -2.0469774e-12 2.6760817e-14 -1.1077206e-10
4.7772404e-14 3.413918e-12 9.495282e-14 9.571995e-09 -2.6582636e-10 -3.222832e-14 -3.3144562e-10 -1.0786889e-05
2.4368608e-05 1.2379122e-08 1.7843598e-06 3.293714e-05 4.6434334e-07 1.5175287e-08 2.2771944e-11 -2.6792273e-13
3.0567566e-09 -2.7326597e-13 -2.3259613e-06 1.9527002e-09 7.39486e-08 8.326697e-09 3.11771e-13 1.6451113e-13
-3.8574255e-09 1.2313987e-13 1.3778307e-13 1.3650775e-11 -2.1504039e-13 1.2528701e-15 3.3835004e-11 -1.219796e-13
1.8034216e-14 5.4713212e-15 -3.2819103e-09 5.7837422e-11 -9.156341e-14 -3.79788e-11 5.720394e-09 -3.6543723e-13
1.6327372e-14 -6.189616e-05 5.7160263e-11 4.3378556e-12 2.303667e-13 1.936106e-13 -4.052679e-12 -2.4310697e-13
3.1167513e-10 1.6230645e-11 4.1757949e-07 -8.289886e-14 -7.948099e-13 2.6578283e-08 -2.5568873e-13 -2.1636826e-10
-1.1007644e-06 -8.3752943e-13 1.9623714e-10 -3.6547395e-13 -5.049968e-10 5.0888946e-09 1.2231247e-13 -1.4671338e-13
-2.0399014e-08 -5.4308866e-14 -1.3647601e-05 1.4570491e-13 -6.8901534e-10 -2.0766651e-13 9.251842e-08 3.6366675e-14
-1.2856103e-13 -6.7207548e-06 -1.3486521e-12 4.110322e-13 7.53713e-11 1.6554699e-05 -1.2889744e-12 7.4365644e-14
1.8259643e-06 -1.3169397e-13 6.4982163e-07 -3.6333514e-10 1.7672422e-13 1.6395786e-13 -8.9194284e-14 1.2469168e-06
1.1991554e-12 -3.1192543e-05 -2.3719974e-07 1.4904902e-08 -1.8189153e-13 2.0277989e-07 -4.836147e-10 3.164264e-13
3.1217766e-08 -7.280445e-13 3.5294982e-13 -2.5645532e-12 1.1212784e-09 9.7235015e-06 -1.9027779e-14 1.3149502e-14
2.2462431e-12 2.6212194e-07 -5.6315504e-14 -1.6607732e-10 8.120675e-14 -4.4081142e-07 5.7963902e-08 4.9982896e-10
9.172093e-14 -3.8944813e-13 -3.7577482e-13 -2.262238e-11 -2.1330622e-07 -1.8180646e-10 1.06217965e-10 -6.127162e-14
-6.9987327e-10 1.1179062e-06 5.07545e-12 1.2923785e-13 1.1778368e-11 -3.5764765e-07 5.0983496e-14 7.751845e-14
1.848792e-06 -6.5506867e-10 1.9500296e-13 1.5687976e-12 -5.095408e-08 7.797556e-12 -7.4744556e-13 1.3714412e-13
-3.1659137e-13 -4.6160766e-12 -1.7723845e-13 -8.7386587e-13 -4.873332e-10 -1.9289313e-05 2.5992815e-08 -4.7763868e-12
8.946838e-07 -1.0761062e-07 -4.6877285e-06 -1.2476039e-13 3.77955e-09 -3.3867266e-07 -1.1997516e-13 -1.8903158e-10
1.0216941e-13 -1.2241821e-09 -6.2073814e-06 1.7148541e-13 1.0370765e-14 3.9480693e-12 -4.11935e-06 1.3935698e-13
-1.0672298e-10 1.7676804e-13 1.8297272e-11 -2.5753673e-07 1.6635766e-13 3.4242333e-09 -2.7102456e-09 -1.026565e-13
9.962033e-10 -7.233708e-13 -1.5201826e-08 5.993615e-05 -1.2692437e-12 -2.8073873e-06 1.2447882e-07 1.5602508e-10
-1.9712014e-13 4.903049e-10 -9.132189e-06 3.2953362e-12 -2.3292403e-13 2.1682265e-06 6.2333136e-13 5.355382e-14
00000000: 85d3 91b0 c684 b3ad 709a 05ac f08f f42b
00000010: a71d 29ab e823 652d 0ffe b2b7 7c08 7035
00000020: 9928 6235 b09d c036 9ac1 cfaf 1a5f 8e2b
00000030: fce8 9135 0ca8 1eab 44bb 2f2a 8000 dba9
00000040: 4d74 9f37 52af 95b1 ca93 122a 56d9 2733
00000050: 3e23 a737 2045 3a35 d463 ef34 f8e3 d4ad
00000060: b51f aeb0 d419 8b37 2cb3 0d2a aebe 03b3
00000070: 0076 85b8 e174 e7ad eced 9fa9 1be0 3bad
00000080: 6f8c b8b6 0038 1ca6 ee23 05b2 b030 082a
00000090: 5cae 0b29 fc8a 4eab 0859 a7ab f6ba e329
000000a0: 24b6 4eb6 5889 3530 d87b 33aa 939c c8aa
000000b0: e743 86ad e1db 102a 74a3 82ae 6926 b7a9
000000c0: a250 a5aa 506e e031 28ce d1b5 937c 2a2e
000000d0: 5f85 e7ae 0623 3337 22ac d8ab 3842 3ea8
000000e0: e0c1 3fb0 2ec1 7837 5895 1f2f 8869 4ab3
000000f0: 903c 05b6 58c3 58ab 9869 0629 7c11 94a9
00000100: e76a 0236 16b6 3eab 3333 a0ae e45b d72f
00000110: 17ed 1b36 110b 10ac 3e0a f128 2097 f3ae
00000120: d525 5729 ae3b 702c 93d0 d529 1472 2432
00000130: bc23 92af b924 11a9 d336 b6af 56f9 34b7
00000140: 306b cc37 f4ab 5432 237e ef35 fc25 0a38
00000150: dd4a f934 cf5a 8232 dc4d c82d bcd3 96aa
00000160: 080f 5231 c7d5 99aa b617 1cb6 4430 0631
00000170: accd 9e33 330d 0f32 f082 af2a 1b39 392a
00000180: 468a 84b1 a7a4 0a2a 4421 1b2a a025 702d
00000190: 2c1d 72aa c08e b426 d4ce 142e 3a56 09aa
000001a0: 1270 a228 0820 c527 fa87 61b1 265f 7e2e
000001b0: b62e cea9 5408 27ae 1e8d c431 0eb9 cdaa
000001c0: 5b10 9328 3fce 81b8 bc64 7b2e ee9f 982c
000001d0: 57af 812a 75fc 592a 4a97 8eac 68db 88aa
000001e0: 6058 ab2f 2ac4 8e2d b02f e034 f0ab baa9
000001f0: 17b8 5fab 434e e432 a1f0 8faa 40e6 6daf
00000200: fabd 93b5 5bbe 6bab d8c3 572f 59be cdaa
00000210: fecf 0ab0 64da ae31 2bb6 092a 412f 25aa
00000220: e839 afb2 dc95 74a9 00f8 64b7 950c 242a
00000230: 2565 3db0 cccf 69aa 8aae c633 ecc7 2329
00000240: 32bf 10aa d882 e1b6 50ce bdab fc63 e72a
00000250: 45be a52e f2de 8a37 3268 b5ab e074 a729
00000260: a813 f535 3446 14aa 676f 2e35 e0be c7af
00000270: 4af9 462a a399 382a 01d9 c8a9 bc5b a735
00000280: 20c4 a82b bdd4 02b8 f8b0 7eb4 3a08 8032
00000290: aaca 4caa b6bb 5934 5cef 04b0 da21 b22a
000002a0: 4c14 0633 23ed 4cab 6eb1 c62a e276 34ac
000002b0: 7a1b 9a30 1f22 2337 1263 aba8 60e1 6c28
000002c0: b810 1e2c c4b9 8c34 5b9f 7da9 9c9a 36af
000002d0: 81dc b629 a9a8 ecb4 fcf3 7833 5664 0930
000002e0: 8489 ce29 643d dbaa dc8a d3aa 12fd c6ad
000002f0: 2b09 65b4 f8e5 47af 6693 e92e aff8 89a9
00000300: 3461 40b0 f70a 9635 9793 b22c 4682 112a
00000310: 0e35 4f2d b802 c0b4 f89b 6529 588e ae29
00000320: 0224 f835 5c10 34b0 c78d 5b2a e4c9 dc2b
00000330: 9ad8 5ab3 122d 092d 2163 52ab 1a69 1a2a
00000340: a039 b2aa ec69 a2ac 818d 47aa acf8 75ab
00000350: 06f5 05b0 7ccf a1b7 ce46 df32 de0d a8ac
00000360: 342a 7035 9017 e7b3 484b 9db6 bc77 0caa
00000370: 46dd 8131 d1d2 b5b4 7c14 07aa a9d7 4faf
00000380: a810 e629 1440 a8b0 0049 d0b6 4e13 412a
00000390: b6d2 3a28 0ce9 8a2c f238 8ab6 eae6 1c2a
000003a0: b2af eaae eb05 472a cbf1 a02d 9443 8ab4
000003b0: 554d 3b2a c04f 6b31 253f 3ab1 7129 e7a9
000003c0: caea 8830 5c9c 4bab 2b95 82b2 f363 7b38
000003d0: 53a1 b2ab 8c66 3cb6 7aa8 0534 288d 2b2f
000003e0: 03f0 5daa 24c6 0630 7436 19b7 80e3 672c
000003f0: e41f 83aa d981 1136 c273 2f2b 5a2f 7129

layer1.bias f4 [128]
3.018715e-14 -5.0429887e-09 -3.6564126e-07 3.9869534e-05 -0.00010209184 -3.2743615e-06 -6.023852e-11 -2.1098669e-14
2.7495432e-08 -3.14e-43 2.33e-43 2.1074807e-06 3.66e-43 1.5621441e-06 -4.8289528e-12 -5.534955e-14
-1.4892273e-08 -3.6061277e-07 3.7199352e-06 1.0853621e-14 -5.9508056e-16 -5.053706e-08 -1.02448904e-10 -1.46774e-07
-4.2e-44 1.9686822e-11 -2.0226656e-13 1.826904e-16 3.69e-43 3.302324e-14 1.6115358e-09 5.96e-43
-4.4935015e-07 5.773441e-06 1.6593431e-06 3.080183e-14 3.9045952e-14 -3.0441094e-17 -1.8135032e-13 -1.3e-43
7.454921e-07 -4.510874e-08 6.49e-43 -6.2201666e-10 -2.66e-43 -1.1000538e-10 -1.528013e-15 6.913349e-15
-4.5585274e-14 1.47e-43 1.6260595e-14 1.0051469e-06 -4.76e-43 8.2284214e-07 1.3160627e-14 1.2468534e-05
-8.9644966e-14 2.82723e-15 -1.08597484e-13 -5.5108558e-09 -1.9500249e-10 -2.0613871e-08 -2.8e-43 -8.0159055e-07
-1.8477923e-08 1.989952e-12 -2.1885938e-13 -5.958004e-12 -5.209708e-14 4.920164e-14 -2.5412276e-14 1.8523865e-15
1.3648292e-07 -1.0911508e-06 -1.656314e-12 1.8927397e-13 -4.13e-43 2.2351234e-14 1.6211225e-09 6.2265255e-11
-4.6106585e-14 -2.9981548e-13 6.408069e-15 5.7484613e-08 3.3121425e-05 -4.682501e-05 1.5e-44 5.31e-43
2.4102495e-14 -7.970553e-14 -1.7494307e-13 1.396668e-15 1.31916595e-05 -6.6e-44 -8.7111924e-14 -1.04058815e-08
1.0533898e-09 1.1205514e-11 -4.1033173e-15 1.2131676e-12 -5.6825624e-15 -5.6639415e-13 -1.0534558e-08 1.150383e-13
-3.9502466e-15 9.745815e-15 -1.16834465e-14 -1.4907441e-16 1.5080754e-14 5.908412e-12 2.5563917e-05 4.22e-43
-2.2184816e-14 3.1382522e-05 -5.364962e-11 1.03781375e-08 1.2570717e-12 -1.4232395e-05 2.8062656e-11 9.616384e-15
-1.0588361e-14 -6.317972e-11 -1.5267229e-06 6.908365e-15 -3.5e-44 -4.1836756e-09 1.901792e-12 1.57e-43
00000000: 6af3 0729 9946 adb1 5a4d c4b4 9639 2738
00000010: 241a d6b8 1abd 5bb6 4677 84ae 380a bea8
00000020: 182f ec32 e000 0080 a600 0000 3e6e 0d36
00000030: 0501 0000 ddaa d135 57e7 a9ac b045 79a9
00000040: e9d8 7fb2 3e9a c1b4 00a4 7936 7e85 4328
00000050: 3285 2ba6 160e 59b3 9b49 e1ae ee98 1db4
00000060: 1e00 0080 c82a ad2d 5ebb 63aa b0a0 5225
00000070: 0701 0000 34b9 1429 e07c dd30 a901 0000
00000080: 373e f1b4 7bb9 c136 98b6 de35 18b8 0a29
00000090: ebd8 2f29 8062 0ca4 ac2e 4caa 5d00 0080
000000a0: d41d 4835 96bd 41b3 cf01 0000 88fa 2ab0
000000b0: be00 0080 86e7 f1ae bb35 dca6 6414 f927
000000c0: 3e4c 4da9 6900 0000 6176 9228 96e8 8635
000000d0: 5401 0080 48e1 5c35 ae14 6d28 f22f 5137
000000e0: cedc c9a9 30b9 4b27 308a f4a9 005a bdb1
000000f0: 5268 56af 6212 b1b2 c800 0080 e22c 57b5
00000100: 62b9 9eb2 ca07 0c2c ec69 76aa eea0 d1ac
00000110: d89f 6aa9 a195 5d29 b8e4 e4a8 807a 0527
00000120: 248c 1234 a873 92b5 001b e9ab 821a 552a
00000130: 2701 0080 7052 c928 2dce de30 39ec 882e
00000140: 46a5 4fa9 f7c7 a8aa 01e0 e627 00e5 7633
00000150: dceb 0a38 f965 44b8 0b00 0000 7b01 0000
00000160: 9218 d928 1c7b b3a9 e8f7 44aa f447 c926
00000170: bf51 5d37 2f00 0080 9b28 c4a9 8dc5 32b2
00000180: dcc6 9030 2621 452d 6cd6 93a7 f8bc aa2b
00000190: 63bc cca7 006d 1fab 7afb 34b2 8885 012a
000001a0: 9852 8ea7 a490 2f28 6378 52a8 00df 2ba5
000001b0: dad5 8728 3fe2 cf2c 1872 d637 2d01 0000
000001c0: b4d2 c7a8 baa0 0338 1af4 6bae 884b 3232
000001d0: c8ea b02b acc7 6eb7 7cd7 f62d be3b 2d28
000001e0: 32be 3ea8 05ef 8aae cde9 ccb5 6ce6 f827
000001f0: 1900 0080 00c0 8fb1 a4d3 052c 7000 0000

layer2.weight f4 [128, 128]
5.7291616e-10 4.9232085e-08 3.1917036e-05 1.832778e-05 1.17878814e-11 -7.357978e-11 1.2863485e-11 1.6283008e-11
-9.598996e-11 -2.66e-43 5.06e-43 -2.1534831e-12 -6.21e-43 -9.4307895e-12 5.1343857e-05 -1.0592785e-07
1.5176946e-10 6.048624e-11 4.1946472e-12 -3.6697757e-06 5.0115527e-13 5.419496e-13 1.3243955e-07 7.475626e-11
-6.2e-44 3.581367e-13 -2.599863e-10 8.3250125e-05 5.16e-43 2.264806e-12 1.6222675e-08 -1.36e-43
-7.0289836e-08 2.3001405e-12 -1.1774516e-06 -7.310743e-06 -1.3590431e-13 9.37118e-13 -3.659413e-05 -3.07e-43
-1.3610026e-10 4.4194628e-13 7.8e-44 1.8618817e-12 -1.4e-44 -5.175297e-07 1.1045802e-12 9.786109e-05
8.034874e-09 -1.2753245e-07 -3.9471196e-08 -2.804317e-12 -6.53e-43 -5.5637363e-05 -1.9082957e-11 -1.7369266e-09
-1.9237368e-12 9.808118e-13 -2.9493623e-09 -6.0472124e-13 1.1725917e-10 -2.6589287e-08 -2.94e-43 2.6164084e-12
-1.9120669e-12 4.246751e-10 2.1961781e-11 -6.798168e-12 5.859862e-12 3.5402408e-12 1.5654971e-12 2.5377235e-12
4.0673315e-12 1.2293546e-12 1.2953876e-08 3.0612441e-09 -2.7e-44 2.3651255e-06 9.800263e-10 5.865939e-13
-8.1804e-11 1.202023e-09 -2.8311917e-12 -4.72572e-06 -1.4387302e-10 -2.2859154e-12 1.4e-43 6.49e-43
8.227085e-07 2.3326893e-05 9.158289e-08 2.3156594e-12 6.64807e-07 -5.5e-44 9.113575e-13 -5.262084e-05
-3.4210068e-08 -5.0480452e-08 -4.5954395e-12 1.3628471e-07 1.0549269e-12 -2.4766206e-10 -7.92404e-09 -2.573066e-06
1.2853981e-07 -1.3633412e-06 -5.2078103e-10 2.796947e-10 1.4910546e-08 1.9410348e-12 3.0475244e-11 4.65e-43
-1.6183051e-11 -4.8083725e-11 -2.3491044e-08 -2.6967831e-05 -1.0483329e-10 -2.0601679e-08 -1.8241958e-10 -4.214919e-09
-5.820371e-06 -1.6682655e-11 1.3400464e-07 1.2579767e-11 -5.91e-43 -3.6322696e-09 -5.7846717e-11 -4.48e-43
-4.1886136e-07 1.07066185e-07 4.606494e-12 3.5766286e-07 -7.8039005e-07 5.7905195e-11 1.7715256e-06 1.0937623e-09
-1.0126048e-05 6.99e-43 -3.11e-43 2.7053266e-09 -3.07e-43 -1.4383526e-11 -1.0062682e-05 5.980588e-07
1.7491246e-11 -4.1750078e-10 -2.2901556e-06 1.6039371e-11 1.2079739e-13 -3.965554e-10 2.8112635e-07 1.7321576e-06
3.1e-44 8.705686e-13 8.750965e-12 1.4367901e-09 5.35e-43 -2.8327877e-11 1.8794184e-09 -9.5e-44
2.3384005e-06 1.3061889e-08 6.444889e-11 -4.212049e-08 -9.621122e-06 5.5382854e-09 8.9997684e-07 -4.53e-43
8.618441e-13 6.1065224e-09 3.01e-43 -7.0279357e-06 -4.71e-43 -2.6131528e-09 2.244669e-09 1.7689376e-13
3.391352e-05 -5.72e-43 7.358774e-12 -2.8983245e-06 3.8e-44 -1.9317803e-11 6.167361e-10 -1.5366466e-09
-0.00010894789 -1.4232612e-10 6.883602e-06 -5.0496064e-06 3.425808e-09 -1.5254518e-07 -5.31e-43 -5.387856e-07
1.3219901e-09 -3.1673834e-11 1.6045885e-08 -1.445921e-05 -3.3427755e-10 4.4824262e-11 -8.11718e-09 3.2465797e-14
-1.4396637e-09 -1.0349574e-07 3.4744006e-11 1.036058e-07 -1.6e-43 1.0173901e-12 9.263503e-13 3.742396e-12
-1.4524823e-08 -1.4153897e-05 3.3763627e-07 -7.989724e-06 2.5381421e-08 2.4708768e-10 -5.75e-43 -3.53e-43
-1.0962482e-06 -3.151176e-08 1.3854953e-12 2.621901e-10 -1.09887026e-07 -5.44e-43 -9.3184e-07 1.3594248e-08
1.5253124e-12 -3.8551352e-08 -5.102643e-12 1.01769825e-11 1.4116488e-05 -1.767954e-07 5.226562e-06 5.8301075e-06
-8.638302e-07 -1.5348846e-13 -4.6371e-09 6.414467e-09 -7.5664366e-13 -1.2156223e-08 1.0592736e-09 6.4e-43
1.0483166e-12 2.0344977e-09 8.029405e-13 1.5543506e-09 1.2791319e-05 1.2868005e-13 1.7844388e-05 2.1220226e-06
-1.6187943e-08 -1.6257768e-12 -3.774826e-09 -1.1608079e-11 -5.28e-43 2.3202148e-08 6.1004794e-06 3.5e-44
00000000: 647b 1d30 4073 5333 a8de 0538 9cbe 9937
00000010: e65f 4f2d bccd a1ae fc4b 622d 133a 8f2d
00000020: 8b15 d3ae be00 0080 6901 0000 b489 17ac
00000030: bb01 0080 80e8 25ad 0c5a 5738 747a e3b3
00000040: 4edf 262f ba02 852e 0696 932c 4446 76b6
00000050: 0b10 0d2b 968b 182b b534 0e34 0864 a42e
00000060: 2c00 0080 f09c c92a d2ed 8eaf 9296 ae38
00000070: 7001 0000 1e5f 1f2c 0a5a 8b32 6100 0080
00000080: 3ff2 96b3 a6db 212c ee08 9eb5 ce4e f5b6
00000090: c003 19aa 3ce3 832b a67c 19b8 db00 0080
000000a0: d1a4 15af 2ccb f82a 3800 0000 ae04 032c
000000b0: 0a00 0080 5fec 0ab5 b274 9b2b c63a cd38
000000c0: c009 0a32 daef 08b4 0a87 29b3 1656 45ac
000000d0: d201 0080 2a5c 69b8 00db a7ad acb8 eeb0
000000e0: f65e 07ac 7809 8a2b bbad 4ab1 c236 2aab
000000f0: 86ed 002f 7666 e4b2 d200 0080 061d 382c
00000100: bc8c 06ac b577 e92f 892d c12d 7430 efac
00000110: f22c ce2c 4f1f 792c fa52 dc2b 9093 322c
00000120: 441b 8f2c 2b04 ad2b c08b 5e32 fa5d 5231
00000130: 1300 0080 8cb8 1e36 9cb1 8630 8c1c 252b
00000140: 8fe3 b3ae 6d34 a530 373a 47ac a091 9eb6
00000150: a830 1eaf 64db 20ac 6400 0000 cf01 0000
00000160: 19d8 5c35 1fae c337 3aac c433 36f3 222c
00000170: 3075 3235 2700 0080 1d43 802b 32b5 5cb8
00000180: 5eee 12b3 d8cf 58b3 0ab0 a1ac a855 1234
00000190: bf77 942b 5627 88af 4c22 08b2 f0ac 2cb6
000001a0: c104 0a34 0cfc b6b5 b526 0fb0 88c3 992f
000001b0: a314 8032 9396 082c 1308 062e 4c01 0000
000001c0: fe58 8ead 7679 53ae 5ac9 c9b2 fa38 e2b7
000001d0: e587 e6ae 92f7 b0b2 8c92 48af d2d2 90b1
000001e0: 9b4c c3b6 00be 92ad eae2 0f34 3c4e 5d2d
000001f0: a601 0080 909b 79b1 9d69 7eae 4001 0080
00000200: dedf e0b4 42ec e533 9c13 a22c cf04 c034
00000210: ff7b 51b5 74ab 7e2e 28c5 ed35 5753 9630
00000220: 0ce3 29b7 f301 0000 de00 0080 9ce8 3931
00000230: db00 0080 a409 7dad e4d2 28b7 4a8a 2035
00000240: c9da 992d 0386 e5af 93b0 19b6 7415 8d2d
00000250: 7a01 082a 3602 daaf b6ed 9634 7b7c e835
00000260: 1600 0000 140b 752b d8f2 192d 8f78 c530
00000270: 7e01 0000 b52c f9ad 1427 0131 4400 0080
00000280: 6aed 1c36 cc66 6032 80b9 8d2e f8e7 34b3
00000290: 686a 21b7 464b be31 f095 7135 4301 0080
000002a0: 6a96 722b 8ad1 d131 d700 0000 82d1 ebb6
000002b0: 5001 0080 1293 33b1 a240 1a31 282a 472a
000002c0: 5d3e 0e38 9801 0080 f974 012d d680 42b6
000002d0: 1b00 0000 d3eb a9ad f286 2930 f231 d3b0
000002e0: f47a e4b8 3e7d 1caf b1f9 e636 ca6f a9b6
000002f0: 746b 6b31 4dcb 23b4 7b01 0080 11a1 10b5
00000300: 64b1 b530 914d 0bae 46d5 8932 d695 72b7
00000310: 62c5 b7af a223 452e bc73 0bb2 8436 1229
00000320: aadd c5b0 6341 deb3 46ce 182e e47d de33
00000330: 7200 0080 572f 8f2b 495f 822b 82ac 832c
00000340: d988 79b2 8676 6db7 6044 b534 9a0b 06b7
00000350: 5606 da32 80d6 872f 9a01 0080 fc00 0080
00000360: cd22 93b5 8c57 07b3 bbfd c22b fa23 902f
00000370: 08fb ebb3 8401 0080 8f23 7ab5 238c 6932
00000380: 2cab d62b a993 25b3 8688 b3ac 0e09 332d
00000390: dbd5 6c37 26d5 3db4 d35f af36 3ea0 c336
000003a0: f6e1 67b5 09d0 2caa 5d54 9fb1 4066 dc31
000003b0: ecf9 54ab a2d7 50b2 e095 9130 c901 0000
000003c0: 9689 932b 43cf 0b31 f601 622b daa0 d530
000003d0: 4c9a 5637 80e1 102a 88b0 9537 1268 0e36
000003e0: aa0d 8bb2 c8ce e4ab b8b3 81b1 2436 4cad
000003f0: 7901 0080 104e c732 b8b2 cc36 1900 0000

layer2.bias f4 [128]
-2.7573483e-09 4.366477e-10 3.7861515e-08 2.9686104e-10 -4.616907e-10 -1.7370796e-06 -1.4697947e-07 -1.209132e-09
-2.9905555e-06 -4.655233e-08 1.8559716e-11 -1.0843326e-06 6.1073466e-09 -6.8030976e-09 4.7701857e-08 3.929383e-09
-3.2964085e-08 6.473668e-09 5.9003582e-08 -2.4081087e-10 -2.6140098e-05 -1.203604e-05 -1.593844e-09 -5.8392863e-05
2.4269198e-06 7.0804704e-06 -9.199321e-06 -5.321233e-07 -7.024504e-08 -2.8475244e-10 -5.3554702e-11 -3.786097e-08
-1.4068276e-07 -4.178096e-09 4.6713376e-07 -1.5720378e-08 -4.8889565e-06 1.0090963e-05 5.9337912e-09 -2.2854863e-08
7.7601285e-09 -9.515507e-09 1.483279e-10 9.2423585e-07 7.653911e-10 1.0053482e-05 1.0402623e-09 3.0673245e-08
8.365119e-10 -2.566993e-07 4.476933e-06 -7.4156474e-06 -6.9858572e-09 6.108064e-09 2.5281346e-09 1.0568724e-08
9.108957e-09 9.846568e-10 -7.528308e-09 -1.2828169e-06 1.7004407e-09 -3.1528484e-07 -1.0855878e-09 6.9250135e-09
-1.37235485e-08 -5.8504163e-05 9.324566e-10 5.6320175e-08 -2.886772e-08 8.916619e-06 -1.6958795e-09 -9.001042e-09
1.2536844e-07 8.525731e-05 -1.7838029e-09 -2.4073699e-09 5.8668853e-08 -1.5426558e-05 1.948862e-08 1.9383681e-09
1.2641917e-08 9.584505e-10 2.626134e-09 2.0947057e-09 3.45219e-07 -6.615142e-10 7.9044745e-05 9.026856e-10
-1.3342861e-07 -1.5280038e-06 4.1499537e-09 3.0995904e-09 2.633807e-10 -2.920259e-06 2.3912808e-05 9.654503e-10
-7.5691014e-06 -1.2694214e-05 -7.9982146e-07 -3.785417e-08 -4.5148045e-07 9.808854e-10 -1.6528831e-07 -5.6377703e-05
-3.8001735e-07 8.040921e-09 2.6604954e-07 -4.3993515e-07 1.411702e-08 -2.080073e-05 8.4887675e-10 5.7196816e-05
1.2580058e-09 -1.0187233e-06 3.3897072e-07 1.0195783e-05 -1.1450881e-08 -3.4977465e-11 -7.274698e-10 -3.05993e-09
-1.1351312e-06 3.520693e-09 2.5965267e-08 6.3662126e-05 1.3493261e-08 2.8593215e-07 4.7878264e-05 -1.4766445e-09
00000000: c97b 3db1 b30c f02f 2d9d 2233 7a33 a32f
00000010: 31d1 fdaf 9a25 e9b5 69d1 1db4 8d2e a6b0
00000020: 5ab1 48b6 d4f0 47b3 c440 a32d 6289 91b5
00000030: cad8 d131 aec0 e9b1 bfe0 4c33 3803 8731
00000040: 6594 0db3 fc6e de31 206b 7d33 1e63 84af
00000050: 6f47 dbb7 66ee 49b7 660e dbb0 dcea 74b8
00000060: 2ade 2236 c794 ed36 c856 1ab7 3cd7 0eb5
00000070: 9ed9 96b3 588b 9caf 3c89 6bae 949c 22b3
00000080: 950e 17b4 ec8e 8fb1 60ca fa34 7a09 87b2
00000090: d10b a4b6 5b4c 2937 2ee2 cb31 6052 c4b2
000000a0: 6851 0532 a479 23b2 9816 232f 0119 7835
000000b0: 9c63 5230 60ab 2837 faf8 8e30 97bd 0333
000000c0: 4bf0 6530 7cd0 89b4 9038 9636 edd3 f8b6
000000d0: 4008 f0b1 19df d131 6abb 2d31 bd91 3532
000000e0: 9e7d 1c32 8854 8730 d955 01b2 412d acb5
000000f0: f0b4 e930 6b44 a9b4 ba33 95b0 10f1 ed31
00000100: cec4 6bb2 5e62 75b8 e627 8030 b0e4 7133
00000110: caf8 f7b2 9698 1537 7514 e9b0 00a3 1ab2
00000120: 049d 0634 2bcc b238 fc29 f5b0 e66e 25b1
00000130: 16fb 7b33 4868 81b7 ee67 a732 2234 0531
00000140: bd2f 5932 7bba 8330 7077 3431 74f2 0f31
00000150: 8a56 b934 ecd5 35b0 d3c4 a538 da20 7830
00000160: 9444 0fb4 d015 cdb5 6197 8e31 9200 5531
00000170: 8acb 902f abf9 43b6 5d98 c837 c3b0 8430
00000180: 16fa fdb6 3cf9 54b7 50b3 56b5 1a95 22b3
00000190: 0063 f2b4 d6cf 8630 1b7a 31b4 1977 6cb8
000001a0: 3005 ccb4 5824 0a32 92d5 8e34 3a30 ecb4
000001b0: 5087 7232 3a7d aeb7 6456 6930 9de6 6f38
000001c0: 25e6 ac30 11bb 88b5 c8fb b534 8e0e 2b37
000001d0: 82b9 44b2 20d5 19ae 23f7 47b0 dc46 52b1
000001e0: d05a 98b5 b0f0 7131 3a0a df32 5882 8538
000001f0: fdcf 6732 3782 9934 e5d0 4838 cff2 cab0

layer3.weight f4 [64, 128]
4.5366426e-11 -8.705841e-11 -4.241831e-07 -6.1301205e-07 -8.226335e-06 6.0111006e-08 -1.6343607e-05 -1.1600676e-10
-2.3380665e-11 -1.2669468e-10 -1.2860289e-11 -4.2055567e-11 -2.130079e-07 -4.6343988e-08 6.44475e-11 7.253733e-08
7.305709e-06 -4.794649e-10 -6.8160797e-09 -8.274981e-11 -3.7644846e-11 -1.0088718e-07 1.5347127e-06 -2.8558384e-06
8.392449e-07 -2.2152088e-07 -3.59492e-10 -6.489578e-10 -6.4864873e-09 -1.0402557e-08 6.7601536e-07 -4.533069e-06
7.565354e-12 -7.2753105e-06 -4.5773615e-10 -2.2430062e-07 -1.1024622e-08 1.9445762e-10 -5.8873795e-09 -1.6660498e-10
-7.3758812e-09 5.476774e-09 -5.3462727e-11 6.531669e-11 -2.0881168e-07 3.4823124e-06 -7.237536e-06 -9.838699e-07
-3.1281124e-09 5.291116e-06 1.3455832e-05 3.8358927e-11 -8.823705e-06 -9.199259e-07 -1.2107494e-08 -2.4729524e-10
-1.3021678e-07 -2.685892e-09 1.5585674e-07 2.2478774e-09 9.380661e-10 2.212752e-08 -2.732848e-07 -9.039748e-08
-2.027357e-09 -2.9191956e-09 6.095795e-07 6.8811346e-12 3.5096502e-07 -6.328397e-10 1.6050692e-09 -2.7669757e-06
-2.9868577e-05 3.1907143e-07 3.21915e-11 -2.1835662e-09 2.6276013e-11 -2.6229472e-09 4.8770785e-06 1.0424629e-10
5.4606517e-08 -2.969923e-07 -2.666004e-11 1.9950023e-07 -4.4933013e-09 3.6388587e-10 -0.000108262175 1.9157599e-11
2.906217e-12 -2.8205651e-08 -9.384089e-10 9.803607e-06 5.514125e-10 -2.020015e-11 7.5295648e-06 8.3328005e-06
-1.3603841e-06 3.322042e-07 4.8557186e-10 2.453431e-06 -3.8316472e-10 -3.199317e-07 1.4950552e-10 7.0532687e-06
6.044036e-06 6.218424e-08 7.668998e-06 -4.5398428e-07 -2.4404842e-12 -1.4359328e-05 -8.591378e-07 -3.247955e-07
3.3447795e-05 9.681319e-07 1.5461694e-05 -1.4615935e-07 -1.2150275e-10 2.6025475e-09 -2.1292777e-11 1.4570439e-08
5.8695757e-13 -4.796972e-10 3.0626424e-08 -3.660692e-10 -4.941517e-10 -4.7457354e-09 -8.791775e-08 -4.790584e-10
6.47e-43 -1.5e-44 -4.43e-43 6.25e-43 5.72e-43 -3.4e-44 8.5e-44 -4.55e-43
-4.3e-44 3.63e-43 -4.08e-43 -3.14e-43 4.62e-43 1.71e-43 -5.3e-44 -3.87e-43
6.61e-43 -4.05e-43 6.4e-44 6.03e-43 -3.3e-43 2.94e-43 -3.77e-43 5.04e-43
-2.27e-43 -2.23e-43 4.85e-43 -6.04e-43 2.2e-44 4.65e-43 9.1e-44 -5.9e-43
-1.95e-43 2.5e-44 -1.11e-43 -1.75e-43 2.89e-43 -6.88e-43 9.7e-44 -4.6e-44
3.39e-43 -2.72e-43 1.72e-43 1.77e-43 5.32e-43 1.02e-43 -1.44e-43 -6.35e-43
-4.08e-43 4.97e-43 -1.14e-43 4.95e-43 4.96e-43 -3.2e-44 1.2e-43 -4.4e-43
-1.51e-43 -2.66e-43 5.79e-43 -4.5e-44 -5e-44 4.79e-43 3.62e-43 5.3e-44
4.62e-43 -3.56e-43 4.22e-43 -3.92e-43 2.97e-43 -5.1e-43 -5.6e-44 5.73e-43
6e-43 2.34e-43 7.6e-44 -6.15e-43 -4.72e-43 -3.27e-43 -3.22e-43 -2.19e-43
-4.9e-43 1.67e-43 5.66e-43 3.73e-43 -3.55e-43 -6.08e-43 3.85e-43 -4.33e-43
-5.76e-43 3.9e-43 8.8e-44 -6.6e-44 3.08e-43 5.44e-43 3.22e-43 4.5e-43
1.5e-43 -3.36e-43 6.12e-43 4.97e-43 5.5e-43 1.43e-43 -4.82e-43 6.9e-44
-2.94e-43 4.71e-43 -4.01e-43 6.4e-44 -6.07e-43 -3.53e-43 -5.17e-43 1.61e-43
6.01e-43 -1.92e-43 6.85e-43 3.43e-43 6.4e-44 1.67e-43 1.8e-43 -4.12e-43
-7.7e-44 3.84e-43 -1.44e-43 -6.67e-43 -5.2e-43 -4.89e-43 -1.7e-44 3.8e-44
00000000: 0e86 472e 8771 bfae 48bb e3b4 de8d 24b5
00000010: d703 0ab7 6016 8133 a119 89b7 001a ffae
00000020: 94a8 cdad 624d 0baf 983d 62ad 5cf6 38ae
00000030: 2ab7 64b4 c10b 47b3 b8b8 8d2e d2c5 9b33
00000040: 9023 f536 58cb 03b0 df32 eab1 00f8 b5ae
00000050: 5490 25ae 50a7 d8b3 54fc cd35 eea6 3fb6
00000060: 7848 6135 32db 6db4 00a2 c5af 5862 32b0
00000070: bfdf deb1 eeb6 32b2 6c77 3535 c41a 98b6
00000080: 5317 052d 711e f4b6 a3a4 fbaf 49d7 70b4
00000090: cd66 3db2 f4ce 552f f049 cab1 222f 37af
000000a0: f06e fdb1 372e bc31 ae21 6bae 07a2 8f2e
000000b0: b835 60b4 acb1 6936 f6d9 f2b6 830d 84b5
000000c0: 56f6 56b1 578a b136 5cc0 6137 50b4 282e
000000d0: 8609 14b7 d4f0 76b5 5201 50b2 b6f3 87af
000000e0: b7d1 0bb4 b692 38b1 9359 2734 1479 1a31
000000f0: 44ed 8030 ee12 be32 fab7 92b4 8a20 c2b3
00000100: a451 0bb1 089b 48b1 fca1 2335 c01b f22c
00000110: 446c bc34 23f4 2db0 5a99 dc30 48b0 39b6
00000120: 488e fab7 d84c ab34 6894 0d2e b40d 16b1
00000130: 5220 e72d 603f 34b1 c9a5 a336 723d e52e
00000140: 8088 6a33 5072 9fb4 1381 eaad 3536 5634
00000150: 7f63 9ab1 620c c82f d00a e3b8 1483 a82d
00000160: c081 4c2c e248 f2b2 54f9 80b0 2c7a 2437
00000170: 3592 1730 b2ae b1ad 78a6 fc36 1bcd 0b37
00000180: 7196 b6b5 cc59 b234 1579 0530 a0a5 2436
00000190: a4a5 d2af 14c3 abb4 1062 242f 1eab ec36
000001a0: e0cd ca36 268a 8533 18aa 0037 20bb f3b4
000001b0: dbbb 2bac d8e8 70b7 809f 66b5 8e5f aeb4
000001c0: 4c4a 0c38 c2f0 8135 bcb3 8137 faef 1cb4
000001d0: fc97 05af 80d8 3231 124b bbad 7851 7a32
000001e0: c036 252b b1db 03b0 1c8a 0333 a93f c9af
000001f0: d6d4 07b0 ee0f a3b1 4bcd bcb3 bdae 03b0
00000200: ce01 0000 0b00 0080 3c01 0080 be01 0000
00000210: 9801 0000 1800 0080 3d00 0000 4501 0080
00000220: 1f00 0080 0301 0000 2301 0080 e000 0080
00000230: 4a01 0000 7a00 0000 2600 0080 1401 0080
00000240: d801 0000 2101 0080 2e00 0000 ae01 0000
00000250: eb00 0080 d200 0000 0d01 0080 6801 0000
00000260: a200 0080 9f00 0080 5a01 0000 af01 0080
00000270: 1000 0000 4c01 0000 4100 0000 a501 0080
00000280: 8b00 0080 1200 0000 4f00 0080 7d00 0080
00000290: ce00 0000 eb01 0080 4500 0000 2100 0080
000002a0: f200 0000 c200 0080 7b00 0000 7e00 0000
000002b0: 7c01 0000 4900 0000 6700 0080 c501 0080
000002c0: 2301 0080 6301 0000 5100 0080 6101 0000
000002d0: 6201 0000 1700 0080 5600 0000 3a01 0080
000002e0: 6c00 0080 be00 0080 9d01 0000 2000 0080
000002f0: 2400 0080 5601 0000 0201 0000 2600 0000
00000300: 4a01 0000 fe00 0080 2d01 0000 1801 0080
00000310: d400 0000 6c01 0080 2800 0080 9901 0000
00000320: ac01 0000 a700 0000 3600 0000 b701 0080
00000330: 5101 0080 e900 0080 e600 0080 9c00 0080
00000340: 5e01 0080 7700 0000 9401 0000 0a01 0000
00000350: fd00 0080 b201 0080 1301 0000 3501 0080
00000360: 9b01 0080 1601 0000 3f00 0000 2f00 0080
00000370: dc00 0000 8401 0000 e600 0000 4101 0000
00000380: 6b00 0000 f000 0080 b501 0000 6301 0000
00000390: 8801 0000 6600 0000 5801 0080 3100 0000
000003a0: d200 0080 5001 0000 1e01 0080 2e00 0000
000003b0: b101 0080 fc00 0080 7101 0080 7300 0000
000003c0: ad01 0000 8900 0080 e901 0000 f500 0000
000003d0: 2e00 0000 7700 0000 8000 0000 2601 0080
000003e0: 3700 0080 1201 0000 6700 0080 dc01 0080
000003f0: 7301 0080 5d01 0080 0c00 0080 1b00 0000

layer3.bias f4 [64]
-9.9814915e-06 3.56e-43 5.35e-43 -1.5821852e-06 -4.4431283e-07 1.9593385e-06 -4.01e-43 2.0379092e-07
5.06292e-07 7.8e-44 9.7e-44 -3.734886e-09 1.61e-43 7.3e-44 3.32e-43 -2.9558934e-05
1.3439441e-10 -4.5722494e-08 -1.53e-43 -5.065102e-09 -3.134115e-08 -2.5644547e-11 -1.2997664e-06 -4.5797833e-08
-8.355131e-07 -2.8074828e-07 -1.2806807e-06 -2.1165872e-06 -3.08e-43 -5.54e-43 -4.05e-43 6.98e-43
-4.3e-44 -1.8335764e-09 1.6710742e-06 -4.74e-43 2.58866e-10 1.0310381e-05 6.624055e-05 2.59e-43
-1.57e-43 2.2081974e-07 2.0595414e-09 -5.611712e-09 2.8638685e-06 -9.733424e-07 -1.43e-43 -6.01e-43
4.8833663e-06 1.2668826e-07 5.37e-43 -1.6008988e-05 -1.2801371e-06 -4.9e-43 1.633859e-06 -3.4883538e-10
6.2521576e-05 -1.359646e-05 -1.240329e-07 -1.1e-43 -3.1018655e-05 6.15e-43 -1.8e-44 -4.514634e-08
00000000: 2e76 27b7 fe00 0000 7e01 0000 785b d4b5
00000010: e489 eeb4 2e7d 0336 1e01 0080 9fd1 5a34
00000020: 1fe8 0735 3800 0000 4500 0000 6854 80b1
00000030: 7300 0000 3400 0000 ed00 0000 54f5 f7b7
00000040: aac4 132f 6a60 44b3 6d00 0080 1c09 aeb1
00000050: f59b 06b3 6392 e1ad a273 aeb5 40b3 44b3
00000060: 0648 60b5 c0b9 96b4 dbe3 abb5 b10a 0eb6
00000070: dc00 0080 8b01 0080 2101 0080 f201 0000
00000080: 1f00 0080 3c01 fcb0 ac49 e035 5201 0080
00000090: 2750 8e2f c0fa 2c37 a0ea 8a38 b900 0000
000000a0: 7000 0080 781a 6d34 d687 0d31 24d1 c0b1
000000b0: e330 4036 caa3 82b5 6600 0080 ad01 0080
000000c0: ccdb a336 ce07 0834 7f01 0000 0a4b 86b7
000000d0: 2dd1 abb5 5e01 0080 f84a db35 37c6 bfaf
000000e0: 041e 8338 5a1c 64b7 e72d 05b4 4e00 0080
000000f0: 071a 02b8 b701 0000 0d00 0080 ede6 41b3

layer4.weight f4 [3, 64]
-1.4755069e-06 8.5e-44 -1.02e-43 5.802965e-07 3.679648e-07 -1.1255263e-05 3.2e-44 -5.459667e-07
2.563309e-05 -3e-44 2.79e-43 5.1350195e-09 -4.1e-43 -2.73e-43 5.51e-43 5.3935337e-06
-7.600597e-12 -1.0496585e-06 -3.98e-43 2.3205173e-09 1.9277764e-09 -4.891553e-11 6.2205822e-06 -1.3714853e-06
-1.1709743e-06 5.3716676e-10 -3.858162e-09 1.3578226e-06 -2.69e-43 6.84e-43 2.28e-43 1.26e-43
2e-44 1.9909752e-09 8.992615e-07 -4.57e-43 -1.3525332e-10 -2.2057534e-06 3.9906977e-06 -1.15e-43
4.78e-43 -3.554337e-07 3.1924444e-10 3.159041e-09 -1.0573195e-06 2.6355115e-06 -5.2e-43 3.39e-43
-8.771565e-07 -1.4702316e-08 -4.5e-43 7.82209e-06 6.87573e-08 8.7e-44 1.7353014e-07 4.2277237e-11
3.2163139e-06 1.39746535e-05 1.6868228e-07 1.75e-43 3.993708e-05 7.4e-44 6.49e-43 3.6688705e-09
1.2753086e-05 7.3e-44 -5.04e-43 -4.4196338e-07 -3.084525e-07 -1.4832625e-05 6e-45 4.6737205e-07
1.0083526e-05 2.23e-43 -2e-43 -8.469424e-09 -3.4e-43 3.9e-43 2.27e-43 1.7411633e-06
2.253478e-11 2.05683e-07 -2.7e-44 2.4278723e-10 1.6323287e-10 1.7178706e-10 -1.8007859e-06 -7.0909306e-07
1.1084541e-06 4.7930342e-08 -8.980558e-06 6.8015913e-07 1.3e-43 -1.95e-43 3.24e-43 -8.5e-44
2.47e-43 1.3697091e-09 -1.0973185e-06 6.1e-43 -3.190334e-11 -2.0849711e-08 -1.7175562e-05 6.49e-43
1.6e-43 -4.863916e-07 3.4690384e-10 3.878406e-09 2.345544e-06 -1.7717846e-05 -4.55e-43 -4.5e-44
-4.0044424e-06 -1.960943e-07 -2.33e-43 1.9965752e-05 -4.0778417e-08 -2.89e-43 -2.6125194e-06 -3.3237463e-10
-4.1286105e-05 9.435121e-06 -6.862871e-08 4.85e-43 -3.1241332e-05 2.62e-43 6.3e-44 4.4908184e-09
-2.0122452e-05 1.61e-43 2.59e-43 7.048501e-07 -1.5715225e-06 -7.4809104e-06 2.06e-43 -1.5290241e-06
-9.556634e-06 1.5e-43 -6.38e-43 -2.8335048e-10 6.68e-43 6.14e-43 7.3e-44 -9.048048e-06
-5.3365975e-11 2.2999473e-07 2.83e-43 -4.000631e-09 -2.8974303e-09 -3.9564345e-11 -1.6260219e-07 -5.8447777e-06
-5.147867e-07 9.90342e-09 -1.924432e-06 -3.022329e-06 4.4e-43 -1.42e-43 -6.99e-43 -3.63e-43
-3.71e-43 -7.4008466e-10 -1.7634534e-08 5.9e-44 -5.2032684e-11 1.1192747e-05 6.008701e-05 -3.35e-43
9e-44 2.901898e-07 -1.1461346e-10 -2.1350381e-08 4.8247875e-06 -2.883637e-07 -6.6e-43 4.04e-43
6.312307e-07 2.1013616e-08 -3.85e-43 -1.3777324e-05 -1.4046625e-06 3.46e-43 7.7976904e-07 -2.5604363e-10
2.880464e-05 -1.4209039e-05 -1.827034e-07 -1.88e-43 -5.251685e-05 -2.34e-43 2.48e-43 -4.430899e-08
00000000: 080a c6b5 3d00 0000 4900 0080 acc5 1b35
00000010: b28c c534 fdd4 3cb7 1700 0000 8c8e 12b5
00000020: a406 d737 1500 0080 c700 0000 1c70 b031
00000030: 2501 0080 c300 0080 8901 0000 1afa b436
00000040: 0cb6 05ad fee1 8cb5 1c01 0080 f976 1f31
00000050: cd79 0431 fe21 57ae 65ba d036 e013 b8b5
00000060: 5f2a 9db5 c0a7 1330 c090 84b1 6e3e b635
00000070: c000 0080 e801 0000 a300 0000 5a00 0000
00000080: 0e00 0000 9bd1 0831 c864 7135 4601 0080
00000090: 6db6 14af 8e06 14b6 d5e7 8536 5200 0080
000000a0: 5501 0000 70d2 beb4 a981 af2f 7016 5931
000000b0: 39e9 8db5 bedd 3036 7301 0080 f200 0000
000000c0: bc75 6bb5 7895 7cb2 4101 0080 9f3b 0337
000000d0: baa7 9333 3e00 0000 9a53 3a34 f0ef 392e
000000e0: dad7 5736 ae74 6a37 081f 3534 7d00 0000
000000f0: 1d82 2738 3500 0000 cf01 0000 741f 7c31
00000100: 16f6 5537 3400 0000 6801 0080 fc46 edb4
00000110: 6499 a5b4 a4d9 78b7 0400 0000 20eb fa34
00000120: 6a2c 2937 9f00 0000 8f00 0080 ec80 11b2
00000130: f300 0080 1601 0000 a200 0000 eab1 e935
00000140: d037 c62d b6d9 5c34 1300 0080 4479 852f
00000150: f879 332f c2e1 3c2f 88b2 f1b5 8158 3eb5
00000160: 31c6 9435 f8db 4d33 34ab 16b7 2e94 3635
00000170: 5d00 0000 8b00 0080 e700 0000 3d00 0080
00000180: b000 0000 5b40 bc30 9447 93b5 b301 0000
00000190: f84f 0cae 0019 b3b2 3d14 90b7 cf01 0000
000001a0: 7200 0000 9490 02b5 60b6 be2f d242 8531
000001b0: 2468 1d36 c9a0 94b7 4501 0080 2000 0080
000001c0: e65d 86b6 fe8d 52b4 a600 0080 207c a737
000001d0: 5824 2fb3 ce00 0080 be52 2fb6 92b9 b6af
000001e0: 9e2a 2db8 894b 1e37 0861 93b3 5a01 0000
000001f0: 2009 03b8 bb00 0000 2d00 0000 a84d 9a31
00000200: a3cc a8b7 7300 0000 b900 0000 ee34 3d35
00000210: 1aed d2b5 8804 fbb6 9300 0000 de38 cdb5
00000220: 6e55 20b7 6b00 0000 c701 0080 09c6 9baf
00000230: dd01 0000 b601 0000 3400 0000 12cd 17b7
00000240: bfb4 6aae 78f4 7634 ca00 0000 ec75 89b1
00000250: 221c 47b1 7e01 2eae c097 2eb4 421e c4b6
00000260: df2f 0ab5 b423 2a32 7d25 01b6 38d3 4ab6
00000270: 3a01 0000 6500 0080 f301 0080 0301 0080
00000280: 0901 0080 d46e 4bb0 c07a 97b2 2a00 0000
00000290: 98d7 64ae 7bc8 3b37 f005 7c38 ef00 0080
000002a0: 4000 0000 62cb 9b34 a409 fcae fc65 b7b2
000002b0: 9ce4 a136 68d0 9ab4 d701 0080 2001 0000
000002c0: d871 2935 6e81 b432 1301 0080 2825 67b7
000002d0: d687 bcb5 f700 0000 5251 5135 f0c2 8caf
000002e0: 7ea1 f137 5c63 6eb7 212d 44b4 8600 0080
000002f0: 8a45 5cb8 a700 0080 b100 0000 404e 3eb3

layer4.bias f4 [3]
0.020125717 0.033001143 -0.053186916
00000000: b0de a43c 352c 073d 86da 59bd
