audio_classifier4.pth (torch, 73260 bytes, 6 tensors)

conv1.weight f4 [48, 24, 3]
0	0xbc3f3895	-0.011671205
1	0xbdcda0a6	-0.10040407
2	0xbdb29667	-0.08720093
3	0x3e076409	0.13221754
4	0x3c905934	0.01762066
5	0x3bb6ab21	0.0055745994
6	0xb9bf1ec4	-0.0003645328
7	0xbd8101aa	-0.062991455
8	0x3c7a9416	0.0152940955
9	0x3d6f8ad8	0.05848202
10	0xb824971b	-3.9241375e-05
11	0x33b93d7a	8.625916e-08
12	0x3a37eb2b	0.0007015939
13	0xaf38896e	-1.6783527e-10
14	0xb8848adf	-6.320117e-05
15	0x3d3633a0	0.044482827
16	0xb275cfad	-1.4308097e-08
17	0x9bec8e68	-3.9134953e-22
18	0x3d352fa0	0.044234872
19	0x369c4c57	4.6580494e-06
20	0xb7a3ba72	-1.9517935e-05
21	0x3da33af0	0.07970226
22	0x39b60ab1	0.0003472171
23	0x9c820ad5	-8.605478e-22
24	0x3e2c1f16	0.16808733
25	0x3b31f074	0.0027151378
26	0x397d4392	0.00024153132
27	0x3de64d9b	0.11245271
28	0xb33ceab0	-4.3985608e-08
29	0xaadfe6e6	-3.9772975e-13
30	0x3e76a2c9	0.24085535
31	0xb355802e	-4.9709506e-08
32	0xb0597cc1	-7.9121426e-10
33	0x3d40a2e7	0.047030356
34	0xbda5d580	-0.080973625
35	0xbd5e6edf	-0.054304954
36	0x3d4e7fce	0.050414853
37	0xb9b387ca	-0.0003424271
38	0xbd6f3a84	-0.058405414
39	0x3d9a2948	0.07527405
40	0xbcfa6cdf	-0.030569492
41	0xbce73b02	-0.02822638
42	0x3c9d6791	0.019214423
43	0xbcf45fbb	-0.029830804
44	0x3d4aa350	0.049472153
45	0xbde1f6bd	-0.1103339
46	0x3d5c5816	0.053794943
47	0xbd198f41	-0.037490133
48	0x3d19172e	0.03737562
49	0xbcc6a059	-0.024246382
50	0x3c00374a	0.007825682
51	0x3c790dc6	0.015201038
52	0xbc9d8377	-0.019227726
53	0xbc18ca58	-0.009325586
54	0xbc93d959	-0.018047975
55	0x3daf42ee	0.08557688
56	0x3b17df34	0.002317381
57	0xbd73d6cd	-0.059531022
58	0x3dcee6be	0.10102604
59	0x3a9ad15c	0.0011811662
60	0xbdbd8988	-0.09254748
61	0x3d8dc80b	0.06922921
62	0x37bbedce	2.2402874e-05
63	0x394c59da	0.00019488428
64	0x3bf7435d	0.007545872
65	0xbabf91c2	-0.0014615583
66	0x3dd86c77	0.10567563
67	0x3da97b32	0.08275451
68	0xba826b76	-0.0009950239
69	0x3d0437b7	0.032279696
70	0xbd81680a	-0.06318672
71	0xba833b20	-0.0010012127
72	0xbc883ff3	-0.016632056
73	0x3cc32bd0	0.023824602
74	0xb8ab934f	-8.181354e-05
75	0x3ccbf06f	0.024894921
76	0xbd909963	-0.07060506
77	0x3e00835c	0.1255011
78	0xbc263011	-0.010143296
79	0xbd25116c	-0.040299818
80	0x3d9c9ad8	0.076467216
81	0x3ca40fe6	0.020027112
82	0x3da0e3a4	0.07855919
83	0xbc0cdb87	-0.008597261
84	0xb5856767	-9.939366e-07
85	0x39ca13d7	0.00038543224
86	0xb5835ed1	-9.787856e-07
87	0x3b4065eb	0.0029357623
88	0x3cde7fda	0.027160574
89	0xbaca4bdc	-0.0015433985
90	0xbb510746	-0.0031895204
91	0x3c306f6d	0.0107687535
92	0xb988c79e	-0.00026088668
93	0x3d11827d	0.035524834
94	0x3d3d4dc7	0.046216752
95	0x3cc3b29c	0.023888879
96	0x3da021ad	0.07818923
97	0x3d1e24e5	0.038609404
98	0x3d08fffa	0.033447243
99	0x3d747b45	0.05968787
100	0x3cbc14a1	0.022959055
101	0x3d268fb8	0.040664405
102	0x3cfe54b2	0.031046245
103	0x3dd0605d	0.1017463
104	0x3d908e5f	0.07058405
105	0x3cb05adf	0.021527706
106	0x3dd7988c	0.10527143
107	0xbca2faa9	-0.019894915
108	0xbd03ee7f	-0.03220987
109	0x3ddd1cbc	0.10796496
110	0x3cfd7928	0.03094156
111	0xbca67cb7	-0.02032314
112	0xbddab19d	-0.10678408
113	0xbc8b8627	-0.017031742
114	0x3d5eb678	0.054373235
115	0x3de82400	0.113349915
116	0xbd9af341	-0.07565928
117	0x3db62776	0.08894245
118	0xbdafc12b	-0.08581766
119	0xbdb15955	-0.08659617
120	0x3d892ddf	0.06698202
121	0xbdcead6a	-0.1009167
122	0xbce90d15	-0.02844862
123	0xbd580912	-0.052743025
124	0xbe07ed39	-0.13274087
125	0x3c97a5a4	0.0185116
126	0xbc932cfe	-0.01796579
127	0x3d9e4704	0.07728389
128	0x3d9d168c	0.07670316
129	0x3cf32e84	0.029685266
130	0xbcc1e731	-0.023669811
131	0xbe100667	-0.14064942
132	0xbdf45033	-0.11929359
133	0x3d3dc3d7	0.046329346
134	0xbdd4135a	-0.103552535
135	0xbda0ed95	-0.07857815
136	0x3db992b5	0.09061185
137	0x3d8bd5e5	0.068279065
138	0x3dbbcbbe	0.0916972
139	0x3e030f4a	0.12798801
140	0x3d375a11	0.04476363
141	0xbda5bfa7	-0.080931954
142	0xbdaddc1f	-0.084892504
143	0xbd6c7dd6	-0.057737194
144	0x3d888511	0.066660054
145	0x3cc302c8	0.023805037
146	0xbcb2a0a8	-0.021805122
147	0x3e0bda9d	0.13657613
148	0xbdc99afa	-0.098440126
149	0xbd69019d	-0.056886304
150	0xbe25b787	-0.16183291
151	0xbd254d16	-0.040356718
152	0xbd3f17e8	-0.04665366
153	0x3dc68b2e	0.09694515
154	0x3c47b40c	0.012188923
155	0x386d5f84	5.659416e-05
156	0x3ad6fecc	0.001640284
157	0x38d97f91	0.000103711274
158	0x3954e06a	0.00020301496
159	0x3dc03aae	0.09386192
160	0x3bd35fcd	0.0064506293
161	0xb50d73ec	-5.269528e-07
162	0x3dcf076e	0.10108839
163	0x3bd60d35	0.006532336
164	0xb59c1ae4	-1.1630732e-06
165	0x3e53732a	0.206494
166	0x3d2ebf9d	0.042663205
167	0xb88d2798	-6.730779e-05
168	0x3e76ec40	0.2411356
169	0x3dc58736	0.0964493
170	0x39f3423a	0.00046397914
171	0x3e541936	0.20712742
172	0x3d341db5	0.043973643
173	0xb7169274	-8.9747955e-06
174	0x3e4de50a	0.20106903
175	0x3d66e97b	0.056375008
176	0x391bdd33	0.00014864355
177	0x3d5f0513	0.0544482
178	0xbd2168b8	-0.03940651
179	0xbd9f0fe6	-0.07766704
180	0xbd582534	-0.052769855
181	0x3d0bedbf	0.03416228
182	0xbbf9ecd6	-0.00762711
183	0xbe1240be	-0.1428251
184	0x3d13dea3	0.036100995
185	0xbdb51bac	-0.088431686
186	0xbe0c30a2	-0.13690427
187	0xbd4061eb	-0.04696838
188	0xbde13943	-0.1099725
189	0x3dff42a3	0.12463882
190	0xbdd79958	-0.10527295
191	0x3c851da2	0.016249482
192	0x3e292d48	0.1652118
193	0xbdcce28c	-0.10004148
194	0xbd80d5e6	-0.06290798
195	0x3e1ecafd	0.15507121
196	0x3d40057f	0.04688024
197	0xbd901646	-0.07035498
198	0xbd7c1187	-0.061540153
199	0x3e25fe22	0.16210225
200	0xbc9bfe8e	-0.01904228
201	0x3dc347a3	0.09535148
202	0xbe220c73	-0.15825062
203	0xbcd911d3	-0.026497757
204	0x3da77679	0.08176894
205	0xbd73c463	-0.05951346
206	0x3d23f15c	0.0400251
207	0x3cab37d3	0.020900642
208	0x3da8dbc5	0.08245043
209	0xbca7e048	-0.020492688
210	0x3a5de976	0.00084652693
211	0x3deffa12	0.11717619
212	0xbd539993	-0.05166013
213	0xbdee53c2	-0.11637069
214	0xbdf0617c	-0.11737344
215	0xbd5be70d	-0.053687144
216	0x38738af7	5.8065136e-05
217	0xbcd20f6c	-0.02564212
218	0x3c57015d	0.013122884
219	0xbc31bce5	-0.010848259
220	0x3d42fb4c	0.047602937
221	0xbb82ba5e	-0.003989502
222	0xbdd2c765	-0.10291938
223	0xbdba741b	-0.091041766
224	0xb8d68a07	-0.00010230025
225	0x3d04f532	0.0324604
226	0x380ff1e7	3.4319146e-05
227	0xb862ec0f	-5.4102446e-05
228	0x398fea7c	0.0002744979
229	0x37a46ed5	1.9601934e-05
230	0x231a2569	8.356279e-18
231	0x3cad33c7	0.021142853
232	0xb65d3c75	-3.2966757e-06
233	0x352855a1	6.2709483e-07
234	0x3cb7de7a	0.022444952
235	0xb6281db6	-2.5051245e-06
236	0xaa9b594e	-2.7595499e-13
237	0x3dfd99c9	0.12382848
238	0xb82f11f0	-4.1739957e-05
239	0x331c0367	3.6324675e-08
240	0x3c744928	0.01491002
241	0xbc30f093	-0.010799545
242	0xb6c4bae2	-5.863011e-06
243	0x3df94493	0.121712826
244	0xb84c54f3	-4.8716505e-05
245	0x35a2dda8	1.2134451e-06
246	0x3dccf045	0.10006765
247	0xb75333bf	-1.2588628e-05
248	0x3662ad9c	3.3777678e-06
249	0x3d7a4ae2	0.06110657
250	0xbdccb710	-0.09995854
251	0xbd62e364	-0.055392638
252	0xbe05a08c	-0.13049525
253	0xbd050935	-0.032479484
254	0xbcdba38e	-0.026811387
255	0x3d7a3997	0.06109008

conv1.bias f4 [48]
0	0x3de475fa	0.11155315
1	0x3a3ea59b	0.0007272602
2	0xbd6a4027	-0.057190087
3	0x3dd1d876	0.10246365
4	0x3c5a9147	0.013340301
5	0x3e2c3d21	0.16820194
6	0xbb27115b	-0.0025492522
7	0x3e249793	0.16073446
8	0x3d975a47	0.07390266
9	0xbc6ed835	-0.014577915
10	0xbd1c8d7d	-0.03822087
11	0x3dc3888a	0.09547527
12	0x3c449454	0.011998255
13	0xbc61f917	-0.013792298
14	0xbdab21b3	-0.08356037
15	0x3e009afb	0.1255912
16	0xbb383503	-0.002810777
17	0xbd749daa	-0.059720673
18	0xbdc3a132	-0.0955223
19	0x3dcd20c7	0.100160174
20	0xbdd95439	-0.10611767
21	0xbc5827dd	-0.013193098
22	0x3d81b6b5	0.06333677
23	0x3dac6ab2	0.08418788
24	0xbd4d4431	-0.05011386
25	0x3e41cfbe	0.18926904
26	0x3a1e1e68	0.00060317526
27	0x3dce3b3d	0.100698926
28	0x3def6e66	0.11690979
29	0xbd519153	-0.051163983
30	0x3d498d54	0.049207047
31	0xbdbc521f	-0.09195351
32	0x3e2f33db	0.17109625
33	0xba849fdc	-0.0010118443
34	0x3e3628f5	0.17789061
35	0xbe00b090	-0.12567353
36	0xbdcc1907	-0.09965711
37	0x3ddcec00	0.10787201
38	0xbbb8494f	-0.0056239734
39	0x3e1d0839	0.15335168
40	0x3defbbd7	0.117057495
41	0xbdc48e80	-0.09597492
42	0xbd02076c	-0.03174536
43	0xbd2a4413	-0.041568827
44	0xbe40dc42	-0.18834022
45	0xbc3345f5	-0.010941972
46	0x3dfb5697	0.12272375
47	0xbde4ba8e	-0.11168395

conv2.weight f4 [96, 48, 3]
0	0xbc596882	-0.0132695455
1	0x3d4d4d05	0.05012228
2	0xbdaf4110	-0.085573316
3	0xbd424d35	-0.04743691
4	0x3d9a3a16	0.0753061
5	0xbd60e87a	-0.054909207
6	0xbcf81157	-0.030281706
7	0xbd92d2f4	-0.07169142
8	0x3cbb4636	0.022860628
9	0xbd93220f	-0.071842305
10	0xbcf0acf8	-0.029379353
11	0xbd98359c	-0.074321
12	0xbabc4b95	-0.0014365787
13	0xbbc04b22	-0.0058683315
14	0xbc3b1469	-0.01141844
15	0x3e08397e	0.13303182
16	0xbd1cab99	-0.038249586
17	0xbd3f31db	-0.046678405
18	0x3d6abac8	0.057307035
19	0x3d1f15a3	0.038838994
20	0xbda4804e	-0.08032285
21	0x3d7079b5	0.05870982
22	0x3d3d033a	0.046145655
23	0xbcd079f8	-0.025448784
24	0x3bdf88c7	0.006821725
25	0xbdb64c63	-0.08901288
26	0x3d01af3a	0.03166125
27	0x3c23c7a3	0.009996328
28	0xbbe21299	-0.0068991897
29	0xbd2c96fb	-0.042136174
30	0xbdbdf579	-0.09275336
31	0x3c802edc	0.015647344
32	0xbc88adfe	-0.016684528
33	0x3d946106	0.07245068
34	0xbd991f3a	-0.07476659
35	0xbb19b984	-0.0023456523
36	0x3dddd47f	0.10831546
37	0xbdb03295	-0.08603398
38	0x3d28bd83	0.041196357
39	0x3c58b532	0.013226794
40	0x3d35ba45	0.044367094
41	0x3c3e0489	0.011597761
42	0xbd655105	-0.05598547
43	0xbd9ea839	-0.0774693
44	0xbda85486	-0.082192466
45	0xbbb3ec2f	-0.0054908018
46	0x3cc6795f	0.024227796
47	0xbd679459	-0.05653796
48	0x3c65ef78	0.014034145
49	0xb9b11fbe	-0.0003378372
50	0x3d0d83b5	0.034549434
51	0x3db2d1fa	0.08731456
52	0xbd4d2ce9	-0.050091658
53	0x3d888620	0.06666207
54	0xbb6bf5e0	-0.0036004707
55	0x3d2576fe	0.040396683
56	0xbc83dc24	-0.016096182
57	0xbd95144b	-0.07279261
58	0x3d8d6c76	0.06905453
59	0xbdb3c89b	-0.08778497
60	0x3da261a0	0.07928777
61	0x3d2dca93	0.042429518
62	0x3d064177	0.032777276
63	0x3c3280c8	0.010894962
64	0x3d37b80e	0.044853263
65	0xbd81de0c	-0.0634118
66	0xbdb629bd	-0.0889468
67	0xbd8afe0c	-0.06786737
68	0xbbbdebb7	-0.0057959217
69	0x3b12b767	0.0022387148
70	0x3bfb5271	0.00766974
71	0x3d2c010e	0.041993193
72	0x3c89ef27	0.01683767
73	0x3d2db385	0.04240753
74	0x1ccd29d9	1.3576579e-21
75	0xbd0edec2	-0.034880407
76	0xbd574b89	-0.05256227
77	0xbd9229cc	-0.07136878
78	0xba98d918	-0.0011661379
79	0xbd6cb188	-0.057786494
80	0xbd908c74	-0.07058039
81	0x3cfd1fcf	0.030898957
82	0xbd839137	-0.06424182
83	0x3d097d67	0.03356686
84	0x3c5ce7ab	0.013482968
85	0xbcedd211	-0.029030832
86	0xbd94335d	-0.07236359
87	0xbbf0a32a	-0.0073436694
88	0xbc101ad1	-0.008795456
89	0xbd9dcd05	-0.0770512
90	0xbd14a92c	-0.036294147
91	0xbd779981	-0.060449127
92	0xbd1d6b34	-0.038432315
93	0xbb22f061	-0.0024862515
94	0x3d5359cf	0.05159932
95	0x3c19594f	0.009359672
96	0xbd91d6b4	-0.071210295
97	0xbbfb3b36	-0.0076669706
98	0xbd26e471	-0.040745202
99	0x3e062b64	0.1310249
100	0xbd739e2f	-0.059477028
101	0x3d5a2f21	0.053267602
102	0x3db98ba3	0.09059837
103	0xbc45fa45	-0.012083595
104	0xbd4d745c	-0.050159797
105	0x3d2706b6	0.040777884
106	0x3d328393	0.04358251
107	0xbd75f8a8	-0.06005159
108	0x3de91fc9	0.11383016
109	0x3d4d83d0	0.050174534
110	0x3d2dde54	0.042448357
111	0xbd9209ce	-0.07130776
112	0xbda5cfa0	-0.08096242
113	0xbb617e37	-0.0034407505
114	0x3d866f35	0.0656418
115	0xbd0302e3	-0.031985175
116	0x3cbfaa0a	0.02339651
117	0x3cc58bcb	0.02411451
118	0xbc8153e1	-0.015787067
119	0xbdf2f2d9	-0.11862726
120	0x3d484a59	0.04889903
121	0x3d4d8ebd	0.050184954
122	0x3c71af87	0.014751322
123	0xbc91ee49	-0.017813819
124	0xbd10d18e	-0.035356097
125	0xbbce0e4b	-0.006288325
126	0xbd2cacc6	-0.042156957
127	0x3d176f78	0.03697154
128	0xbd85f42c	-0.06540713
129	0x3e0b6e58	0.13616312
130	0xbae58960	-0.0017512254
131	0x3bd199cb	0.0063965074
132	0x3d5ff734	0.05467911
133	0xbd9ba40d	-0.075996496
134	0x20eade8a	3.9788406e-19
135	0x3c1a2621	0.009408505
136	0xbd05ee04	-0.032697693
137	0xba0843eb	-0.0005198109
138	0xbd6016c4	-0.05470921
139	0x3d50d151	0.05098087
140	0x3d6f3d32	0.05840797
141	0x3dc585ad	0.09644637
142	0x3cf92db2	0.030417297
143	0x3c48cc55	0.012255748
144	0x3ca54f16	0.020179313
145	0x3dc23e6a	0.09484561
146	0xbd1d8623	-0.038458
147	0x3d301f81	0.042998794
148	0x3bf347b6	0.00742432
149	0x3d6f0087	0.058350112
150	0x3d839fbb	0.064269505
151	0x3ad98157	0.0016594332
152	0x3d726541	0.059178594
153	0xbc9552b4	-0.018227912
154	0x3db1f977	0.0869016
155	0x3dae6d94	0.08516994
156	0xbd32a01c	-0.043609723
157	0xbd4cf08c	-0.05003409
158	0x3cb87511	0.02251676
159	0xbb957f89	-0.0045623225
160	0x3cfe9273	0.031075692
161	0x3e1319e1	0.14365341
162	0xbbda5aab	-0.0066636405
163	0x3d00807c	0.031372532
164	0x3d9b940e	0.075965986
165	0xbd9d5448	-0.07682091
166	0xbca0a9de	-0.019612249
167	0x3da9f6d5	0.082990326
168	0xbc9e5af0	-0.019330472
169	0x3d61f41c	0.05516444
170	0x3cdedb9b	0.027204325
171	0xbd51ccc0	-0.051220655
172	0xbd3b0805	-0.045661945
173	0xbcb7cc15	-0.022436181
174	0x3d7abf15	0.061217386
175	0x3cdd5fd0	0.027023226
176	0xbd656825	-0.056007523
177	0x3d9db9ee	0.07701479
178	0x3d086617	0.033300485
179	0xbd999707	-0.07499509
180	0xbda7a348	-0.0818544
181	0xbcc999c3	-0.024609452
182	0x3d27a1ad	0.04092567
183	0x3caa133d	0.020761127
184	0x3ca41503	0.02002955
185	0xbb1ad1e5	-0.0023623642
186	0xbb1d2811	-0.002398018
187	0xbdacabc2	-0.08431198
188	0xbc457fa3	-0.012054357
189	0x3e29852e	0.1655471
190	0xbd1fffb3	-0.039062213
191	0xbc2c0251	-0.010498599
192	0x3d34de5d	0.044157375
193	0xbd95fce1	-0.073236234
194	0x3d7dc377	0.061953988
195	0xbd79c3e9	-0.06097785
196	0xbd91e10f	-0.07123005
197	0x3d338677	0.043829408
198	0xbd0a4541	-0.033757452
199	0x3d9c9c2a	0.076469734
200	0xbd9e01f5	-0.07715217
201	0x3cdd6d7d	0.027029747
202	0x3d6e05d0	0.058111012
203	0xbd8983a4	-0.067145616
204	0x3cfe4853	0.031040346
205	0x3d7bef5b	0.061507564
206	0xbce80fa0	-0.028327763
207	0xbda89ecf	-0.08233415
208	0x3d42f136	0.047593318
209	0xbde3944d	-0.111122705
210	0xbced513e	-0.028969403
211	0xbcc678f6	-0.0242276
212	0x3da6bb1d	0.08141158
213	0xbd78cec3	-0.06074406
214	0xbc636e52	-0.013881283
215	0xbd3f1ed9	-0.046660278
216	0xbd101c51	-0.035183255
217	0xbd2e948e	-0.04262214
218	0x16b6aa29	2.9511072e-25
219	0xbca72fed	-0.020408595
220	0x3beb801f	0.007186904
221	0x3dabfc1b	0.08397695
222	0x3d9cc42b	0.076546036
223	0xbd1a0a65	-0.03760757
224	0x3caf4e72	0.02139971
225	0x3ca48965	0.020085046
226	0x3d5fe449	0.05466107
227	0xbd9d295d	-0.07673905
228	0xbc1f8c61	-0.009738059
229	0xbd59c823	-0.05316938
230	0x3d44bde5	0.04803266
231	0xbcc9f6bc	-0.024653785
232	0x3da0a9e8	0.07844907
233	0xbd3b8080	-0.045776844
234	0x3d70873b	0.058722716
235	0x3d54087c	0.051765904
236	0xbd16da3b	-0.036829215
237	0x3b230db9	0.0024880006
238	0x3d541cb3	0.051785182
239	0x3cc3a971	0.023884507
240	0x3d3735cc	0.04472904
241	0xbd3207b9	-0.043464396
242	0x3d08b82b	0.03337876
243	0xbd511525	-0.051045556
244	0x3d6c9238	0.057756633
245	0xbd9831a3	-0.074313425
246	0x3c79fda8	0.01525823
247	0xbc060cd8	-0.008181773
248	0xbd19d945	-0.03756072
249	0x3c122e15	0.00892212
250	0xbda66a10	-0.081256986
251	0xbda854cf	-0.08219301
252	0x3d963de1	0.07336021
253	0xbd0e5290	-0.034746706
254	0xbcb48ea7	-0.022040678
255	0xbdb7546b	-0.08951648

conv2.bias f4 [96]
0	0x3d357907	0.044304874
1	0x3d856945	0.06514219
2	0xbdc38e24	-0.095485955
3	0xbd31fe85	-0.04345562
4	0x3ca18be6	0.01972003
5	0xbdd5131c	-0.104040354
6	0xbd833212	-0.064060345
7	0xbdd42f4d	-0.103605844
8	0xbd3e2237	-0.04641935
9	0x3da65755	0.08122126
10	0xbbe18278	-0.006882008
11	0xbaa159f0	-0.0012310129
12	0x3c2dde2e	0.010612054
13	0xbb1a0057	-0.0023498738
14	0x3da3fbfd	0.08007047
15	0xbb8c6305	-0.004284265
16	0x3d7dfd0d	0.062008906
17	0x3ca87456	0.020563286
18	0x3b03f5fd	0.0020135634
19	0x3dc94ecd	0.09829483
20	0xbd43a46a	-0.04776422
21	0x3e0cb5d8	0.13741243
22	0x3d944307	0.07239347
23	0x3b91f597	0.0044543254
24	0xbc1bca8f	-0.009508743
25	0xbb84f2a4	-0.0040572453
26	0xbd6095c7	-0.05483034
27	0x3e012b83	0.12614255
28	0x3ab1f1db	0.0013576107
29	0x3de2b004	0.110687286
30	0xbda6aff3	-0.081390284
31	0xbda7235f	-0.081610434
32	0x3d1c3b85	0.0381427
33	0xbd902f9f	-0.07040333
34	0x3e19cf6d	0.15020533
35	0xbcbf6572	-0.023363803
36	0xbd6ad751	-0.057334248
37	0xbdd7e45f	-0.10541605
38	0x3d5e792f	0.05431479
39	0x3d9de54d	0.07709751
40	0x3dfd128d	0.12357054
41	0xbc736e95	-0.014857908
42	0x3c268b80	0.010165095
43	0xbd09ebfb	-0.033672314
44	0xbd9cfb2d	-0.076650955
45	0x3e0a1800	0.13485718
46	0x3e06b54c	0.13155097
47	0xbd3a18ca	-0.045433797
48	0xbcd5e19f	-0.026108561
49	0xbd702b0a	-0.058634795
50	0x3d33c8ea	0.04389278
51	0xbdfb590b	-0.12272843
52	0x3ddc4a52	0.10756363
53	0x3e094562	0.13405374
54	0x3d8c9699	0.06864662
55	0x3dc4c612	0.096080914
56	0x3e076821	0.13223316
57	0x3d6b0506	0.057377838
58	0x3dedc33e	0.11609505
59	0xbd39b090	-0.0453344
60	0x3e0a3abb	0.13498966
61	0xbced100b	-0.028938314
62	0xbc4eecea	-0.012629727
63	0x3e0753b5	0.13215525
64	0xbdf82495	-0.121163525
65	0x3d496f5c	0.049178466
66	0x3c716e0e	0.014735712
67	0x3de71d58	0.11284894
68	0xbdf820c0	-0.121156216
69	0xbc292ddd	-0.010325876
70	0x3db7fe0b	0.08984002
71	0x3d0368d7	0.032082405
72	0xbd5f9c78	-0.05459258
73	0xbc29842e	-0.0103464555
74	0x3d3285c7	0.04358461
75	0x3e0690cf	0.13141178
76	0xbd43c1a4	-0.047792092
77	0x3c6c2e32	0.014415311
78	0x3dde4272	0.10852517
79	0xbc9e23c5	-0.019304166
80	0xbd541ffe	-0.051788323
81	0xbd417c2b	-0.047237556
82	0xbd8bcee6	-0.06826572
83	0xbbcca175	-0.006244833
84	0x3de0b4c1	0.10971976
85	0xbb7a50e9	-0.00381952
86	0xbd885bc5	-0.06658129
87	0x3e17d0f3	0.14825802
88	0xbda45bf2	-0.0802535
89	0x3d1c2ecf	0.038130578
90	0xbcd84f26	-0.026404928
91	0x3bb87075	0.0056286403
92	0x3cc14534	0.023592569
93	0x3d8fefda	0.0702817
94	0x3d1489e6	0.036264323
95	0x3d200d23	0.03907503

fc.weight f4 [2, 96]
0	0xbdff3dab	-0.12462934
1	0x3db01fed	0.08599839
2	0x3c7f58ac	0.015585106
3	0xbda9c826	-0.082901284
4	0x3b3879d7	0.0028148794
5	0x3c47d454	0.012196619
6	0x3c9835a2	0.018580262
7	0x3d67c641	0.056585554
8	0x3de15965	0.11003379
9	0x3de783f9	0.11304469
10	0xbddd57a8	-0.10807735
11	0x3d8da808	0.06916815
12	0xbc7bbc3c	-0.015364703
13	0x3d9a57ec	0.07536301
14	0xbd213337	-0.039355483
15	0x3d2e20f1	0.042511884
16	0x3d9216de	0.07133268
17	0xbdc58d74	-0.09646121
18	0x3b9fe0ec	0.0048791077
19	0xbc37c644	-0.011216704
20	0xbd9de156	-0.07708995
21	0x3d8fcc79	0.07021422
22	0x3d1cc560	0.03827417
23	0x3d33db8f	0.04391056
24	0xbd22c0cc	-0.039734647
25	0x3cdec91d	0.027195508
26	0xbde4cfe1	-0.11172462
27	0x3d69f3a9	0.057117138
28	0xbdbfd099	-0.09365959
29	0x3e4e2d4f	0.20134471
30	0xbcc0368a	-0.023463506
31	0xbc82a1ee	-0.015946355
32	0xbd10d7a3	-0.035361897
33	0x3d85c7e6	0.06532268
34	0x3e234aa9	0.1594645
35	0x3d76c7e1	0.060249213
36	0xbd6d473c	-0.057929263
37	0xbc8e2872	-0.01735327
38	0xbc5efbc8	-0.013609834
39	0x3d242251	0.04007179
40	0x3e009e93	0.12560491
41	0xbd8642bd	-0.06555698
42	0x3d20b23c	0.039232478
43	0xbc029528	-0.007970132
44	0xbd68d331	-0.056842033
45	0x3ddadd51	0.10686744
46	0x3d44c369	0.04803792
47	0xbca6bc99	-0.020353602
48	0xbd97cfed	-0.074127056
49	0xbd75307c	-0.05986069
50	0x3dbfd03c	0.093658894
51	0x3c23f29a	0.010006571
52	0x3d6c089b	0.057625394
53	0x3d2afd5f	0.04174554
54	0x3cb94d29	0.0226198
55	0x3bcb8655	0.006211082
56	0x3dc09de1	0.09405113
57	0x3df57cb2	0.11986674
58	0x3dc50bb2	0.09621371
59	0xbe32e94c	-0.17471808
60	0x3e4ce652	0.20009735
61	0xbde5063b	-0.11182829
62	0x3d439e05	0.04775812
63	0xbb0272ed	-0.0019904927
64	0xbd453948	-0.04815033
65	0x3d96cd19	0.07363338
66	0xbddf7f5a	-0.10912962
67	0x3dbb86c7	0.09156566
68	0xbc7dbfc8	-0.015487619
69	0x3d5178b3	0.0511405
70	0x3d3f485f	0.046699878
71	0xbdd39003	-0.103302024
72	0xbd3c9e30	-0.046049297
73	0x3d171f33	0.03689499
74	0x3d5a2f59	0.05326781
75	0x3d8699e3	0.0657232
76	0xbba9e82c	-0.0051851477
77	0xbd502963	-0.05082072
78	0x3df99508	0.121866286
79	0x3db163ab	0.08661588
80	0x3c4b563c	0.012410697
81	0xbced7d80	-0.028990507
82	0xbe096608	-0.13417828
83	0xbd36eae4	-0.044657603
84	0x3dec7200	0.11545181
85	0xbdc1919b	-0.094516
86	0x3d836f56	0.0641772
87	0x3b7ed784	0.0038885782
88	0x3ca00825	0.019535134
89	0x3d9e5d34	0.07732621
90	0x3d2bd210	0.041948378
91	0x3d9328f8	0.071855485
92	0x3d3a12a2	0.045427926
93	0x3d82ea89	0.0639239
94	0xbd633908	-0.05547431
95	0x3d82eddb	0.063930236
96	0x3d64e0ef	0.055878576
97	0xbd9113df	-0.07083868
98	0x3da0cf07	0.07851987
99	0x3d00678d	0.031348754
100	0x3d7b5ffd	0.06137084
101	0x3de2da4c	0.11076793
102	0x3d2df094	0.04246576
103	0x3d991f27	0.07476645
104	0xbcbcc6e8	-0.023044065
105	0x3d63fa3e	0.05565857
106	0xbd04507a	-0.03230331
107	0xbdb9f7af	-0.09080445
108	0x3deeffac	0.11669859
109	0xbd11fa84	-0.0356393
110	0xbde235f6	-0.110454485
111	0xbdb4e680	-0.08833027
112	0x3d38e5b7	0.04514095
113	0xbcf02ba7	-0.02931769
114	0x3dacba9b	0.0843403
115	0xbd9eaec1	-0.077481754
116	0xbcad8384	-0.021180876
117	0xbd97887a	-0.07399078
118	0xbe088be1	-0.1333461
119	0x3d6878d7	0.056755867
120	0x3cea8160	0.028626144
121	0x3cb07e99	0.021544741
122	0x3b92597b	0.0044662333
123	0xbdf144c2	-0.11780693
124	0x3de6fe25	0.11278943
125	0xbd75b161	-0.059983615
126	0x3da55c02	0.0807419
127	0x3da2cb69	0.07948954
128	0x3d8b6060	0.068054914
129	0x3dcb7b25	0.09935597
130	0xbda91123	-0.08255222
131	0x3d85a10d	0.065248586
132	0x3d168614	0.03674896
133	0x3cfd6a32	0.030934427
134	0xbdd29620	-0.1028254
135	0xbcbc9036	-0.023017984
136	0xbe318ced	-0.17338915
137	0x3d531b48	0.05153969
138	0x3db520d5	0.08844153
139	0x3dd52ed2	0.10409321
140	0x3de3630b	0.11102875
141	0xbe1d3c4a	-0.1535503
142	0xbd4c0578	-0.049809903
143	0x3e29e99f	0.16593026
144	0xbc819685	-0.015818844
145	0x3d26008b	0.04052786
146	0x3ab48dec	0.0013775206
147	0x3dadc5bb	0.0848498
148	0x3c0f17ba	0.008733684
149	0xbd51a7d9	-0.051185463
150	0xbd1aca7c	-0.03779076
151	0xbd1070fd	-0.035264004
152	0xbcc99c67	-0.024610711
153	0xbdf29cc4	-0.11846307
154	0xbde3d494	-0.111245304
155	0x3df48855	0.11940066
156	0xbd40b628	-0.047048718
157	0xbd1f9e47	-0.038969304
158	0x3dc116c9	0.09428174
159	0xbc755f83	-0.014976385
160	0x3db6d697	0.089276485
161	0xbdfb72f1	-0.12277783
162	0x3a71da12	0.00092259154
163	0xbc4312f0	-0.0119063705
164	0x3dc92185	0.098208465
165	0x3db7b045	0.089691676
166	0xbdd540d7	-0.10412758
167	0xbc24d91a	-0.010061527
168	0x3dc20aaf	0.09474694
169	0x3dcadcfd	0.099054314
170	0xbd3ec27d	-0.046572197
171	0xbdc48bf2	-0.09597005
172	0x3d871d1a	0.065973476
173	0xbdf2a63d	-0.11848114
174	0x3cf33646	0.029688966
175	0xbd753688	-0.05986646
176	0x3d9876c5	0.074445285
177	0xbd823a96	-0.06358831
178	0x3c07b251	0.00828226
179	0x3d2f9824	0.042869702
180	0xbe0239db	-0.12717383
181	0x3d4b6fc8	0.04966715
182	0x3d87be00	0.066280365
183	0xbc9ca694	-0.0191224
184	0x3dfcdbe6	0.1234663
185	0xbdcfc26b	-0.10144504
186	0x3dc94e96	0.09829442
187	0xbda379e2	-0.07982232
188	0xbcf40109	-0.02978565
189	0x3be6c6d1	0.0070427437
190	0x3dc49c21	0.09600092
191	0x3be32982	0.0069324384

fc.bias f4 [2]
0	0x3df579dc	0.119861335
1	0x3c849c7d	0.0161879
