audio_classifier2.pth (torch, 914514 bytes, 12 tensors)

lstm.weight_ih_l0 f4 [512, 40]
0	0x3c58e711	0.013238684
1	0xbd576e78	-0.052595586
2	0x3b94007d	0.00451666
3	0xbcb31f67	-0.02186556
4	0x3d5331db	0.051561218
5	0xb952685d	-0.00020066039
6	0x3c29ae07	0.010356433
7	0x3d50fe80	0.05102396
8	0x3d83ac02	0.06429292
9	0x3d551951	0.052026097
10	0xbdab207d	-0.08355806
11	0x3d1c6c46	0.038189195
12	0x3d5ae28f	0.05343872
13	0xbd8ed82c	-0.06974825
14	0xbd6a8990	-0.057260096
15	0xbd39f2d0	-0.04539758
16	0x3cc42e23	0.023947781
17	0xbc802f83	-0.015647655
18	0xbc29c011	-0.010360734
19	0xbb60adf6	-0.0034283376
20	0x3bbffabc	0.0058587473
21	0xbc54c881	-0.012987257
22	0xbd1fafbd	-0.038985956
23	0xbcd16540	-0.025560975
24	0x3c0c4cd9	0.008563244
25	0x3bbb04a0	0.0057073385
26	0x3d81e436	0.06342356
27	0x3b5691f5	0.0032740806
28	0x3d09365c	0.033499107
29	0x3d82347d	0.063576676
30	0x3d052192	0.03250272
31	0x3db7e402	0.08979036
32	0x3a46f07d	0.0007588936
33	0x3cf5dbcb	0.030012032
34	0x3d2f8c34	0.042858317
35	0xbca4ff7d	-0.020141358
36	0x3d3c40a0	0.04596007
37	0xbce9f3e7	-0.028558685
38	0xbd1afaa9	-0.037836704
39	0xbc86da98	-0.016461655
40	0xbd3cd448	-0.046100885
41	0xbc808093	-0.015686309
42	0xbc22a56e	-0.009927137
43	0xbd77383b	-0.06035636
44	0x3d485eab	0.048918407
45	0x3d04c04d	0.032409955
46	0xbb9ceaa3	-0.004788713
47	0x3c9de365	0.01927347
48	0x3c8abc03	0.016935354
49	0xbb9ebecd	-0.0048445226
50	0x3b8b6c06	0.0042548208
51	0xbda77768	-0.08177072
52	0x3c981eb0	0.01856932
53	0xbd235cc9	-0.03988341
54	0x3d871fc9	0.065978594
55	0xbd306975	-0.04306932
56	0x3d99c90a	0.07509048
57	0xbd8cb6a1	-0.06870771
58	0x3d204a74	0.039133504
59	0xbd30c207	-0.04315379
60	0xbd374f03	-0.044753086
61	0xbda554a8	-0.080727875
62	0xbb467c19	-0.003028637
63	0x3d8d2e0a	0.06893547
64	0xbda9351c	-0.08262083
65	0x3cdfe289	0.0273297
66	0xbd6f9fd1	-0.058502022
67	0xbd2a65e7	-0.041601088
68	0xbd658054	-0.056030586
69	0x3d83667f	0.06416034
70	0xbcf035c4	-0.029322512
71	0xbc585e3a	-0.013206059
72	0x3d96f0ab	0.073701225
73	0x3c7507a2	0.014955433
74	0xbda62fc1	-0.08114577
75	0xbd8aa477	-0.067696504
76	0x3d9b6f53	0.07589593
77	0x3d677c71	0.05651516
78	0x3d79fb51	0.06103069
79	0x3d09b070	0.03361553
80	0x3d10ec7c	0.03538178
81	0x3d9ead4c	0.077478975
82	0xbdb44ac2	-0.088033214
83	0x3db25e5a	0.087094024
84	0xbd569d71	-0.05239624
85	0x3d2faac2	0.042887457
86	0xbdc2c817	-0.0951082
87	0x3d3a99fa	0.045557
88	0xbd9caf5e	-0.07650636
89	0x3b5b9c61	0.0033509957
90	0xbd60dd03	-0.054898273
91	0xbda9dc1e	-0.08293937
92	0xbd026a02	-0.03183938
93	0xbd9d6f5a	-0.07687254
94	0x3d9c1011	0.07620252
95	0xbdbb44e8	-0.09144002
96	0x3d8aed5f	0.06783556
97	0xbab768ae	-0.0013992989
98	0xbdc1e768	-0.09467965
99	0xbd9ce899	-0.07661552
100	0xbd9d9aaf	-0.07695519
101	0x3d44625f	0.047945376
102	0x3cd61484	0.02613283
103	0x3d7da3ec	0.061923906
104	0x3d2d22ef	0.042269643
105	0xbcac46cc	-0.021029852
106	0x3d9be6a9	0.07612354
107	0xbdb93e23	-0.09045055
108	0x3d3cf148	0.04612854
109	0x3db074de	0.08616041
110	0x3cc1d6bb	0.023661962
111	0x3d80ef7c	0.06295678
112	0x3d936e9e	0.07198833
113	0xbd7e2f52	-0.062056847
114	0xbd2ce668	-0.04221192
115	0x3d252aaf	0.04032391
116	0x3d4d0bbb	0.050060015
117	0xbd33eef0	-0.04392904
118	0xbd7172d4	-0.0589474
119	0x3c22b22d	0.009930176
120	0xbcbd6377	-0.023118718
121	0x3c23c877	0.009996525
122	0x3da5fcfc	0.081048936
123	0x3daf9667	0.08573609
124	0xbda382ad	-0.07983909
125	0x3cbba10b	0.02290394
126	0xbcafc02a	-0.021453936
127	0xbd61746f	-0.05504268
128	0x3ba7afdb	0.005117399
129	0xbd68375e	-0.056693427
130	0xbd87193f	-0.06596612
131	0x3ce0b451	0.027429732
132	0x3dbd36e7	0.092389874
133	0x3d77c267	0.06048813
134	0x3bf6c210	0.0075304583
135	0xbda813fd	-0.082069375
136	0xbcdbf043	-0.026847964
137	0xbdaf3624	-0.085552484
138	0x3c8001f1	0.015625926
139	0x3d46d886	0.048546337
140	0x3d397fd9	0.04528794
141	0x3d5ab84d	0.05339842
142	0x3d8b2c4d	0.06795559
143	0x3d89360b	0.06699761
144	0xbd44123e	-0.04786896
145	0xb98a3607	-0.00026361665
146	0x3d1d3322	0.038378842
147	0xbd977799	-0.07395858
148	0x3d54f5c4	0.051992193
149	0xbd9cf616	-0.07664125
150	0x3cd7bf15	0.026336232
151	0x3db6571f	0.08903336
152	0x3d8e8475	0.06958858
153	0xbbfb59fc	-0.007670639
154	0xbd45fe49	-0.04833821
155	0xbd881c0d	-0.06645975
156	0x3c2da88f	0.0105992695
157	0x3daa137f	0.083045
158	0xbc2619e7	-0.010138012
159	0x3d1283b2	0.035770126
160	0x3d01f233	0.03172512
161	0xbb962c41	-0.004582912
162	0x3d159f45	0.036528844
163	0xbd045de3	-0.0323161
164	0xbc24c2ff	-0.010056256
165	0xbd80c880	-0.06288242
166	0x3d2db8ed	0.042412687
167	0xbd2fc399	-0.042911146
168	0x3da2573b	0.07926794
169	0x3d263bba	0.040584303
170	0xbda8755c	-0.082255095
171	0x3d8a69c7	0.06758457
172	0x3b9385aa	0.004502018
173	0xbdb4bca4	-0.08825043
174	0xbc35f7c3	-0.011106434
175	0xbd514855	-0.05109437
176	0xbcca257a	-0.024676073
177	0x3cfee8f3	0.031116938
178	0xbd8eeed2	-0.06979145
179	0x3c6daa80	0.014505982
180	0x3af56ce9	0.0018724474
181	0x3b61b31d	0.0034439035
182	0x3d682014	0.056671217
183	0x3d8142bd	0.063115574
184	0x3d306123	0.043061387
185	0xbcb16421	-0.02165419
186	0xbd3a3528	-0.04546085
187	0xbcc35b7e	-0.023847338
188	0xbbbd7c34	-0.0057826284
189	0x3d597589	0.053090606
190	0xbd85f2ba	-0.06540437
191	0xbdb62b27	-0.088949494
192	0x3a226bc9	0.0006195871
193	0x3cca15d8	0.024668619
194	0x3cdc39df	0.026883064
195	0x3da7a1a8	0.0818513
196	0x3dc3b600	0.09556198
197	0x3da92df8	0.08260721
198	0x3da5d19f	0.08096623
199	0x3ca692b1	0.02033362
200	0x3c483915	0.012220641
201	0xbd98240d	-0.07428751
202	0x3d902bb2	0.07039584
203	0x3cbfdb21	0.023419918
204	0xbd2a6c08	-0.041606933
205	0xbd04cbf1	-0.032421056
206	0x3cc64a5b	0.024205377
207	0xbcb2104b	-0.021736285
208	0x3d716133	0.058930587
209	0x3b80c350	0.003929533
210	0xbda451b3	-0.080233954
211	0xbd2737a6	-0.040824555
212	0x3d06129c	0.03273259
213	0xbc9656c0	-0.018351912
214	0xbc1ac30b	-0.009445916
215	0x3d00a23e	0.031404726
216	0xbd40aee5	-0.047041792
217	0xbcb9e66d	-0.022692883
218	0xbc83cd64	-0.016089149
219	0x3d25d3d0	0.040485203
220	0xbd6adca3	-0.05733932
221	0x3d011133	0.031510543
222	0x3d54edb7	0.051984515
223	0xbdaf96b5	-0.08573667
224	0x3d9193dd	0.07108281
225	0x3d686be3	0.056743514
226	0xbd437d09	-0.047726665
227	0xbd8e8f48	-0.069609225
228	0x3d496f42	0.04917837
229	0xbc0e569b	-0.008687641
230	0xbd2962b2	-0.04135389
231	0x3d9c485b	0.07630988
232	0xbd335909	-0.043786082
233	0xbda6df2e	-0.08148037
234	0xbce20d6a	-0.027594287
235	0xbd03a6a3	-0.03214134
236	0x3cfec7d2	0.031101141
237	0x3d9b9f5f	0.07598757
238	0xbd1bfc43	-0.038082372
239	0xbcf5da8d	-0.03001144
240	0x3dabad1c	0.08382627
241	0x3d148788	0.036262065
242	0xbbdfb7e7	-0.006827343
243	0xbd8d8b35	-0.06911317
244	0xbda78592	-0.081797734
245	0x3ce50af9	0.027959334
246	0x3d994899	0.0748455
247	0xbd9a6b4a	-0.07539995
248	0xbd4b85d8	-0.04968819
249	0x3d3c28f6	0.0459375
250	0xbbb95549	-0.0056559187
251	0x3c93af2d	0.018027866
252	0xbd923e73	-0.071408175
253	0x3ca6dda7	0.020369364
254	0xbd9cb97c	-0.07652566
255	0x3d921507	0.07132917

lstm.weight_hh_l0 f4 [512, 128]
0	0xbc966014	-0.01835636
1	0xbd6ea058	-0.058258384
2	0x3db404ab	0.08789953
3	0x3d210cae	0.039318733
4	0xbc0ebe78	-0.0087124035
5	0xbc4bab50	-0.012430981
6	0xbda0506f	-0.078278415
7	0x3cbdfaf0	0.023190945
8	0x3d58ff86	0.05297806
9	0xbd99d4e3	-0.07511308
10	0x3d2dd892	0.042442866
11	0x3d996911	0.07490743
12	0x3d64d43e	0.055866472
13	0xbbe37f70	-0.006942682
14	0x3daa7e3f	0.08324861
15	0x3c368d40	0.011142075
16	0x3cc53b08	0.024076
17	0xbbd2f7f0	-0.006438248
18	0x3c101ca0	0.008795887
19	0xbd8edee3	-0.06976106
20	0x3b143620	0.0022615269
21	0x3d52853a	0.051396586
22	0x3d881521	0.06644655
23	0x3d975d63	0.07390859
24	0xbd1e321d	-0.03862201
25	0x3c8f7070	0.017509669
26	0xbd992bfd	-0.07479093
27	0x3b8169a0	0.003949359
28	0x3c453f48	0.012039013
29	0xbccc0abc	-0.024907462
30	0xbdaff211	-0.085910924
31	0x3cd6e6fc	0.026233189
32	0x3d96f5cd	0.073711015
33	0xbd9f1877	-0.07768338
34	0x3b1d0820	0.0023961142
35	0xbd850404	-0.064949065
36	0xbd48191d	-0.048852075
37	0x3c794cd0	0.015216067
38	0x3cdda96c	0.027058326
39	0x3c5fe6c8	0.013665862
40	0xbd9b39b3	-0.07579365
41	0xbd6d9307	-0.058001544
42	0xbd75514d	-0.059891988
43	0xbc0f9888	-0.008764394
44	0x3d4f5b82	0.050624378
45	0xbaba4080	-0.0014209896
46	0xbbb99d40	-0.0056644976
47	0x3d60a092	0.05484063
48	0xbbe78030	-0.0070648417
49	0xbd6ca439	-0.057773802
50	0xbcef9c58	-0.029249355
51	0x3d548a86	0.05188992
52	0xbbdd6c80	-0.006757319
53	0xbc8737bc	-0.016506068
54	0x3cfaecc4	0.030630477
55	0x3d2dc5fa	0.042425133
56	0xbd34bb1d	-0.044123758
57	0x3c9521cc	0.018204592
58	0xbd478dd8	-0.048719257
59	0x3d8d546d	0.069008686
60	0xbd4ce923	-0.050027024
61	0xbda2a502	-0.07941629
62	0x3d673606	0.056448005
63	0x3d281ade	0.041041248
64	0x3a8cab80	0.0010732263
65	0x3d309802	0.043113716
66	0x3d92b86b	0.07164081
67	0x3d3261aa	0.04355017
68	0xbda6b852	-0.08140625
69	0x3da1ab5f	0.078940146
70	0xbda68ed2	-0.081327096
71	0xbdae9426	-0.08524351
72	0x3c1c7668	0.009549715
73	0x3d3b8fea	0.045791544
74	0xbd54ba59	-0.051935527
75	0xbd875e37	-0.06609767
76	0xbd9adbe3	-0.07561471
77	0xba17c100	-0.0005788952
78	0x3d20190a	0.03908638
79	0x3bd62de0	0.0065362304
80	0x3d851b87	0.06499391
81	0xbd7aed3c	-0.0612614
82	0xbc5207e0	-0.01281926
83	0x3cd9e518	0.026598498
84	0xbd166802	-0.036720283
85	0x3d1714ca	0.03688506
86	0xbc0b7158	-0.00851091
87	0x3d80923b	0.06277891
88	0xbc122eb0	-0.008922264
89	0xbbe74860	-0.0070581883
90	0x3d27deb2	0.040983863
91	0x3d217e3a	0.03942702
92	0x3d6018d6	0.054711185
93	0x3d4f7ba6	0.05065503
94	0xbd0b08fe	-0.033944122
95	0xbd5da86c	-0.054115698
96	0x3d702c02	0.05863572
97	0xbd0b5518	-0.0340167
98	0xbd0d7452	-0.03453476
99	0x3d9af4bb	0.0756621
100	0x3c79a310	0.015236631
101	0xbdb4b484	-0.08823493
102	0xbbdde810	-0.006772049
103	0xbdaac81d	-0.0833895
104	0xbcc88b10	-0.024480373
105	0x3d9e0065	0.07714919
106	0x3be9e560	0.0071379393
107	0xbd3d2a21	-0.046182755
108	0x3cf6c150	0.030121475
109	0xbdae7cd2	-0.08519901
110	0xbd5fc1ef	-0.05462831
111	0xbd5f6411	-0.05453879
112	0xbd9519d8	-0.0728032
113	0x3ca58950	0.020207077
114	0x3c97adec	0.01851555
115	0x3d123036	0.03569051
116	0x3b89df50	0.004207529
117	0x3d6bf67e	0.05760812
118	0x3d67858e	0.056523852
119	0xbd3dc143	-0.046326887
120	0xbc8a5a94	-0.016888894
121	0xbd911d2d	-0.07085643
122	0x3d818a47	0.063252024
123	0xbd85a0fe	-0.065248474
124	0x3c927788	0.017879263
125	0xbdaa6209	-0.0831948
126	0x3cc12ae4	0.023580022
127	0xbd1c7a79	-0.038202737
128	0x3d68ea5a	0.05686412
129	0xbd8b95ac	-0.06815657
130	0x3d819113	0.06326499
131	0x3c3409d8	0.010988675
132	0xbd1056d3	-0.035239052
133	0xbc1c2c70	-0.009532079
134	0x3d070db2	0.032972045
135	0x3cc295e0	0.023753107
136	0x3cf8ccd0	0.0303711
137	0x3d882d47	0.06649261
138	0xbd03fc42	-0.032222994
139	0x3da3af73	0.07992449
140	0x3d5ea156	0.05435308
141	0x3d7a4996	0.061105333
142	0xbd910d86	-0.070826575
143	0xbd59d6df	-0.053183433
144	0x3d689a3e	0.05678772
145	0xbbf4aae0	-0.007466659
146	0xbd69746c	-0.056995794
147	0x3d5e19fe	0.054224007
148	0x3d4b0f52	0.049575157
149	0xbd143025	-0.036178727
150	0x3d863e83	0.06554892
151	0x3d8f61a3	0.070010446
152	0xbc9846f4	-0.01858852
153	0xbd9065d7	-0.070506744
154	0xbd99f24c	-0.075169176
155	0x3c296ec8	0.010341354
156	0xbcf98bd4	-0.030462183
157	0x3dafbccf	0.08580934
158	0xbd0ac369	-0.033877764
159	0x3cb28878	0.021793589
160	0x3d588e0e	0.05286985
161	0xbd6d2600	-0.057897568
162	0x3d8c6531	0.06855238
163	0x3ba28150	0.004959263
164	0x3d05df60	0.03268373
165	0xbd6cc18c	-0.05780177
166	0xbd1974ee	-0.03746503
167	0x3d8161bf	0.06317472
168	0x3c22d828	0.009939231
169	0xbd5bca1f	-0.053659555
170	0x3d658d3e	0.056042902
171	0xbd951d6d	-0.07281003
172	0x3d95b269	0.0730942
173	0xbda29fa5	-0.07940606
174	0xbc7c11f0	-0.015385136
175	0xbd7b3bae	-0.06133621
176	0xbc831f64	-0.01600618
177	0x3d283c9e	0.041073434
178	0x3d1c8822	0.038215764
179	0xbcc22594	-0.02369956
180	0x3db0704d	0.0861517
181	0x3db0df25	0.086363114
182	0x3ca51a18	0.020154044
183	0x3d86aabd	0.065755345
184	0x3ca0b574	0.019617774
185	0x3c7e5980	0.015524268
186	0x3d7cebfa	0.061748482
187	0xbd0c7f27	-0.03430095
188	0x3bc9dad0	0.0061601177
189	0xbd4359c9	-0.047693048
190	0xbcc239ac	-0.02370914
191	0x3d2966a2	0.041357644
192	0xbcefd674	-0.029277064
193	0xbd7db9a0	-0.061944604
194	0xbd94fe14	-0.07275024
195	0xbd785245	-0.060625333
196	0xbd8a73cc	-0.06760368
197	0x3d1b4632	0.03790874
198	0xbd442429	-0.047886048
199	0xbd47c692	-0.048773356
200	0x3d87fb71	0.066397555
201	0xbd490349	-0.0490754
202	0x3d5a47b6	0.053291045
203	0x3d3eaea6	0.046553276
204	0x3da051b9	0.07828087
205	0xbd91d152	-0.07120003
206	0xbd4fe54c	-0.050755784
207	0x3cac776c	0.021053039
208	0x3ccf8670	0.02533266
209	0x3d404c02	0.046947487
210	0xbd6217f6	-0.055198632
211	0xbd04fe21	-0.03246892
212	0x3da120af	0.07867562
213	0xbb91ff40	-0.004455477
214	0xbccf2a50	-0.02528873
215	0xbd263358	-0.04057631
216	0x3dacf32f	0.08444821
217	0x3c6aea50	0.014338091
218	0xbba3ed90	-0.005002685
219	0x3d830cb9	0.06398911
220	0x3d2517fa	0.04030607
221	0xbcfb2066	-0.030655097
222	0x3d48600a	0.048919715
223	0xbd0a315f	-0.03373849
224	0xbc5d08f0	-0.0134909
225	0xbd8d063e	-0.06885956
226	0x3d92cc3f	0.07167863
227	0x3ce69328	0.028146341
228	0xbd836d65	-0.0641735
229	0x3b5aab80	0.0033366382
230	0xbc1ec6d8	-0.009690963
231	0x3ce6d1f4	0.028176285
232	0x3cdec95c	0.027195625
233	0x3d29743e	0.041370623
234	0xbdad42b3	-0.084599875
235	0xbd7a5075	-0.061111886
236	0x3c750fb8	0.014957361
237	0xbd526a20	-0.05137074
238	0x3d72b92e	0.059258632
239	0xbc81d894	-0.015850343
240	0xbd873820	-0.06602502
241	0x3d1e3ca6	0.038632058
242	0xbd7c35b6	-0.06157466
243	0x3d2b097e	0.0417571
244	0x3d9d2aed	0.07674203
245	0xbd041b34	-0.032252505
246	0xbd95b808	-0.07310492
247	0xbcfba4fc	-0.03071832
248	0x3d5f044e	0.054447465
249	0xbb8dfae0	-0.004332885
250	0xbd9aacef	-0.07552516
251	0x3b2b40a0	0.0026131049
252	0x3d9c9663	0.076458715
253	0x3d35e436	0.044407092
254	0xbc804ee8	-0.015662625
255	0xbd91d3f8	-0.07120508

lstm.bias_ih_l0 f4 [512]
0	0xbd593790	-0.053031504
1	0x3c2a688c	0.0104009025
2	0x3dc3cc62	0.09560467
3	0x3d2872e1	0.041125182
4	0xbccba6e6	-0.024859857
5	0xbc98d3fa	-0.018655766
6	0x3c13cd49	0.009021112
7	0xbd12345e	-0.035694472
8	0xbdb1345a	-0.086525634
9	0x3ca17df8	0.019713387
10	0x3c11f2d6	0.008907994
11	0xbcad5e94	-0.021163262
12	0x3d8eaf25	0.06967
13	0xbc817f23	-0.015807694
14	0x3da08ab8	0.078389585
15	0xb8d17a56	-9.9886835e-05
16	0x3da08373	0.07837572
17	0xbd39a60b	-0.045324367
18	0xbca6cdbd	-0.020361776
19	0xbcd2b739	-0.025722133
20	0x3c8fdf8d	0.017562652
21	0x3bf8efe7	0.007596958
22	0x3d0f3af8	0.034968346
23	0x3b9de65a	0.00481872
24	0xbd508846	-0.05091121
25	0xbda76114	-0.08172813
26	0xbd0db526	-0.034596585
27	0xbd27ac2e	-0.040935688
28	0xbd046fa0	-0.032333016
29	0x3d72b755	0.05925687
30	0xba7f4042	-0.0009737053
31	0x3dccab8f	0.0999366
32	0xbd5b4c7b	-0.053539734
33	0xbd4ef529	-0.05052677
34	0x3cd6ba99	0.026212024
35	0x3d425b26	0.047450207
36	0xbd2328de	-0.039833896
37	0xbda7dbb0	-0.08196199
38	0xbc96527f	-0.018349884
39	0x3c8264f2	0.015917275
40	0xbd62b389	-0.055347
41	0xbd745a20	-0.059656262
42	0xbd528f78	-0.051406354
43	0xbc17c06f	-0.009262188
44	0x3db6196f	0.0889157
45	0xbcababfc	-0.020956032
46	0x3d67e4d3	0.05661471
47	0x3ce5e271	0.028062077
48	0x3d9704a2	0.073739305
49	0xbd79d817	-0.060997095
50	0xbcdbcb69	-0.026830392
51	0xbd0472e0	-0.032336116
52	0x3c0297b0	0.007970735
53	0xbd9b301b	-0.07577535
54	0xbc4d0552	-0.0125134755
55	0x3d9838a9	0.07432682
56	0xbd5f7e96	-0.05456408
57	0xbd4e2e56	-0.05033716
58	0xb85fd6d9	-5.3367436e-05
59	0x3dadd664	0.084881574
60	0x3ce18005	0.027526865
61	0xbcfade3d	-0.03062355
62	0xbae55afe	-0.0017498431
63	0x3ce5dc9a	0.028059293
64	0x3d2a4d22	0.041577466
65	0x3cb9ef08	0.022696987
66	0xbc94151a	-0.018076468
67	0x3dc382b7	0.09546416
68	0xbd0fc14f	-0.035096463
69	0xbdb047df	-0.08607458
70	0x3dc8c0e9	0.0980242
71	0x3d9220bc	0.0713515
72	0xbdb3caa3	-0.08778884
73	0x3d6419cb	0.05568866
74	0x3aab5559	0.00130717
75	0xbd719036	-0.05897542
76	0xbd82bc3f	-0.06383561
77	0xbc9e3fff	-0.019317625
78	0xbd909265	-0.070591725
79	0x3da83b54	0.08214441
80	0xbba2a871	-0.0049639274
81	0xbbe172fd	-0.0068801627
82	0xbc8fb83f	-0.01754391
83	0x3ca02660	0.019549549
84	0xbcbafe22	-0.022826258
85	0xbdab312e	-0.0835899
86	0x3c41dec0	0.011832893
87	0xbc3eb6d3	-0.011640268
88	0xbd56da71	-0.052454416
89	0x3d3389a4	0.043832436
90	0xbdab8da9	-0.08376629
91	0x3c81c895	0.015842715
92	0x3d39b513	0.0453387
93	0x3cf665d7	0.030077858
94	0x3d0e35db	0.03471933
95	0x3d11dc25	0.035610337
96	0xbca4b2a0	-0.020104706
97	0x3b92d888	0.004481379
98	0x3d0d4525	0.03448977
99	0x3d017f54	0.03161557
100	0x3dcac9f6	0.09901802
101	0xb9a9d56a	-0.00032393198
102	0xbc01e512	-0.00792815
103	0xbbd76900	-0.0065737963
104	0xbd525a86	-0.05135586
105	0xbad9d86f	-0.0016620288
106	0xbbee6e7d	-0.007276355
107	0xbc43bda8	-0.011947073
108	0xbd39c61e	-0.045354955
109	0x3d4afbdc	0.049556598
110	0xbd205410	-0.03914267
111	0xbd4cb178	-0.049973935
112	0xbcf437b0	-0.02981171
113	0x3d478f23	0.04872049
114	0x3d2d5050	0.04231292
115	0x3c3812d4	0.011234958
116	0xbd7f3346	-0.062304758
117	0x3d7eb0e6	0.062180422
118	0x3c397ae4	0.011320803
119	0x3d6000d3	0.054688286
120	0xbc906811	-0.017627748
121	0x3ccc2dee	0.024924245
122	0x3d9fdd2b	0.07805856
123	0xbd6092be	-0.054827444
124	0x3cb7fa84	0.022458322
125	0x3bd8aede	0.0066126427
126	0xbd5d8434	-0.054081157
127	0x3d339dc9	0.043851648
128	0xbcb9c3e0	-0.022676408
129	0x3c8d2228	0.017228201
130	0xbd68fc01	-0.056880955
131	0x3bd3d3b0	0.006464444
132	0xbd1e75e6	-0.038686655
133	0xbd694b03	-0.056956302
134	0xbd9d8d7c	-0.07693002
135	0xbce8972a	-0.028392393
136	0xbd0364ed	-0.032078672
137	0x3d7234aa	0.059132256
138	0x3d9705d9	0.07374162
139	0xbcdd1a92	-0.026990209
140	0xbd9f5726	-0.07780294
141	0x3ce74744	0.028232224
142	0xbd3bb511	-0.045826975
143	0x3d3fd28e	0.04683166
144	0xbd5c9f9d	-0.053863157
145	0x3d4df742	0.05028463
146	0xbd3b5fb1	-0.045745555
147	0x3d9bd183	0.076083206
148	0xbd82fa20	-0.06395364
149	0x3c86d220	0.016457617
150	0xbdb34afc	-0.087545365
151	0x3d6ef02a	0.058334507
152	0x3da017f1	0.078170665
153	0x3da7d209	0.08194358
154	0x3c8823c0	0.01661861
155	0x3db4a021	0.08819605
156	0xbd48152e	-0.048848324
157	0xba133400	-0.00056153536
158	0xbbf09df0	-0.0073430464
159	0xbd95f06c	-0.073212475
160	0xbc6aefd8	-0.01433941
161	0xbd3ea8da	-0.04654775
162	0xbd9610a3	-0.07327392
163	0x3bea7d90	0.0071560815
164	0xbd641f19	-0.05569372
165	0xbdadd749	-0.08488328
166	0x3d66c95a	0.056344368
167	0x3cb06d88	0.021536604
168	0x3c6c6fd0	0.014430955
169	0xbda39521	-0.079874285
170	0xbdb25b62	-0.08708836
171	0xbd27d7c3	-0.04097725
172	0xbdb0ab44	-0.08626416
173	0x3ceea85c	0.029133014
174	0x3da3181d	0.079635836
175	0x3c366e50	0.011134699
176	0xbd057b0e	-0.032588057
177	0xbcdcc21e	-0.026948031
178	0xbb8213c0	-0.0039696395
179	0x3d4c7566	0.049916647
180	0xbd5f5fb4	-0.05453463
181	0x3c9d3c64	0.019193836
182	0xbdad624a	-0.08466013
183	0xbd53b7b3	-0.05168886
184	0xbd60b30f	-0.054858264
185	0x3cf9cd68	0.030493453
186	0x3d82fb85	0.0639563
187	0x3d3af75a	0.04564605
188	0x3d23bd22	0.039975293
189	0xbc837040	-0.016044736
190	0xbcbf779c	-0.023372464
191	0xbd794f67	-0.06086674
192	0xbd6676d0	-0.056265652
193	0x3d7adaf6	0.061243974
194	0x3c333070	0.010936841
195	0xbd81839b	-0.0632393
196	0xbca37d28	-0.01995714
197	0xbd9222aa	-0.07135518
198	0x3d8c8029	0.06860382
199	0x3d4980ce	0.049195103
200	0x3db26d03	0.087121986
201	0x3c434940	0.01191932
202	0x3c43d6a8	0.0119530335
203	0x3aa1e440	0.0012351349
204	0xbccc2600	-0.024920464
205	0xbd46e87e	-0.048561566
206	0xbda1d2b9	-0.0790152
207	0xbc6c7190	-0.014431372
208	0xbd92380a	-0.07139595
209	0x3da41c31	0.080131896
210	0x3d557f8e	0.0521236
211	0xbd8bec7d	-0.06832216
212	0x3b09bde0	0.0021017715
213	0xbd281263	-0.04103316
214	0x3c4b0100	0.012390375
215	0x3d778b8a	0.06043581
216	0x3d844d8d	0.06460104
217	0x3c0ef098	0.008724354
218	0xbcb7a3e4	-0.022417016
219	0xbd24a24b	-0.040193837
220	0xbce4f256	-0.027947586
221	0xbb07b420	-0.0020706728
222	0x3d2eeeaa	0.042708077
223	0x3d8236bb	0.06358095
224	0x3cd3e274	0.025864817
225	0x3d1d13a6	0.038348816
226	0x3d66b2d6	0.056322895
227	0xbd65d2c1	-0.056109194
228	0xbdb17cf1	-0.08666409
229	0x3c9d4310	0.019197017
230	0xbcf34c10	-0.029699355
231	0x3d4c5b02	0.04989148
232	0xbd64ae57	-0.055830326
233	0xbc89f950	-0.016842514
234	0xbb22fcc0	-0.002486989
235	0xba861140	-0.001022853
236	0x3d895f6f	0.06707656
237	0xbcdd5e9c	-0.027022652
238	0xbd17bacd	-0.03704338
239	0x3d07f226	0.033189915
240	0xbd24fc07	-0.040279415
241	0x3da13687	0.078717284
242	0xbaa25440	-0.0012384728
243	0x3d9eacb3	0.077477835
244	0x3d99bc2b	0.07506593
245	0x3d167a2e	0.036737613
246	0x3d287e66	0.041136168
247	0x3d0cf784	0.034415737
248	0xbd2d07f7	-0.042243924
249	0xbcffd5f4	-0.03122995
250	0x3d8f6d61	0.07003284
251	0x3d33a566	0.043858908
252	0x3d2ce95a	0.04221473
253	0xbd67515d	-0.05647408
254	0x3d0a6908	0.03379157
255	0xbcce4d30	-0.02518329

lstm.bias_hh_l0 f4 [512]
0	0x3d8afa18	0.06785983
1	0x3d2b9bc4	0.041896597
2	0xbd0c4735	-0.034247596
3	0x3d927326	0.07150869
4	0x3d4c7fac	0.049926445
5	0xbd3db27b	-0.04631279
6	0xbd9f8fb5	-0.07791082
7	0xbd814324	-0.06311634
8	0xbc57f535	-0.0131810205
9	0x3db0a22e	0.08624683
10	0xbd880bbc	-0.06642863
11	0x3dacdf53	0.08441033
12	0xbd939ad8	-0.072072685
13	0xbd1dfd49	-0.03857163
14	0xbd316bb2	-0.043315597
15	0xbd8f1c21	-0.06987787
16	0xbd90f3cc	-0.070777506
17	0xbc1eb397	-0.009686372
18	0xbb1ab542	-0.0023606573
19	0xba881078	-0.0010380885
20	0xbcc93ffb	-0.024566641
21	0x3cfda182	0.030960802
22	0x3ce7c20e	0.028290775
23	0xbb2f4f1a	-0.002675003
24	0xbbe50286	-0.006988826
25	0xbd528e43	-0.051405203
26	0x3d6fb09b	0.058518033
27	0xbceea635	-0.029131988
28	0xbd21d2a5	-0.039507527
29	0x3d6ea57d	0.05826329
30	0x3aa44fb4	0.001253596
31	0x3d9c05c1	0.07618285
32	0xbd8aa376	-0.06769459
33	0xbbae17f1	-0.0053129126
34	0xbba91844	-0.0051603634
35	0x3d49455a	0.049138404
36	0xbd954777	-0.072890215
37	0x3d8c5579	0.0685224
38	0xbcc8e781	-0.024524452
39	0x3d7490cc	0.0597084
40	0x3d71f4c8	0.059071332
41	0x3d355400	0.04426956
42	0xbd32b47b	-0.04362915
43	0x3cc69ba1	0.024244132
44	0x3d3489fd	0.04407691
45	0x3d3639f6	0.04448887
46	0x3da23080	0.07919407
47	0xbd21af5d	-0.03947388
48	0x3ce0154d	0.027353907
49	0xbca2a010	-0.019851714
50	0x3d52386d	0.051323343
51	0x3d814353	0.06311669
52	0xbdaefa9b	-0.08543893
53	0x3d428b17	0.047495928
54	0xbd88ef3e	-0.06686257
55	0xbc05a47a	-0.00815689
56	0xbd02da66	-0.031946562
57	0x3ca7284d	0.02040496
58	0xbd09a411	-0.03360373
59	0xbcd78ef6	-0.026313286
60	0x3db20257	0.086918525
61	0x3d115bd3	0.03548796
62	0x3cc3e9eb	0.023915252
63	0xbd9566ce	-0.07294999
64	0xbc0320e5	-0.008003448
65	0x3d14d08b	0.036331695
66	0x3bc6a878	0.0060625635
67	0xbc5d0e10	-0.013492122
68	0x3c6e9e0a	0.014564047
69	0xbce4c41b	-0.027925542
70	0x3dbc37ab	0.09190305
71	0xbd412a6c	-0.047159597
72	0x3d612c2a	0.05497376
73	0xbc3038ba	-0.010755712
74	0xbd8cf291	-0.06882203
75	0xbd894735	-0.06703035
76	0xbd8d23a2	-0.06891562
77	0x3db03cec	0.0860537
78	0xbd330740	-0.043708086
79	0xbd260050	-0.04052764
80	0x3d868775	0.06568805
81	0x3c14d851	0.009084777
82	0x3c1bcaff	0.009508847
83	0x3d894fc5	0.06704668
84	0x3d6ebb20	0.058283925
85	0xbc62caa0	-0.013842255
86	0x3ca94075	0.020660618
87	0x3d660a66	0.05616226
88	0x3d65a251	0.056063
89	0x3d5637f4	0.052299455
90	0xbd90b1c4	-0.07065156
91	0x3c285836	0.010274937
92	0x3d80892d	0.06276164
93	0x3db30015	0.0874025
94	0xbc71ef55	-0.014766534
95	0xbd34d660	-0.044149756
96	0xbd4b7f45	-0.04968192
97	0xbbba94ae	-0.0056939935
98	0x3c186185	0.009300594
99	0x3d43e4a6	0.047825478
100	0xbcfb9ed5	-0.030715385
101	0xbd41d861	-0.047325496
102	0xbd92ab39	-0.071615644
103	0xba30dd49	-0.0006746841
104	0x3db4f437	0.08835643
105	0xbd52ac96	-0.051434122
106	0x3cbf9a8e	0.023389127
107	0x3da2dd03	0.07952311
108	0xbd984b17	-0.07436197
109	0xbc62764a	-0.013822148
110	0x3cc6fd65	0.02429075
111	0xbcaa8dcf	-0.020819573
112	0xbd947f98	-0.07250899
113	0x3d0e097d	0.034677017
114	0x3d984254	0.07434526
115	0xbbe34ba8	-0.006936509
116	0x3d61fc04	0.05517198
117	0x3d53d5de	0.05171763
118	0xbd8e438d	-0.06946478
119	0xbd3ac52b	-0.04559819
120	0x3d9b898c	0.07594594
121	0x3d8facc3	0.070153736
122	0x3db218e1	0.086961515
123	0xbcd85c4a	-0.026411194
124	0xbd544206	-0.051820777
125	0x3cf3a315	0.02974085
126	0x3b294d57	0.0025833452
127	0x3c90aca8	0.017660454
128	0xbda076ee	-0.07835184
129	0xbdb01300	-0.08597374
130	0x3c65dcd0	0.014029697
131	0xbd8421b9	-0.064517446
132	0xbd8d093e	-0.068865284
133	0xbd93a6dd	-0.07209561
134	0xbd95f25a	-0.073216155
135	0x3d56b9c2	0.052423246
136	0xbc4b82a8	-0.012421288
137	0x3cc63458	0.024194881
138	0x3d1504fe	0.036381714
139	0x3d819ccb	0.06328734
140	0xbd7f8566	-0.062383078
141	0xbda0d274	-0.07852641
142	0x3c511388	0.012761004
143	0x3d0cf628	0.03441444
144	0xbd90bfd3	-0.070678376
145	0x3d040304	0.03222944
146	0x3ca4aa1c	0.020100646
147	0xbbd777c0	-0.0065755546
148	0xbd906859	-0.07051153
149	0x3d8d234f	0.068915
150	0xbcf514f8	-0.029917225
151	0x3d879949	0.06621034
152	0xbda6a6da	-0.08137293
153	0xbcbfaeb8	-0.023398742
154	0xbd1a6a0b	-0.037698787
155	0x3d948b97	0.07253187
156	0x3d933cb5	0.07189313
157	0xbc75e020	-0.015007049
158	0x3d1198c0	0.035546064
159	0xbdab7874	-0.08372584
160	0x3ce5078c	0.0279577
161	0x3a4c8480	0.00078017265
162	0xbc5d54c8	-0.013508983
163	0x3db427cb	0.087966524
164	0x3b777e00	0.003776431
165	0xbd972f09	-0.07382018
166	0x3c934d9c	0.017981343
167	0x3c3e6880	0.011621594
168	0x3d884423	0.06653621
169	0x3d85a203	0.06525042
170	0xbdb3c0e8	-0.08777028
171	0xbd7a7bd6	-0.061153255
172	0x3d3aa63a	0.045568682
173	0xbd2a96fe	-0.041647904
174	0xbd7eea55	-0.062235195
175	0x3d987617	0.07444399
176	0xbd45786f	-0.048210558
177	0xbdab4276	-0.08362286
178	0x3d9bf02d	0.07614169
179	0xbd8e789c	-0.06956598
180	0x3cb7d5ac	0.022440754
181	0x3cf27e5c	0.029601268
182	0x3dabacdd	0.083825804
183	0xbc9933e4	-0.018701501
184	0x3d1128ea	0.03543941
185	0x3d883add	0.06651852
186	0xbd261208	-0.04054454
187	0x3b95cc00	0.004571438
188	0xbd0d5cf3	-0.03451247
189	0x3c373f10	0.011184469
190	0xbd2a67bd	-0.04160284
191	0xbd89ab47	-0.06722122
192	0xbc9318a0	-0.017956078
193	0x3c9be47c	0.019029848
194	0x3d48294a	0.0488675
195	0x3da135f3	0.07871618
196	0x3d1c33a2	0.03813518
197	0x3c964aa0	0.01834613
198	0xbcbed7c8	-0.023296252
199	0x3d7f47a2	0.062324174
200	0xbcb8bf08	-0.022552028
201	0xbd5e39bc	-0.05425428
202	0x3d5b754a	0.053578652
203	0x3d0b5546	0.03401687
204	0x3d616266	0.05502548
205	0xbd94e998	-0.07271117
206	0xbd7067c7	-0.05869272
207	0x3cbd6418	0.023119017
208	0xbd9c1b39	-0.0762238
209	0x3c45a2b8	0.012062721
210	0xbd9f26a8	-0.07771045
211	0xbd2b37d6	-0.041801296
212	0x3d4a90da	0.049454547
213	0x3c68a000	0.014198303
214	0xbd7cc2e0	-0.061709285
215	0x3d3f363e	0.04668259
216	0xbccbd2d8	-0.024880812
217	0xbd23e9af	-0.04001778
218	0x3d0c3332	0.03422851
219	0x3d991c95	0.07476155
220	0xbd0bfe94	-0.03417833
221	0x3c38ff30	0.01129131
222	0x3daf1341	0.08548594
223	0xbd799773	-0.06093545
224	0xbcf6e846	-0.030140053
225	0x3d76279e	0.060096376
226	0x3d9ea6b5	0.077466406
227	0x3d2c70ce	0.042099766
228	0x3bab8360	0.005234167
229	0xbbf6f1a0	-0.007536128
230	0xbd846c9b	-0.06466027
231	0x3d98489f	0.074357264
232	0x3babad10	0.0052391365
233	0xbc909bf0	-0.017652482
234	0xbdb4b2ba	-0.08823152
235	0xbd8c8eea	-0.06863196
236	0xbc830530	-0.015993685
237	0x3da6d6ab	0.081464134
238	0x3d8932c1	0.06699134
239	0xbd8d8985	-0.069109954
240	0xbb932500	-0.0044904947
241	0x3d15a856	0.03653749
242	0xbd8d9907	-0.06913953
243	0x3d98ab49	0.07454545
244	0xbd26f1e9	-0.040758047
245	0x3bea1ea0	0.007144764
246	0xbdaacfcb	-0.083404146
247	0x3dad1293	0.084508084
248	0xbc624288	-0.013809808
249	0xbd18c227	-0.037294533
250	0x3d227aa6	0.039667748
251	0xbd97ad0a	-0.074060515
252	0x3d513dd2	0.051084347
253	0x3c9c5640	0.019084096
254	0x3da30737	0.079603605
255	0x3d8e6009	0.06951911

lstm.weight_ih_l1 f4 [512, 128]
0	0x3d531162	0.05153025
1	0xbdd4e22b	-0.103947006
2	0x3d642dd5	0.05570777
3	0xbd120ef2	-0.035658784
4	0x3d578993	0.052621435
5	0xbd6b30da	-0.057419635
6	0xbb264046	-0.00253679
7	0xbd3083ab	-0.04309432
8	0x3d40b359	0.04704604
9	0xbc40fdda	-0.011779273
10	0xbce5c717	-0.028049035
11	0xbd16c865	-0.036812205
12	0x3cbdc77c	0.02316641
13	0x3d202e44	0.039106622
14	0x3dc31fbd	0.09527538
15	0xbcadf44a	-0.02123465
16	0x3d4a214f	0.04934817
17	0xbd4d197c	-0.050073132
18	0xbbbcfde0	-0.005767569
19	0x3d883732	0.06651153
20	0x3b2b6157	0.0026150548
21	0x3d1d88d5	0.03846057
22	0x3d8fc7d9	0.0702054
23	0x3c7fbd4f	0.0156090995
24	0xbd81c854	-0.06337038
25	0xbad9eaa3	-0.0016625713
26	0xbc171570	-0.00922142
27	0xbd0f82fc	-0.035037026
28	0x3c091fa8	0.008369364
29	0xbd7f09b9	-0.06226513
30	0xbbcbccdd	-0.00621949
31	0x3dc529b0	0.09627092
32	0x3cbd249c	0.023088746
33	0x3d44aa12	0.048013754
34	0xbd46b314	-0.048510626
35	0xbd584827	-0.052803185
36	0x3d8a389d	0.067490794
37	0x3d9914fd	0.07474706
38	0x3d9d6c7d	0.07686708
39	0x3d864aa6	0.06557207
40	0x3a47b08f	0.0007617557
41	0xbd79624d	-0.060884763
42	0xbcb44dee	-0.022009816
43	0xbdcd6fcb	-0.100310884
44	0x3d36c91a	0.04462538
45	0xbd9b0a2c	-0.075702995
46	0x3de948a4	0.11390808
47	0xbd8d5ebe	-0.06902836
48	0xbd2fae91	-0.04289109
49	0x3d9d4600	0.07679367
50	0x3da75683	0.08170798
51	0xbd2e7a59	-0.04259715
52	0x3d09e4e2	0.033665545
53	0x3c1bdc2d	0.009512943
54	0xbd1714a6	-0.036884926
55	0xbceaa1d7	-0.028641624
56	0x3e0106c3	0.12600236
57	0xbda51f62	-0.080626264
58	0x3dc6beda	0.09704371
59	0xbd5687f2	-0.05237574
60	0x3d971df2	0.073787585
61	0xbcd01187	-0.025398983
62	0xbdc39bbe	-0.0955119
63	0x3da4445e	0.080208525
64	0xbd90041c	-0.07032034
65	0x3ca9301f	0.020652829
66	0x3d6b6ad7	0.057474937
67	0xbdad9a26	-0.08476667
68	0x3dad482b	0.084610306
69	0x3d93c831	0.07215918
70	0x3d42a99c	0.047525033
71	0xbca68e39	-0.020331489
72	0xbd16d5d8	-0.03682503
73	0x3d10670a	0.035254516
74	0x3bf0846f	0.007340006
75	0xbcf260fa	-0.029587258
76	0xbcc9bd8c	-0.024626516
77	0xbb0a0c1c	-0.0021064347
78	0xbd88216b	-0.06646999
79	0xbd8b6680	-0.0680666
80	0x3da5dff1	0.08099354
81	0xbcbf7ac0	-0.023373961
82	0x3daf8d2b	0.085718475
83	0x3cf52c90	0.029928476
84	0x3d792a69	0.06083146
85	0xbdad7e9e	-0.08471416
86	0x3cbd9f96	0.023147386
87	0xbc491add	-0.012274471
88	0x3c4f99c8	0.012670942
89	0x3d876e40	0.066128254
90	0x3cf62b3c	0.030049913
91	0xbe040adb	-0.12894766
92	0xbda45454	-0.08023897
93	0x3def596e	0.11686979
94	0x3d846cc9	0.064660616
95	0xbcbc7f3b	-0.023009887
96	0x3c170ecd	0.009219837
97	0x3d5380ce	0.05163651
98	0xbc918aa6	-0.017766308
99	0x3d192a5e	0.03739392
100	0xbda81bde	-0.0820844
101	0x3c007db4	0.00784247
102	0x3d547983	0.051873695
103	0xbd8f4bd8	-0.06996888
104	0xbc919ef0	-0.017775983
105	0xbda58db3	-0.080836676
106	0xbca456d9	-0.020060943
107	0xbc8d8e46	-0.017279755
108	0xbd708dcf	-0.05872899
109	0x3d0c7bc2	0.034297712
110	0x3ccaed38	0.024771318
111	0x3ddf066c	0.10889897
112	0x3d6080b2	0.054810233
113	0x3b330c86	0.0027320697
114	0xbdacc77d	-0.08436487
115	0x3ccb3546	0.024805676
116	0x3dcceee0	0.10006499
117	0xbd179e08	-0.037015945
118	0xbcdc7faf	-0.026916353
119	0x3c7acece	0.015308095
120	0xbbc317bd	-0.0059537576
121	0xbdac2200	-0.084049225
122	0xbdaf85f4	-0.085704714
123	0x3dda75bf	0.106669895
124	0xbd36500d	-0.044509936
125	0x3d166012	0.036712714
126	0xbd29fc14	-0.041500166
127	0xbd11594a	-0.035485543
128	0xbd1b2de8	-0.037885576
129	0xbc5dff0a	-0.013549576
130	0x3d43b255	0.047777493
131	0x3df9ecb8	0.12203354
132	0xbd5c43c0	-0.05377555
133	0x3bb27f00	0.0054472685
134	0x3db38da9	0.08767254
135	0x3d669d72	0.056302495
136	0xbdb1c8ee	-0.086809024
137	0xbd5f3ad0	-0.054499447
138	0x3bdb9d05	0.006702068
139	0xbdaecdd9	-0.08535356
140	0x3d9f26ff	0.0777111
141	0xbd29433d	-0.04132389
142	0x3d9908f9	0.074724145
143	0x3b3a9b01	0.0028473737
144	0xbd7f8413	-0.062381815
145	0xbce54212	-0.027985606
146	0xbd8edcdc	-0.06975719
147	0x3d8bdc69	0.06829149
148	0x3df7cd41	0.12099696
149	0xbd0bdfb6	-0.034148894
150	0xbb8dfef1	-0.00433337
151	0x3d314f6e	0.04328864
152	0xbd58afd3	-0.052902054
153	0xbd176e50	-0.036970437
154	0x3c5c2a81	0.013437868
155	0xbdd7d76e	-0.10539137
156	0xbd5fc2e5	-0.054629225
157	0xbd8a72d7	-0.06760185
158	0xbb7f2285	-0.0038930487
159	0x3d1d76f3	0.038443517
160	0xbd8758c2	-0.06608726
161	0x3d64b4ed	0.055836607
162	0x3da21ab1	0.07915247
163	0xbd3728a3	-0.04471649
164	0xbd4a5fdf	-0.049407836
165	0xbd1d5e06	-0.038419746
166	0xbca56826	-0.020191263
167	0x3dbad67c	0.09122941
168	0x3cb027ae	0.021503296
169	0xbd321ee0	-0.043486476
170	0x3da7a0d8	0.081849754
171	0xbdc34e1b	-0.09536382
172	0x3d0407ca	0.03223399
173	0x3d7484aa	0.05969683
174	0x3df014b3	0.11722698
175	0xbc9fe4d1	-0.019518288
176	0x3d40430e	0.04693895
177	0x3ceee1df	0.029160438
178	0xbd81cc63	-0.06337812
179	0xbd982832	-0.07429542
180	0x3bdfc310	0.006828673
181	0x3d09b91a	0.033623792
182	0x3d92e1be	0.07171963
183	0x3d236aca	0.039896764
184	0x3c920557	0.017824812
185	0xbd2aab34	-0.04166718
186	0x3ccd4409	0.025056856
187	0x3d54d798	0.05196342
188	0xbdaaace5	-0.08333758
189	0xbcd89f9e	-0.026443299
190	0xbd94b682	-0.07261373
191	0xbb8b3929	-0.0042487574
192	0x3b8f5e4b	0.0043752543
193	0xbd9666f9	-0.07343859
194	0x3af38faa	0.0018582244
195	0xbe0d7e6d	-0.13817759
196	0xbd8a63b0	-0.06757295
197	0x3c5dc359	0.013535344
198	0x3cd559e4	0.02604384
199	0x3d04070a	0.032233275
200	0xbd0e5a18	-0.03475389
201	0xbdb72d43	-0.0894418
202	0x3c8e7721	0.01739079
203	0xbda394b6	-0.07987349
204	0xbcda287c	-0.026630633
205	0xbc511481	-0.012761236
206	0x3d29a33a	0.04141543
207	0xbd5b3b5c	-0.053523406
208	0x3c3abfc6	0.011398261
209	0xbcc3a6a5	-0.023883173
210	0x3dd482f9	0.103765436
211	0xbd65fe81	-0.056150917
212	0xbd9d6f16	-0.076872036
213	0x3d26831a	0.040652372
214	0xbd34fd95	-0.044187147
215	0x3d7884c1	0.06067348
216	0x3d520702	0.051276214
217	0x3d7a249a	0.061070062
218	0x3c298158	0.010345779
219	0xbd74f0f5	-0.059800107
220	0xbdd4de77	-0.10393994
221	0x3bc99193	0.006151387
222	0xbd061d4c	-0.032742783
223	0x3ca619e7	0.020276023
224	0xbd498711	-0.049201075
225	0xbe095ec6	-0.1341506
226	0xbdf44c4f	-0.11928617
227	0xbc2c0488	-0.010499127
228	0xbdd7c925	-0.10536412
229	0xbd73a099	-0.05947933
230	0xbd675347	-0.056475904
231	0xbdef3a90	-0.11681092
232	0xbdd6a175	-0.10480014
233	0x3da15af4	0.07878676
234	0x3c7070d5	0.014675339
235	0xbcf56006	-0.029953014
236	0xbdab8d39	-0.083765455
237	0x3d772f90	0.060348094
238	0xba657d6a	-0.0008754345
239	0x3c1e7c32	0.009673165
240	0xbdac30f7	-0.08407777
241	0xba0cc3d4	-0.0005369757
242	0xbcdbf369	-0.026849465
243	0x3d8a5bf5	0.06755821
244	0x3de2afbc	0.11068675
245	0xbd8902e8	-0.066900074
246	0x3c386770	0.01125513
247	0x3d88c233	0.066776656
248	0xbd8518d2	-0.06498875
249	0xbc998d5d	-0.018744165
250	0x3d0eae1e	0.03483402
251	0x3df35524	0.11881474
252	0xbdaf2ea0	-0.08553815
253	0xbd97db85	-0.07414917
254	0xbdbade2c	-0.09124407
255	0x3d4363c4	0.047702566

lstm.weight_hh_l1 f4 [512, 128]
0	0x3dad0645	0.084484614
1	0x3d1cbe3e	0.038267367
2	0x3d7af446	0.061268114
3	0x3d97f8fb	0.07420536
4	0x3d62b89a	0.05535183
5	0x3d062334	0.032748416
6	0xbda8fa76	-0.08250897
7	0x3a9f8a40	0.0012171939
8	0xba858c80	-0.0010188967
9	0x3cbfd374	0.023416258
10	0xbca29934	-0.019848444
11	0x3d51b3d6	0.051196896
12	0xbd6bef62	-0.05760134
13	0xbca00618	-0.019534156
14	0x3c573af0	0.01313661
15	0xbd82c468	-0.06385118
16	0x3d203d06	0.039120696
17	0xbd8476c8	-0.06467968
18	0x3d2b45fa	0.04181478
19	0xbc22c148	-0.009933777
20	0x3cf0d310	0.029397517
21	0x3cb9af08	0.02266647
22	0xbd84d847	-0.06486564
23	0xba9a4cc0	-0.0011772141
24	0xbd57d876	-0.052696668
25	0x3d4c6b56	0.04990705
26	0x3ccc33ec	0.024927102
27	0x3d8463ad	0.06464324
28	0xbc82b734	-0.015956499
29	0x3b8abd00	0.0042339563
30	0x3c681138	0.0141642615
31	0x3d30845a	0.04309497
32	0xbd280d53	-0.041028332
33	0x3d80a1fb	0.06280895
34	0xbccb24d0	-0.024797827
35	0x3d83c845	0.06434683
36	0xbd1d63c9	-0.03842524
37	0xbd37e62a	-0.044897236
38	0x3d63e7ea	0.055641092
39	0x3d4e34f2	0.05034346
40	0x3cfaef84	0.030631788
41	0xbd622d07	-0.055218723
42	0xbd280603	-0.04102136
43	0x3da9e365	0.08295325
44	0x3d18f02a	0.037338413
45	0xbcb5a9f4	-0.022175767
46	0xbc352e98	-0.011058472
47	0x3d11bc6c	0.035580084
48	0xbda97202	-0.082736984
49	0xbd5537c0	-0.05205512
50	0xbd96e32d	-0.07367549
51	0xbd40ea94	-0.04709871
52	0xbda80109	-0.082033224
53	0xbc486870	-0.012231931
54	0x3c4a7e90	0.012359276
55	0x3d0d3180	0.034471035
56	0xbd64d303	-0.0558653
57	0x3d25516e	0.04036086
58	0xbce04c30	-0.027380079
59	0xbd8bdb3c	-0.06828925
60	0xbcd1fb4c	-0.025632523
61	0xbcfcc8d2	-0.030857477
62	0xbd000c3b	-0.031261664
63	0x3cd88c88	0.026434198
64	0x3d61b9be	0.05510878
65	0xbaa92ac0	-0.0012906417
66	0x3d98ddaf	0.07464158
67	0xbdae5126	-0.085115716
68	0xbd8c5a6a	-0.068531826
69	0x3d629db2	0.05532617
70	0x3d9c08ed	0.0761889
71	0x3d4119fe	0.04714393
72	0x3d2808e6	0.04102411
73	0xbd99e377	-0.075140886
74	0xbda3eefc	-0.08004567
75	0x3c2a3820	0.010389358
76	0x3d982715	0.07429329
77	0xbdb415b6	-0.087932035
78	0x3da96171	0.082705386
79	0x3c90a0c0	0.017654777
80	0x3cf54578	0.029940352
81	0x3d83e9bd	0.064410664
82	0xbd0f601f	-0.035003778
83	0x3d248bf2	0.040172525
84	0x3d1a5716	0.037680708
85	0xbd530fe2	-0.05152882
86	0xbc113dc8	-0.008864827
87	0xbd02db87	-0.03194764
88	0xbd3e5c10	-0.046474516
89	0x3d17e8ba	0.03708718
90	0xbd5d077b	-0.053962212
91	0x3c8604c0	0.016359687
92	0x3c550d38	0.01300364
93	0x3da51fb9	0.08062691
94	0x3d536b1a	0.051615812
95	0xbccdf358	-0.02514045
96	0xbd3476d2	-0.04405863
97	0xbd52a5a1	-0.051427487
98	0xbd11669c	-0.035498247
99	0xbd5d89f9	-0.05408666
100	0x3d2a14a6	0.041523598
101	0xbd3b1115	-0.045670588
102	0x3db332d3	0.08749928
103	0xbd9a3f79	-0.07531638
104	0xbd63d151	-0.05561954
105	0x3cbcba9c	0.023038201
106	0xbaead140	-0.0017915145
107	0xbd67f0c0	-0.05662608
108	0xbc84c594	-0.016207494
109	0x3db19789	0.08671481
110	0x3d6facda	0.058514453
111	0x3db4a1ef	0.08819949
112	0xbae34c80	-0.0017341524
113	0xbc01ec30	-0.007929847
114	0xbd073b0b	-0.033015292
115	0xbcde36a6	-0.027125668
116	0x3d87e341	0.06635142
117	0xbd5f2be8	-0.05448523
118	0xbd202ede	-0.039107196
119	0xbd7b6558	-0.061375946
120	0xbd2c41c3	-0.042054903
121	0x3dab6aed	0.08370004
122	0x3d0d2ce4	0.03446664
123	0x3d8c48f9	0.06849856
124	0xbcba405c	-0.022735767
125	0x3d0394fa	0.032124497
126	0x3d80706b	0.06271442
127	0xbbbaf760	-0.005705759
128	0x3d8d9f87	0.06915193
129	0xbdb4900b	-0.088165365
130	0x3da9cd27	0.08291083
131	0x3daa46ed	0.08314309
132	0xbd113390	-0.035449564
133	0xbaf48280	-0.0018654615
134	0xbc38f2b0	-0.01128833
135	0x3d5d3bda	0.054012157
136	0xbd4f030e	-0.050540023
137	0xbdae1618	-0.08500308
138	0x3db0792b	0.08616861
139	0xbc921f50	-0.017837197
140	0x3d963b75	0.07335559
141	0x3d8f255d	0.06989548
142	0x3d6aa72e	0.05728834
143	0xbd7db398	-0.061938852
144	0x3da75cd7	0.08172005
145	0x3d5310da	0.051529743
146	0x3cc83898	0.024441049
147	0x3d4126ce	0.047156148
148	0x3d761bba	0.060085036
149	0x3d617d76	0.05505129
150	0x3d0a0144	0.033692613
151	0xbc8955c0	-0.016764522
152	0xbc09bd08	-0.008406885
153	0xbce57ac4	-0.02801264
154	0x3adf01c0	0.0017014071
155	0x3b7f2080	0.0038929284
156	0x3d8916f7	0.06693833
157	0xbda11f77	-0.078673296
158	0x3d846c93	0.064660214
159	0xbdb4cfe3	-0.08828714
160	0x3c12d690	0.0089622885
161	0x3d28131e	0.041033857
162	0xb9493a00	-0.0001919046
163	0xbdb3095e	-0.08742021
164	0x3db1f935	0.086901106
165	0xbd4a71bf	-0.049424883
166	0x3c9720ec	0.018448316
167	0x3d0b7d5c	0.0340551
168	0xbd8b23d6	-0.067939445
169	0x3daff06d	0.085907795
170	0x3d1aab8a	0.03776125
171	0x3d5a0b12	0.053233214
172	0x3da08e0b	0.078395925
173	0x3d792b66	0.060832404
174	0x3d4dd74a	0.050254144
175	0xbd7b6692	-0.061377116
176	0xbd99c4cb	-0.075082384
177	0x3d45af46	0.048262857
178	0x3c2ad750	0.010427311
179	0x3d9fa5f5	0.07795326
180	0x3daf8501	0.0857029
181	0xbcfc9884	-0.030834444
182	0x3d133b68	0.035945326
183	0xbd07f00a	-0.033187903
184	0x3cf8a0d8	0.030350134
185	0x3d5a141e	0.05324184
186	0xbd972920	-0.07380891
187	0xbd3e3077	-0.04643294
188	0x3d1a7e36	0.03771802
189	0xbc9a5344	-0.018838532
190	0x3da5ae4d	0.08089886
191	0xbab8dc40	-0.0014103726
192	0xbd3231fd	-0.043504704
193	0x3d349a0a	0.044092216
194	0x3d35d896	0.044396006
195	0x3d756c5e	0.0599178
196	0x3daffcd1	0.08593143
197	0xbda403af	-0.08008515
198	0xbd638dfc	-0.05555533
199	0x3d175312	0.036944456
200	0x3d93e981	0.07222272
201	0xbd7f5c08	-0.062343627
202	0xbd300f4e	-0.042983346
203	0xbc0c7440	-0.008572638
204	0xbcf6c60c	-0.030123733
205	0xbd3f49c9	-0.046701226
206	0xbd507548	-0.050893098
207	0x3d7d3306	0.061816238
208	0xbd71ac87	-0.059002426
209	0x3d234d2a	0.03986851
210	0x3d3cc046	0.046081804
211	0x3d6fd896	0.05855616
212	0x3d274482	0.04083682
213	0x3d218ffa	0.039443947
214	0x3cc75f9c	0.024337582
215	0xbd731866	-0.05934944
216	0xbdafba51	-0.08580459
217	0xbd936d98	-0.07198638
218	0xbc87b560	-0.016565979
219	0xbda12ffc	-0.078704804
220	0xba278280	-0.00063899904
221	0xbcacf0d0	-0.021110922
222	0xbd9472aa	-0.07248433
223	0x3cee6b78	0.02910398
224	0x3d8048bb	0.06263872
225	0x3d86c7bf	0.06581067
226	0xbd807306	-0.06271939
227	0xbd9a255c	-0.07526657
228	0x3d20723a	0.039171435
229	0xbdaa0933	-0.08302536
230	0x3d7fa4c2	0.062412985
231	0xbd578297	-0.052614775
232	0xbd89f72d	-0.06736598
233	0xbdb26768	-0.087111294
234	0xbc0804a0	-0.008301884
235	0xbd37486f	-0.044746812
236	0xbd8b86f2	-0.06812848
237	0xbd14ad9d	-0.036298383
238	0xbd8d6b34	-0.06905213
239	0x3d8cf1d1	0.0688206
240	0x3cadb8c0	0.02120626
241	0xbd9e6d83	-0.077357315
242	0xbc8e72d8	-0.017388746
243	0x3c9fc39c	0.019502454
244	0x3cdc078c	0.026859067
245	0xbd5eb0af	-0.054367717
246	0x3d416c02	0.047222145
247	0xbca56c40	-0.02019322
248	0xbd157115	-0.036484797
249	0x3cfd303c	0.030906789
250	0x3c8a8c90	0.016912729
251	0x3d5c014e	0.05371218
252	0xbd9e6468	-0.07733995
253	0x3d9c0dbd	0.07619808
254	0x3d908a6f	0.07057654
255	0xbd0942cf	-0.03351098

lstm.bias_ih_l1 f4 [512]
0	0x3d91eedc	0.07125637
1	0x3db12c96	0.08651082
2	0x3d78d606	0.060750984
3	0x3c6faee4	0.0146290995
4	0x3e10e015	0.1414798
5	0x3dacaedc	0.08431789
6	0xbbd80cfd	-0.006593345
7	0x3c495673	0.0122886775
8	0x3d197d90	0.03747326
9	0x3d92fdc5	0.07177309
10	0xbbbc641a	-0.0057492377
11	0xbc946642	-0.018115167
12	0x3bdb60de	0.006694897
13	0x3bacdd53	0.0052754073
14	0x3d83f317	0.0644285
15	0x3da3d7ec	0.08000168
16	0x3d857915	0.06517235
17	0x3cc6d77c	0.024272673
18	0x3de53c9f	0.11193203
19	0x3d49eb23	0.04929651
20	0x3dc0549b	0.09391137
21	0x3dc8e753	0.098097466
22	0x3d150f14	0.036391333
23	0xba8f13e1	-0.0010915959
24	0x3d6fb631	0.05852336
25	0x3df03ae0	0.117299795
26	0x3dd0d105	0.10196117
27	0xbd2dbad5	-0.042414505
28	0xbcb9f442	-0.022699479
29	0xbbefef25	-0.0073222094
30	0x3d38e0f4	0.045136407
31	0x3d555fb4	0.052093223
32	0x3dc12872	0.094315425
33	0x3ce23a64	0.027615733
34	0xbbaf7e2b	-0.0053556166
35	0x3dec265a	0.115307525
36	0x3cc2bd0a	0.023771781
37	0xbc047c31	-0.00808625
38	0x3d30ad1a	0.043133833
39	0x3c6eaf42	0.014568152
40	0x3dc66c0f	0.09688579
41	0xbd77369a	-0.060354806
42	0x3d8e0ee3	0.06936433
43	0x3d722b1a	0.059123136
44	0x3ded1424	0.11576107
45	0x3dacb7bf	0.08433484
46	0x3e0397f4	0.12850934
47	0x3d4e87f3	0.05042262
48	0x3deb87a7	0.11500483
49	0x3dc883b7	0.097907476
50	0x3d502acf	0.050822075
51	0x3b1820fb	0.0023213017
52	0x3d5ac03f	0.053405996
53	0xbd27e351	-0.04098827
54	0x3d383f40	0.044982195
55	0xbcb237b1	-0.021755071
56	0x3d2662f6	0.04062172
57	0x3c2e65d6	0.010644397
58	0x3c7f9ea0	0.015601784
59	0x3d64d39c	0.05586587
60	0x3df60cdb	0.12014171
61	0xbd10cde1	-0.03535259
62	0x3d907475	0.070534624
63	0x3de0cde1	0.10976768
64	0x3cce3970	0.025173873
65	0x3dc9b130	0.09848249
66	0x3db7f702	0.0898266
67	0x3e02304a	0.12713733
68	0x3e011fb8	0.12609756
69	0x3bb1b810	0.0054235533
70	0x3df7d864	0.1210182
71	0x3cbe1f40	0.02320826
72	0x3d33e2a0	0.0439173
73	0x3da4cedd	0.080472685
74	0x3da9f936	0.08299486
75	0xbcb01aee	-0.021497216
76	0xbc642945	-0.013925855
77	0xbc00319f	-0.007824331
78	0xbd367e50	-0.044554055
79	0xbc03e1a7	-0.008049405
80	0x3df77f1f	0.12084793
81	0x3e1bd20f	0.1521685
82	0xbd68fb96	-0.056880556
83	0x3d134921	0.035958413
84	0x3de0ba2f	0.10973012
85	0x3de6ec71	0.11275566
86	0x3de7bc0a	0.113151625
87	0x3e03ea47	0.12882338
88	0x3d5fe48c	0.05466132
89	0x3d17f243	0.037096273
90	0xbb3e90cf	-0.0029078012
91	0x3de5b1da	0.11215563
92	0x3dbd66bf	0.09248113
93	0x38c73ba3	9.500168e-05
94	0x3d7b539c	0.061359033
95	0x3cacc4b4	0.02108989
96	0xbb100aaa	-0.0021979013
97	0x3dbdc5c8	0.092662394
98	0x3dbe2533	0.09284439
99	0x3ca7b7a5	0.02047331
100	0x3cca8343	0.024720794
101	0x3d00f4e7	0.031483557
102	0x3de4f68a	0.11179836
103	0xbac03b0c	-0.0014666035
104	0x3e087ce1	0.13328888
105	0xbd35da46	-0.044397615
106	0x3d23ebd4	0.040019825
107	0x3ca67bc7	0.020322694
108	0xbbe0f4e8	-0.0068651326
109	0x3d7fe5c6	0.06247499
110	0xbc7883bc	-0.015168127
111	0xbd356817	-0.04428872
112	0xbd2bd26f	-0.041948732
113	0x3df25c2d	0.118339874
114	0xbd3fe79d	-0.046851743
115	0xbc22eab5	-0.009943654
116	0x3ce88bcc	0.028386973
117	0xbc68656b	-0.014184336
118	0xbd0f3b3b	-0.034968596
119	0x3e0aa22b	0.13538425
120	0xbc74cc74	-0.014941324
121	0x3d050cf3	0.032483052
122	0x3de62cae	0.11238991
123	0x3d20d1cb	0.039262574
124	0xbc6505a2	-0.013978394
125	0x3d93b57c	0.0721235
126	0x3cbf8452	0.023378525
127	0x3c136b3b	0.008997734
128	0x3d689a56	0.05678781
129	0x3cf19f78	0.029494986
130	0x3d0a84fc	0.03381823
131	0x3da57adb	0.080800734
132	0x3d254b26	0.04035487
133	0x3d9db621	0.07700754
134	0x3d037e6c	0.032102987
135	0xbcc7fedc	-0.024413519
136	0xbb47ae20	-0.0030468777
137	0xbd4c55fb	-0.049886685
138	0x3d3d6b2e	0.046244793
139	0xbcd951f2	-0.026528332
140	0xbc35add0	-0.011088803
141	0xbd2f8efd	-0.042860974
142	0x3c01fdb0	0.007934019
143	0xbda13d20	-0.07872987
144	0x3db037bf	0.08604383
145	0xbccdcf54	-0.025123276
146	0x3d8526c1	0.06501532
147	0xbdab7700	-0.08372307
148	0xbd2e3d2e	-0.042538814
149	0x3d7f6c52	0.06235916
150	0xbc04f6b8	-0.008115463
151	0xbd6ec046	-0.058288835
152	0xbd6d38c2	-0.057915457
153	0xbd8558a7	-0.0651105
154	0x3d7a8c9e	0.06116926
155	0x3c8b560c	0.017008804
156	0x3d715aa2	0.058924325
157	0xbdaa4f2e	-0.083158836
158	0xbd2e8a90	-0.042612612
159	0x3cd7aab4	0.026326515
160	0x3bdf9450	0.0068231
161	0xbd76f582	-0.06029273
162	0xbda385ad	-0.07984481
163	0x3d7315aa	0.059346832
164	0x3cab6444	0.020921834
165	0xbcf6983e	-0.030101892
166	0xbb763c20	-0.0037572458
167	0xbd68e03a	-0.056854464
168	0x3d95019b	0.07275697
169	0x3cd8d0c4	0.026466735
170	0x3cb56dac	0.022147022
171	0xbd86e8ff	-0.06587409
172	0x3d871a9b	0.065968715
173	0x3d92b6eb	0.07163795
174	0x3c16b570	0.0091985315
175	0x3d2efdde	0.042722575
176	0x3d61538e	0.055011325
177	0xbd9e4761	-0.07728458
178	0x3daa4035	0.08313028
179	0xbd3b3673	-0.045706224
180	0xbd87ce6b	-0.06631168
181	0x3da719f1	0.08159245
182	0xbca2c568	-0.019869521
183	0xbaf057c0	-0.0018336698
184	0xbc9837b4	-0.018581249
185	0x3d856f09	0.06515319
186	0x3d4c7ede	0.049925677
187	0x3d17bd52	0.037045784
188	0x3d467b16	0.048457228
189	0x3d701422	0.05861295
190	0x3c71e670	0.014764413
191	0xbd8b5dc5	-0.068049945
192	0x3b5997c0	0.0033202022
193	0x3d854cc5	0.06508783
194	0xbdacf266	-0.08444671
195	0x38ff1000	0.00012162328
196	0xbb3aea80	-0.002852112
197	0xbb034520	-0.0020030215
198	0xbcdf9f7a	-0.027297724
199	0xbd9d64f0	-0.07685268
200	0x3c885270	0.016640872
201	0xbd55f13e	-0.05223202
202	0x3d6586ae	0.056036644
203	0x3d9572c1	0.07297278
204	0xbc2ac178	-0.010422103
205	0xbdaa487f	-0.08314609
206	0xbd05d876	-0.032677136
207	0xbd804b08	-0.06264311
208	0xbd73c448	-0.05951336
209	0xbd5c76fa	-0.053824402
210	0xbd98b33b	-0.074560605
211	0xbdb18836	-0.08668558
212	0x3d92f03b	0.071747266
213	0x3d109584	0.03529884
214	0xbd7e07e7	-0.062019255
215	0x3d3fd956	0.046838127
216	0x3c515c00	0.012778282
217	0x3d803e93	0.06261935
218	0x3c577730	0.013150975
219	0x3d08150a	0.03322319
220	0x3cdca9d0	0.026936442
221	0x3c5717e8	0.013128258
222	0x3a4f1d00	0.00079007447
223	0x3d3e158a	0.04640726
224	0x3d9600f9	0.07324404
225	0xbcf5eab6	-0.030019145
226	0xbbbd2ac0	-0.0057729185
227	0x3cc6f460	0.024286449
228	0x3da21451	0.07914031
229	0xbd6c9efa	-0.0577688
230	0x3cc4a24c	0.02400317
231	0x3d8ac28d	0.06775389
232	0xbd399e12	-0.045316763
233	0xbd1ef52a	-0.038808025
234	0xbdabaabc	-0.083821744
235	0x3b3eee60	0.0029133782
236	0xbca7a534	-0.020464517
237	0xbc9cffcc	-0.019164942
238	0xbd111dec	-0.035428926
239	0xbd3a0fda	-0.045425273
240	0x3ba22d50	0.0049492493
241	0xbc98e06c	-0.0186617
242	0xbaadebc0	-0.0013269112
243	0xbcf9679c	-0.030444913
244	0x3d3ca452	0.046055146
245	0x3d50e04a	0.05099515
246	0x3d1dde5a	0.03854213
247	0x3d9dd857	0.07707279
248	0x3d3e87fe	0.04651641
249	0xbd28d669	-0.041220102
250	0x3cd319d8	0.02576916
251	0x3d7ca7de	0.061683528
252	0xbd5971e9	-0.05308715
253	0xbcb72ee8	-0.022361234
254	0xbd78609c	-0.06063901
255	0x3d02dd56	0.031949364
