audio_classifier4.pth (torch, 73260 bytes, 6 tensors)

conv1.weight f4 [48, 24, 3]
000000 3f e0 3b 3d 0e 48 d0 3b 4c be c7 3d 5b ec b9 bc
       0.045868155 0.006356246 0.09753093 -0.02269571
000010 d3 3f b3 3d f0 c5 8e 3d 46 51 24 bc 3a 52 fc 3d
       0.08752408 0.06971347 -0.010029143 0.12320371
000020 b0 89 cf 3d 58 e3 9f bd ed 2e 4b 3a 1c cc da bb
       0.10133684 -0.07807034 0.0007750828 -0.0066771638
000030 c3 09 8c ba 2a 0a 9c b7 b5 3c ab b7 b3 09 d8 bd
       -0.0010684062 -1.8601382e-05 -2.0413057e-05 -0.10548725
000040 f2 d2 6b bb d1 ee 04 bb a6 42 d3 bd ec 08 e7 3b
       -0.0035983888 -0.0020283947 -0.103154466 0.007050624
000050 28 f0 7e bb b3 a0 52 be bd b4 78 3d 99 ff 36 3d
       -0.0038900468 -0.20569114 0.06071924 0.04467735
000060 e5 71 b3 bd 12 16 29 3d e1 f6 aa bd 13 28 c6 bd
       -0.08761958 0.041280814 -0.0834787 -0.09675612
000070 bc 92 86 3c ff 7b d9 3a ef 8c 01 be 24 91 cc bc
       0.01642739 0.001659274 -0.12651418 -0.024971552
000080 55 68 46 3d 2e 55 c6 3d b3 0e 9c bd 2e 71 28 ba
       0.048439343 0.096842155 -0.07619991 -0.00064255565
000090 2f b7 99 bd d6 e5 67 bd f2 e7 91 bc 5f 26 34 3d
       -0.075056426 -0.056615673 -0.017810795 0.043981906
0000a0 1b d9 07 3e a5 85 d3 3d 18 a2 b2 bd cd 20 bc 3b
       0.13266413 0.10328225 -0.08722323 0.005741215
0000b0 33 ae c7 bb 75 e5 73 bd f2 1e a2 3d 7a 7b 51 bd
       -0.006093764 -0.059545 0.079160586 -0.051143147
0000c0 58 0a fc 3d 33 f3 75 bc 81 62 3f bd 8a fd 28 bd
       0.123066604 -0.0150115965 -0.0467248 -0.04125742
0000d0 95 96 c3 3c be 9c cb 3d fa 08 db 3d c0 49 1e bb
       0.023875514 0.099420056 0.106950715 -0.0024152845
0000e0 a8 fd cd 3d e6 de 09 3d b8 ca 78 bc ca c0 e8 3c
       0.10058147 0.03365984 -0.015185051 0.028412241
0000f0 bd 9a 1a 3d 0d 7c ab 3d 97 84 28 bd fb ee c3 3d
       0.037745226 0.0837327 -0.041142073 0.09567066
000100 bd ea 3b 3c d5 88 4d 3d 85 c5 29 be 5f 4e 83 3d
       0.01146954 0.05017932 -0.16579254 0.064114325
000110 7a aa d9 bd 00 5c 72 3c ed e0 f4 3d 56 7e a3 3d
       -0.10628219 0.014792442 0.11956964 0.07983081
000120 92 9d 67 3d 9e 6a 19 bd 9d 7c f5 bb 36 fa 21 be
       0.056546755 -0.037455194 -0.0074916617 -0.15818104
000130 a4 03 c5 3d dd e9 ee bc df 8d 11 3e dd 9e d2 3d
       0.09619835 -0.02916425 0.14214276 0.10284207
000140 47 a0 98 bd c2 e3 ec bd f9 b6 f2 3c bc 68 40 bc
       -0.074524455 -0.11566879 0.029628264 -0.011743721
000150 14 5b 6c ba c3 97 8c 37 48 12 a9 b7 d0 c5 44 bd
       -0.0009016257 1.675997e-05 -2.0154883e-05 -0.04804021
000160 74 25 e8 ba 70 f4 48 3b 80 d8 b2 bd a3 59 03 37
       -0.0017711357 0.0030663274 -0.087327 7.829079e-06
000170 73 44 53 3b 55 b0 00 be 44 17 6f bd 7a d9 06 bd
       0.0032236844 -0.12567265 -0.058371797 -0.032922246
000180 72 67 28 be f5 bd 8a 3d 84 f2 00 bd b7 af 15 be
       -0.16445711 0.06774513 -0.03148128 -0.14617811
000190 a3 8a c1 3c 71 03 eb 3c d8 2f 48 be 85 e6 a8 3c
       0.023625677 0.028688164 -0.19549501 0.020617733
0001a0 e1 90 95 bd db 70 94 3d 23 81 de 3b ae d9 7e 3d
       -0.07303024 0.07248088 0.0067902966 0.062219314
0001b0 09 ea b5 bc 9d e6 4f 3d e2 7c 6b bc 3f eb 92 3d
       -0.022206323 0.05075704 -0.014373036 0.07173776
0001c0 b2 73 e3 3d 2f b7 97 bb df 29 c2 3d 54 d3 52 bd
       0.111060515 -0.0046299915 0.094806425 -0.05147107
0001d0 8d d3 cc 3c 62 e0 3a 3d 0c 37 8c 3c a9 5a c5 3d
       0.025003219 0.045624144 0.017116092 0.09636433
0001e0 31 08 05 3e 60 6c a8 bd 9c 37 8d bd 37 d4 91 bd
       0.12991406 -0.08223796 -0.06895372 -0.07120555
0001f0 5e 25 37 3b 24 81 99 3b 7d ab b8 3d 1b c3 06 3e
       0.0027945857 0.004684584 0.09017084 0.13160364
000200 3a 4c 8d bd 0b e0 77 3c c4 ff 44 3c fc 70 af bd
       -0.06899305 0.0151291 0.01202387 -0.08566472
000210 be 2b 16 3d 19 66 74 bd 72 11 0d 3e 45 fb 3e 3d
       0.03666281 -0.05966768 0.13776186 0.046626348
000220 e9 cc d7 3d 58 4e 3f 3c 9f 8e 4e bd d3 4c 79 bd
       0.105371304 0.011676393 -0.050428983 -0.06086428
000230 71 30 f1 3d 8a a4 de 3c eb 17 de bd 86 35 68 bd
       0.117768176 0.027178068 -0.10844406 -0.05669167
000240 71 48 b0 bd 5d 56 0e bc 78 18 89 3d c4 2b 7a 3d
       -0.08607567 -0.008687583 0.0669412 0.061076894
000250 ca 3f e3 3c 5a 8e d4 3c fa 8a bb 3d cf 1e 8c bd
       0.027740378 0.025946785 0.09157367 -0.06841814
000260 83 7f 94 3d 1a f6 88 bd 54 d1 23 bd 01 11 60 bc
       0.072508834 -0.06687565 -0.039994553 -0.013675929
000270 85 7b 89 ba c6 04 28 b8 36 20 49 b7 0a 98 c1 bd
       -0.0010489082 -4.0058767e-05 -1.1988033e-05 -0.09452827
000280 6f db 9c 3a a1 3c f1 ba 3f 0c da bd da 04 9d bc
       0.0011967252 -0.001840491 -0.10646867 -0.019167352
000290 b8 c5 56 3a 90 e0 36 be 7b 75 ef bd d4 4c 4b 3d
       0.00081929145 -0.17859101 -0.116923295 0.049633816
0002a0 c0 e8 6f be 35 5e 00 be af f5 d3 3c fd 8f 60 be
       -0.23428631 -0.12535937 0.025873987 -0.21929927
0002b0 0f 68 41 3d ea da f2 bc c9 e7 75 be 73 18 ce ba
       0.04721838 -0.029645402 -0.240142 -0.0015723839
0002c0 7d 35 4a 3b 13 76 ce 3d 9c 0a ad 3c 4f 7e 1e bd
       0.0030854635 0.100811146 0.021123223 -0.038694676
0002d0 35 a1 1b bd 5a 98 d5 3c a6 34 1d bd 4b 74 9a 3d
       -0.037995536 0.026073623 -0.038380288 0.075417124
0002e0 39 d0 04 bd 6c e4 db 3d 1f be 97 3c de 27 82 bd
       -0.03242514 0.107369274 0.018523274 -0.0635526
0002f0 04 34 6f 3d 36 f1 95 3d 49 45 a2 3d 33 0b cc ba
       0.058399215 0.07321398 0.07923371 -0.0015567302
000300 6c 1e 63 3d 2c 6f 33 3c 39 52 aa 3d f7 27 ea 3c
       0.055448934 0.010951798 0.08316464 0.02858351
000310 79 33 89 3d 92 85 17 3d 73 76 1b 3e 9f dd 83 bd
       0.06699271 0.036992617 0.15181904 -0.06438755
000320 a0 5d 01 3e 22 44 4a 3c b3 8f fb 3c 4d fd 8e 3d
       0.12633371 0.012345346 0.03070817 0.06981907
000330 34 df af bd 24 ad 8d bd 38 18 53 3d 39 d6 a3 bd
       -0.085874945 -0.069177896 0.05153677 -0.07999844
000340 bc a6 1d bd 9e a3 b2 39 94 09 48 bb b8 57 57 bd
       -0.03848909 0.0003407271 -0.0030523287 -0.05257389
000350 8a a0 2c bd 00 ed 08 bd 12 5d 67 bd 81 7c a8 3d
       -0.04214529 -0.033429146 -0.056485243 0.08226872
000360 e7 e2 d0 3d 6b 87 da 3d 01 79 26 3d 9a 50 fb 3c
       0.10199528 0.1067036 0.040642742 0.030678082
000370 fc ab c8 bc 33 72 bb 3d a1 ca f2 3d 40 d2 d9 3d
       -0.024496071 0.09152641 0.11855055 0.10635805
000380 e9 78 f0 3d 44 f5 0c 3c b2 56 2c 3d c6 8c 1a bc
       0.11741812 0.008603398 0.042074867 -0.009432977
000390 3a 0e bf b9 e4 a8 e0 36 29 2c 65 38 c9 17 84 bc
       -0.00036440959 6.6953817e-06 5.4638982e-05 -0.016124623
0003a0 e2 2f 71 bb c9 8c 99 bc d7 54 19 bd e1 6a 91 3b
       -0.0036802222 -0.01874389 -0.037434425 0.00443779
0003b0 33 bb a7 ba dd e2 85 bc cb 19 9a bd 83 0d 60 bd
       -0.0012796879 -0.016343528 -0.07524451 -0.054700386
0003c0 18 49 9c bc 55 6f ce bd 5f 50 88 3d af ce e9 bd
       -0.019077823 -0.10079829 0.066559546 -0.11416375
0003d0 53 5d 8e 3d 53 03 bb bd ab 81 9d bd 87 2f c5 bd
       0.06951394 -0.091314934 -0.07690748 -0.09628206
0003e0 73 71 8a 3c 16 7e c2 3d 73 a0 03 3d 39 3e a7 3c
       0.0168998 0.09496705 0.03213544 0.020415412
0003f0 e9 0b d4 3c d3 12 cc bd a2 da c1 bd c8 2e 08 3d
       0.025884585 -0.09964528 -0.09465529 0.03324774

conv1.bias f4 [48]
000000 d9 f9 07 3c 0a 32 1c bc 64 88 0c bc b8 c7 e5 bd
       0.008299314 -0.009533415 -0.00857744 -0.11219734
000010 68 0c c1 bc a5 49 64 3c 23 9c 1f be e1 d1 0a bd
       -0.023565486 0.013933574 -0.15586905 -0.033891562
000020 9e 2d cc bd e1 42 1a be 2c ef 90 3d 5e 88 e1 3c
       -0.09969638 -0.15064575 0.070768684 0.027530845
000030 96 5e ed bd 34 6c a5 bd 86 5b bd bd 71 30 fe 3d
       -0.115903065 -0.08077279 -0.09245972 0.12411583
000040 85 3c 4e ba 24 0b c6 bc 04 a0 2b 3e 8f b0 44 3e
       -0.00078672945 -0.024175234 0.1676026 0.19207977
000050 6d 57 2b 3e be 86 d6 bd 91 a8 2a 3e 33 a5 7b bb
       0.16732569 -0.10474919 0.16665865 -0.0038398027
000060 4d 62 8e ba 9b 19 d3 3d ff d5 d0 ba 5a 28 ff 3d
       -0.0010863036 0.10307618 -0.0015932916 0.12458868
000070 3c a9 e1 bc 2d d1 2d 3d 77 89 f4 3d c1 11 2f bb
       -0.027546518 0.042435814 0.11940282 -0.0026713463
000080 c0 87 30 bd 0a 68 e7 bd 72 a0 21 3e 0e cf 05 3d
       -0.04309821 -0.11299141 0.15783861 0.032668166
000090 2b 66 9d 3d ed 2d 65 b9 f3 f1 58 3d 09 cf f6 ba
       0.076855026 -0.0002185625 0.052965116 -0.0018830012
0000a0 d3 7b 17 3e 61 62 7a 3d 9d 3a b6 bd 46 43 75 3c
       0.14793329 0.061128978 -0.08897898 0.0149696525
0000b0 ef ad 82 bb c7 91 47 3d ac 71 93 bd 65 01 01 be
       -0.0039880197 0.04872301 -0.071994156 -0.12598188

conv2.weight f4 [96, 48, 3]
000000 ab d0 95 bd 7a 71 4f bd cd 48 08 3d a5 79 c1 bc
       -0.07315191 -0.05064533 0.033272553 -0.023617575
000010 7e ca bb bd 61 cc 28 bc 6d d4 39 3d ce 06 9f bc
       -0.09169482 -0.010302634 0.0453686 -0.019412424
000020 8a c3 8f 3d b7 67 50 3d 96 94 22 bb 68 95 4c bd
       0.07019718 0.05088016 -0.0024807802 -0.049947172
000030 4e d7 04 3a 77 b3 24 3d b1 d5 4b bd 44 87 c2 3d
       0.0005067483 0.040210214 -0.04976434 0.09498456
000040 89 2e 4a 3c 9c cc 3f bd 3b c4 6c 3b 37 cd 58 3d
       0.012340196 -0.04682599 0.0036127705 0.052930083
000050 57 c3 1b bd 4b 29 bd 3d 46 e7 54 3d aa 26 ab 3d
       -0.038028087 0.09236392 0.051978372 0.08356984
000060 28 02 35 bd cd 39 29 bd f2 88 e3 3c 58 77 51 3d
       -0.04419151 -0.04131489 0.027775262 0.051139206
000070 1e 7d 8a 3d 8a b7 86 3d fd 06 97 3d e6 84 0a bd
       0.067621455 0.06577976 0.0737438 -0.033818148
000080 b3 93 6e 3c f1 a4 f3 bc c5 47 91 3d 1e d1 fb 3c
       0.014561581 -0.029741736 0.07093767 0.030739363
000090 db 45 3b 3d d9 8e 7f 3b a7 97 ab 3d 5e 75 35 bc
       0.045720916 0.0038995056 0.08378535 -0.011075346
0000a0 ae 6d 38 bc 3f be 6a bd d7 8f a2 3d e1 c8 87 3c
       -0.011256618 -0.05731034 0.079375915 0.016575279
0000b0 c8 f8 a6 3d c6 16 89 bd 98 94 53 3d 59 49 db bc
       0.0815292 -0.06693797 0.051655382 -0.026768373
0000c0 4f 70 5a bd 26 ff 15 3d 1f 9b e5 bb bc d9 53 bd
       -0.053329762 0.03662028 -0.0070070173 -0.05172132
0000d0 87 f6 dc bb c2 c0 d8 bc 50 ef 9f 3d dd 3f 80 bd
       -0.0067432555 -0.026459102 0.07809317 -0.06262181
0000e0 cf 24 26 bd 4b ab 8b 3c 0c f7 ab bd 64 1c 2f bc
       -0.040562447 0.017049452 -0.0839673 -0.010687921
0000f0 e2 0d 69 3a b6 84 1e 3d 72 ab 80 3c 5a 99 a4 bd
       0.00088903133 0.03870078 0.015706751 -0.08037062
000100 81 17 89 bd 6b 1e 63 bd ad a2 a9 3d 9e 7a 74 bc
       -0.06693936 -0.05544893 0.08282981 -0.014921812
000110 b8 99 ab 3c d3 97 67 bd aa d0 66 bc fc 51 46 bd
       0.020947322 -0.056541275 -0.014087835 -0.04841803
000120 c2 19 36 bd 6c 03 12 3c c3 81 09 3d d6 b5 e2 bb
       -0.04445816 0.008911949 0.033571016 -0.006918649
000130 4a 2e be 3d 3b d7 8a 3d 92 b1 72 bd 27 7d a1 3d
       0.09286173 0.06779333 -0.059251375 0.07885199
000140 ad c4 af bc ce 42 d9 3c 7f 7a fd 3c 6d 20 5a 3d
       -0.021456087 0.026521113 0.0309422 0.05325358
000150 a3 a2 8d bc d8 d4 9e 3d 29 1b bd 3c 83 f9 0f 3d
       -0.017289465 0.077554405 0.02308424 0.035150062
000160 9f 31 61 bc ba bd a4 bd ae f5 53 bd d2 47 a2 3d
       -0.013744741 -0.08044 -0.05174797 0.07923855
000170 fc 7f 7e bb 43 13 6f bc 4f 09 63 bd 23 5b 4e bd
       -0.003883361 -0.014591995 -0.0554288 -0.050379883
000180 40 68 90 3c c6 16 5f 3d 7d 04 7a bd c9 ce 92 bd
       0.017627835 0.054465078 -0.061039437 -0.071683474
000190 ae cd 17 3d b5 7d 7d 3d 3a 1d 4d bd f9 9e a8 3d
       0.037061386 0.06188746 -0.0500767 0.08233447
0001a0 ad c9 45 bd 70 19 b0 3c 57 73 4d bd fa c8 34 bb
       -0.048288036 0.021496505 -0.050158825 -0.0027585612
0001b0 de 91 20 bd 74 4c 11 bc e6 88 71 bc 88 0f d8 bb
       -0.03920161 -0.0088683255 -0.014742112 -0.0065936483
0001c0 1a c4 43 3d dc 05 cc 3c 92 bc 1e 3d 60 27 17 3d
       0.04779444 0.024905138 0.038754053 0.036902785
0001d0 a5 96 45 3d d4 cc da 3c b9 c9 60 3c e6 d9 bc bd
       0.04823937 0.026708998 0.013719969 -0.09221248
0001e0 e4 ad 38 bd 00 41 ba 3d c4 a5 f1 3d c1 3c 00 3d
       -0.04508771 0.09094429 0.117991954 0.03130794
0001f0 54 10 3c bd c7 16 70 3d 95 6c aa 3d 67 6c a3 bd
       -0.04591401 0.058615472 0.08321492 -0.079796605
000200 79 b8 f2 bc fc 01 9f 3c 57 ef 5d bc c9 47 3c 3d
       -0.029628979 0.019410126 -0.013545833 0.045966897
000210 01 5b 79 bd b9 b8 c1 bc 39 f0 73 3d 8a 3b 7f 3c
       -0.060877804 -0.023647653 0.059555266 0.01557816
000220 73 d6 4b bd bb 8e 93 bd e4 a0 9e 3c 31 04 5e 3d
       -0.04976506 -0.07204958 0.019363828 0.054203216
000230 40 d3 17 3c 08 6d 6e bb e5 50 4d bd 9d e3 9a 3c
       0.0092666745 -0.0036380906 -0.050125975 0.018907363
000240 20 81 cd bb 57 37 12 bc a5 d2 a7 bc 1d c1 6a 3d
       -0.0062714964 -0.008924327 -0.020486185 0.057313073
000250 d6 cb 85 bd a3 5d 38 3d cd 64 92 3d 27 db 3b bd
       -0.06533019 0.045011174 0.071481325 -0.045863297
000260 aa 6b 80 3d 0b 23 5c 3d 69 1e 05 bd 5e 6d 67 bd
       0.06270535 0.053744357 -0.032499705 -0.056500785
000270 04 78 a3 3c c4 37 33 3d f4 05 76 3d 0a 8b 3e 3d
       0.019954689 0.043754354 0.06006427 0.046519317
000280 39 91 0e bd 52 71 a9 bd ae 7c 3f 3d 9b e6 25 3d
       -0.034806464 -0.08273567 0.046749763 0.040503126
000290 9a 39 a7 bd 37 eb 4d 3d b5 8e 86 3d 69 b8 36 3d
       -0.081652835 0.050273146 0.06570188 0.04460946
0002a0 e8 b6 88 bc 11 01 82 3d f2 15 71 3d 0e a8 0d 3d
       -0.016688779 0.0634786 0.05885882 0.034584098
0002b0 97 39 92 3d e8 a2 8c 3c 96 6b 72 3d fd ad 47 bd
       0.07139891 0.017167524 0.059184633 -0.048749913
0002c0 f3 5e 5f 3d e4 d6 25 3d f1 d4 c6 ba 0e 28 91 3d
       0.05453391 0.04048814 -0.0015169663 0.07087718
0002d0 af 31 d1 3b 10 79 a8 bd 48 95 d9 3b c9 0f e7 3d
       0.0063840966 -0.08226216 0.00664011 0.11282308
0002e0 15 fc b6 3d bb d7 41 2b bd 5b 58 3d 9c 96 47 bd
       0.089347996 6.886676e-13 0.052821863 -0.048727617
0002f0 e4 2d 8f 3d 0e 63 4a 3d a3 bc 42 3d e8 8b 0d bd
       0.06991175 0.049410872 0.04754318 -0.034557253
000300 9e 7d 66 bb d8 f8 6d bd e5 1f 26 bd 0a cf 34 bd
       -0.0035170089 -0.058098644 -0.04055776 -0.04414276
000310 92 6e 64 3d d8 d4 fa bc 8e 53 84 bd 8b 1c c9 3a
       0.05576951 -0.03061907 -0.06461249 0.001534359
000320 6a 3d 94 bd 2d 02 67 3d 9b 6c 8a bc fb 07 b6 3b
       -0.07238276 0.05639856 -0.01689749 0.0055551506
000330 12 07 7a 3d 53 28 a5 bd 3d 9e b0 bd 3b 99 0d bd
       0.0610419 -0.08064332 -0.086239316 -0.03456996
000340 3a 04 4d bd 0c 71 e6 bc 55 c8 85 3c ac 97 46 bd
       -0.05005286 -0.028130077 0.016330877 -0.04848449
000350 e4 04 7d bd f9 a2 25 3c 2f 81 83 bd 33 2f b8 3b
       -0.061772242 0.0101096565 -0.06421124 0.005620861
000360 60 2d 85 3d 1d c1 18 bc 43 22 3e bd b4 4a 97 bd
       0.06502795 -0.009323386 -0.046419393 -0.07387295
000370 79 67 a0 bd f5 6d 1a 3d 9b 92 7d 3d 91 bb 00 3d
       -0.07832236 0.03770252 0.061907392 0.031428877
000380 27 68 24 3d 8c 20 eb 3c 91 a0 08 3c 6e fd 08 be
       0.04013839 0.028702043 0.008339063 -0.13377926
000390 e2 d1 23 3d 61 b1 98 bd 7e 72 6c bd 5f f9 a2 bd
       0.03999508 -0.07455707 -0.057726376 -0.0795772
0003a0 c4 fb eb 3b 81 dd 21 3d e6 c5 c9 3c ef a7 91 3d
       0.0072016437 0.039517883 0.024630498 0.07112109
0003b0 f6 29 92 bd b9 9e 14 3d 6a f9 a0 bd a5 94 4e bd
       -0.0713691 0.036284182 -0.07860072 -0.050434727
0003c0 f8 e1 80 bd c5 29 6c bd f8 0c 95 bd 26 da 94 3d
       -0.062931 -0.057657022 -0.07277864 0.07268171
0003d0 b1 9a 61 bd 77 8b 0c bd 3a e1 3e bd 4d b1 7d 3c
       -0.055079166 -0.03431269 -0.04660151 0.015484166
0003e0 1e 9c 03 bd f0 80 02 bd 6a 6b 93 bc 2e 2a 72 3d
       -0.032131307 -0.031861246 -0.017995555 0.059122257
0003f0 0b 7f 85 bd 7d de 16 b9 7d d1 91 3d 64 48 8b 3d
       -0.06518372 -0.00014387998 0.07120035 0.06800917

conv2.bias f4 [96]
000000 c4 3d 2d 3b e7 09 56 bd 85 a4 85 bd f3 17 b7 bd
       0.002643452 -0.052255537 -0.0652552 -0.08940115
000010 cd 91 d7 3c 04 a1 f8 3d 04 a8 a9 ba be 28 7c 3d
       0.02631464 0.12140086 -0.0012943749 0.061562292
000020 23 13 d2 bb 0b ec 15 3d 2f e0 b4 bd 63 af 0e 3e
       -0.0064109727 0.03660206 -0.08831822 0.13934092
000030 92 01 f9 3d 4f 5c dc 3c 81 cb 11 3d 13 85 23 3c
       0.12158503 0.026899485 0.035594467 0.009980458
000040 e4 25 a3 3c f3 5d e8 3d 9c 9b 37 bb 26 f4 8f bd
       0.019915529 0.113460444 -0.0028016334 -0.070289895
000050 4c 1f b6 3c df 92 1f 3d 72 64 08 3e 46 28 05 bd
       0.02223172 0.038958427 0.13319567 -0.03250911
000060 ab fd bd 3b f3 d1 e0 3d 78 c4 28 3c 5e 4b 9f bd
       0.005798062 0.10977545 0.010300748 -0.07778047
000070 09 d6 e6 3d b5 cc 8f bd 15 dd 0b 3e d6 15 ef 3d
       0.11271293 -0.07021467 0.13658555 0.11674087
000080 60 ac 46 bd 2f 08 cc 3d 7a d6 c2 bb 25 64 41 bc
       -0.048504233 0.099624984 -0.0059459778 -0.0118036615
000090 9c 17 00 3e 2b 9a 35 3c 59 32 00 3e 12 1f 54 bd
       0.12509006 0.01108412 0.12519206 -0.051787443
0000a0 36 9b d2 bc b5 69 ec 3c cb 37 d4 3d 8b 60 76 3d
       -0.025708776 0.028858999 0.10362204 0.060150664
0000b0 71 4e b0 3b 66 40 5d bd 6b e8 a9 bd 18 44 04 3e
       0.0053804447 -0.054016493 -0.08296283 0.129166
0000c0 da 9f ce 3d 3e 2f 28 3e 5c 90 d8 3d 36 cd f9 bc
       0.10089083 0.16424271 0.10574409 -0.03049336
0000d0 00 54 02 3e 95 b1 15 3e 9c 52 da 3d a6 75 4e bc
       0.12727356 0.14618523 0.10660288 -0.012601292
0000e0 59 73 e1 3b 09 f9 d1 bc 1e d0 32 bd a2 3b 2d bd
       0.0068802056 -0.025631445 -0.043655507 -0.0422932
0000f0 cc 3e 68 3d 27 60 8c 3c 92 de 81 bd 83 da ed 3d
       0.056700513 0.017135693 -0.0634128 0.116139434
000100 f9 0a 46 bd ee 35 9e 3d be a6 40 bd b4 82 c8 bc
       -0.048350308 0.0772513 -0.047034018 -0.024476387
000110 87 7a 93 3a 3a 28 d3 bc f4 15 6d 3c 87 eb 8a 3c
       0.0011251726 -0.025776017 0.014470566 0.016958011
000120 cc 84 4b bc 74 06 0f 3e e0 a1 c7 3d 0e 4c a6 bc
       -0.012421798 0.13967305 0.09747672 -0.020299938
000130 b3 85 ca bd 1e 8d 9b 3c 27 e4 ad ba 87 a0 92 bc
       -0.09888782 0.018988188 -0.0013266847 -0.017898811
000140 8d a3 03 3e 7a 4d 10 3e 1b a5 0b bd 5f b1 1e 3e
       0.12855358 0.14092055 -0.034093004 0.15497349
000150 36 78 1c 3d cc bd b6 38 db c5 92 ba 2d f1 b6 bd
       0.03820058 8.713789e-05 -0.0011197882 -0.089327194
000160 9c 4d 0c 3e 29 4d 15 bd ed 13 24 bb d0 ce d2 3b
       0.1370148 -0.03645054 -0.002503629 0.0064333454
000170 c6 36 09 3d f7 79 90 3c 2c 3e 0a 3e d6 a4 b8 bd
       0.0334995 0.017636282 0.13500279 -0.09015815

fc.weight f4 [2, 96]
000000 2f ea 6c bd ff dc 9a bd e6 73 fc bb 52 ad 08 bd
       -0.057840522 -0.07561683 -0.007704246 -0.033368416
000010 50 f1 f0 bd ae fc dd 3d ac 1a cf bd ba 3d 92 3c
       -0.11764777 0.108392105 -0.10112509 0.0178517
000020 ef 03 e2 3d e1 4d e8 3d 24 e8 d7 bd 3c c2 3c 3d
       0.110359065 0.11342979 -0.10542324 0.046083674
000030 5b fd a4 3d 15 36 08 3e da 6e e8 bc 78 61 28 bd
       0.08056136 0.1330188 -0.02837317 -0.04110858
000040 08 5f 69 bd ee e6 0a bd 4c ca f4 3c 95 1a b5 bd
       -0.056975394 -0.033911638 0.029881619 -0.08842961
000050 5c 66 82 3d be e7 ad 3d 4c 6f 31 bd 43 f5 be 3d
       0.0636718 0.08491467 -0.04331903 0.09324124
000060 01 78 07 3a 51 c6 13 3c 32 91 46 bd 7e 04 44 bd
       0.0005167723 0.00901945 -0.048478313 -0.047855847
000070 ac 4b 4b 3d 87 aa b8 bd f1 f8 9c bc e3 22 a5 3d
       0.049632713 -0.090169005 -0.019161673 0.08063295
000080 62 a8 10 3c 25 41 88 3d e5 4c ae 3d b1 c0 15 bd
       0.008829208 0.0665305 0.0851076 -0.036560718
000090 52 ff f3 3d 6b de 45 bd b2 89 ac 3d 8b 91 c3 bd
       0.11913933 -0.048307817 0.08424701 -0.095492445
0000a0 6b 32 ea bd b3 1f 86 3c 2c f3 9f 3d ca 14 95 3c
       -0.11435398 0.016372537 0.07810053 0.01819839
0000b0 4a 2e 1e be ca 02 86 bc 0c 6e e5 bc 47 5c 97 3d
       -0.15447345 -0.016358752 -0.028006576 0.073906474
0000c0 95 ef c3 3b b2 65 06 3e a1 e0 03 3d 9b 49 06 3d
       0.005979488 0.13124731 0.032196645 0.03278504
0000d0 60 ee a6 3d 56 ad a0 3c 0a a0 49 3d 89 cc 07 3d
       0.08150935 0.019613903 0.04922489 0.033154044
0000e0 9e bb b0 bd 9b 48 cf bd b1 21 b9 bd 00 6c d5 bc
       -0.08629535 -0.1012127 -0.09039629 -0.026052475
0000f0 f3 a0 dd 3d ea 4d d2 bd 58 f5 cd bb 18 42 1e 3d
       0.10821714 -0.10268767 -0.006285351 0.03863725
000100 09 62 06 bc 10 7a a7 3d 1b e8 63 3d cc d2 ad bd
       -0.008202084 0.081775784 0.055641275 -0.08487472
000110 8c b8 2c be 09 82 35 3d c5 28 ac bd 4c 82 82 bd
       -0.16867274 0.044313464 -0.08406214 -0.063725084
000120 4c e9 c9 bd 93 3b 8e 3d 00 a5 e3 3d 1e 06 8e 3c
       -0.09858951 0.06944957 0.111154556 0.017336901
000130 88 4b c9 bd 93 13 22 bd cc 7d ca bd 3a a2 f7 bd
       -0.098288596 -0.03956945 -0.09887275 -0.12091489
000140 64 bb cc 3c a3 04 d3 3d 8e b6 03 bd 38 3a 7e 3d
       0.024991699 0.10303619 -0.03215652 0.06206724
000150 f9 4f d6 3d b8 8c 94 bd ea 11 d4 3d d6 a8 8b bd
       0.10464472 -0.072534025 0.10354979 -0.06819312
000160 0a 5e ef 3d 42 77 bd bd 29 86 2f 3d 21 a0 df bd
       0.116878584 -0.09251262 0.042852554 -0.10919214
000170 0a c2 07 bd a0 54 e6 bc a2 d2 51 bd 44 50 a2 3c
       -0.033144034 -0.028116524 -0.051226266 0.019813664
000180 a0 11 b5 bd 1c 79 d5 3d 4f 21 cc 3c f2 cf af 3d
       -0.08841252 0.104234904 0.024918227 0.08584584
000190 b9 fc a4 3d e5 5d ff bd 46 5f be bb 46 e8 40 bd
       0.080560155 -0.12469081 -0.0058096973 -0.047096513
0001a0 19 54 d2 3b e1 e8 b6 bc 39 dd 67 3d 5a 63 02 bd
       0.0064187166 -0.022327842 0.05660746 -0.03183303
0001b0 74 05 31 bd 0f 22 c5 bd e2 38 48 3d 68 6c 03 3e
       -0.04321809 -0.09625637 0.048882373 0.12834322
0001c0 ae 30 cd 3d 27 58 38 bd be 59 ab bd e1 04 c1 3d
       0.100190505 -0.045005944 -0.08366726 0.09424759
0001d0 30 89 23 bd 74 76 d1 3c 0f 27 aa bd bf 44 85 bd
       -0.039925754 0.025569178 -0.08308231 -0.06507253
0001e0 3d d0 c5 bd cc 84 ae bd 6e 52 c9 bd 4f 4d c4 3d
       -0.09658859 -0.08521423 -0.09830175 0.09585058
0001f0 2d b0 03 3d ac 09 d8 3c f8 88 d6 bd bf 8f 0d 3d
       0.032150436 0.0263718 -0.104753435 0.034560915
000200 f3 e2 71 3c 38 6e 6d 3a ee cd 98 bd 61 52 80 3d
       0.014763582 0.00090572564 -0.07461153 0.062657125
000210 2a 0a 69 bd 5f e3 b4 3d 20 9e 01 be 16 9a 62 bd
       -0.05689446 0.0883243 -0.12657976 -0.05532273
000220 cb b5 bb 3d 4c 81 91 bb 8b 55 ed bd 42 a8 c5 bc
       0.09165534 -0.004440462 -0.11588582 -0.024128083
000230 cd a3 0a 3d 44 eb f1 3d 2f b9 b9 3c de c7 4b 3d
       0.03384762 0.118124515 0.02267131 0.049751155
000240 19 e8 05 bc ea 0a 73 bb 81 35 81 bd e2 e2 b4 bd
       -0.008173012 -0.0037085363 -0.06309033 -0.08832337
000250 1c d0 29 bd 23 5f 30 bd 0c b5 51 bd a8 4e 25 bd
       -0.041458234 -0.04305948 -0.05119805 -0.040358216
000260 b1 84 e9 3b 94 93 79 3c 20 01 d3 3c 07 80 ab bd
       0.0071264138 0.015232939 0.025757372 -0.08374029
000270 a9 f1 e2 3c 91 9b ba bd b5 a0 c8 3d 3f 5a 2f bd
       0.027703123 -0.09111703 0.097962774 -0.042810675
000280 7e 9a bc 3d 55 2e 80 bd 3f 18 cd 3d fc 2a c0 3d
       0.092091545 -0.06258837 0.1001439 0.093831986
000290 db 14 d0 3d ce a8 a5 3d dd af bc 3d 56 87 21 3d
       0.10160228 0.080888376 0.09213231 0.039435707
0002a0 ca b7 0c bb 75 85 c8 bd 95 24 0f bb 14 a3 c9 bd
       -0.0021471852 -0.0979108 -0.0021841873 -0.09845558
0002b0 1a b3 9a bc 8f 5e 8e 3d 53 3e 40 3d 45 42 ab 3d
       -0.01888423 0.06951629 0.046934437 0.08362249
0002c0 cf 07 a9 bd 98 4a 22 3d eb 98 3d 3d a0 ab d3 bd
       -0.082534425 0.03962192 0.046288412 -0.10335469
0002d0 f5 93 33 3c 5c 25 3c 3d 1d 4c bd bd 71 a5 95 3a
       0.010960569 0.045934066 -0.09243033 0.0011417103
0002e0 40 a3 e1 bd f3 b4 ee 3b 4a 70 bd 3d a2 85 c6 bc
       -0.110174656 0.0072847544 0.09249933 -0.024233643
0002f0 cd 6c 12 3d a4 66 dc 3c 06 75 af bd 4b 6c a7 3d
       0.03574829 0.026904412 -0.08567242 0.08174952

fc.bias f4 [2]
000000 ae ac d3 3d 33 c9 81 bb
       0.103356704 -0.0039607524
