audio_classifier4.pth (torch, 73260 bytes, 6 tensors)

conv1.weight f4 [48, 24, 3]
00000000: 244a e43d d406 9ebd e01d d7bd 08ad e2bc
00000010: c966 adbc 804c 91bd 2d24 33bc 2817 1fbe
00000020: 0739 403c 9f8d 22bd eda5 ad3d b1df c23b
00000030: cb0b eab8 6da7 c139 beee da38 1704 88bc
00000040: 8bf7 0d3d f751 393a 9de0 423b e622 823d
00000050: c053 a3bb 7e76 0ebc 51ab d83d 59e4 7c3d
00000060: a283 c13d 5390 4f3e 4b9b a5bc 0609 a739
00000070: 3865 613d 327c 553d bfeb 893c 57fe 243e
00000080: 87ca 233d cbe9 6e3c cdcf ba3d a752 46bd
00000090: 6f20 ccbb 88c1 983d 6b46 80bd dca2 81bd
000000a0: 2311 cfbd 1231 eabd e2f2 783c d166 e3bd
000000b0: 3b52 cbbc 5fb1 553c a61f e8bd 7d4f f8bd
000000c0: 6a1c a43d 40b1 03be 830e 9ebc 5112 e63d
000000d0: 9280 71bd db3c 1ebd f4aa 71bc 6133 c33b
000000e0: ab79 e8bd ea94 82bd 6ca7 d23d 6f9f 9fbd
000000f0: f886 98bd 6c98 8dbd 5b57 c1bd 0adb fdbd
00000100: 49b1 a5bd 72e3 ebbd 0ea7 863d d39c 103e
00000110: 8f06 d1bd 846a c3bb 84ae c2bb 534c 403d
00000120: caef d03c 37f4 893c ac25 d83d 47b7 f93c
00000130: e78b 07bd 05ad 203a b196 1bbc e893 823d
00000140: 8c32 fbbd f701 ac3a e753 913d 91d6 c43c
00000150: ddd9 afb7 8841 923a 234d 1037 f171 b33a
00000160: c036 473d e741 ec3a 80a9 923b 7eab 723d
00000170: b9f1 5a3b 289e 973d cdf6 333e dc7c 6b3c
00000180: 827d 913d 39cd 6a3e f9a5 6ebd 1e29 a7bc
00000190: d933 813e 19d2 eebc 8287 1cbd 5d0c 663e
000001a0: 55c6 d73c d8d8 a4bd b17d ca3d dc20 f43c
000001b0: 0fd2 d4bd 1567 4ebc c50d 563b 2766 5d3d
000001c0: b7b9 43bb e410 b73c 1d78 b4bd f4fd 9cbc
000001d0: 43a8 c6bd c96f f33d e2e8 45bd 692b bd3d
000001e0: adbf a9bd 2f43 e8bd 0ae2 e53d 52ea c9bd
000001f0: e729 b3bd 2636 d13c da59 babc b08a d9bd
00000200: ecf3 a6bc 9f0d efbd 131f f2bd d192 653d
00000210: 4c9d ddbd c575 b73c 4fe4 f2bd df74 9bbc
00000220: bff5 a93c b5cc e5bd b5b5 50bd c795 e938
00000230: 1944 c8bd e4ed cc3d 8e73 28bc 4712 b1bd
00000240: e8e4 6fbc 8bf2 f33c 5def 80bd f049 0dbe
00000250: 15aa aebc 4813 193a 1f48 8ebc e836 e73d
00000260: 62d5 893d 8a70 8ebd ec1e 94bd b9c7 56bc
00000270: cf31 c0ba aa4d d9b9 949d ba37 ed24 67bd
00000280: 4218 47bd 1594 6cbc 4217 49bd 0c2c aabc
00000290: 368e 2abb ea80 8cbe 1b02 98ba 1e6b a9bd
000002a0: 07df b4bd b2ba 103c d578 cbbd 6a74 bdbd
000002b0: 3512 ebbd d3c6 3d3c 0856 3ebe 4146 23ba
000002c0: c41d 9bbd 5918 1d3d 8bb3 1b3d 3b0b bcbd
000002d0: 48ee f23d c897 66bc cfc8 cdbb 9f8c 943d
000002e0: 4719 fb3d b12f 023b 781f 673d 1692 82bc
000002f0: 1a03 b1bd 02a2 223d e2a8 ae3d 0d09 0cbc
00000300: 7dd9 1c3e 8bfb 3b3d f1e8 363d c713 7c3c
00000310: 9c10 b4bc 6d28 be3d 7947 2ebd 5315 76bc
00000320: 5764 8abd 3dc5 dd3d 82dd e53d 5ae5 bf3a
00000330: ff67 0fbe 7c5c 473d 4e0f 893d bd6f 73bd
00000340: cc2e 1b3d 3a0c d8bd 5b26 bcbc d990 3abd
00000350: 8615 d1bd 7bce 4c3d 29ea debd 6257 9dbd
00000360: d23d d33d 9c12 453d 361f e93d a0b2 bcbd
00000370: 9d5a afbd 14b2 e3bc 0214 b03d cd5a 893d
00000380: c09f 7cbd 0659 ffbd 3036 21bc dbd0 40bd
00000390: c1fb c5ba b985 aab8 d78a c7b8 65e5 c8bd
000003a0: 4ae0 28bd 5588 d939 d46f ddbd a31a 32bc
000003b0: 0a80 2e3c 06b6 53be b143 99bd 9e50 88bc
000003c0: a263 05be 25e0 fdbd c204 b1bd 1e54 32be
000003d0: 12c3 09bd dab2 ecbb d850 a5bd 0e28 ed3a
000003e0: 8ae5 cdbd b365 ff3a d667 f0bd 055f 923d
000003f0: 98d3 073d cf80 073d 085a 1bbd 0184 a23d
0.11146954 -0.07716146 -0.10503745 -0.027670398 -0.021167176 -0.07094669 -0.010933918 -0.15536177
0.011732346 -0.03968584 0.084789135 0.0059470762 -0.00011160186 0.0003693657 0.00010439519 -0.016603513
0.034659903 0.00070694037 0.002973593 0.063543126 -0.004984349 -0.008695243 0.10579551 0.061741207
0.09448935 0.20269899 -0.020215651 0.00031859445 0.05502817 0.052120395 0.016836045 0.16112648
0.039988067 0.014582108 0.09121666 -0.048418667 -0.0062294523 0.07458788 -0.06263431 -0.06329891
-0.101106904 -0.11435141 0.0151946265 -0.11103595 -0.024819484 0.013042777 -0.113341615 -0.12124536
0.08013232 -0.12860584 -0.01929403 0.11233962 -0.058960505 -0.038632255 -0.014750231 0.0059570526
-0.11351331 -0.06376059 0.102858394 -0.077940814 -0.07447618 -0.06913838 -0.0944049 -0.12395294
-0.08090455 -0.11517991 0.06574832 0.14122324 -0.10206329 -0.0059636254 -0.005941214 0.04694779
0.025504965 0.016840084 0.1055406 0.030482901 -0.033092406 0.00061292975 -0.009496377 0.06375867
-0.122655004 0.0013123144 0.07096081 0.024028094 -2.0963076e-05 0.0011158446 8.601029e-06 0.0013690573
0.048636198 0.0018025012 0.0044757724 0.05924558 0.0033408238 0.07403213 0.17574616 0.0143730305
0.07104017 0.22929849 -0.058263753 -0.020405348 0.2523487 -0.029152917 -0.038215168 0.22465654
0.02633969 -0.08049172 0.09887255 0.029800825 -0.10391628 -0.012597819 0.0032662016 0.0540525
-0.0029865333 0.022346921 -0.08811972 -0.019164063 -0.09700062 0.11886556 -0.048317797 0.092367955
-0.082885124 -0.11340939 0.11224754 -0.09859146 -0.087482266 0.025538515 -0.022747923 -0.10622156
-0.020379983 -0.1167252 -0.11822333 0.05604822 -0.108210176 0.022395024 -0.11859953 -0.018976627
0.020747064 -0.112206854 -0.05095454 0.00011138204 -0.097786136 0.100063115 -0.010281457 -0.08646064
-0.014641978 0.02977874 -0.06295655 -0.13797736 -0.021321336 0.000583936 -0.017368374 0.112897694
0.06730153 -0.06955059 -0.072324604 -0.013109141 -0.0014663282 -0.0004144733 2.2246306e-05 -0.0564317
-0.04860712 -0.014439602 -0.049094446 -0.020772956 -0.0026024706 -0.27442104 -0.0011597307 -0.08272384
-0.088316016 0.008833574 -0.09935156 -0.0925072 -0.11478082 0.011583048 -0.18587506 -0.0006228425
-0.07574037 0.038353298 0.038013022 -0.091818295 0.11861855 -0.014074273 -0.0062800418 0.07253384
0.12260681 0.0019864852 0.056426495 -0.0159388 -0.0864317 0.039705284 0.085283056 -0.00854708
0.1531734 0.045894187 0.044655744 0.015385575 -0.021980576 0.09285054 -0.04254863 -0.0150197325
-0.067574196 0.10828636 0.1122389 0.0014640496 -0.14004515 0.048672184 0.06692372 -0.059432734
0.037886426 -0.10549207 -0.022967508 -0.045548294 -0.102091834 0.050001603 -0.10884506 -0.076826826
0.10314526 0.04811345 0.11382906 -0.092137575 -0.08562205 -0.027794875 0.08597566 0.06706772
-0.061675787 -0.12468152 -0.009839579 -0.04707418 -0.0015104936 -8.1311395e-05 -9.5149204e-05 -0.098093785
-0.041229524 0.0004149104 -0.10812345 -0.0108706085 0.010650644 -0.20674905 -0.07483614 -0.016640004
-0.13026288 -0.12396268 -0.086434856 -0.174149 -0.0336333 -0.007223469 -0.0807206 0.0018093602
-0.10053547 0.0019485265 -0.11738555 0.0714703 0.033160776 0.033081826 -0.037927657 0.07935334

conv1.bias f4 [48]
00000000: e96c 85bd e207 193e 1df3 9b3d 8fba 1d3c
00000010: 6bfd 383d c56d ecb9 89fe af3d 775e 153e
00000020: 14ea 7dbd 4a5b 533e 59c4 ffbd 7749 123e
00000030: 7d25 c7bc 1dc4 7cbd c62d 503e 286a a23d
00000040: d4cf 313d c400 133e 784a 5bbd 8561 4fbc
00000050: b56e efbd 6eaf c53d b6fd 5bbc 7c1a db3d
00000060: 576e 973c c3f1 b5bc f581 58bc cc8f 3ebc
00000070: e645 cabc b6c4 03bd 7172 19bd 7c7e 22bd
00000080: 6d0d c63d 9e27 40bd 6b2e 1abd b374 9a3c
00000090: db3f acbb f218 9ebc c6bf 8b3d fbb2 7dbd
000000a0: 4a6e bbbd e23a 923c 0c1e 1b3e 894d 803d
000000b0: b2bd 443e 3e7d 373e b0ca 3b3e 45b4 933d
-0.065149136 0.14944413 0.076147296 0.009626999 0.045163553 -0.00045095212 0.085934706 0.14586817
-0.061990812 0.20640293 -0.12488622 0.14285837 -0.024309868 -0.061710466 0.20329961 0.07930404
0.04341109 0.14355761 -0.053537816 -0.012657528 -0.116910376 0.09652601 -0.013427189 0.10698411
0.018485231 -0.022210008 -0.013214578 -0.0116309635 -0.024691533 -0.03217002 -0.037462655 -0.039671406
0.096705295 -0.046912782 -0.037641924 0.018854475 -0.0052566356 -0.019299004 0.06823687 -0.061938267
-0.09151895 0.017850343 0.1514818 0.06264789 0.19212988 0.1791887 0.18339038 0.07212118

conv2.weight f4 [96, 48, 3]
00000000: 365e 3a3d 9e2e 583d 1663 383d f03b 2a3d
00000010: e272 9ebd c87d 11bd 2563 893d 8751 843c
00000020: 4d0d 1cbd 6945 db3c 0a29 6dbd 2692 5e3d
00000030: 138c 62bd 893c 973d ddb1 203d 244a e43d
00000040: 4aa6 54bc e051 103d 160f 85bd e3ed 5c3d
00000050: 2127 0b3d fb8e 41bc 30e9 6a3d 2ab3 acbd
00000060: 4ca3 1e3c 7c1c a3bd 9c69 783d 0278 c9bd
00000070: 0f9d 01bd 585b 97bc 3186 8b3d b7df 0dbd
00000080: 24ca c6bb 5088 febd 120f 533d c855 6dbd
00000090: 5526 bd3d 5666 aabc 14dd 3d3c eb2e 5a3d
000000a0: 522e 63bd 6e73 a4bd b529 21bd 9126 cbbd
000000b0: 4e5e ccbd bd8c 0fbd bcd6 5cbd 451c 98bd
000000c0: 4e42 853d e208 913d b870 663d d207 9cbd
000000d0: db20 013d df76 87bd 0c09 45bc 0987 5b3d
000000e0: 7b99 fa33 fb5b c83c d8ef 73bd 737a aa3c
000000f0: 5010 0d3d db7d e83c b959 3d3d 1b7d 9ebc
00000100: 67fe 483c ed0f b2bd cd61 b2bb be29 213d
00000110: bf26 0f82 7aef bc3d 6627 05bc bba2 a1bd
00000120: 2783 f73c 22c6 8a3d 345e 473d bcd5 10bd
00000130: c52e 8c3d 26d6 8ebd d1df 833d 2955 91bd
00000140: 54dc 763d 6746 203d 8529 383b bf08 453c
00000150: f970 7a3d 5dd5 19bc 772d 2dbd ef54 5a3d
00000160: a8c9 9abc 8c51 3a3d 0cde 993d 6d81 52bc
00000170: e5a4 43bd cc9f b33b 1f75 34bd 928b 463d
00000180: b0bf 59bd b54e 82bb a4b7 7d3d c58d d53d
00000190: 9852 46bd ec35 c63d c992 e8bc b837 15bd
000001a0: aac2 9b3a 69e9 ba3b b93b 29bd ff07 babb
000001b0: 69b0 713d ac13 a73d 7f32 57bd 8a13 c5bc
000001c0: 7acf 71bd 68e0 f1bc 8c85 73bd e6dc acbc
000001d0: cc67 50bd 9e12 88bd eb55 583c 48d2 f53c
000001e0: c3c0 d8ba 57a9 aebd 6ea2 283c ac45 973d
000001f0: 7779 90bd cc93 47bc b547 713d 6020 663c
00000200: 72bb 9bbc 4c55 9dbc a5af 11bd 239a 66bd
00000210: 05f1 113c 1ab9 70bd 92bb 4d3d b817 ae3b
00000220: ed95 85bc 16c6 a73d 92db 863d 3f42 8d3d
00000230: 7b21 3abd b539 a8bd 0bef 72bb 026a 493d
00000240: a5b1 853b 0825 87bd cf82 0d3d bbee 133c
00000250: 3215 8fbd 56c7 74bd 6a73 79bd dd66 bfbb
00000260: 0a94 2dbc d563 26bd 56b7 f2bc 4828 a83c
00000270: 3e3b 503d c52f 073c 50f3 15bd 5e27 ed3d
00000280: 14be 833d ec82 4f3d f78f 7f3d cf85 43bd
00000290: c18c 68bd 6d22 adbd 61b1 9b3b 979b 9abd
000002a0: 57fb 8c3d bbca 7cbd 4f01 21bd 4ed7 babd
000002b0: a7b0 cebc aecf f6bc 7390 2fbd 1b96 6ebd
000002c0: 4591 a73c b0f3 08be 9727 09bd 2cd8 8dbc
000002d0: 6d2b 4dbd 98f2 aabd e716 49bc 4d25 73bc
000002e0: 1ed1 353d 5ebe 80bb 3b72 dfbc 0cb0 26bd
000002f0: 75ef 86bd 2f98 013d 3287 d2bc dce1 983c
00000300: 2fe3 ce3c 1c3c 90bb eedc 9e3d 5274 06be
00000310: d2a3 00bb 2b4f f8bc d8bf 09bd d1a7 86b5
00000320: fd71 6235 2222 563d a9a9 39bd 9dcc 15bb
00000330: 25b3 773c cbc9 94bd 02eb 88bd a4fb c5bd
00000340: a0fe 2c3d 4c43 6bbd eb8f c0bc 6195 e9b9
00000350: eaf3 b7b0 f518 84bc 4858 c1bc a244 fbbc
00000360: 5b68 8a3d 2457 73bd 6a8f 5b3d 9e0d e4bc
00000370: c6bb 9b3c 35ee bf3b d2ef 35bc e8dd b13b
00000380: 9524 b53b f5bf eb3c 4a64 403b 13fd eabb
00000390: 1c64 d93b 935a 8e3c 7345 693d 069a 613d
000003a0: fd3f 1539 6919 7bbd 5e31 58bc addf 843d
000003b0: 5087 143d d13a 203d 3966 4f3c a565 343c
000003c0: 2ce8 4ebc 8bc1 9f3d cdc2 863d 54ae aa3d
000003d0: 4950 5d3d fecc b4bb 50e0 333d edbc 99bb
000003e0: 1e4b 80bd 7b0b 633c 62b3 debc 188c 763d
000003f0: cd7e 763d 786c 56bd b6ab 9b3d ed64 a0bd
0.045500003 0.052778833 0.04501637 0.041561067 -0.07736756 -0.035520345 0.067083634 0.016152157
-0.038098622 0.026766496 -0.057900466 0.054338597 -0.055309366 0.07384593 0.039232124 0.11146954
-0.0129790995 0.035234332 -0.06497018 0.053937804 0.033972863 -0.011813874 0.05735129 -0.0843261
0.009682488 -0.07964417 0.060647592 -0.09837343 -0.031643923 -0.018476173 0.06812704 -0.03463718
-0.0060665775 -0.12428343 0.051528044 -0.057943135 0.09235827 -0.02080075 0.011588354 0.0532674
-0.055464096 -0.08029829 -0.039346416 -0.09919465 -0.09978925 -0.035046328 -0.053915724 -0.07427267
0.06506787 0.070817724 0.05625984 -0.07618679 0.031525474 -0.0661447 -0.012026083 0.053595576
1.166945e-07 0.024457922 -0.059554905 0.020810341 0.034439385 0.028380325 0.046228144 -0.019346764
0.0122676855 -0.08694444 -0.0054437877 0.03934645 -1.05171e-37 0.09225364 -0.008127069 -0.078923665
0.030213905 0.06776072 0.048673823 -0.035360083 0.06844858 -0.06974439 0.06439174 -0.07096321
0.060268715 0.03912964 0.002810092 0.012026011 0.061142895 -0.009389249 -0.042279687 0.053303655
-0.018894985 0.045487925 0.07513055 -0.01284824 -0.047764678 0.0054816958 -0.044057008 0.04847295
-0.053161323 -0.0039766678 0.06194271 0.10427431 -0.04841861 0.096782535 -0.028390305 -0.03643009
0.0011883576 0.005704094 -0.04131672 -0.0056772227 0.05900613 0.08158049 -0.05253839 -0.024057169
-0.059035756 -0.02952595 -0.059453532 -0.021101426 -0.05088024 -0.06644176 0.013204078 0.030007496
-0.001653694 -0.08528393 0.0102926325 0.07386336 -0.070544176 -0.012181234 0.058906276 0.014045805
-0.01901028 -0.019205712 -0.0355679 -0.05629934 0.008907561 -0.058770277 0.05022771 0.005312886
-0.016306842 0.08192079 0.065848485 0.06897401 -0.045442086 -0.08214132 -0.003706875 0.049173363
0.004080015 -0.0659886 0.034548577 0.009029086 -0.069864646 -0.059760414 -0.060901083 -0.0058411197
-0.010594377 -0.04062255 -0.029628437 0.02052702 0.050837748 0.008251135 -0.036608994 0.11579774
0.06432739 0.050661966 0.062393155 -0.04773503 -0.05677486 -0.08453832 0.00475137 -0.07549208
0.06883877 -0.061716776 -0.03930789 -0.09123097 -0.025230719 -0.030128326 -0.042862367 -0.05824862
0.020455012 -0.1337421 -0.03348502 -0.017314993 -0.050090242 -0.08347052 -0.012273527 -0.014840436
0.044388883 -0.0039289435 -0.027276149 -0.040695235 -0.065886416 0.031639274 -0.025699232 0.018662386
0.025254814 -0.004401697 0.07756983 -0.1313031 -0.0019628895 -0.030311188 -0.033630222 -1.0032619e-06
8.4357436e-07 0.052278645 -0.045327816 -0.0022857555 0.015118395 -0.072650515 -0.06685449 -0.09667137
0.042235017 -0.057437226 -0.023506125 -0.0004455252 -1.3384327e-09 -0.016125182 -0.023601666 -0.030672375
0.067581855 -0.059409276 0.053603567 -0.027838524 0.019010436 0.005857254 -0.011104541 0.0054280646
0.0055280426 0.028778056 0.0029356652 -0.007171282 0.0066342484 0.017377174 0.056950998 0.05507853
0.00014233585 -0.06130353 -0.013195364 0.06487975 0.036261857 0.03911859 0.012658649 0.011010562
-0.012628596 0.07800587 0.06580124 0.08334032 0.054031644 -0.005517601 0.043915093 -0.004691711
-0.062643275 0.013857718 -0.027185146 0.060192198 0.06017952 -0.052349538 0.07601111 -0.0783175

conv2.bias f4 [96]
00000000: e122 093d f00c 83bd b20e 1f3e 17b7 6ebc
00000010: 020c a83b 7fa2 9cbd 91c5 16bd 25bb a7bd
00000020: d3a8 1a3d 0fe0 9fbc d4a3 183d ae3b 00be
00000030: 7bda 60bd 5d9b b13d c531 9b3d ae1e 0abc
00000040: 302a 303d a380 d23c 0831 d8bd 1015 6bbc
00000050: 2db7 893d ebf6 aabc 0a70 bfbd 53b0 e03d
00000060: 806c 843d 0e33 0b3e 9cf1 59bd 37a6 e73d
00000070: b870 1a3d 1c80 97bd bf18 c43c e15e ca3b
00000080: 8c26 76bd 81b5 b73d 786c 063c a84b e6bc
00000090: 6923 5e3d d03f 07be cbec a73c 40a3 01bd
000000a0: 93b2 2f3d a060 cdbc 9a8d f93d 48bc 9e3c
000000b0: 753f 563d 4966 b5bd be06 073e 552a d7bd
000000c0: f7f4 d2bd bccb f03c 6e29 213e bab9 4a3d
000000d0: 5365 70bd d891 2cbd c930 2d3d d767 0cbe
000000e0: 2220 9dbd dd70 8a3d 75b6 c8bd 0e45 533d
000000f0: 579a ae3d 81e8 133e 1d8a aebd 9cf2 203c
00000100: 384e cdbd 5fbe 013d 7a76 8dbd 0851 bf3c
00000110: 5a4b 223c 64ee 333d fee5 01bd b94e 9e3c
00000120: 700e d63d f7f0 103e 4ad0 023e 5571 973b
00000130: 7d3b dbbd 1fd5 123e ef28 753d c137 0dbc
00000140: cbf1 1eba 157d c0bc 49fc dbbd b3fb 94bd
00000150: 5f2e 873c ec81 c8ba d496 2a3d 5d91 b53c
00000160: fe57 9dbd d9d1 15bd 34e8 253d 145f 03bd
00000170: 936f 85bc e44e dfbd 1436 e73c f34e 52bd
0.03348053 -0.06398952 0.1553295 -0.014570019 0.0051283846 -0.07648181 -0.036809508 -0.08189992
0.03775866 -0.01951602 0.037265614 -0.12522766 -0.05489586 0.08672211 0.07577852 -0.008430166
0.043008983 0.025696104 -0.10556227 -0.014348283 0.06724391 -0.020869693 -0.09347542 0.10971131
0.06466007 0.13593695 -0.053208932 0.11311 0.037705153 -0.07397482 0.023937581 0.006175861
-0.060095355 0.08970166 0.008204572 -0.028112248 0.05423299 -0.13207936 0.020498654 -0.031649828
0.04289491 -0.025070488 0.121852115 0.019376889 0.05230661 -0.088574 0.13186166 -0.10506121
-0.103006296 0.029394023 0.1573846 0.04949353 -0.05869038 -0.042131275 0.042282853 -0.13711487
-0.076721445 0.06759808 -0.09800426 0.051579528 0.08525532 0.14444162 -0.08522437 0.009823468
-0.10024685 0.031675693 -0.06907363 0.023354068 0.0099056605 0.04392852 -0.03171348 0.019324647
0.104519725 0.14154421 0.12774768 0.0046216645 -0.10704706 0.14339112 0.05985349 -0.00861925
-0.00060632516 -0.023497144 -0.10741479 -0.0727457 0.016501604 -0.0015297509 0.041647747 0.022164041
-0.07682799 -0.03657708 0.04050465 -0.032073095 -0.016288554 -0.10903719 0.028224029 -0.051344823

fc.weight f4 [2, 96]
00000000: bb92 afbd bc3e 6b3d 66aa 293e 8c38 c2bd
00000010: 6682 c7bd f29b e2bd bb8f 123d 0818 57bd
00000020: 9330 eebd 7d19 5cbd 528c 46bd be7b e1bd
00000030: f3b1 86bd 18b5 cf3d 6f2a 033e 3580 1fbc
00000040: 33dc 1f3d c1ac 76bc cdd0 7fbd ab7d 79bc
00000050: 5dec 7f3d 4a11 7dbd 2ff9 c3bd 4f07 b53d
00000060: b665 9a3d c2cc 953d 52e6 843d 4cb1 c53d
00000070: 79a2 353b e72e 91bd 3654 dc3c d882 39bd
00000080: 9a7a ecbd 9be2 a23d b9f7 b2bd 782d 083e
00000090: 3494 c83d 7173 c5bc 29f6 2bbc 2373 50bd
000000a0: d899 b23a 7698 aebd 1add 043e ed60 c4bd
000000b0: ce66 d0bd 9985 5d3d 6dc3 a83d 26df d8bd
000000c0: 5ec7 123d 921d fb3c 4dc7 323e f77a 5a3d
000000d0: 59e7 62bd eb95 01bc 3eb2 b63d 463f 62bd
000000e0: 890f 15bc ba56 b03d b7f9 0bbe 0d23 cf3d
000000f0: 55a2 513c 5b23 293e 6830 99bd b59b 02be
00000100: 0cb6 2abd edb2 17bb 0d17 a6bd 9069 693d
00000110: 3c56 1ebd 8705 d6bc fa0c 52bc 9533 98bc
00000120: 25ab 9b3d af65 df3d 5a31 f03d bb98 3cbd
00000130: 2ba8 a03c dd85 ec3d 6f83 793d 48c3 86bd
00000140: 97d8 73bd 7496 c8bc d9f1 ee3b 6905 19bd
00000150: 0fec 623d dcf8 653d 5953 b9bd 1004 f3bd
00000160: 203e 073a a7f0 bebd 61f0 d63d 591c c93b
00000170: f6f0 43bc 5327 09bd ee47 ffbd 4af5 14bd
00000180: f218 4c3d a556 9c3d f2aa efbd e523 48bd
00000190: ed77 9b3d 7b23 35bd 470e 063e c9ab d6bc
000001a0: 1246 003d cbd1 cbbb 8e11 6f3d 72a5 613d
000001b0: f879 933d 03a4 5c3d 6afd cebc 638b 87bd
000001c0: 7302 ce3d add7 d23d 6e0f 423d 6c2e b8bd
000001d0: 5835 d7bd c155 903c d375 d13d 4d2b 773d
000001e0: 2810 ecbd 61ce e03c 61a9 c63d a24c 9dbd
000001f0: 4779 3abd 9b0c 30bd df66 19bd fa83 fabd
00000200: ae53 09bd a9f3 883d ae11 66bd 4ffa 2f3c
00000210: 5c69 c9bd 7d6b cf3d 0d74 593d 9bec e93d
00000220: 68db debd 9f70 1cbd c189 f7bd 0ce6 1e3e
00000230: d62a 2dbd 96ca 003e 0c1e 65bd 7a9c 87bd
00000240: faa8 d93d 430a 87bb faeb 1dbd 54d6 b1bd
00000250: 7343 d93d 9ee2 113d 1b60 973d 7078 e43d
00000260: 9646 4e3d d87e cf3b 73ef c43d 1a78 f8bc
00000270: 9a5d 82bd f473 35bd 7950 b73d d415 f73d
00000280: 19fe 2a3d 7a89 3a3d 223e d13d 78a5 bcbc
00000290: b6b4 b53d 6e0c d0bd a08a 423d d8f4 123d
000002a0: fabb 32bd 9c0c 34bd 6486 c0bb 83a5 f83d
000002b0: 1619 da3d 1f75 84bd ca4c b5bd eba1 0d3c
000002c0: ac0c 103d 304c 813d f7e1 633d 67f6 ca3d
000002d0: 410e c53c e279 20bd e125 b6bd 6dd8 82bd
000002e0: 1aad f03d 6e89 833d 5cd4 b4bd fed0 8dbd
000002f0: 44c1 99bd 8247 a23d d59f cdbc a62b f63c
-0.085729085 0.057432875 0.16568908 -0.09483442 -0.097416684 -0.110649005 0.035781603 -0.052513152
-0.116303585 -0.053735245 -0.048473664 -0.1100993 -0.0657691 0.10141963 0.12809156 -0.009735157
0.039028358 -0.015055836 -0.062454987 -0.0152277155 0.062481273 -0.061784066 -0.095690124 0.08839285
0.07538931 0.07314445 0.064892426 0.09652957 0.002771525 -0.07089024 0.026895624 -0.045290798
-0.11546822 0.07953378 -0.087386556 0.13298595 0.097938925 -0.024102898 -0.010495701 -0.050891053
0.0013626171 -0.08525173 0.12974969 -0.095887996 -0.101758584 0.054082487 0.082403995 -0.10589437
0.035834663 0.030653749 0.1745884 0.053339925 -0.05539641 -0.007909278 0.08920716 -0.055236124
-0.009097942 0.08610292 -0.13669477 0.10114107 0.012795051 0.16517393 -0.07479936 -0.1275471
-0.04167752 -0.002314742 -0.08109865 0.056985438 -0.03865646 -0.026125683 -0.012820477 -0.018579284
0.076010026 0.109080665 0.11728163 -0.046044093 0.019611439 0.1154897 0.06091636 -0.06580216
-0.059532728 -0.024485804 0.007292014 -0.037358675 0.055400904 0.056145534 -0.090491004 -0.11866009
0.00051590987 -0.093232445 0.104950674 0.0061374125 -0.011959305 -0.033484768 -0.124648914 -0.03636674
0.049828477 0.07633714 -0.11702527 -0.048862357 0.075912334 -0.04422329 0.13091384 -0.02620496
0.031316824 -0.0062200776 0.05836635 0.05508942 0.07200998 0.05386735 -0.025267322 -0.06618383
0.10059061 0.10295043 0.047377996 -0.08993229 -0.105082214 0.017619016 0.10227551 0.06034403
-0.11526519 0.02744216 0.09700275 -0.07680632 -0.045525815 -0.04298077 -0.03745162 -0.12232204
-0.03352707 0.066870995 -0.056169204 0.010740831 -0.09834549 0.10127924 0.05308919 0.11422082
-0.10881692 -0.03819334 -0.12086821 0.15517443 -0.04227718 0.1257728 -0.055936858 -0.066216424
0.10627933 -0.0041210963 -0.038555123 -0.08683458 0.10608568 0.03561651 0.073913775 0.11155784
0.050360285 0.0063322596 0.09615984 -0.030330706 -0.06365509 -0.044300035 0.08950896 0.1206471
0.041746233 0.045541264 0.10216929 -0.02302812 0.088723585 -0.10158621 0.047495484 0.035878032
-0.0436363 -0.043957338 -0.0058753956 0.12140944 0.10649316 -0.064676516 -0.08852537 0.008644561
0.035168335 0.0631336 0.05563542 0.09910279 0.024054648 -0.039178737 -0.088939436 -0.06388936
0.117517665 0.06422697 -0.08829567 -0.06924628 -0.075075656 0.07923795 -0.025100628 0.03005011

fc.bias f4 [2]
00000000: d972 b23d ee01 59bd
0.08713312 -0.052980356
