audio_classifier3.pth (torch, 171692 bytes, 6 tensors)

conv1.weight f4 [64, 1, 5]
0.2936356 0.052970078 -0.35768077 -0.22141339 0.09458361 -0.1603782 -0.37284184 0.17392337
0.12239725 -0.33709922 0.020856632 -0.28988338 0.31189784 0.26157013 -0.2972008 -0.15991068
0.03086514 -0.09741549 0.4257466 0.19353946 -0.24387938 0.057288524 0.14527424 0.22269237
-0.18755679 -0.16643643 -0.16670449 -0.40385386 -0.12592179 0.3370317 -0.31841326 0.31567827
0.076587625 -0.22011282 0.06810422 -0.26944974 -0.3360042 0.0074760607 0.043605726 0.009800071
0.17939644 0.16958837 -0.10618554 -0.17759614 0.14153641 0.27586702 0.41422862 -0.14583282
-0.29691866 0.1236224 0.3651876 -0.26606485 -0.2573393 -0.060802605 -0.19142902 0.29318488
-0.036032908 0.16465 -0.17970267 0.3233994 0.350977 -0.24743694 0.34307033 0.43451166
-0.06278996 -0.26294905 0.03129466 0.1859694 0.33952832 -0.40659475 0.43619245 -0.29493245
-0.19817597 0.00084152835 -0.10264424 0.14263651 -0.23736063 0.39820158 0.017046602 0.09916363
0.16692393 -0.16088614 0.24742658 -0.017409975 -0.22219576 0.11473165 0.023074621 -0.3904798
-0.23340495 0.2730073 0.25775316 -0.4206162 -0.32316834 0.38534775 -0.23039554 0.15784194
-0.19931202 -0.11824284 -0.17478567 0.43600345 0.16450086 -0.40970516 -0.17212 0.3296932
-0.105773225 0.35540152 0.3192505 0.39868948 -0.3030921 -0.22436236 0.43044654 0.38848525
-0.31448337 0.039567146 0.36086914 -0.20387931 -0.117131725 -0.4369393 0.29322788 -0.33320293
0.2289789 -0.3959509 0.110033266 -0.19886582 -0.24552043 0.22331803 -0.07686153 0.08672829
-0.043656155 -0.062940456 -0.38335684 0.13763042 -0.08996068 0.25757247 -0.40022218 0.062121272
-0.34160697 -0.396248 0.10239879 0.32215282 -0.42798787 0.4367344 -0.2539518 0.2538369
0.11687148 0.11271973 0.008523711 0.24754673 -0.44071236 -0.296642 -0.22643161 0.04911537
0.21002305 -0.4352204 0.44642833 -0.025374783 -0.2393742 -0.11722956 0.06691764 0.3529801
0.40043813 -0.12623014 -0.41582832 -0.20064984 -0.18061279 -0.094170086 -0.08655556 -0.016805233
-0.1265845 -0.111567825 0.4151007 -0.2843471 0.39292333 -0.28350374 0.045226682 -0.21324944
-0.066147156 0.26202202 0.36811712 0.1245334 0.23218577 0.35285053 0.2715123 0.2460855
-0.4162037 0.28029868 -0.17282553 0.21452567 -0.050380155 -0.0724139 -0.007015029 0.275786
-0.33610383 -0.38883576 0.013411143 -0.04135503 0.33476424 -0.38726327 -0.2764342 -0.016463613
0.31039718 0.24061315 0.3609161 0.16056296 -0.09467445 -0.3983714 0.013179285 0.12255059
-0.05977997 0.31865928 -0.06493647 -0.11750803 -0.2675474 -0.36681658 -0.22853379 0.27546185
-0.3774673 0.17462996 -0.04166251 0.07949972 -0.020671347 0.3276371 0.080662645 0.35693467
-0.17199302 -0.2561538 0.240363 -0.011028685 -0.11512719 -0.15071334 -0.32545692 0.36926183
-0.12730289 0.41974396 0.017077798 0.3898492 -0.43942562 -0.2560892 -0.31857374 -0.36621335
0.3539204 -0.31047297 -0.4356699 -0.31285635 0.44020855 0.055668384 0.3892425 0.371212
-0.16549738 0.24984603 -0.0567623 -0.0152213285 -0.21890323 0.099198654 0.18081792 -0.27656677
00000000: 6857 963e 27f7 583d ef21 b7be 31ba 62be
00000010: 0db5 c13d 2f3a 24be 20e5 bebe f818 323e
00000020: 69ab fa3d 4598 acbe 87db aa3c 986b 94be
00000030: 13b1 9f3e 85ec 853e b42a 98be a0bf 23be
00000040: e4d8 fc3c c681 c7bd 75fb d93e 352f 463e
00000050: 84bb 79be 5fa7 6a3d c5c2 143e 7809 643e
00000060: e30e 40be 506e 2abe 95b4 2abe efc5 cebe
00000070: a4f1 00be 6b8f ac3e 1007 a3be 95a0 a13e
00000080: f9d9 9c3d 4165 61be 3a7a 8b3d 51f5 89be
00000090: be08 acbe bef9 f43b eb9b 323d 7a90 203c
000000a0: b3b3 373e 93a8 2d3e ce77 d9bd c3db 35be
000000b0: ecee 103e 713e 8d3e c615 d43e 3355 15be
000000c0: b905 98be be2d fd3d def9 ba3e a739 88be
000000d0: fac1 83be 270c 79bd f805 44be 541c 963e
000000e0: 3e97 13bd 029a 283e fa03 38be 9b94 a53e
000000f0: 42b3 b33e 1c60 7dbe eaa6 af3e 5078 de3e
00000100: 0698 80bd 42a1 86be d42e 003d c36e 3e3e
00000110: a8d6 ad3e 302d d0be 9e54 df3e 6301 97be
00000120: a4ee 4abe 039a 5c3a 2537 d2bd 4e0f 123e
00000130: aa0e 73be 14e1 cb3e 51a5 8b3c 4d16 cb3d
00000140: 1bee 2a3e 56bf 24be 655d 7d3e 5d9f 8ebc
00000150: 4987 63be 6df8 ea3d fd06 bd3c f8ec c7be
00000160: b501 6fbe 9dc7 8b3e 39f8 833e 025b d7be
00000170: 5276 a5be 4d4c c53e cfec 6bbe 51a1 213e
00000180: 7318 4cbe 4d29 f2bd 04fb 32be d83b df3e
00000190: ea72 283e e0c4 d1be 3a40 30be 8ccd a83e
000001a0: a29f d8bd 30f7 b53e cd74 a33e 0721 cc3e
000001b0: e32e 9bbe 3fbf 65be 7d63 dc3e 8ae7 c63e
000001c0: f703 a1be 2911 223d d7c3 b83e bdc5 50be
000001d0: c2e2 efbd 82b6 dfbe f721 963e 9399 aabe
000001e0: 7279 6a3e 14ba cabe 1f59 e13d 7ba3 4bbe
000001f0: b569 7bbe 7bad 643e 9469 9dbd 9a9e b13d
00000200: ccd0 32bd ede6 80bd 5947 c4be fdee 0c3e
00000210: 4e3d b8bd 8ae0 833e ece9 ccbe e072 7e3d
00000220: 1ce7 aebe 05e1 cabe 75b6 d13d 37f1 a43e
00000230: 3a21 dbbe a79b df3e f805 82be e9f6 813e
00000240: 515a ef3d 9ad9 e63d 09a7 0b3c e47c 7d3e
00000250: 0da5 e1be 76e1 97be b0dd 67be 332d 493d
00000260: 4810 573e 35d5 debe 4192 e43e c7de cfbc
00000270: 831e 75be 0d16 f0bd 1e0c 893d cfb9 b43e
00000280: 3a06 cd3e 7942 01be 73e7 d4be 2777 4dbe
00000290: 8ff2 38be 3fdc c0bd 0b44 b1bd 21ab 89bc
000002a0: 5e9f 01be ac7d e4bd 1488 d43e f195 91be
000002b0: 3f2d c93e 6727 91be 9d3f 393d 105e 5abe
000002c0: 2978 87bd c027 863e d979 bc3e 5e0b ff3d
000002d0: 1bc2 6d3e d3a8 b43e a903 8b3e d6fd 7b3e
000002e0: a718 d5be 4f83 8f3e 2df9 30be 9eac 5b3e
000002f0: 6c5b 4ebd bd4d 94bd 54de e5bb d333 8d3e
00000300: cd15 acbe 7b15 c7be 69ba 5b3c e463 29bd
00000310: 3866 ab3e 5f47 c6be c988 8dbe b3de 86bc
00000320: 61ec 9e3e 4b63 763e ffc9 b83e 9e6a 243e
00000330: aee4 c1bd 56f7 cbbe eeed 573c cefb fa3d
00000340: d8db 74bd 4f27 a33e 69fd 84bd 0da8 f0bd
00000350: f9fb 88be 62cf bbbe c304 6abe 5609 8d3e
00000360: 6543 c1be 32d2 323e 4fa6 2abd c0d0 a23d
00000370: f556 a9bc 0dc0 a73e 7532 a53d 24c0 b63e
00000380: f01e 30be 9726 83be b821 763e a8b1 34bc
00000390: cec7 ebbd 9954 1abe 4aa2 a6be e30f bd3e
000003a0: b05b 02be aee8 d63e bde6 8b3c 509a c73e
000003b0: 65fc e0be 201e 83be 191c a3be 5180 bbbe
000003c0: 0e35 b53e 50f6 9ebe 2010 dfbe b52e a0be
000003d0: 0463 e13e 8804 643d cb4a c73e 800f be3e
000003e0: 2578 29be a3d7 7f3e 967f 68bd e162 79bc
000003f0: 2b28 60be aa28 cb3d 5528 393e 299a 8dbe

conv1.bias f4 [64]
-0.25320503 -0.4071872 -0.34389412 0.04597083 0.0026916235 0.23348019 0.3812322 -0.3970041
0.23655912 0.020691097 -0.058476217 0.4084108 0.03670314 -0.17531702 -0.2832663 -0.18338338
-0.36876634 -0.39376074 0.3118896 0.21762662 -0.17276242 0.09763101 -0.33666125 -0.1869459
0.01231449 0.2715171 0.14320655 -0.33276615 0.2865457 -0.34197882 0.30369434 0.100275725
-0.015711261 -0.031874094 -0.02629811 0.38718238 0.09584571 -0.34062567 -0.16396599 0.28847048
0.12802158 0.17409079 -0.32503983 -0.06853887 0.15540338 0.20799503 0.37396333 -0.32958803
-0.024404308 -0.24565049 -0.092000335 -0.2565845 -0.12629932 -0.3877806 -0.14210713 -0.13911612
-0.2532344 -0.18108499 -0.07177959 0.06919394 -0.22188982 -0.39870638 -0.0816174 -0.17058705
00000000: 17a4 81be d77a d0be e412 b0be e94b 3c3d
00000010: f365 303b 6e15 6f3e de30 c33e 1f44 cbbe
00000020: 8e3c 723e 6080 a93c c284 6fbd 381b d13e
00000030: 0856 163d 4e86 33be 4808 91be dac8 3bbe
00000040: f1ce bcbe 029b c9be feaf 9f3e 83d9 5e3e
00000050: a2e8 30be c4f2 c73d dd5e acbe bf6e 3fbe
00000060: b7c2 493c 4a04 8b3e bda4 123e 5360 aabe
00000070: 1eb6 923e d917 afbe d37d 9b3e 5c5d cd3d
00000080: e7b4 80bc 698e 02bd 226f d7bc c53c c63e
00000090: c14a c43d 7d66 aebe b3e6 27be 67b2 933e
000000a0: 1718 033e db44 323e 9f6b a6be 1b5e 8cbd
000000b0: 1022 1f3e a6fc 543e 1f78 bf3e c3bf a8be
000000c0: 8beb c7bc cd8b 7bbe ac6a bcbd 0b5f 83be
000000d0: 9c54 01be 2e8b c6be 8884 11be 7574 0ebe
000000e0: f0a7 81be 586e 39be 2d01 93bd 8db5 8d3d
000000f0: 1637 63be 3e23 ccbe 0627 a7bd 5fae 2ebe

conv2.weight f4 [128, 64, 5]
-0.034823835 -0.013572255 -0.014537793 0.023090659 0.025119262 -0.016627938 -0.042369302 -0.0315928
-0.052967455 -0.045576997 0.00078296196 -0.042703636 0.050900474 -0.036807787 -0.043093156 0.03390201
0.0030292065 0.052643683 -0.0063429764 -0.03447115 -0.0019968487 -0.021578403 -0.032542195 0.050987322
0.0073696757 0.045996357 0.038666837 -0.01830042 -0.046030913 -0.03885669 -0.022334525 -0.05258771
-0.0044944803 -0.018564658 -0.032771334 -0.02103069 0.02609694 0.0123279905 0.05443148 -0.03743732
0.03447695 0.0054182447 0.013665787 0.031237433 -0.01749207 -0.048074614 -0.0021132424 0.030333655
0.04784308 -0.03431968 -0.00017607088 -0.010430539 -0.011638258 -0.03912672 -0.0048071705 0.00017580352
0.014773387 -0.043594178 -0.044183128 -0.014211186 -0.0091123395 0.029826486 0.0038614748 0.029038183
0.021654723 -0.039508376 -0.036255855 -0.012829067 -0.0056530084 -0.045513887 -0.014504986 -0.015426086
0.012978189 0.012301312 0.0062570395 0.008679231 -0.019286858 0.045262523 0.032710377 0.0013247905
-0.020077437 0.0155729875 -0.017105462 -0.015633352 -0.014267783 0.034381296 -0.043953292 0.0013104648
-0.005025757 0.005175203 0.0005327187 -0.0318184 -0.029122148 -0.0076652435 0.037817016 -0.03710186
-0.04969015 -0.045356993 0.035773396 0.037032682 -0.0052061738 0.027075797 0.023871806 -0.035675026
-0.00021122304 0.051990565 0.012377953 0.025515204 0.02823491 -0.0028378535 0.046541855 0.02980966
0.012274581 -0.017089639 0.008525142 0.03758748 -0.046408564 0.02248679 0.05081417 0.0064113387
0.0132906865 -0.0044189263 0.020972023 0.009084366 -0.03360951 0.031125266 -0.034168854 -0.029193781
0.047134608 -0.004537144 -0.04444881 -0.030252242 0.022773787 0.034409046 -0.02053102 -0.027560508
-0.030291904 -0.009915775 0.010746353 0.018102914 -0.034995474 0.020337012 0.040386416 -0.0317421
-0.013142218 -0.04059743 -0.0034508372 -0.022494083 0.008075693 -0.029473437 0.012161065 -0.041755255
-0.046908237 -0.030160028 0.030601287 0.0074055674 0.028954132 -0.049878962 0.006299765 0.024211418
-0.026929425 0.009121951 0.05274324 0.009209325 -0.029389165 0.00020539016 -0.011190925 -0.003697373
-0.0457962 0.042547952 0.032908466 -0.05409417 0.0380174 -0.009906562 0.022180842 -0.01605717
-0.025107116 -0.04365735 0.01616758 0.008830806 0.03177529 -0.047923207 0.029675405 -0.046917092
-0.020764528 0.038524285 -0.004327753 -0.0507724 0.040027514 0.033345625 -0.050926387 0.016055383
-0.0049474766 0.014644689 -0.02217385 0.05488833 0.004969858 0.035582338 0.0076793334 0.038344383
-0.042977158 -0.011532871 0.0051520662 0.037869535 0.018426254 -0.014824854 -0.016402036 -0.040816963
-0.0027367552 -0.031143732 0.0106719285 0.021871336 -0.03954901 0.0043123756 0.031452663 0.03060233
-0.021244477 -0.0060310215 0.0467634 0.023614759 -0.010477754 -0.046215437 -0.04822359 0.0068905847
0.024714341 0.016511966 -0.02916174 -0.044924274 -0.021643383 -0.0030954673 0.05046094 -0.0012615338
0.03202954 -0.02433479 0.03282389 0.026618188 -0.05107038 0.017943896 -0.04747905 -0.019628033
0.026917895 -0.013470097 -0.055084728 -0.045223158 0.021419138 0.05288106 -0.0026858333 0.022555014
-0.037185393 -0.0036010814 0.024643771 -0.022288209 0.02538734 0.040876385 0.024712387 0.046541486
00000000: 70a3 0ebd 2a5e 5ebc ec2f 6ebc 9f28 bd3c
00000010: e9c6 cd3c 5037 88bc 6f8b 2dbd 7467 01bd
00000020: 67f4 58bd f2ae 3abd b03f 4d3a 02ea 2ebd
00000030: 047d 503d c3c3 16bd 7382 30bd d6dc 0a3d
00000040: a785 463b e7a0 573d bed8 cfbb 9f31 0dbd
00000050: 90dd 02bb 31c5 b0bc f74a 05bd 15d8 503d
00000060: 527d f13b ad66 3c3d 1e61 1e3d c3ea 95bc
00000070: e98a 3cbd 3128 1fbd e5f6 b6bc 3666 57bd
00000080: 6f46 93bb e914 98bc 3c3b 06bd 8e48 acbc
00000090: 40c9 d53c 57fb 493c 8bf3 5e3d e057 19bd
000000a0: b437 0d3d 888b b13b 77e6 5f3c a5e5 ff3c
000000b0: 884b 8fbc e3e9 44bd 537e 0abb 497e f83c
000000c0: 1bf7 433d cb92 0cbd ab9f 38b9 dae4 2abc
000000d0: 64ae 3ebc 5743 20bd 7885 9dbb e657 3839
000000e0: 140c 723c cf8f 32bd 5ef9 34bd 09d6 68bc
000000f0: ec4b 15bc ad56 f43c cc10 7d3b 7ce1 ed3c
00000100: 3f65 b13c 89d3 21bd 0581 14bd 0231 52bc
00000110: df3c b9bb c56c 3abd 52a6 6dbc b2bd 7cbc
00000120: 78a2 543c 718b 493c da07 cd3b 5533 0e3c
00000130: 79ff 9dbc 3265 393d 51fb 053d 98a4 ad3a
00000140: 7079 a4bc d825 7f3c c120 8cbc 8411 80bc
00000150: 6bc3 69bc 67d3 0c3d 5e08 34bd e7c3 ab3a
00000160: 1baf a4bb c094 a93b 26a6 0b3a 0354 02bd
00000170: 9291 eebc b92c fbbb 04e6 1a3d 1ff8 17bd
00000180: e687 4bbd 41c8 39bd 2087 123d 95af 173d
00000190: 8d98 aabb 10ce dd3c ce8e c33c fa1f 12bd
000001a0: c17b 5db9 0ff4 543d e6cc 4a3c 4305 d13c
000001b0: e64c e73c 48fb 39bb aca2 3e3d 6333 f43c
000001c0: 531b 493c 92ff 8bbc 0aad 0b3c 54f5 193d
000001d0: e816 3ebd 3736 b83c 8522 503d 3516 d23b
000001e0: 2ec1 593c a4cc 90bb 85cd ab3c 98d6 143c
000001f0: 20aa 09bd 6afa fe3c a4f4 0bbd cc27 efbc
00000200: 3810 413d 53ac 94bb f50f 36bd 8dd3 f7bc
00000210: 1890 ba3c 80f0 0c3d ab30 a8bc 93c6 e1bc
00000220: ba26 f8bc c675 22bc 7911 303c 904c 943c
00000230: 6a57 0fbd ce99 a63c 3a6c 253d 0104 02bd
00000240: 7552 57bc 7e49 26bd 7127 62bb 8345 b8bc
00000250: e94f 043c 4772 f1bc 343f 473c 8f07 2bbd
00000260: da22 40bd 2a12 f7bc 8daf fa3c 67aa f23b
00000270: 3731 ed3c e24d 4cbd 426e ce3b 0657 c63c
00000280: 199b dcbc 3c74 153c 4c09 583d b5e2 163c
00000290: 8cc1 f0bc 005e 5739 245a 37bc a04f 72bb
000002a0: cc94 3bbd c346 2e3d 07cb 063d d991 5dbd
000002b0: 22b8 1b3d 224f 22bc 99b4 b53c 548a 83bc
000002c0: 70ad cdbc 0dd2 32bd df71 843c 16af 103c
000002d0: ce26 023d 204b 44bd d619 f33c 232c 40bd
000002e0: 5f1a aabc a4cb 1d3d d3cf 8dbb b8f6 4fbd
000002f0: e4f3 233d 6c95 083d 3098 50bd 9486 833c
00000300: 711e a2bb 47f0 6f3c efa5 b5bc 96d2 603d
00000310: 31da a23b c9be 113d eba2 fb3b 000f 1d3d
00000320: d108 30bd 5ef4 3cbc aad2 a83b 161d 1b3d
00000330: a8f2 963c f2e3 72bc 905d 86bc b02f 27bd
00000340: 225b 33bb 2421 ffbc 50d9 2e3c 842b b33c
00000350: 25fe 21bd d44e 8d3b 82d4 003d bdb1 fa3c
00000360: e608 aebc e09f c5bb fb8a 3f3d bd73 c13c
00000370: e3aa 2bbc 664c 3dbd 1986 45bd 6aca e13b
00000380: bb75 ca3c 1a44 873c 9ae4 eebc 8402 38bd
00000390: 774d b1bc 53dd 4abb 21b0 4e3d 0d5a a5ba
000003a0: 6831 033d c159 c7bc 5872 063d 630e da3c
000003b0: 2d2f 51bd 14ff 923c 6479 42bd f8ca a0bc
000003c0: eb82 dc3c afb1 5cbc 86a0 61bd eb3b 39bd
000003d0: 3077 af3c cf99 583d ce04 30bb 4bc5 b83c
000003e0: b64f 18bd 1f00 6cbb bce1 c93c c395 b6bc
000003f0: 1cf9 cf3c ff6d 273d a271 ca3c 49a2 3e3d

conv2.bias f4 [128]
0.04283995 0.037606448 0.03968717 0.0028872397 0.005130328 -0.003566153 0.039569896 -0.0006295964
-0.041386392 0.04696098 -0.0349302 0.019354764 0.04032166 -0.023558566 0.04542712 0.043504037
-0.002050567 0.0035969787 0.035569698 0.04972819 -0.01997748 0.03719919 0.026457442 0.033993214
-0.04876628 -0.019683635 0.037284777 -0.0029505002 -0.024138972 -0.00030691177 -0.051349767 -0.0044397875
0.014098678 -0.007138962 0.015891958 7.445646e-05 -0.031760786 0.03440164 0.009939561 0.04560302
-0.0017166933 -0.029783593 -0.05138831 0.050468188 0.030167611 -0.0038499613 0.01588928 0.006486873
-0.049695298 0.04204208 -0.010692196 0.039105855 0.036006622 -0.054449197 0.033312645 -0.009502788
-0.012958146 -0.009709002 0.008500711 0.0044191857 0.045134865 0.01742659 0.023482665 0.00886935
-0.050098088 -0.025583047 -0.029582618 -0.022392653 -0.037218433 0.0040991367 -0.029992882 -0.02464396
0.033553172 0.027589329 -0.054694112 -0.037644923 0.047016993 0.05510834 -0.040255688 0.0025440017
0.0097193215 0.019277459 -0.04913026 -0.00529623 0.04721398 0.03893053 -0.04801263 0.013069171
0.04952098 0.027741544 0.008587178 0.029155962 -0.012620837 -0.00093731453 -0.036652282 0.01271799
0.034472026 0.0016043368 -0.045061287 -0.032422837 0.04762622 -0.043465126 0.0057456885 -0.012322641
-0.048087984 0.013037217 0.036964387 -0.028751027 0.04004525 0.043893605 0.008894007 0.014196397
-0.040280424 0.025832104 0.03092544 -0.029685868 -0.006134618 -0.0012332132 -0.04447395 -0.036032874
0.024773542 -0.036022708 0.0027649156 -0.006664497 0.012513929 0.032579876 0.023975143 0.011941249
00000000: f278 2f3d 3809 1a3d 048f 223d d837 3d3b
00000010: 4f1c a83b 1fb6 69bb 0b14 223d 800b 25ba
00000020: c784 29bd 285a 403d f812 0fbd e28d 9e3c
00000030: 5328 253d e5fd c0bc ca11 3a3d 4a31 323d
00000040: ce62 06bb 4abb 6b3b 88b1 113d c9af 4b3d
00000050: d0a7 a3bc 2e5e 183d 47bd d83c 783c 0b3d
00000060: 27bf 47bd 933f a1bc ecb7 183d 2e5d 41bb
00000070: 18bf c5bc 00e9 a0b9 2254 52bd a37b 91bb
00000080: 24fe 663c f4ed e9bb da2f 823c 8225 9c38
00000090: 9917 02bd bce8 0c3d 8ad9 223c 3bca 3a3d
000000a0: ab02 e1ba b9fc f3bc 8c7c 52bd bbb7 4e3d
000000b0: 1122 f73c a24f 7cbb 3c2a 823c d68f d43b
000000c0: 4c8d 4bbd 5134 2c3d 522e 2fbc 762d 203d
000000d0: ae7b 133d 1f06 5fbd d772 083d 95b1 1bbc
000000e0: 674e 54bc 8212 1fbc 9146 0b3c d1ce 903b
000000f0: 56df 383d 35c2 8e3c b85e c03c c050 113c
00000100: a733 4dbd 8a93 d1bc 3f57 f2bc cc70 b7bc
00000110: 5b72 18bd 0d52 863b a2b3 f5bc 21e2 c9bc
00000120: 0d6f 093d 0403 e23c ef06 60bd 9031 1abd
00000130: e494 403d 48b9 613d 26e3 24bd 44b9 263b
00000140: ca3d 1f3c c3eb 9d3c d03c 49bd ff8b adbb
00000150: 7263 413d 9f75 1f3d e4a8 44bd 1420 563c
00000160: 83d6 4a3d 3c42 e33c 3cb1 0c3c 7cd8 ee3c
00000170: a1c7 4ebc 1db6 75ba b420 16bd 1e5f 503c
00000180: 8a32 0d3d 9c48 d23a 2f92 38bd cfcd 04bd
00000190: b613 433d 7d08 32bd 5446 bc3b e7e4 49bc
000001a0: e8f7 44bd 0d9a 553c f867 173d 4687 ebbc
000001b0: 7d06 243d c8c9 333d 2bb8 113c 0198 683c
000001c0: 16fd 24bd d99d d33c 5957 fd3c c72f f3bc
000001d0: e804 c9bb c5a3 a1ba 512a 36bd 3597 13bd
000001e0: e2f1 ca3c 8c8c 13bd 9633 353b da61 dabb
000001f0: 3907 4d3c 7a72 053d 8567 c43c 3aa5 433c

fc.weight f4 [2, 384]
-0.012381114 -0.043510858 0.0510565 0.03541128 0.04296955 -0.022974143 -0.0034142514 0.049151808
-0.030053636 0.05051992 -0.029287396 -0.049611405 0.01668094 0.012189634 0.028700143 0.038039837
0.010535876 -0.04943152 -0.009150577 0.045163337 -0.028124025 0.02229023 0.042619817 -0.0022318847
-0.0042286217 -0.017042225 0.033282198 0.013541317 -0.021731123 0.025108969 -0.03582525 0.044653922
-0.038227137 0.023663215 -0.036877748 0.012139253 0.05086284 -0.02005733 0.033689152 -0.049038567
-0.022030707 -0.039642707 -0.010511652 0.0031113364 -0.040881336 -0.02853104 0.043116115 0.023779713
-0.024892066 -0.049346115 -0.04216788 0.03949493 0.021801855 -0.021499235 0.03970009 -0.011851434
-0.04444723 0.050897714 -0.012937236 0.012124872 -0.01350112 0.029011069 -0.019753655 -0.038382754
-0.047005985 -0.006939785 0.04732807 0.009189052 0.03663178 0.035005942 -0.012254961 0.0021129416
0.0356373 0.017450199 0.016150994 0.022986539 0.003126662 0.009629596 0.03985955 -0.008941533
-0.041302152 0.015827112 0.033186264 0.040448092 0.0025393143 0.047926605 -0.028025879 -0.001219809
-0.0410219 -0.043773677 -0.043648146 0.039124697 -0.0043351995 0.04320677 -0.005278263 -0.0141081475
-0.016113387 0.048798878 -0.02865196 0.030894987 -0.02960357 -0.04413137 0.048814893 -0.033834454
-0.024967257 -0.0155759165 0.049637437 -0.012370639 -0.049978495 0.027820686 -0.019787166 0.031058855
-0.042567804 -0.03559392 0.0077651986 -0.03527668 0.009864688 -0.034657523 -0.02764513 -0.0070887725
0.023768067 0.03029625 0.050244376 0.02451203 -0.041435115 -0.035657633 0.01290626 -0.011566953
0.009859697 0.016820917 0.017064273 -0.0391912 -0.019167617 0.000847517 0.0015432097 -0.0038713058
0.0013913828 -0.019524865 0.043033402 -0.029277887 -0.019185985 -0.04846661 0.008648527 -0.048112564
-0.00017968412 -0.044333607 0.0042325095 0.012784709 0.008806858 0.02015242 0.002142308 -0.015962454
-0.038864065 0.04790475 -0.0058513936 0.011593192 0.01678254 -0.0164641 -0.03351322 -0.043902792
-0.0014759989 0.001982854 -0.04379869 0.037229806 0.018122766 -0.0075177825 0.049787518 -0.02812478
-0.015825506 0.01653481 -0.007463753 -0.04836378 -0.025554774 0.045393504 0.04171599 0.037347853
0.022492746 0.026740309 -0.014483316 -0.024646515 0.042804733 0.019642498 -0.028794808 -0.027973734
0.039450433 -0.031832617 -0.008898498 -0.025459085 -0.019701814 0.0072563835 -0.03886985 -0.013339361
0.029734075 0.008852706 0.02018929 -0.028368747 -0.014187686 -0.033975337 -0.05083797 -0.009299943
-0.025247931 -0.0082444325 0.028165884 0.0039874683 -0.0040999996 -0.030410063 0.014913031 0.028415676
0.026112167 0.013408713 0.009469574 -0.02186747 0.028373245 -0.049421575 -0.05046838 -0.04696512
-0.04913566 0.029134037 0.042347334 0.018710978 0.004684948 -0.044719003 -0.018801928 -0.040536597
-0.02190829 -0.024384115 0.050504386 -0.027967587 0.041999668 -0.03262199 -0.00011367683 -0.03843422
0.033680588 0.03238517 -0.02549074 0.020527614 -0.049607567 -0.031037856 -0.032889888 0.0042157955
0.007674586 -0.024613725 -0.024671372 0.019552227 0.04684855 0.04824834 0.016433686 -0.044730064
0.01162894 0.024108144 -0.03706637 -0.01106504 0.014078062 -0.028158106 -0.03155171 0.0017268101
00000000: 28da 4abc 7138 32bd 9f20 513d 6b0b 113d
00000010: d700 303d 4534 bcbc a2c1 5fbb 6853 493d
00000020: 0b33 f6bc faed 4e3d 1fec efbc 5435 4bbd
00000030: 77a6 883c 08b7 473c 901c eb3c a9cf 1b3d
00000040: ab9e 2c3c b578 4abd 4dec 15bc 31fd 383d
00000050: 5b64 e6bc 009a b63c 1e92 2e3d d044 12bb
00000060: 4090 8abb 239c 8bbc ea52 083d 66dc 5d3c
00000070: 7805 b2bc 53b1 cd3c 7fbd 12bd 08e7 363d
00000080: 0f94 1cbd 5cd9 c13c 1f0d 17bd b8e3 463c
00000090: 8e55 503d 454f a4bc a3fd 093d aadc 48bd
000000a0: be79 b4bc 6460 22bd 1039 2cbc 90e7 4b3b
000000b0: 3073 27bd edb9 e9bc 869a 303d accd c23c
000000c0: 72ea cbbc 271f 4abd 3ab8 2cbd 70c5 213d
000000d0: ce99 b23c 2a1f b0bc 909c 223d 842c 42bc
000000e0: 4c0e 36bd 1f7a 503d b3f6 53bc 66a7 463c
000000f0: cd33 5dbc 9fa8 ed3c 6bd2 a1bc 3c37 1dbd
00000100: 5989 40bd 2367 e3bb 14db 413d ad8d 163c
00000110: 350b 163d 6462 0f3d 08c9 48bc 4779 0a3b
00000120: 6bf8 113d b8f3 8e3c 174f 843c 444e bc3c
00000130: afe8 4c3b 74c5 1d3c c443 233d 827f 12bc
00000140: 722c 29bd dca7 813c 52ee 073d e6ac 253d
00000150: a06a 263b b04e 443d 8796 e5bc 00e2 9fba
00000160: 9406 28bd 074c 33bd 66c8 32bd 3841 203d
00000170: 4a0e 8ebb 95f9 303d 47f5 acbb dc25 67bc
00000180: 3900 84bc 55e1 473d 84b7 eabc 7c17 fd3c
00000190: 3083 f2bc 18c3 34bd 20f2 473d ff95 0abd
000001a0: 2288 ccbc 2132 7fbc a050 4b3d 38ae 4abc
000001b0: 40b6 4cbd 35e8 e33c b218 a2bc 246f fe3c
000001c0: 945b 2ebd eeca 11bd 3573 fe3b 487e 10bd
000001d0: 809f 213c 0cf5 0dbd 0a78 e2bc ef48 e8bb
000001e0: 40b5 c23c d72f f83c 0ccd 4d3d 74cd c83c
000001f0: deb7 29bd bd0d 12bd c774 533c 5183 3dbc
00000200: 918a 213c 05cc 893c 60ca 8b3c f486 20bd
00000210: 6805 9dbc e72b 5e3a 8645 ca3a bcb5 7dbb
00000220: 0f5f b63a 9cf2 9fbc cb43 303d 2ed8 efbc
00000230: ed2b 9dbc ed84 46bd 8db2 0d3c ae11 45bd
00000240: 9769 3cb9 2897 35bd ddb0 8a3b f576 513c
00000250: a44a 103c b016 a53c f765 0c3b b1c3 82bc
00000260: ed2f 1fbd c537 443d 0cbd bfbb 5ff1 3d3c
00000270: 8a7b 893c b8df 86bc 2845 09bd 6ad3 33bd
00000280: 4e76 c1ba c5f2 013b 4166 33bd 487e 183d
00000290: 3276 943c bb57 f6bb ffed 4b3d f065 e6bc
000002a0: 7ea4 81bc 0374 873c 8092 f4bb 1919 46bd
000002b0: 3f58 d1bc 8aee 393d 63de 2a3d 10fa 183d
000002c0: b542 b83c 7e0e db3c 6e4b 6dbc 7de7 c9bc
000002d0: 0454 2f3d 4ee9 a03c 17e3 ebbc 2c29 e5bc
000002e0: c796 213d eb62 02bd 01cb 11bc 928f d0bc
000002f0: b365 a1bc f5c6 ed3b fe35 1fbd 568d 5abc
00000300: e094 f33c f10a 113c 0364 a53c 9365 e8bc
00000310: 7873 68bc b929 0bbd 7a3b 50bd ca5e 18bc
00000320: c0d4 cebc a813 07bc 24bc e63c 4fa9 823b
00000330: 4a59 86bb 861e f9bc c955 743c fec7 e83c
00000340: 2fe9 d53c 38b0 5b3c 4626 1b3c 6923 b3bc
00000350: 026f e83c 476e 4abd efb7 4ebd 7f5e 40bd
00000360: 7942 49bd 81aa ee3c 6674 2d3d c447 993c
00000370: 3184 993b 462b 37bd 8006 9abc b409 26bd
00000380: 0479 b3bc 32c1 c7bc b0dd 4e3d 481c e5bc
00000390: d807 2c3d a39e 05bd c965 eeb8 336d 1dbd
000003a0: a8f4 093d 50a6 043d f5d1 d0bc 8729 a83c
000003b0: 4e31 4bbd 1a43 febc 8cb7 06bd a824 8a3b
000003c0: 187b fb3b b9a2 c9bc 9e1b cabc fe2b a03c
000003d0: 44e4 3f3d 0da0 453d f09f 863c df36 37bd
000003e0: 4f87 3e3c 717e c53c e8d2 17bd 244a 35bc
000003f0: aca7 663c d4ab e6bc 5e3c 01bd 2256 e23a

fc.bias f4 [2]
-0.018950786 -0.009265607
00000000: ae3e 9bbc c6ce 17bc
