audio_classifier3.pth (torch, 178924 bytes, 6 tensors)

conv1.weight f4 [64, 1, 5]
0	0x3e4f9e44	0.20275217
1	0x3e12b498	0.14326704
2	0x3eacf9a1	0.33784202
3	0xbd4cebbf	-0.050029512
4	0xbc1390ce	-0.009006692
5	0x3e9ce63f	0.30644414
6	0x3e2250f6	0.15851197
7	0x3dd5e42c	0.10443911
8	0xbdd87ac3	-0.1057029
9	0xbe57f1ae	-0.21088287
10	0xbe52bb48	-0.20579255
11	0x3ec3f589	0.38273266
12	0xbea5d893	-0.32391796
13	0xbee16321	-0.44020942
14	0xbed3fe91	-0.41405156
15	0xbea92b10	-0.33040667
16	0xbe8bc10e	-0.27295727
17	0xbe8695ee	-0.26286262
18	0x3e804aa9	0.2505696
19	0x3edec4d2	0.43509537
20	0x3df7b751	0.12095512
21	0x3dcfb460	0.10141826
22	0x3d943eea	0.072385624
23	0xbe7f61fe	-0.24939725
24	0x3e82d0ea	0.25550014
25	0xbe770e1f	-0.2412648
26	0xbdcc3c79	-0.09972472
27	0x3ec30982	0.3809319
28	0x3db6df32	0.0892929
29	0xbdb2d45a	-0.08731909
30	0x3ddf6afa	0.10909076
31	0xbdb41322	-0.08792712
32	0xbee4a486	-0.4465677
33	0x3d829c14	0.06377426
34	0x3ea7b62e	0.3275618
35	0xbe595196	-0.21222529
36	0xbe1477f7	-0.14498888
37	0xbdfd6ad6	-0.12373893
38	0xbe80a09b	-0.25122532
39	0x3e0fd5d7	0.14046417
40	0x3ee1efc6	0.44128245
41	0xbe880ab2	-0.2657066
42	0xbd5529a3	-0.05204166
43	0x3ea0ca63	0.3140441
44	0xbe820705	-0.2539598
45	0xbe9c04ed	-0.30472508
46	0xbe02e428	-0.12782347
47	0x3e948230	0.29005575
48	0xbe5644c2	-0.20924667
49	0xbe7fe004	-0.24987799
50	0xbda38b16	-0.07985513
51	0x3d7c542b	0.061603706
52	0x3ea65f15	0.32494417
53	0x3ec78991	0.38972142
54	0xbe250213	-0.16114073
55	0xbeb7b31b	-0.35878834
56	0xbe9b69d7	-0.30354187
57	0xbed63657	-0.41838333
58	0xbe328f27	-0.17437421
59	0x3e8c6e3f	0.2742786
60	0x3ebf1cad	0.37326565
61	0xbafa3c29	-0.0019091415
62	0x3ed74c00	0.4205017
63	0x3ea7382c	0.32660043
64	0x3e958be0	0.2920828
65	0x3e3f1e1d	0.18663831
66	0x3e39d3e5	0.18147238
67	0xbe929197	-0.286267
68	0xbe0667bc	-0.13125509
69	0x3d2ec825	0.04267134
70	0xbe8834f9	-0.26602915
71	0xbe144474	-0.14479238
72	0x3e765919	0.24057426
73	0x3dc4fca1	0.09618498
74	0xbe9881d8	-0.29786563
75	0x3e4e1bfd	0.20127864
76	0xbeaf06c6	-0.34184855
77	0x3e5696bf	0.20955943
78	0x3ea7070b	0.3262256
79	0x3ed2fff7	0.4121091
80	0xbeaed56d	-0.34147206
81	0x3e9f591c	0.31122673
82	0xbd7416b2	-0.059591956
83	0x3e429c1b	0.19004862
84	0x3ea593d1	0.32339337
85	0x3e1a12cc	0.15046233
86	0x3e4c74be	0.19966409
87	0x3d4bbef1	0.049742643
88	0xbe410313	-0.18848829
89	0xbe76d388	-0.2410413
90	0x3dcee676	0.10102551
91	0xbe722761	-0.23647834
92	0xbe2c1e1e	-0.16808364
93	0x3edcd6d3	0.43132648
94	0xbddee860	-0.10884166
95	0xbe3ca41d	-0.18421979
96	0x3ebc6cc7	0.3680174
97	0x3db4cc15	0.08827988
98	0x3ed6cd45	0.41953483
99	0xbd7d4e22	-0.06184209
100	0x3e9e658b	0.30936846
101	0xbbc190a8	-0.005907137
102	0xbe81cc98	-0.25351405
103	0x3d177ad8	0.036982387
104	0xbb97a9a1	-0.0046283756
105	0x3ec37dd9	0.38181952
106	0x3eabbd4c	0.3354286
107	0x3e9866f9	0.29766062
108	0x3e9433c3	0.2894574
109	0x3e76361c	0.24044079
110	0x3d466a2b	0.048441093
111	0x3ec7c8ee	0.39020485
112	0xbe85c6e9	-0.2612832
113	0xbe5752c0	-0.2102766
114	0xbebed356	-0.37270612
115	0x3dfde868	0.123978436
116	0xbd592177	-0.05301043
117	0xbe774902	-0.24148944
118	0xbda17e5b	-0.078854285
119	0x3d42fc30	0.047603786
120	0xbe34ea23	-0.17667441
121	0x3e7b0fae	0.245177
122	0xbea91af1	-0.33028367
123	0xbedf0517	-0.4355857
124	0xbd87d43f	-0.066322796
125	0x3cb5419b	0.02212601
126	0x3ea70953	0.326243
127	0x3de486c1	0.11158515
128	0xbe896b2b	-0.26839575
129	0x3c053b31	0.008131788
130	0xbdc6b6a9	-0.097028084
131	0xbdb7c0a1	-0.08972288
132	0xbde9b074	-0.11410609
133	0x3c39fef4	0.0113522895
134	0x3a506bb6	0.00079506205
135	0x3d3aca43	0.045603048
136	0xbe144230	-0.14478374
137	0x3dd25eb8	0.102719724
138	0x3e8b0257	0.27150223
139	0xbdf24e14	-0.118312985
140	0x3e05fa2c	0.13083714
141	0xbee00032	-0.4375015
142	0x3ed546ea	0.41655666
143	0xbe98867c	-0.29790103
144	0xbeacb278	-0.3372991
145	0xbee394f8	-0.44449592
146	0xbe5372ab	-0.20649211
147	0x3ea357e5	0.31902996
148	0xbdeb3b9e	-0.114859805
149	0x3e93c67f	0.28862378
150	0xbea44c41	-0.32089427
151	0x3d6531d6	0.05595573
152	0x3e8d4198	0.27589107
153	0x3eaace00	0.3336029
154	0x3e63d51f	0.22249268
155	0x3e7596c4	0.23983294
156	0x3e527794	0.20553428
157	0xbe41f479	-0.18940915
158	0x3e6a3ce9	0.22874798
159	0x3d7a4e3d	0.06110977
160	0x3e68444b	0.22682302
161	0xbdc8aee6	-0.09798984
162	0xbec6a2af	-0.38795993
163	0xbe93a993	-0.28840312
164	0x3c5facf3	0.013652074
165	0x3ed99ade	0.42500967
166	0x3e5b0ca9	0.21391548
167	0xbdfa1016	-0.122100994
168	0xbe2e16cb	-0.17000882
169	0xbeaeaefb	-0.34117875
170	0xbe786a3d	-0.24259277
171	0x3ecbab77	0.39779255
172	0x3d9640e1	0.073365934
173	0xbed3b4aa	-0.41348773
174	0xbe7e57e1	-0.2483821
175	0xbe422c0a	-0.18962112
176	0xbe234631	-0.15944745
177	0x3e5dc954	0.21658832
178	0xbe94e16b	-0.2907823
179	0x3ea3a317	0.31960365
180	0x3e3fa1da	0.18714085
181	0x3e65c55f	0.22438572
182	0x3e31300a	0.17303482
183	0x3eab6e23	0.33482465
184	0xbe2da6ef	-0.16958211
185	0xbcbced2c	-0.023062311
186	0x3eddfb48	0.43355775
187	0x3edba60a	0.42900115
188	0xbe8d1f6c	-0.27563035
189	0x3d2b5f46	0.041838907
190	0xbeda5739	-0.4264467
191	0xbd58df61	-0.052947406
192	0xbee504e4	-0.44730294
193	0xbeda1c90	-0.42599916
194	0xbe11952f	-0.14217065
195	0x3ec3eac4	0.3826505
196	0xbcd9cccf	-0.026586918
197	0xbee0ea65	-0.4392883
198	0x3e6e234e	0.23255655
199	0xbedc6d4e	-0.43052143
200	0xbc76e5c0	-0.015069425
201	0x3e78bef8	0.24291599
202	0x3e5ed2a7	0.21760045
203	0x3e2666fb	0.16250221
204	0x3ea7adc7	0.3274977
205	0x3eb740fc	0.35791767
206	0x3df444d5	0.11927191
207	0x3e3e1b92	0.18565205
208	0xbed6b79e	-0.41936964
209	0xbeacd479	-0.33755854
210	0x3e9a7804	0.3016969
211	0x3dd8f360	0.10593295
212	0x3e875435	0.26431432
213	0xbe7525d8	-0.23940217
214	0xbea749c9	-0.3267348
215	0x3e351dee	0.17687199
216	0x3ed23d1f	0.41062257
217	0x3d21c82b	0.039497536
218	0xbec191b4	-0.37806475
219	0xbe1caf4a	-0.15301242
220	0xbd1c9cbb	-0.038235407
221	0xbd034626	-0.03204932
222	0xbd0058cf	-0.031334694
223	0xbee4ca23	-0.44685468
224	0xbdff507f	-0.12466525
225	0xbe99d3e1	-0.30044463
226	0xbe8951ed	-0.26820317
227	0xbe87d71d	-0.26531306
228	0xbebe8cf3	-0.3721691
229	0xbea63332	-0.32460934
230	0xbeba80cc	-0.3642639
231	0x3d28b476	0.041187726
232	0x3dd882a0	0.1057179
233	0x3ebfdc7e	0.3747291
234	0xbd39e584	-0.0453849
235	0x3e2eebb3	0.170821
236	0xbeb018bf	-0.3439388
237	0xbe59ccee	-0.2126958
238	0x3ea3713d	0.3192233
239	0xbdb41fe3	-0.087951444
240	0x3e9aef31	0.30260614
241	0x3c386406	0.011254316
242	0xbc696d33	-0.0142472265
243	0x3d95b98f	0.07310783
244	0xbecc5662	-0.39909655
245	0xbeda66be	-0.4265651
246	0xbe39a42f	-0.18129037
247	0x3ee2c06d	0.44287434
248	0xbea227e6	-0.31671065
249	0x3d9cb4f5	0.07651702
250	0xbe2cc227	-0.16870938
251	0xbeb56ab4	-0.3543297
252	0xbe46f228	-0.19428313
253	0xbdcec183	-0.10095503
254	0xbea0b5da	-0.31388742
255	0xbe0d01e3	-0.13770251

conv1.bias f4 [64]
0	0xbd9236ea	-0.0713938
1	0x3dccdb50	0.10002768
2	0x3e28b840	0.16476536
3	0xbe6d3808	-0.23165905
4	0x3eab5576	0.3346364
5	0xbedaceb4	-0.42735827
6	0x3d8cc40c	0.068733305
7	0xbe94ac1e	-0.29037565
8	0x3e8c1571	0.27360108
9	0x3ea9e2fe	0.33180994
10	0x3e777f39	0.24169625
11	0xbebfd7ce	-0.37469333
12	0xbe937f64	-0.2880813
13	0x3de6a4b3	0.11261883
14	0xbd967d9f	-0.07348179
15	0xbdccf2ff	-0.10007285
16	0x3d8efd04	0.06981853
17	0xbccbe020	-0.024887145
18	0xbeb2fc95	-0.3495833
19	0xbeb32dca	-0.34995872
20	0x3ec401fe	0.3828277
21	0x3e9a61e1	0.301528
22	0xbe6ed657	-0.23323952
23	0xbc1c3381	-0.009533764
24	0x3ddd2b26	0.107992455
25	0x3ea6cb86	0.3257715
26	0x3ebc0e7b	0.36729798
27	0xbee272d8	-0.44228244
28	0x3ee29452	0.44253784
29	0xbe1c9f53	-0.15295152
30	0xbd17b799	-0.037040327
31	0xbeb3e081	-0.3513222
32	0x3ea3a473	0.31961402
33	0xbd5d9bc9	-0.054103646
34	0x3ecb682b	0.3972791
35	0xbe93f763	-0.2889968
36	0xbde95030	-0.11392248
37	0xbe0f1a70	-0.13974929
38	0x3e8949d7	0.26814148
39	0xbe4b8431	-0.19874646
40	0xbed898bf	-0.42304036
41	0xbbd80caa	-0.0065933065
42	0xbea33dea	-0.31883174
43	0xbe4fca89	-0.20292105
44	0xbea9c906	-0.3316118
45	0x3e241096	0.16021952
46	0xbebfd030	-0.37463522
47	0xbed517f1	-0.41619828
48	0xbebc9134	-0.3682953
49	0x3ed2cc33	0.41171417
50	0xbe5f48f3	-0.21805172
51	0xbeccb6b8	-0.39983153
52	0x3cdef0fc	0.02721452
53	0x3de24b1b	0.110494815
54	0xbe2c42d7	-0.16822372
55	0xbe4b006a	-0.19824377
56	0xbece0f59	-0.40246084
57	0x3ede8c47	0.43466398
58	0xbe6f98b4	-0.23398095
59	0x3ed427a5	0.41436496
60	0x3d7f64c4	0.062351957
61	0xbddadd57	-0.106867485
62	0x3c6ad6fb	0.014333482
63	0xbe9f8198	-0.3115356

conv2.weight f4 [128, 64, 5]
0	0x3ba14a7b	0.004922209
1	0x3d4d9057	0.05018648
2	0xbca29886	-0.01984812
3	0x3bbb0af3	0.0057080924
4	0xbd35a055	-0.044342358
5	0xbd1c340f	-0.038135584
6	0x3c13dca8	0.0090247765
7	0x3d317271	0.04332203
8	0x3d0c27c9	0.03421763
9	0xbd4c7b43	-0.04992224
10	0x3d122b16	0.03568562
11	0x3d0a6a42	0.03379274
12	0x3d2ba447	0.041904714
13	0x3c942a0c	0.018086456
14	0xbd05cbab	-0.032664936
15	0xbcbaf961	-0.022823991
16	0x3d0edff7	0.03488156
17	0xbb062d62	-0.0020473828
18	0x3bb59bac	0.005542239
19	0xbcda51b6	-0.026650291
20	0x3c547c91	0.012969152
21	0xbd4a5020	-0.04939282
22	0xbc306c9b	-0.010768081
23	0x3bf1b407	0.0073761973
24	0xbd3943d6	-0.04523071
25	0xbd2eede4	-0.04270734
26	0xbd289fd1	-0.041168038
27	0xbd533e9c	-0.05157338
28	0xbcc7cc3f	-0.024389384
29	0xbc3229d8	-0.010874234
30	0xbc7b67ce	-0.015344573
31	0xbcac818b	-0.021057865
32	0xbc82ddad	-0.015974844
33	0x3d41b181	0.04728842
34	0xbc88abb8	-0.016683444
35	0xbbe05147	-0.0068456265
36	0x3cd7c046	0.0263368
37	0x3c956a36	0.018239122
38	0xba50d3b4	-0.00079661165
39	0xbd11584f	-0.03548461
40	0x3d53cb35	0.051707465
41	0x3cffbed0	0.031218916
42	0x3c73524c	0.014851164
43	0x3cac96b6	0.021067958
44	0xbc9fce06	-0.01950742
45	0x3ba8d52a	0.0051523643
46	0xbd505920	-0.050866246
47	0x3d41779f	0.04723322
48	0xbd3f0585	-0.046636123
49	0xbbd07ebc	-0.006362764
50	0xbcc91b52	-0.02454916
51	0xbbc3752a	-0.005964895
52	0xbd4aef8a	-0.04954485
53	0x3d22d7ac	0.039756462
54	0xbd178d61	-0.037000064
55	0x3c852e40	0.016257405
56	0xbd4a9c2e	-0.04946535
57	0xbd27f026	-0.041000508
58	0x3cbd5beb	0.023115119
59	0x3d0bf5c5	0.03416993
60	0x3d54aeba	0.051924445
61	0x3ada9386	0.0016676045
62	0x3cb2cc2e	0.021825876
63	0x3ccbaa75	0.024861554
64	0x3b0fa7e2	0.0021920134
65	0x3b78132e	0.003785323
66	0xbbe8b98b	-0.0071021966
67	0x3d46a288	0.048494846
68	0xbce18fb0	-0.027534336
69	0x3cdf8958	0.02728717
70	0xbcd135d4	-0.025538363
71	0x3d0b6b41	0.034037832
72	0x3d5c509f	0.053787824
73	0xbd58e363	-0.052951228
74	0xbbfc8c31	-0.007707142
75	0x3c334935	0.010942747
76	0x3c5a19a6	0.013311779
77	0x3c22839e	0.009919075
78	0x3ce556e8	0.027995542
79	0xbc72abcd	-0.014811468
80	0xbc0f238c	-0.008736502
81	0xbd4a0eae	-0.049330406
82	0xbc8045ed	-0.015658343
83	0xbd4f352a	-0.05058781
84	0xbb45c8fb	-0.0030179608
85	0xbca2f028	-0.019889906
86	0x3d6028e8	0.05472651
87	0x3d5e1725	0.05422129
88	0x3c0bb765	0.008527611
89	0x3c3911f8	0.011295788
90	0xbbab8591	-0.005234428
91	0x3d03ffea	0.03222648
92	0xbd56d407	-0.0524483
93	0xbd27407c	-0.04083298
94	0x3cab799a	0.020932008
95	0x3d633203	0.055467617
96	0xbc3c99c1	-0.011511267
97	0x3c85787a	0.0162928
98	0xbc0779ae	-0.008268757
99	0x3d5826df	0.052771445
100	0x3c11bdd8	0.00889536
101	0xbd371caf	-0.04470509
102	0x3ce70c1a	0.028204013
103	0xba2d8ed0	-0.0006620707
104	0x3cc919fd	0.024548525
105	0x3c6a0b42	0.014284911
106	0x3c6c9a8e	0.014441146
107	0x3c51f2e5	0.012814258
108	0xbb6b7227	-0.0035926194
109	0x3d081297	0.033220854
110	0xbc8a8732	-0.01691017
111	0x3c003192	0.0078243185
112	0x3d27566b	0.0408539
113	0x3d1b4092	0.037903376
114	0xbd4f38de	-0.050591342
115	0x3bbed20a	0.0058233785
116	0x3d4928ff	0.049111363
117	0xbb9dd453	-0.004816571
118	0x3c257716	0.010099193
119	0xbd48d6fa	-0.049033143
120	0x3cf650e7	0.030067874
121	0xbd3265ab	-0.04355399
122	0x3ab0a0ce	0.0013475658
123	0xbccf8382	-0.025331262
124	0xbd34ffa5	-0.044189114
125	0xbd437a96	-0.04772433
126	0x3cde704c	0.027153157
127	0x3c2c17c6	0.010503715
128	0x3d61c616	0.05512055
129	0x3cd50058	0.02600114
130	0xbd4d928d	-0.05018859
131	0xbd2cf06f	-0.042221483
132	0xbd33f630	-0.043935955
133	0xbcf759b4	-0.030194141
134	0x3d00a64e	0.0314086
135	0xbd2d7df6	-0.042356454
136	0xbbad4632	-0.005287909
137	0xbd3619e4	-0.044458285
138	0x3bc2c8d7	0.005944352
139	0x3d1fc957	0.039010372
140	0x3ce4d5e9	0.027934032
141	0x3d40a51b	0.047032457
142	0xbd144582	-0.0361991
143	0x3d44a4de	0.048008792
144	0xbc2022bd	-0.009773907
145	0x3acd4238	0.0015659994
146	0xbd39ff14	-0.045409277
147	0x3ad60841	0.0016329364
148	0xbab6c62c	-0.0013944558
149	0xbc477d48	-0.0121758655
150	0xbd3055b0	-0.043050468
151	0xbc7072cd	-0.014675808
152	0xbc4de73e	-0.012567339
153	0x3c90d4af	0.01767954
154	0x3a9dcb0f	0.0012038666
155	0x3d2f2ab0	0.04276532
156	0xbc8d82ce	-0.017274287
157	0x3d6058b9	0.054772113
158	0xbcff0072	-0.031128142
159	0x3c70520e	0.014668001
160	0x3c85ba18	0.016324088
161	0xbcb4f500	-0.022089481
162	0x3c723e4a	0.014785359
163	0x3cf9eb5b	0.030507734
164	0x3a851972	0.0010154678
165	0x3b831f48	0.0040015317
166	0xbd0579a1	-0.032586697
167	0x3b28c567	0.0025752427
168	0x3d08df58	0.033416122
169	0xb958d433	-0.00020678416
170	0x3d19bff5	0.03753658
171	0xbbdfbe4f	-0.0068281065
172	0xbd3d91ab	-0.046281498
173	0xbd1bb391	-0.038013045
174	0xbc6da9f3	-0.014505851
175	0x3cb24ce3	0.021765178
176	0xbd6391d3	-0.05555899
177	0x3b8071c3	0.0039198115
178	0xbd29db81	-0.0414691
179	0xbcd4f0df	-0.025993763
180	0x3c929f55	0.017898241
181	0xbc660c7e	-0.014041064
182	0x3d4ab7d7	0.04949173
183	0xbce60002	-0.028076176
184	0x3c462ee2	0.012096139
185	0xbcd67fd2	-0.026183996
186	0x3b03717c	0.0020056656
187	0x3c87d914	0.016583003
188	0xbd08f2d8	-0.03343472
189	0xbd26a610	-0.040685713
190	0x3d41d507	0.0473223
191	0xbd09fd7f	-0.03368902
192	0x3d2fce1a	0.042921163
193	0xbd287745	-0.04112937
194	0xbc09f10b	-0.0084192855
195	0x3ccebc5d	0.025236303
196	0x3d5205ed	0.051275183
197	0xbcd5e72d	-0.02611121
198	0xbd1cf01a	-0.038314916
199	0xbd6545ff	-0.055974957
200	0xbd0f46c0	-0.03497958
201	0xbd19a491	-0.03751046
202	0xbc367041	-0.011135162
203	0xbd3fc879	-0.046822045
204	0xbd5c0155	-0.053712208
205	0x3d2674fa	0.0406389
206	0xbd33f686	-0.043936275
207	0xbbe8485f	-0.0070887054
208	0xbc660e14	-0.014041442
209	0xbbd99729	-0.006640334
210	0xbcbcf77e	-0.023067232
211	0xbd39c62e	-0.045355015
212	0x3cf112c9	0.029427903
213	0x3d5531b3	0.05204935
214	0x3b1d488a	0.0023999535
215	0xbba4f992	-0.005034634
216	0x3d2ea2a1	0.042635564
217	0x3cddae70	0.027060717
218	0x3b1c6983	0.00238666
219	0x3cf942fe	0.030427452
220	0xbc779c5c	-0.015112963
221	0xbca167d8	-0.019702837
222	0xbcfb55e7	-0.03068061
223	0xbcbf2feb	-0.023338279
224	0x3d2a28e4	0.041542903
225	0x3cb32eed	0.021872962
226	0x3cfd9388	0.030954137
227	0x3d05bed0	0.032652676
228	0x3c555239	0.013020092
229	0x3d182c44	0.03715159
230	0xbc5ba059	-0.013404929
231	0xbd3ce275	-0.046114404
232	0x3d1d80c4	0.03845288
233	0x3cf47aec	0.02984377
234	0x3ccf4096	0.025299352
235	0x3c89cacf	0.01682034
236	0x3bd95044	0.006631883
237	0x3c5a1261	0.013310046
238	0xbc87124e	-0.01648822
239	0x3d47deda	0.048796512
240	0x3bf82072	0.007572227
241	0x3d35fe8e	0.044432215
242	0xbd37c26d	-0.044863153
243	0xbc56730f	-0.013088956
244	0x3cd49ab3	0.025952673
245	0xbcabf4ba	-0.020990718
246	0x3d2a3704	0.041556373
247	0x3ca49069	0.020088391
248	0x3c8a3e9e	0.016875561
249	0xbd02530c	-0.03181748
250	0x3c5c78e6	0.013456559
251	0xbd073ba9	-0.03301588
252	0xbb79824e	-0.0038072052
253	0x3d28481a	0.041084386
254	0x3d44b4e8	0.04802409
255	0xbca5d30e	-0.02024224

conv2.bias f4 [128]
0	0xbd639e2c	-0.055570766
1	0xbcf814c9	-0.030283349
2	0x3d29c033	0.04144306
3	0x3caf817b	0.021424046
4	0xbc1b1e3e	-0.0094676595
5	0x3cdcd43e	0.026956674
6	0x3b96072d	0.004578492
7	0x3d51bd0c	0.05120568
8	0xbd182640	-0.037145853
9	0xbc8018ba	-0.01563679
10	0x3d3cd491	0.046101157
11	0xbd266779	-0.040626023
12	0xbcd563fd	-0.026048655
13	0xbc0ef30c	-0.008724939
14	0xbb8f4870	-0.004372649
15	0xbc0a3468	-0.008435346
16	0x3d53d954	0.051720932
17	0x3bc728a8	0.0060778446
18	0xbcb94397	-0.022615237
19	0x3c079ead	0.008277577
20	0xbce1c622	-0.027560297
21	0xbcb70fe6	-0.022346448
22	0xbcce0a06	-0.025151264
23	0x3d31cb9a	0.04340706
24	0xbd6446d8	-0.055731624
25	0xbc687cba	-0.014189893
26	0x3d60bee4	0.054869547
27	0xbbcc4ff2	-0.006235116
28	0x3d1d87fd	0.038459767
29	0x3d10c5b7	0.035344806
30	0x3a2c6eb2	0.0006577774
31	0xbc4b679c	-0.012414839
32	0x3c8a0d6f	0.016852109
33	0xbd62276f	-0.055213388
34	0xbc7ba962	-0.015360208
35	0xbbc46a94	-0.0059941504
36	0xbd5a21f7	-0.053255048
37	0x3d3ade0f	0.045621928
38	0x3bb6c67c	0.0055778604
39	0x3b81f8a7	0.0039664092
40	0xbd637ac8	-0.055537015
41	0xbc9bc6ae	-0.019015636
42	0xbd082973	-0.033242654
43	0xbd61526c	-0.055010244
44	0xbc5781e5	-0.013153528
45	0x3c9980cc	0.018738173
46	0xbd2ff2b7	-0.04295608
47	0xbb6802ce	-0.0035402062
48	0x3aab36fc	0.0013062651
49	0xbc95437f	-0.018220661
50	0x3d4baa96	0.04972323
51	0x3c97fd51	0.018553408
52	0xbc79dd4a	-0.015250513
53	0x3c677c5b	0.01412877
54	0xbc7d8b55	-0.015475114
55	0xbcb65e11	-0.022261651
56	0x3d4c5f70	0.049895704
57	0xbd2333ca	-0.03984431
58	0xbd4e1409	-0.050312076
59	0xbbd29f7c	-0.0064277034
60	0xbd3c5b2a	-0.04598538
61	0x3d0b5034	0.034012035
62	0xbcd8cd0e	-0.026464965
63	0xbd2945b4	-0.04132624
64	0x3d03083a	0.031990267
65	0xbd3b6c25	-0.04575743
66	0x3c87fd90	0.0166004
67	0x3d0f30a6	0.034958504
68	0xbc0f8b23	-0.0087612
69	0xbbc38674	-0.005966956
70	0x3d4f38a6	0.050591134
71	0xbbabf445	-0.005247625
72	0x3cb27499	0.021784114
73	0xbd5b64db	-0.05356298
74	0x3d1012a3	0.035174023
75	0x3c27feb8	0.010253601
76	0xbd248be7	-0.040172484
77	0xbd6265c5	-0.055272836
78	0xbd28a71a	-0.041174985
79	0xbd3b4292	-0.045717783
80	0x3d5c8cc8	0.053845197
81	0xbd4144a3	-0.047184598
82	0xbc6e5ac7	-0.01454801
83	0x3c99c89d	0.018772418
84	0x3cf6f1e8	0.030144647
85	0x3cfac513	0.03061155
86	0x3d06108b	0.03273062
87	0x3b5b7c23	0.003349074
88	0x3bcbf82c	0.0062246528
89	0x3c32d076	0.010913959
90	0x3d1a7f0f	0.03771883
91	0x3d41a23c	0.04727386
92	0xbc713171	-0.01472126
93	0xbba0f357	-0.004911821
94	0xbd20cca8	-0.039257675
95	0x3ce39dc2	0.027785186
96	0x3b7c93e9	0.003854031
97	0xbd3ac8a7	-0.045601513
98	0xbc96c27e	-0.018403288
99	0x3d2a4dfc	0.041578278
100	0x3d31f715	0.043448526
101	0x3b8a180e	0.0042142933
102	0x3bd71675	0.0065639564
103	0xbd127c93	-0.035763334
104	0xbd403280	-0.04692316
105	0x3cf84ec1	0.03031099
106	0x3b9c6607	0.004772905
107	0x3c92cb13	0.017919099
108	0x3d11f9c4	0.035638586
109	0x3d04e506	0.032444976
110	0x3a80d830	0.0009830054
111	0x3cc3de03	0.023909574
112	0x3c902b80	0.017598867
113	0x3ca96be0	0.020681322
114	0x3cfd67e9	0.030933337
115	0x3c322ca5	0.010874902
116	0xbbe8d544	-0.0071055014
117	0x3b494ddc	0.0030716574
118	0x3c8b0c09	0.016973512
119	0xbc146f14	-0.009059686
120	0x3c1e0199	0.009643936
121	0x3d1d54ea	0.03841106
122	0x3d159491	0.036518637
123	0xbd45793a	-0.048211314
124	0xbcf97333	-0.03045044
125	0x3d4eae31	0.05045909
126	0x3d536ffc	0.05162047
127	0x3cb14bb3	0.021642542

fc.weight f4 [2, 1280]
0	0x3ba5ee24	0.005063789
1	0xbc000c99	-0.0078155035
2	0x3ba2bce0	0.0049663633
3	0x3c9ba133	0.018997764
4	0x3cb81392	0.02247027
5	0x3c64aa02	0.013956549
6	0xbb1cd33a	-0.0023929612
7	0xbb310073	-0.0027008324
8	0x3b468f52	0.0030297828
9	0x3cb696c1	0.022288682
10	0x3c218680	0.009858727
11	0xbc113aa7	-0.008864081
12	0xbc508361	-0.012726636
13	0x3b734b57	0.0037123763
14	0x3c70bf81	0.014694096
15	0x3b3c87d0	0.0028767474
16	0x3a8c8b59	0.0010722681
17	0x3c7972af	0.015225097
18	0xbc09aca4	-0.008402977
19	0x3c832ab3	0.016011572
20	0xbc93d69c	-0.01804667
21	0x3c74abb8	0.014933519
22	0x3c0e269b	0.008676196
23	0xbccf065d	-0.025271589
24	0xbce45ff3	-0.027877783
25	0x3cc859c7	0.024456872
26	0x3ca06bfb	0.01958274
27	0xbc807493	-0.015680587
28	0x3c906da0	0.017630398
29	0xbcd72814	-0.026264228
30	0xbc831600	-0.016001701
31	0x3b9a0ab8	0.004700985
32	0xbc82e2e7	-0.015977336
33	0x3c4e22f1	0.012581573
34	0xbcacb525	-0.02108247
35	0x3b7a9199	0.0038233756
36	0x3c82acca	0.015951533
37	0x3cce9ae7	0.025220348
38	0xbce313ca	-0.027719397
39	0xbcdcb63e	-0.026942369
40	0x3bd6f48d	0.0065599144
41	0xbc14b4e1	-0.009076328
42	0x3c9d8023	0.01922614
43	0x395141b6	0.00019956272
44	0x3ca07fb8	0.019592151
45	0xbc1ddd03	-0.009635213
46	0xbb280108	-0.002563538
47	0xbc0538d4	-0.008131225
48	0xbb56a475	-0.0032751833
49	0xbc688bba	-0.01419347
50	0xbc04fcd8	-0.008116923
51	0x3c037d38	0.00802546
52	0xbc495b88	-0.012289889
53	0x3a88d829	0.0010440397
54	0xbcaeb90d	-0.021328473
55	0xba14fbe0	-0.0005683284
56	0x3c8977cb	0.016780755
57	0x396d6e35	0.00022643137
58	0x3c202856	0.009775242
59	0xbce4c5ac	-0.027926289
60	0x3cb874f0	0.022516698
61	0x3bee5349	0.007273112
62	0x3c64ed67	0.013972617
63	0xbb554907	-0.0032544748
64	0xbcb2255d	-0.021746332
65	0x3a8410e5	0.0010075836
66	0x3aefc2a8	0.0018292265
67	0xbc80534d	-0.01566472
68	0xbc752df8	-0.014964573
69	0xbce2809d	-0.027649218
70	0xbc533e5e	-0.012893287
71	0xbcc5da1b	-0.024151852
72	0x3c738c52	0.014864998
73	0x3ba60375	0.00506633
74	0xbaba56a2	-0.0014216492
75	0x3cc39f87	0.02387978
76	0x3cb6d97d	0.022320503
77	0x3ac57e09	0.0015067469
78	0xbbce0602	-0.0062873373
79	0x3c6908b9	0.014223271
80	0xbcd161e5	-0.025559375
81	0x3c9e4a2d	0.01932248
82	0xbcaa5506	-0.020792495
83	0xbce1210f	-0.027481584
84	0x3cc8bc2b	0.024503788
85	0xbc455a2d	-0.012045425
86	0xbc92f24d	-0.017937804
87	0xbc9ea98b	-0.019367954
88	0x3c30a934	0.010782529
89	0x3c36cc3b	0.011157091
90	0xbca5b900	-0.020229816
91	0xbc382772	-0.011239873
92	0x3c80ea7e	0.015736815
93	0xbcac8813	-0.021060979
94	0x3ca23347	0.019799842
95	0xbcdd77de	-0.027034696
96	0x3c8bbbeb	0.01705738
97	0x3c8eb6f3	0.017421221
98	0xbc6af4d7	-0.014340601
99	0xbaf3ba60	-0.0018594973
100	0x3c22aa00	0.0099282265
101	0xbcd75d09	-0.02628948
102	0x3aac1cc1	0.0013131128
103	0xbc7ee759	-0.015558087
104	0x3c95d44b	0.018289706
105	0x3aa27007	0.0012393006
106	0x3cbee58d	0.023302818
107	0x3ca7e3d7	0.020494385
108	0xbbd10060	-0.0063782185
109	0x3c07405b	0.00825509
110	0xbcd06034	-0.025436498
111	0xbbb55701	-0.0055340533
112	0xbb4441f9	-0.002994655
113	0xbc60e1fe	-0.013725756
114	0xbc242d68	-0.010020591
115	0xbc68e770	-0.014215335
116	0xbc9dd069	-0.019264417
117	0xbb841e34	-0.004031921
118	0x3cc4d2b2	0.024026249
119	0x3cbebea6	0.023284268
120	0xbc0f02c9	-0.008728691
121	0x3b4bbc70	0.003108766
122	0x3c813d09	0.015776174
123	0x3c6e193a	0.014532382
124	0xbb8bc8af	-0.0042658667
125	0x3c746c7f	0.014918446
126	0x3cc5e17c	0.02415537
127	0x3b1907b3	0.0023350536
128	0x3c49bf27	0.012313641
129	0x3ca8fa5b	0.020627191
130	0xbb86780f	-0.0041036676
131	0xbc823368	-0.015893653
132	0x3c235c0f	0.009970679
133	0x3c88df7a	0.016708124
134	0xbca2d0ed	-0.019875014
135	0xbca2b2b1	-0.019860597
136	0x3c698eab	0.014255206
137	0xbccd4f8f	-0.02506235
138	0xbcda5603	-0.026652342
139	0x3c8d6ceb	0.01726385
140	0x3cd70d0b	0.026251337
141	0xbc65b187	-0.014019377
142	0xbc2a1954	-0.010382015
143	0xbccaf434	-0.024774648
144	0xbc87a228	-0.016556814
145	0x3bb014af	0.0053735594
146	0x3c1f4d65	0.009723042
147	0xbce2462a	-0.027621347
148	0x3b654499	0.0034983514
149	0xbc1a7dd1	-0.009429411
150	0xbc0cf672	-0.008603679
151	0x3c00d455	0.007863124
152	0xbcc764d0	-0.024340063
153	0x3c329eed	0.010902149
154	0x3cd52616	0.026019137
155	0xbc745bf3	-0.0149145005
156	0xbc18b1b9	-0.009319716
157	0xbc807b6e	-0.015683856
158	0xbb36bfd5	-0.0027885337
159	0xbbb04f2a	-0.005380531
160	0x3c1cdbf0	0.009573922
161	0xbca72851	-0.020404967
162	0x3c8262a4	0.015916176
163	0x3ca36fc9	0.019950764
164	0xbcd69dcc	-0.02619829
165	0x3c7fd54d	0.01561482
166	0x3b6554eb	0.0034993242
167	0x3c970351	0.018434199
168	0x3cac2472	0.021013472
169	0xbc74bcc8	-0.014937587
170	0xbc801e4b	-0.015639445
171	0x3cd3440a	0.02578928
172	0x3c0e9b56	0.008704027
173	0xbae3eddb	-0.0017389612
174	0x3ce27226	0.02764232
175	0x3c9f7392	0.019464288
176	0x3c1c8976	0.009554258
177	0x3b4d8cb3	0.003136438
178	0xbcbbd689	-0.022929447
179	0xbc21436b	-0.009842734
180	0x3c346f50	0.011012867
181	0xbba88f31	-0.005144023
182	0x3c5d813d	0.013519582
183	0xbaf63ffe	-0.0018787382
184	0x3cd9478b	0.026523372
185	0xbcb33064	-0.02187366
186	0xbc3604f4	-0.011109579
187	0xbcdc4d0f	-0.026892213
188	0x3b86120a	0.004091506
189	0x3b35efe2	0.002776139
190	0x3c531c49	0.012885162
191	0xbc5fdd35	-0.01366358
192	0xbbab2424	-0.005222814
193	0xbca39431	-0.019968124
194	0xbc3b7c31	-0.011443184
195	0xbaf85f93	-0.0018949382
196	0x3bc93f30	0.0061415657
197	0xbbcf458f	-0.0063254307
198	0x3bbb3deb	0.0057141683
199	0xbc5c720f	-0.013454928
200	0x3ab78322	0.0014000873
201	0xbccd59ec	-0.025067292
202	0xbc5a0c4f	-0.013308599
203	0xbc766f0a	-0.015041122
204	0x3c87ff37	0.016601188
205	0xbcd04e6a	-0.025428016
206	0xbc9d67c1	-0.019214513
207	0x3b87d325	0.0041450434
208	0x3cb45949	0.02201523
209	0xbcb9aeb0	-0.022666305
210	0xbce3824a	-0.027772088
211	0x3cbac305	0.02279807
212	0xbba560f0	-0.0050469562
213	0xbc2b7466	-0.010464763
214	0x3cac3e6d	0.02102586
215	0x3b9f7b13	0.0048669665
216	0xbcaae5f0	-0.020861596
217	0x3a7c3c5f	0.0009622033
218	0xbc231c75	-0.009955515
219	0xbcd41545	-0.025889048
220	0xbc91b5fd	-0.017786974
221	0x3cb66965	0.022267053
222	0x3c23a459	0.009987914
223	0x3c096e87	0.008388168
224	0x3aac28b3	0.0013134688
225	0xb96705de	-0.00022032062
226	0xbbdd11ac	-0.0067464914
227	0xbb7762b0	-0.0037748031
228	0xbca5cba5	-0.020238707
229	0x3ce28efe	0.027656075
230	0x391b1425	0.00014789456
231	0xbc8c322d	-0.01711377
232	0x3c65e0fe	0.014030693
233	0xbc60991f	-0.013708382
234	0x3c507ba8	0.012724794
235	0x3aab1892	0.0013053587
236	0x3aa632a9	0.0012679893
237	0x3bad59eb	0.00529026
238	0x3c34bb47	0.0110309785
239	0xbbfaec6c	-0.007657578
240	0x3cb18839	0.021671401
241	0xbc9046d3	-0.017611897
242	0xbc757988	-0.014982589
243	0x3cce240f	0.025163678
244	0x3ba508cb	0.0050364486
245	0xbc92e827	-0.017932964
246	0xbcca3072	-0.024681304
247	0x3c8e8026	0.01739509
248	0x3c97fc5b	0.01855295
249	0x3c6c4357	0.014420352
250	0xbc3c0a1a	-0.011477018
251	0xbc384f4e	-0.011249376
252	0x3cabdad3	0.020978367
253	0x3c876059	0.016525434
254	0xbb0f5062	-0.002186798
255	0x3c894367	0.016755773

fc.bias f4 [2]
0	0x3a51c787	0.0008002449
1	0x3caf91bd	0.021431798
