audio_classifier4.pth (torch, 72876 bytes, 5 tensors)

conv1.weight f4 [48, 24, 3]
0	0xbd0da975	-0.034585435
1	0xbd491b69	-0.049098406
2	0x3d84c104	0.06482127
3	0x3d07c627	0.033147957
4	0xbc0d156d	-0.008611065
5	0xbcada593	-0.021197116
6	0xbb99ffae	-0.004699669
7	0xbdb27a7b	-0.087147675
8	0x3be20e0a	0.0068986462
9	0xbbce6095	-0.0062981346
10	0xb7b2f0cb	-2.1331382e-05
11	0xba75745e	-0.00093633484
12	0xb984ab50	-0.0002530464
13	0xba2b1848	-0.00065267505
14	0xba073444	-0.00051576295
15	0x3ac76caa	0.001521488
16	0x3b13ec17	0.002257114
17	0xbb42ec2e	-0.0029742825
18	0x398f4aa4	0.00027330697
19	0xb90a7224	-0.00013203226
20	0x37ccee4d	2.4429663e-05
21	0xb9436d1b	-0.00018637294
22	0xbb59df28	-0.0033244584
23	0x3ba4ae1b	0.005025638
24	0x3b857b45	0.0040735328
25	0x3c418e5f	0.011813729
26	0x3d4bae77	0.04972693
27	0xb8f66ead	-0.00011750809
28	0xb8c94cde	-9.5987445e-05
29	0xbb725db8	-0.003698213
30	0xb94f43c0	-0.00019766297
31	0xba5e5830	-0.0008481769
32	0xb8b6b859	-8.712774e-05
33	0xbcc0c776	-0.02353261
34	0xbce71459	-0.028207945
35	0x3d83af08	0.06429869
36	0x3dca98ae	0.098924026
37	0xbd882c57	-0.06649082
38	0x3d81c0ae	0.06335579
39	0x3d38571d	0.045004953
40	0x3c98c4c1	0.018648507
41	0x3d3d30c9	0.046189103
42	0x3d88bbdf	0.066764586
43	0xbd64bc55	-0.05584367
44	0x3de44ea7	0.11147814
45	0x3d630cae	0.055432014
46	0x3df3f543	0.11912014
47	0xbc9348ef	-0.017979113
48	0xbd850e39	-0.064968534
49	0xbc8b354c	-0.016993187
50	0xbdb505fe	-0.088390335
51	0x3d5cee99	0.053938482
52	0x3dadec7f	0.08492374
53	0x3cc20085	0.023681888
54	0xbd2cd6a4	-0.042196885
55	0x3c06009e	0.008178858
56	0xbd997872	-0.07493676
57	0xbd849e32	-0.06475486
58	0x3dc5bb69	0.09654886
59	0xbdcdb86f	-0.100449435
60	0xba1a5117	-0.0005886717
61	0xbb686ab8	-0.0035464
62	0xbd6251d8	-0.055253834
63	0x3cf83ffa	0.030303944
64	0xbd668a72	-0.056284375
65	0x3ddc5f11	0.1076032
66	0x3d016b19	0.031596277
67	0xbdcd84bb	-0.10035082
68	0xbd9d994a	-0.07695253
69	0x3cc4e561	0.024035158
70	0xbd874b7a	-0.06606193
71	0xbdc341d9	-0.09534044
72	0xbc7e5b35	-0.015524675
73	0x3dd834ff	0.10556983
74	0xbd8c872d	-0.0686172
75	0x3b02f457	0.0019982064
76	0xbd51fdea	-0.051267542
77	0x3bba5ba2	0.005687193
78	0x3aa97192	0.0012927523
79	0x3e1f2594	0.15541679
80	0xbcea98b0	-0.02863726
81	0xbb711a7d	-0.003678947
82	0x37031600	7.813331e-06
83	0x3ac3665a	0.0014907822
84	0x3551306c	7.792903e-07
85	0x34e05157	4.1782434e-07
86	0xb4c3a9f9	-3.6445252e-07
87	0xba1e9218	-0.00060489913
88	0xb5af8d06	-1.3079559e-06
89	0x3b8cdd87	0.004298869
90	0xbba06dd3	-0.0048959046
91	0x37a7523a	1.9946241e-05
92	0x3aeeea32	0.0018227755
93	0x36864081	4.0010204e-06
94	0xb978d266	-0.00023729503
95	0xb92288c7	-0.00015500477
96	0xba819b23	-0.0009888153
97	0xba870784	-0.0010301922
98	0xbbb68ba8	-0.0055708475
99	0x34d02395	3.8768908e-07
100	0xb992fa6c	-0.0002803387
101	0xb8bee186	-9.101913e-05
102	0x35f0e9dc	1.7949455e-06
103	0xb9d72692	-0.00041036733
104	0x3a425bb5	0.0007414178
105	0xbd8c989f	-0.06865048
106	0xbd3d2ca1	-0.04618514
107	0x3b8a6b39	0.0042242077
108	0xbd055dcf	-0.032560166
109	0x3da54088	0.08068949
110	0x3a988497	0.0011636195
111	0x3a5cafcc	0.000841853
112	0x3e3a2771	0.18179108
113	0x3d8617d3	0.06547513
114	0x3d088d91	0.033338133
115	0x3e131fd1	0.14367606
116	0xbda84424	-0.08216122
117	0xbc3ee3bf	-0.011650979
118	0x3dcc70cb	0.09982451
119	0x3d17b32e	0.037036113
120	0x38eaa93e	0.00011189513
121	0x3dbe69a4	0.09297493
122	0x3d0d845e	0.034550063
123	0xbbc37ca8	-0.005965788
124	0x3de4e0e9	0.11175711
125	0x3b3479b3	0.0027538359
126	0xbb31dd7b	-0.002714007
127	0x3e11697d	0.14200397
128	0xbd830c50	-0.06398833
129	0x3bc74222	0.0060808817
130	0x3dd67427	0.10471373
131	0x3d3cbe7c	0.046080098
132	0x3b601c20	0.0034196451
133	0x3e287458	0.16450632
134	0x3d2130f1	0.039353315
135	0xbc11592d	-0.008871359
136	0x3d15abf3	0.036540937
137	0x3c6bc9cd	0.014391375
138	0xbba2e68c	-0.004971331
139	0xbdfc931a	-0.12332745
140	0xbacf791e	-0.0015828942
141	0xb8bd0722	-9.013551e-05
142	0x3cb3012a	0.021851141
143	0x3c4b2c35	0.0124006765
144	0xbdb6cdb0	-0.089259505
145	0x3d8231b7	0.063571386
146	0xbd4c0d65	-0.04981746
147	0x3d5bbf5e	0.0536493
148	0x3d3c887b	0.046028595
149	0xbc9eb073	-0.019371247
150	0x3d8dcf80	0.06924343
151	0x3d320836	0.04346486
152	0xba4711a8	-0.00075938785
153	0xbbafef97	-0.0053691375
154	0xbb301f69	-0.002687419
155	0xb6f1b249	-7.203115e-06
156	0xb338460f	-4.2904556e-08
157	0x374f8831	1.2369871e-05
158	0xb2fa60ac	-2.9147792e-08
159	0xb5b7259d	-1.3645509e-06
160	0x37805913	1.5300267e-05
161	0x39409037	0.00018364271
162	0xb599b100	-1.1450902e-06
163	0xbabcba26	-0.0014398738
164	0x3ad9f169	0.0016627732
165	0xb7522187	-1.2524782e-05
166	0xb9972b65	-0.00028833296
167	0x3961c69b	0.00021531658
168	0x3b517380	0.0031959713
169	0xbc3c393c	-0.011488255
170	0xbad18c14	-0.0015987181
171	0xba2cbdfd	-0.000658959
172	0x3b4ce8f9	0.0031266792
173	0xb7428b27	-1.15957e-05
174	0x3a6d358a	0.00090488105
175	0xbaeb8f67	-0.0017971814
176	0xb7629767	-1.3505901e-05
177	0xba2a36ab	-0.00064931315
178	0x3c01efe0	0.007930726
179	0xbd622a18	-0.055215925
180	0xbaf06240	-0.0018339828
181	0x3ceb37b3	0.028713083
182	0xbd545bb7	-0.05184528
183	0x3d951399	0.072791286
184	0x3d6d156d	0.05788176
185	0xbb4bef62	-0.0031118025
186	0xbd498b12	-0.049204893
187	0x3e2ffe03	0.17186742
188	0xbbb759bb	-0.0055954135
189	0x3d8f61fb	0.0700111
190	0x3e28fa6f	0.16501783
191	0xbc16880e	-0.009187711
192	0xbc065d60	-0.008200973
193	0xbb66af66	-0.003519976
194	0xbbd887b1	-0.0066079726
195	0xbd94e4e5	-0.07270221
196	0x3e320399	0.17384185
197	0xbbdedd23	-0.006801264
198	0x3d032e9a	0.032026865
199	0x3ce53b58	0.027982399
200	0xbb982569	-0.0046431315
201	0xbc8d69a1	-0.017262282
202	0x3d3a9411	0.045551363
203	0xbb139d07	-0.0022524016
204	0xbcfb88b3	-0.030704832
205	0x3e049562	0.1294761
206	0x3b975862	0.0046186903
207	0xbcdc29a1	-0.026875319
208	0x3d774385	0.060367126
209	0xbadbf894	-0.0016782456
210	0xbd098ef0	-0.03358358
211	0x3b98fff0	0.004669182
212	0xba8ebc0e	-0.0010889785
213	0xbd1f43f9	-0.038883183
214	0x3d55d225	0.052202363
215	0xba721e9b	-0.0009236128
216	0xbd93eb7f	-0.07222652
217	0xbb12f748	-0.0022425223
218	0x3d102e86	0.03520062
219	0x3c7f1ba7	0.015570558
220	0x3e200537	0.1562699
221	0x3e0fb11d	0.14032407
222	0xbddbe554	-0.107371
223	0xbc67ab69	-0.014139988
224	0xbda3d283	-0.07999136
225	0xbb9413a1	-0.0045189415
226	0x39dd30ef	0.00042188863
227	0xba4b8b86	-0.0007764626
228	0x35cda8c5	1.5322809e-06
229	0x363d5de2	2.8217842e-06
230	0x35eb4d5f	1.7531382e-06
231	0x39338d6c	0.00017123454
232	0x39d5bf99	0.00040769277
233	0x38d7f41c	0.00010297468
234	0x392022d3	0.00015271762
235	0x3ae33b87	0.0017336466
236	0x38f84ba2	0.00011839649
237	0xbbb51904	-0.0055266637
238	0x3b92719b	0.0044691092
239	0x3aae578a	0.0013301235
240	0xbc87f1e5	-0.016594836
241	0x3c03cb4a	0.008044073
242	0x3d90036d	0.070319034
243	0x3a0d6e6d	0.0005395178
244	0x3b5e0ffb	0.0033884037
245	0x3980afc3	0.00024545015
246	0x3a2dae52	0.0006625402
247	0x3b13dc04	0.002256156
248	0x3a831cf8	0.001000314
249	0xbcf80e75	-0.030280331
250	0x3dc2e8dd	0.095170714
251	0x3cf89261	0.030343236
252	0xbd55adea	-0.05216781
253	0xbdb9d4b6	-0.090737745
254	0xbd217be7	-0.039424803
255	0xbdcd93d1	-0.10037959

conv1.bias f4 [48]
0	0x3d8f6c40	0.07003069
1	0xb89ad9c2	-7.383853e-05
2	0x3c84bdf9	0.016203867
3	0x3ddb077c	0.10694787
4	0xb702de54	-7.800369e-06
5	0x3c100510	0.0087902695
6	0x3d12afb1	0.035812084
7	0x3d597d3f	0.05309796
8	0xbd0bf330	-0.03416747
9	0xbcc4a9fa	-0.024006832
10	0x3ba42b1d	0.0050100223
11	0xbd814fd8	-0.06314057
12	0x3b5868c2	0.0033021425
13	0xb9e7b1f4	-0.0004419234
14	0x3c499f3c	0.012306031
15	0xb862971a	-5.4023323e-05
16	0x3d927701	0.071516044
17	0xbd8a2a8d	-0.06746397
18	0xbd41ce2e	-0.04731577
19	0x3d62b29f	0.055346128
20	0x3d0fe461	0.03512991
21	0x3ceccf91	0.02890757
22	0xbcbd3b45	-0.023099551
23	0x3c419861	0.011816115
24	0x3d7a13f3	0.06105418
25	0xba3ed87f	-0.0007280185
26	0xbc185d18	-0.009299539
27	0x3c137986	0.009001141
28	0x3cabaf57	0.020957632
29	0xb915d3c0	-0.0001428863
30	0xbc15d953	-0.009146052
31	0x3bf8afc7	0.0075893137
32	0x3ac5bc26	0.001508598
33	0x3c0fc64c	0.008775305
34	0xba00f2b4	-0.0004918978
35	0x3d5b1ce7	0.05349436
36	0xbc0cbcf6	-0.008589974
37	0x3d9aad02	0.0755253
38	0xbcbb0b77	-0.022832615
39	0x3d336f09	0.043807063
40	0x3d8c9235	0.06863824
41	0xbc938324	-0.018006869
42	0xbd1578b4	-0.036492065
43	0xbcef7efb	-0.029235354
44	0x3a1f6c1b	0.00060814776
45	0x3cf4b5cd	0.029871846
46	0x3d91d99f	0.07121586
47	0xbc3f6f08	-0.011684187

conv2.weight f4 [96, 48, 3]
0	0x3cb0d4ce	0.021585848
1	0xbccabbd6	-0.02474777
2	0xbd35668d	-0.044287253
3	0x3a409130	0.00073458534
4	0x3ca704a7	0.02038796
5	0x3ad9b5f4	0.0016610012
6	0xbd4fac85	-0.050701637
7	0x3cc9199f	0.02454835
8	0xbb4863ae	-0.0030576992
9	0x3cc4891a	0.023991156
10	0x3c584d2f	0.013201996
11	0x3d21061b	0.039312463
12	0xbc09feeb	-0.008422594
13	0xbd570f19	-0.052504633
14	0xbb7a3bb0	-0.003818255
15	0x3a790a3b	0.00095001207
16	0xbd4b4597	-0.049626913
17	0xbcc49685	-0.023997555
18	0x3d0f23bb	0.034946185
19	0xbca63a82	-0.02029157
20	0xbcb88fd2	-0.022529516
21	0x3dc098cf	0.09404146
22	0x3d1f76e1	0.03893173
23	0xbd0451af	-0.032304462
24	0x3d67e005	0.056610126
25	0xbd1f25c5	-0.03885438
26	0x3d09254f	0.033482846
27	0xbcd639d9	-0.02615063
28	0x3d2160f7	0.039399114
29	0x3cb7a5fc	0.022418015
30	0xbd308621	-0.043096665
31	0x3d4161f3	0.047212552
32	0x3cdbb6f5	0.02682064
33	0xbd88f145	-0.066866435
34	0x3d74076c	0.05957739
35	0x3d01247e	0.031528942
36	0x3d8d47e0	0.06898475
37	0xbd8385ab	-0.064219795
38	0x3d9311eb	0.07181152
39	0xbd8d6b81	-0.0690527
40	0x3d298f9c	0.041396722
41	0x3d992e7b	0.074795686
42	0x3d1ed5f7	0.03877827
43	0x3d534a0c	0.05158429
44	0x3d1844a5	0.03717484
45	0xb717d4cd	-9.049848e-06
46	0x3c979a31	0.018506141
47	0x3b4decd5	0.003142168
48	0x3bb61936	0.0055572046
49	0x3d91b311	0.07114232
50	0x3b906b47	0.0044073197
51	0x3cb84dfa	0.02249812
52	0x3d278ba0	0.04090464
53	0x3cfee690	0.0311158
54	0xbcdd86db	-0.027041843
55	0x3d84f1d2	0.06491436
56	0x3d49e9ba	0.049295165
57	0xbcda5139	-0.026650058
58	0x3bb24b96	0.0054411395
59	0xbc9bb66b	-0.019007882
60	0x3c1969b8	0.009363584
61	0x3d924370	0.07141769
62	0x3d8bfa13	0.06834807
63	0x3c57d162	0.013172479
64	0xbd5104b1	-0.051029865
65	0x3d669224	0.056291714
66	0x3b696650	0.0035613962
67	0x3d6b2fc1	0.05741859
68	0xbd41c5a2	-0.047307618
69	0xbb0a4d07	-0.002110304
70	0x3d092847	0.033485677
71	0xb8e52f62	-0.00010928397
72	0x3d03cbf9	0.032176945
73	0x3d25fd86	0.040524982
74	0xbc560924	-0.013063703
75	0xbbab0ed9	-0.005220276
76	0x3cee62f0	0.029099911
77	0xbb36286a	-0.0027795085
78	0x3d556958	0.052102417
79	0xbd9b8cfb	-0.07595249
80	0xbc9b39ad	-0.0189484
81	0x3d9a5609	0.07535941
82	0xbda11099	-0.07864494
83	0xbb02c999	-0.0019956587
84	0x3d980634	0.07423058
85	0xbd550c6d	-0.052013803
86	0x3d8e6cad	0.06954322
87	0x3b4a48d6	0.0030866168
88	0xbd851206	-0.06497578
89	0x3c81baa8	0.015836075
90	0x3d096d63	0.033551585
91	0xbcb2e40b	-0.021837255
92	0x3c91f16d	0.017815316
93	0xbc35b6ef	-0.011090978
94	0xbca5e8b1	-0.020252557
95	0x3ad0f106	0.0015940971
96	0xbb22e002	-0.0024852757
97	0x3d001a45	0.031275053
98	0x3b55859f	0.0032580865
99	0xb685446b	-3.971674e-06
100	0xbd4fd20b	-0.050737422
101	0xbc17e595	-0.009271045
102	0xba8b1e3d	-0.001061387
103	0xbd124e21	-0.03571904
104	0xbd54028d	-0.051760245
105	0xba990979	-0.0011675797
106	0x3d770d70	0.06031555
107	0x3cb0b38b	0.021569988
108	0xbc3c8083	-0.011505249
109	0x3cae02e7	0.021241618
110	0xbc620849	-0.013795921
111	0x3ca5dd42	0.020247106
112	0xbbf454c2	-0.007456393
113	0xbd82dbf0	-0.06389606
114	0x3d06046a	0.032719053
115	0x3d8b64dc	0.06806347
116	0xbd566ded	-0.052350927
117	0x34f50d64	4.564455e-07
118	0x3ce205db	0.027590683
119	0xb9bcc0fe	-0.00036001945
120	0xbd6b5da8	-0.057462364
121	0x3c905829	0.017620163
122	0xbbbf0e4d	-0.005830562
123	0xbcfbda25	-0.030743668
124	0xbd9806a3	-0.07423141
125	0xbd350b48	-0.04420021
126	0xbce6e8b0	-0.028187126
127	0xbd1d23fd	-0.0383644
128	0x3d2319c4	0.039819494
129	0xbd59c9f7	-0.053171124
130	0x3da451a6	0.08023386
131	0x3cede429	0.02903946
132	0xbd365b12	-0.044520445
133	0x3c8928ef	0.016743151
134	0x3d202f2b	0.039107483
135	0xbd5b4b0e	-0.053538375
136	0xbcb2a458	-0.02180688
137	0x3c97e0d1	0.018539818
138	0x3d6699a4	0.056298867
139	0xbcfaf8e8	-0.030636266
140	0xbd84be2f	-0.06481587
141	0xbd941f33	-0.07232513
142	0xbc7377dc	-0.01486012
143	0xbd013736	-0.031546794
144	0x3bce6488	0.0062986054
145	0xbc896c60	-0.01677531
146	0xbc091aae	-0.008368177
147	0xb981304f	-0.0002464079
148	0x3d176cff	0.03696918
149	0xb78e3449	-1.6952066e-05
150	0x3b3448b2	0.002750915
151	0x3db0ed79	0.08639044
152	0x3a9307c1	0.0011217521
153	0x3bc2f62a	0.005949755
154	0xbd2d4853	-0.042305302
155	0x3d2e9ffc	0.04263304
156	0x3cd02e21	0.025412621
157	0x3c056740	0.0081422925
158	0x3d6e2bb8	0.058147162
159	0x3c1ac6ab	0.00944678
160	0xbcaae732	-0.020862196
161	0x3d157f3e	0.0364983
162	0x3c7584e8	0.014985301
163	0x3ca65a67	0.02030678
164	0xbd0bf844	-0.03417231
165	0xbd20309b	-0.039108854
166	0xbd9af603	-0.07566454
167	0xbbed0d98	-0.0072342865
168	0x3be2c0d7	0.006919961
169	0x3d91d9b9	0.071216054
170	0xbcb19c7d	-0.021681065
171	0x3b9af33c	0.004728703
172	0x3b8cda97	0.004298519
173	0x3d8e658d	0.06952963
174	0x397570f0	0.00023407093
175	0x3d8b62c9	0.06805951
176	0x3c1621e5	0.0091633545
177	0x3d0d7f93	0.034545492
178	0xbc4947fa	-0.012285227
179	0xbc7ba9bd	-0.015360293
180	0xbce1e042	-0.027572755
181	0xbc85dacf	-0.016339688
182	0xbd1b6872	-0.037941404
183	0xbc3fa7c3	-0.011697712
184	0xbc6a54cf	-0.0143024465
185	0xbd68ed8d	-0.05686717
186	0x3c9e95f1	0.019358607
187	0xbd446a9a	-0.047953226
188	0xbd03414c	-0.032044694
189	0x35783a63	9.2472163e-07
190	0xbd2c3cb7	-0.04205009
191	0x357ebd85	9.489816e-07
192	0x3c917ea7	0.017760588
193	0x3d5490ca	0.051895894
194	0x3c849c0b	0.016187688
195	0x3bf6661e	0.0075194975
196	0x3c973103	0.018455988
197	0x3d96db50	0.07366049
198	0xbc82e5ef	-0.015978782
199	0x3d2fa15a	0.042878486
200	0x3d93128b	0.07181271
201	0x3b3af07b	0.0028524685
202	0x3da891cd	0.08230934
203	0x3c160604	0.009156708
204	0xbd3370d1	-0.043808762
205	0xbd909c4a	-0.0706106
206	0x3b7bab92	0.0038401824
207	0x3cd61ff2	0.02613828
208	0x3c1b89b6	0.009493282
209	0xbb6d4f9d	-0.0036210783
210	0xbd190de1	-0.03736675
211	0xbd70c80f	-0.05878454
212	0x3c6d653b	0.014489467
213	0x39ed11f4	0.0004521754
214	0xbcd2fdde	-0.025755819
215	0xb91448dc	-0.00014141522
216	0xbaae4a76	-0.0013297338
217	0xbd1d6ce4	-0.038433924
218	0x3bd5657e	0.006512343
219	0xb84fc64f	-4.9537335e-05
220	0x3d64e655	0.055883724
221	0x3bf9274e	0.0076035624
222	0xbcb68b49	-0.022283213
223	0x3d37f3f0	0.04491037
224	0x3d627ae0	0.055292964
225	0x3b86b39f	0.004110768
226	0xbcb510f1	-0.022102805
227	0x3d1842eb	0.037173193
228	0x3b6b7e66	0.0035933494
229	0x3d3d28f3	0.04618163
230	0xbc3c0e7a	-0.011478061
231	0x3b998ede	0.0046862205
232	0x3db69907	0.089159064
233	0x3c193237	0.009350351
234	0x3b811500	0.003939271
235	0x3d7446c5	0.059637804
236	0x3b5374b7	0.0032265612
237	0xba7095c8	-0.00091775926
238	0x3ae23c4e	0.0017260404
239	0x3aad3623	0.0013214987
240	0x3b3a9b8b	0.0028474058
241	0x3d6533b8	0.055957526
242	0x37ad983c	2.0694097e-05
243	0x35973198	1.126481e-06
244	0x3d74326c	0.0596184
245	0x390a630a	0.000131976
246	0xb8ed28fc	-0.000113086746
247	0x3db5e241	0.08881045
248	0xb8e7051a	-0.000110158886
249	0xb96af2c3	-0.00022406415
250	0xbc05dade	-0.008169858
251	0xb8cce5b9	-9.770267e-05
252	0xbc112236	-0.008858254
253	0x3d402196	0.04690703
254	0xbcdc8480	-0.02691865
255	0x39257ad0	0.00015781377

conv2.bias f4 [96]
0	0xbd314be1	-0.043285254
1	0xba17b856	-0.0005787661
2	0x3bb0ddea	0.005397548
3	0xbd212b4c	-0.03934793
4	0xba4b2c8d	-0.0007750474
5	0x3b75ada2	0.0037487526
6	0x3d8d2e28	0.06893569
7	0x3d6a5492	0.05720956
8	0xbad215b3	-0.0016028195
9	0xbc8c30e1	-0.017113151
10	0x3cb41b22	0.021985594
11	0x3d57fe17	0.052732553
12	0xbd2fae12	-0.042890616
13	0xbc4adf36	-0.012382319
14	0x3c42df20	0.011894017
15	0xbb90e3db	-0.0044216937
16	0xbc8a72c5	-0.01690043
17	0x3d580c2b	0.05274598
18	0x3c357501	0.011075259
19	0x35833c23	9.777763e-07
20	0x3c907c70	0.017637461
21	0x3b9ca087	0.0047798785
22	0xbcbef5cc	-0.023310564
23	0x3d1f22f6	0.0388517
24	0x3d30b8eb	0.0431451
25	0xbcb04cc0	-0.021520972
26	0xbca969aa	-0.020680267
27	0x3d048a51	0.03235847
28	0xbc43bf96	-0.011947533
29	0x3d34b905	0.04412176
30	0x3c764a97	0.015032432
31	0x3c92f35a	0.017938305
32	0x3c331b6c	0.010931831
33	0x3d676583	0.056493293
34	0x3d521de8	0.051298052
35	0x3d2dbf5f	0.042418834
36	0x3cc2c2a7	0.023774458
37	0xba837d56	-0.001003186
38	0xbcdb47cf	-0.02676764
39	0x3bf9907a	0.0076161
40	0xbb3f53c5	-0.0029194218
41	0xbc660f50	-0.014041737
42	0x3c710ea8	0.014712967
43	0xbcbba34f	-0.02290502
44	0x3d1ba09f	0.037994977
45	0xbcc27588	-0.023737684
46	0x3ca6b684	0.020350702
47	0xbb9c5b6a	-0.0047716396
48	0x3c467bdd	0.012114492
49	0xbd660126	-0.05615344
50	0xbcffb7f9	-0.031215655
51	0x3ca63581	0.020289185
52	0x3d295936	0.041344844
53	0xbcd92b47	-0.026509894
54	0x3d8bc850	0.06825316
55	0x3cf771b5	0.030205587
56	0x3d04181c	0.032249555
57	0x3d37409e	0.044739358
58	0x3cd91934	0.026501276
59	0x3ca42872	0.020038817
60	0x3aaa9348	0.0013013864
61	0xba97054f	-0.0011521968
62	0x3c93e525	0.0180536
63	0xbc033992	-0.008009331
64	0xbd00ba14	-0.031427458
65	0x3bfca24d	0.0077097774
66	0xbd769b02	-0.06020642
67	0xbae0d4ec	-0.0017153299
68	0xbca6692b	-0.02031382
69	0xbbbb4f33	-0.0057162284
70	0x3c090629	0.008363285
71	0xbc1b262b	-0.009469549
72	0x3d25f8e9	0.040520582
73	0x3cfe3084	0.031028993
74	0x3d79c117	0.06097516
75	0xbc75dc76	-0.015006175
76	0x3ccd2bf3	0.02504537
77	0x3d0fd860	0.03511846
78	0x3c542782	0.0129488725
79	0x3c20c053	0.009811479
80	0x3c28e167	0.010307646
81	0xb86da2e2	-5.66569e-05
82	0xbbad4c1a	-0.005288613
83	0x3d7a17cc	0.06105785
84	0x3c6cf41d	0.014462498
85	0xa3671d2b	-1.2528712e-17
86	0x3d65e759	0.056128833
87	0xbcc4e190	-0.024033338
88	0x3c1de4ee	0.009637101
89	0x3d6cfc1a	0.05785761
90	0x3cfef187	0.031121029
91	0x3a801007	0.0009770402
92	0xbcb672cc	-0.022271536
93	0xbd78a5d9	-0.06070504
94	0xbcedee72	-0.029044364
95	0x39b0992b	0.00033683455

fc.weight f4 [1, 96]
0	0xbcca786e	-0.024715628
1	0x3dbce61e	0.09223579
2	0x3c3998df	0.011327951
3	0xbdf8387c	-0.121201485
4	0x3ab25f35	0.0013608696
5	0x3d88b0d9	0.06674356
6	0xbd5d215f	-0.053986903
7	0xbd2f78ce	-0.042839818
8	0x3cd78c86	0.026312124
9	0x3e1e966a	0.15487066
10	0xbd663dd4	-0.056211308
11	0x3e34c861	0.17654563
12	0x3da8c246	0.0824018
13	0x3ce4b4db	0.02791827
14	0x3d5891fc	0.052873597
15	0xbd83278b	-0.064040266
16	0xbdba9e60	-0.09112239
17	0x3e23af24	0.1598478
18	0x3bbd224e	0.0057719117
19	0xb7d12dcd	-2.493607e-05
20	0xbdd628b0	-0.10456979
21	0xbd9825fd	-0.07429121
22	0xbd9068c5	-0.07051233
23	0xbe289a46	-0.164651
24	0x3d871b69	0.06597025
25	0xbcfa9eb4	-0.030593254
26	0xbd04b394	-0.03239782
27	0x3d297036	0.04136678
28	0xbc17cd8f	-0.009265318
29	0x3daa9550	0.0832926
30	0x3dc1ed19	0.09469051
31	0x3d81bcaa	0.06334813
32	0xbd691687	-0.05690625
33	0xbdbcee29	-0.09225113
34	0x3dc35b48	0.09538895
35	0x3dbbab8c	0.09163579
36	0xbc91f67f	-0.017817734
37	0x3d1ad335	0.03779908
38	0xbd5cff42	-0.05395437
39	0xbc5da137	-0.013527206
40	0xbdc2c0f8	-0.09509462
41	0x3da93b11	0.08263219
42	0xbdad90cd	-0.08474884
43	0x3decab75	0.1155614
44	0xbd6d7b17	-0.057978716
45	0xbdaab67a	-0.08335586
46	0xbdc64b24	-0.09682301
47	0x3e2a24dc	0.16615623
48	0xbe05c8ed	-0.13064928
49	0x3d139cda	0.036038257
50	0x3d81b12a	0.063326195
51	0xbc3c665e	-0.011499016
52	0xbe06facb	-0.13181607
53	0x3d170557	0.036870327
54	0xbe1fd558	-0.15608728
55	0xbcce074a	-0.02514996
56	0xbd13c6a5	-0.036078114
57	0xbdd25458	-0.102699935
58	0x3cd5f9f2	0.02612016
59	0xbdcbcde8	-0.09951383
60	0x3df499d4	0.11943403
61	0x3b5778a8	0.0032878313
62	0xbd105bd4	-0.035243824
63	0xbcfc30b9	-0.030784952
64	0x3d40ad1e	0.047040097
65	0x3d9c31f9	0.07626719
66	0x3d9ccd53	0.0765635
67	0x3d3f5a01	0.046716694
68	0xbde98743	-0.11402752
69	0x3c864b35	0.016393283
70	0xbd16c7f3	-0.03681178
71	0xbd2a3ad5	-0.041560013
72	0x3dc4e3b3	0.09613743
73	0x3d584680	0.05280161
74	0xbd1785f3	-0.03699298
75	0xbdb5940d	-0.08866129
76	0x3bf12c7f	0.0073600407
77	0xbcad452b	-0.021151146
78	0x3cc538a0	0.024074852
79	0xbd82f1d1	-0.06393779
80	0xbe038759	-0.128446
81	0xbc6c2bae	-0.014414711
82	0x3da13cfe	0.078729615
83	0xbe197fc5	-0.14990146
84	0x3cf78356	0.030213993
85	0x391a27e4	0.00014701445
86	0xbd30b829	-0.04314438
87	0x3cac3548	0.0210215
88	0xbd985fab	-0.07440122
89	0xbe3456d4	-0.17611247
90	0xbd9b6cef	-0.07589137
91	0xbbef79c1	-0.0073082154
92	0x3ca7ffd1	0.020507725
93	0x3d7c6601	0.061620716
94	0x3cdea666	0.027178954
95	0xbba3d8d2	-0.005000212
