audio_classifier4.pth (torch, 73260 bytes, 6 tensors)

conv1.weight f4 [48, 24, 3]
-0.0798993 -0.063529015 -0.057159964 0.09427154 0.056546725 0.09032077 0.038610596 -0.08451178
0.06712825 0.09911115 0.013125029 0.00093128544 -0.061755717 0.012675465 -0.091188766 0.023294693
-0.11612836 0.08476962 0.033692602 -0.058658727 -0.05423428 -0.010499649 0.08814737 0.06033178
-0.07023669 -0.12058885 -0.014229389 -0.0015744373 -0.11108494 0.10397185 -0.062833935 0.08172199
0.036008343 -0.11061413 0.08743822 -0.004133852 -0.0064483206 0.0442555 -0.0024061005 0.03313797
-0.035938893 -0.07561287 0.014402674 -0.032648765 0.039285377 -0.010279189 0.032078665 0.0033214027
0.047694225 -0.068917155 0.039753925 0.040524498 -0.096948355 0.103084065 0.044503465 -0.033631716
-0.07127758 0.029189842 -0.03984108 -0.084514625 -0.0659144 0.051728297 -0.106048085 -0.032278452
-0.0069095264 -0.09554786 -0.061605006 -0.068205565 -0.0951343 0.09279495 -0.083504945 0.057838872
0.005218533 -0.015844688 0.03870063 -0.088139266 0.01580925 -0.098939106 -0.051582776 -0.10894067
-0.086100884 0.003780101 -0.022544619 0.0765207 0.020865412 -0.100971006 0.04523763 -0.030916825
-0.05347506 0.06571963 -0.071614996 0.098592736 -0.04868919 0.03877069 -0.029295638 0.05199321
-0.11436279 -0.085187644 -0.06366717 -0.015717335 0.020768857 -0.09419664 -0.10921652 -0.07835393
0.026030833 -0.10191735 0.07002228 0.1145931 -0.10165806 -0.08510773 0.00211919 0.06484251
0.06474057 -0.052999284 0.034939297 0.025756957 -0.011612818 0.008977169 -0.113325946 -0.082926914
0.043450773 -0.067913115 -0.104246944 0.065625675 0.101338245 -0.104232065 -0.09129118 -0.10478553
0.04950176 0.07868577 0.07687811 0.028291624 -0.10548529 0.039773297 -0.10927536 0.086022094
-0.047412038 0.050066326 -0.09309047 -0.033057872 0.09626032 0.030712124 -0.04359653 0.012649133
-0.05155802 -0.058746733 -0.016218623 0.04659357 0.08454006 -0.047570985 0.032194223 -0.04610156
-0.023260664 0.096031204 -0.09026365 0.037078783 0.10388827 0.000459813 -0.07060493 0.07674437
-0.004765217 0.08435321 -0.053354483 -0.0364158 0.016035317 0.052133046 0.041937947 -0.019556632
0.010406272 -0.11451604 0.019084644 -0.06162138 -0.02114739 -0.10322677 -0.10596979 -0.06162008
-0.0050835107 0.018964803 -0.050215248 -0.048976876 -0.09003569 0.025992205 -0.00614983 0.100323126
0.08498543 0.069161974 0.055068634 0.016985115 -0.02380801 0.06433631 0.07015026 0.07867226
-0.0955965 -0.019368356 0.07526574 0.088439 -0.047719836 -0.10432554 0.050162986 0.10911839
0.07955788 0.053213343 0.028049875 -0.10810445 -0.028909774 -0.10068976 0.11481548 0.005111734
-0.0678881 -0.08896548 -0.101554304 -0.10357981 0.08134465 0.081487976 -0.108244255 -0.07072923
0.10448507 0.011186289 0.07409987 0.10138248 0.06755968 0.0244103 -0.10593542 0.10252347
0.08520744 -0.07591089 -0.021557292 0.041489054 0.10657129 0.064210586 -0.06446518 0.042172678
-0.00157429 0.017121967 -0.0062941257 -0.03956832 0.050320424 0.11606556 0.06539954 -0.04250897
-0.01755907 -0.11354678 0.10524382 0.036906365 0.041168246 -0.05818815 0.11399895 0.071395464
-0.108324535 -0.11347063 -0.09360956 -0.06222299 0.0052870433 -0.012477086 -0.0060986592 0.09194046
00000000: 3fa2 a3bd 801b 82bd 9120 6abd 7011 c13d
00000010: 8a9d 673d 19fa b83d 2526 1e3d 8314 adbd
00000020: 897a 893d c9fa ca3d 5d0a 573c 8221 743a
00000030: 90f3 7cbd c1ac 4f3c 2dc1 babd 83d4 be3c
00000040: b5d4 edbd b29b ad3d 4101 0a3d 2244 70bd
00000050: c424 5ebd b806 2cbc 9c86 b43d 751e 773d
00000060: 41d8 8fbd 49f7 f6bd 6222 69bc 595d ceba
00000070: 8080 e3bd 31ef d43d 14af 80bd dc5d a73d
00000080: 7c7d 133d a989 e2bd cf12 b33d 4475 87bb
00000090: 6f4c d3bb 4145 353d abaf 1dbb aebb 073d
000000a0: a934 13bd ecda 9abd 31f9 6b3c b6ba 05bd
000000b0: b4e9 203d 0b6a 28bc eb64 033d e4ab 593b
000000c0: 055b 433d 7024 8dbd 03d5 223d 04fd 253d
000000d0: dc8c c6bd bd1d d33d 4449 363d 69c1 09bd
000000e0: fbf9 91bd 891f ef3c 6630 23bd 0116 adbd
000000f0: 21fe 86bd 0de1 533d bd2f d9bd 6936 04bd
00000100: 4f69 e2bb 99ae c3bd 8855 7cbd 5caf 8bbd
00000110: c6d5 c2bd 470b be3d a404 abbd 74e8 6c3d
00000120: 3a00 ab3b b8cc 81bc 8d84 1e3d 5c82 b4bd
00000130: 6682 813c 96a0 cabd 7648 53bd 491c dfbd
00000140: a955 b0bd 92bb 773b 7eaf b8bc e2b6 9c3d
00000150: f1ed aa3c e3c9 cebd 184b 393d 4845 fdbc
00000160: aa08 5bbd 0398 863d e2aa 92bd fdea c93d
00000170: 516e 47bd 04ce 1e3d 68fd efbc d5f6 543d
00000180: 0a37 eabd dc76 aebd ef63 82bd a4c1 80bc
00000190: 7323 aa3c 2bea c0bd e9ac dfbd 0678 a0bd
000001a0: 9d3e d53c 0bba d0bd d767 8f3d caaf ea3d
000001b0: 1a32 d0bd f64c aebd 1ce2 0a3b 26cc 843d
000001c0: b496 843d c715 59bd 821c 0f3d 4100 d33c
000001d0: b043 3ebc fa14 133c 6f17 e8bd 96d5 a9bd
000001e0: 70f9 313d 0816 8bbd 6c7f d5bd c166 863d
000001f0: 6d8a cf3d 9f77 d5bd dff6 babd cc99 d6bd
00000200: 5cc2 4a3d 0126 a13d 4572 9d3d d6c3 e73c
00000210: ac08 d8bd 53e9 223d c3cb dfbd 5a2c b03d
00000220: 2033 42bd 5912 4d3d 37a6 bebd b167 07bd
00000230: 2124 c53d fe97 fb3c 4692 32bd 4f3e 4f3c
00000240: 812e 53bd 6aa0 70bd ebdc 84bc e6d8 3e3d
00000250: 5723 ad3d cbd9 42bd 17de 033d fdd4 3cbd
00000260: 268d bebc 02ac c43d 26dc b8bd ecdf 173d
00000270: 60c3 d43d 0e13 f139 5199 90bd 272c 9d3d
00000280: 8a25 9cbb 60c1 ac3d 3b8a 5abd bc28 15bd
00000290: 7f5c 833c 7689 553d 20c7 2b3d 3b35 a0bc
000002a0: 117f 2a3c 6387 eabd 6657 9c3c b366 7cbd
000002b0: 4b3d adbc 8f68 d3bd b006 d9bd 5665 7cbd
000002c0: 9493 a6bb 135c 9b3c 81ae 4dbd fa9b 48bd
000002d0: a264 b8bd 9bed d43c 8384 c9bb 3676 cd3d
000002e0: d70c ae3d cba4 8d3d a68f 613d 5e24 8b3c
000002f0: 0409 c3bc c1c2 833d f1aa 8f3d ec1e a13d
00000300: 19c8 c3bd 63aa 9ebc ed24 9a3d 821f b53d
00000310: e075 43bd a1a8 d5bd b477 4d3d 7679 df3d
00000320: 3eef a23d 3cf6 593d dac8 e53c de65 ddbd
00000330: 31d4 ecbc 6f36 cebd 6124 eb3d 5580 a73b
00000340: eb08 8bbd 8933 b6bd b4fb cfbd a721 d4bd
00000350: 0698 a63d 2be3 a63d 2aaf ddbd 7dda 90bd
00000360: 45fc d53d b246 373c acc1 973d 9ea1 cf3d
00000370: bb5c 8a3d 1cf8 c73c abf4 d8bd d3f7 d13d
00000380: 3d81 ae3d 2b77 9bbd eb98 b0bc 6df0 293d
00000390: 0c42 da3d d780 833d 5206 84bd 42bd 2c3d
000003a0: 6858 ceba 5e43 8c3c f43e cebb 6412 22bd
000003b0: ca1c 4e3d c8b3 ed3d 32f0 853d e31d 2ebd
000003c0: 0ad8 8fbc 378b e8bd 128a d73d 212b 173d
000003d0: 09a0 283d b356 6ebd 4878 e93d c937 923d
000003e0: 41d9 ddbd 4a63 e8bd 5eb6 bfbd 89dd 7ebd
000003f0: ef3e ad3b b16c 4cbc 43d7 c7bb 484b bc3d

conv1.bias f4 [48]
-0.09187478 -0.034493987 0.033581648 -0.08111645 -0.064485624 -0.024360703 0.039668873 -0.07674556
0.03236218 0.081691675 -0.019899124 -0.009502068 0.037964422 0.115765244 -0.037151687 -0.0021268497
0.07080565 -0.04956236 -0.00037388245 0.037622638 0.09812178 0.10678655 0.11425736 0.048842262
0.027813394 -0.008565337 0.07449826 -0.070979744 -0.019600004 -0.044578478 0.012227156 0.10753499
-0.0653225 0.07890078 0.075493515 -0.104818 -0.04055014 -0.00035908056 0.107618764 0.04173209
-0.075364515 0.027680414 0.08322617 -0.005671831 0.007366369 0.0935286 -0.0029754667 0.036700252
00000000: d828 bcbd 9149 0dbd e98c 093d 6220 a6bd
00000010: 0a11 84bd 1990 c7bc d47b 223d c72c 9dbd
00000020: 358e 043d f74d a73d 7d03 a3bc 90ae 1bbc
00000030: 9580 1b3d 5416 ed3d 5e2c 18bd 9e62 0bbb
00000040: 8d02 913d e701 4bbd a705 c4b9 321a 1a3d
00000050: 12f4 c83d e8b2 da3d c3ff e93d d30e 483d
00000060: ead8 e33c a155 0cbc 8b92 983d d45d 91bd
00000070: 3090 a0bc ec97 36bd 6954 483c 4e3b dc3d
00000080: cec7 85bd bb96 a13d 589c 9a3d d2aa d6bd
00000090: e717 26bd fa42 bcb9 3a67 dc3d 45ef 2a3d
000000a0: b658 9abd 09c2 e23c 7b72 aa3d c4da b9bb
000000b0: 9561 f13b ec8b bf3d 0c00 43bb 0153 163d

conv2.weight f4 [96, 48, 3]
-0.06470472 0.041786343 -0.031404115 -0.058886603 0.044521254 0.062426653 0.0077130864 -0.030420085
-0.025146464 0.03311445 0.032432575 -0.0026023365 -0.03190254 0.05791321 0.05953317 0.05155953
0.022223273 0.07729894 0.013160753 0.06542875 -0.075591564 0.061873317 -0.030311795 -0.017323889
-0.06381309 0.054961547 -0.027028386 -0.013709961 0.030401925 0.03828307 0.008316126 -0.026792541
0.012103753 0.06780406 0.05574672 -0.049108665 0.014066066 -0.050842036 -0.04800246 -0.07598116
-0.07886386 0.08202951 0.07684105 -0.024374196 0.06181799 0.01605944 0.036607686 0.0642306
0.06816254 0.08179774 0.07002646 0.037376836 0.07791175 -0.046883393 -0.060523212 0.0047307885
0.08022681 0.052062713 0.0797788 -0.0603101 0.07098059 0.010393757 0.003598484 -0.00038281007
-0.05739667 -0.06182772 0.07640993 0.06748599 -0.010359843 0.08062781 -0.04861042 0.033653215
0.06639218 -0.0463847 0.034925636 -0.033880193 0.061200343 -0.0010967818 -0.025011064 -0.045983665
0.011665812 0.012159808 -0.023012036 -0.0720979 0.020090174 0.042527772 0.027171735 0.021934748
0.0773176 -0.05535282 -0.0129978275 0.009356384 -0.015217618 -0.0013865865 0.062005274 -0.022409143
-0.00918709 -0.06012034 -0.026814234 -0.07699669 0.042524934 -0.022987142 0.0030971295 -0.06361481
-0.075037636 0.0345463 -0.070420474 0.05747001 -0.0130755305 0.058462553 -0.03423982 -0.034033116
-0.008658692 0.045377046 0.058267098 0.06827265 0.06050411 -0.048622433 0.07297144 0.074218914
-0.00010569054 0.023815615 -0.06606521 -0.074511044 -0.048797853 -0.012204978 0.068899564 0.0059040086
-0.06026035 -0.07114485 0.04578026 -0.07351194 0.012396145 -0.06551352 -0.023920853 0.04596722
0.029617725 -0.03301862 -0.05348413 -0.07828001 -0.060751833 0.002182415 0.0633587 0.008004599
-0.012479199 -0.079165794 0.046429124 -0.059655532 -0.0040282495 -0.012753372 -0.068689905 0.07584883
-0.042884126 0.024242949 -0.06172893 -0.06941421 0.03996583 0.08514501 -0.005053437 -0.07591403
0.084898345 0.062775716 0.06777564 0.07146308 0.008046201 0.0761403 -0.0477612 -0.07711437
0.036376785 -0.066807106 0.016654575 -0.017041497 0.07674712 0.07384361 -0.023816189 0.027125651
0.06380628 0.056981258 -0.016344137 -0.061312236 0.014008175 0.012097833 -0.082268775 0.059703067
-0.04316648 0.086300865 -0.051895846 -0.0492651 -0.077920645 0.06045372 -0.0037538027 0.069068186
0.05616253 0.016072264 0.000113729846 0.0015829483 -0.050075058 -0.025604391 0.016299618 -0.06562358
0.027180009 0.041659754 0.063958965 0.004310953 0.07471512 -0.07916308 -0.07996535 -0.012665435
-0.04128678 -0.011770319 0.0152123915 0.034839813 -0.028991096 0.071130775 0.06513759 -0.0539843
0.0075346306 0.020585045 -0.051977925 -0.024011998 -0.041680213 0.022113675 0.033607963 0.063402824
0.061719753 -0.039590474 -0.06883485 -0.024721723 0.019375723 -0.012419552 -0.049948134 0.03033834
0.017672567 -0.07746102 0.035894964 -0.047280088 0.044875454 -0.030574927 0.010621049 0.032488734
-0.011694497 -0.07054376 -0.045710813 -0.016654978 -0.064189956 -0.02408283 -0.025921246 -0.07583969
0.05944546 -0.072620586 -0.026341038 0.035449408 -0.005245127 0.088248424 0.012681877 -0.0631502
00000000: e983 84bd 2828 2b3d 9aa1 00bd 1433 71bd
00000010: eb5b 363d 17b3 7f3d 0fbe fc3b 8b33 f9bc
00000020: f5ff cdbc 04a3 073d 05d8 043d f68b 2abb
00000030: 3dac 02bd 6736 6d3d 0ed9 733d 1630 533d
00000040: 950d b63c e84e 9e3d 33a0 573c 82ff 853d
00000050: c0cf 9abd e06e 7d3d 7150 f8bc d4ea 8dbc
00000060: 70b0 82bd 5c1f 613d a26a ddbc bf9f 60bc
00000070: 750d f93c b5ce 1c3d 5c40 083c 087c dbbc
00000080: d24e 463c dbdc 8a3d ac56 643d 2b26 49bd
00000090: 5b75 663c bd3f 50bd 3a9e 44bd 039c 9bbd
000000a0: 6083 a1bd 16ff a73d d75e 9d3d 65ac c7bc
000000b0: dc34 7d3d 168f 833c f1f1 153d 558b 833d
000000c0: cd98 8b3d 9385 a73d 086a 8f3d 7418 193d
000000d0: 3290 9f3d cd08 40bd 30e7 77bd bb04 9b3b
000000e0: f44d a43d b63f 553d 1163 a33d b907 77bd
000000f0: 465e 913d 944a 2a3c 8bd4 6b3b e6b3 c8b9
00000100: c518 6bbd 103f 7dbd cf7c 9c3d 1836 8a3d
00000110: 55bc 29bc 3120 a53d b81b 47bd f4d7 093d
00000120: a0f8 873d e2fd 3dbd 2f0e 0f3d f5c5 0abd
00000130: 36ad 7a3d e4c1 8fba 01e4 ccbc 5e59 3cbd
00000140: f621 3f3c ee39 473c bd83 bcbc 10a8 93bd
00000150: 2694 a43c 9a31 2e3d 4297 de3c 80b0 b33c
00000160: b158 9e3d a3b9 62bd d7f4 54bc 854b 193c
00000170: 5153 79bc 1fbe b5ba 3ef9 7d3d 6193 b7bc
00000180: 7385 16bc bf40 76bd 86a9 dbbc 71b0 9dbd
00000190: a02e 2e3d 884f bcbc 36f9 4a3b 7b48 82bd
000001a0: 55ad 99bd 6c80 0d3d 9c38 90bd ac65 6b3d
000001b0: c03a 56bc 6e76 6f3d 0e3f 0cbd 4f66 0bbd
000001c0: 30dd 0dbc 48dd 393d 7ba9 6e3d 88d2 8b3d
000001d0: 28d3 773d 5128 47bd 0d72 953d 1600 983d
000001e0: 2da6 ddb8 f718 c33c 324d 87bd 3f99 98bd
000001f0: 42e0 47bd 63f7 47bc 371b 8d3d 6a76 c13b
00000200: 8fd3 76bd 64b4 91bd 1584 3b3d 6e8d 96bd
00000210: 3319 4b3c f42b 86bd aaf5 c3bc 2048 3c3d
00000220: dfa0 f23c 883e 07bd 2d12 5bbd 4551 a0bd
00000230: ead6 78bd d906 0f3b 35c2 813d b925 033c
00000240: 8e75 4cbc ad21 a2bd 772c 3e3d 5c59 74bd
00000250: 68ff 83bb 85f3 50bc 4bad 8cbd a256 9b3d
00000260: 44a7 2fbd 2699 c63c 79d7 7cbd 0a29 8ebd
00000270: 36b3 233d 8260 ae3d 4d97 a5bb d178 9bbd
00000280: 2fdf ad3d 8e90 803d f4cd 8a3d 3c5b 923d
00000290: 37d4 033c 72ef 9b3d 40a1 43bd 24ee 9dbd
000002a0: d3ff 143d 2ad2 88bd 2d6f 883c 9c9a 8bbc
000002b0: 982d 9d3d 523b 973d 2b1a c3bc 9d36 de3c
000002c0: deac 823d 2e65 693d 24e4 85bc 8a22 7bbd
000002d0: 8b82 653c fd35 463c 887c a8bd 348b 743d
000002e0: 56cf 30bd 82be b03d bd90 54bd 34ca 49bd
000002f0: dc94 9fbd 529e 773d 5c02 76bb 9f73 8d3d
00000300: ae0a 663d fba9 833c 3f82 ee38 ee7a cf3a
00000310: 811b 4dbd 4dc0 d1bc c786 853c a865 86bd
00000320: 9ca8 de3c 6ba3 2a3d ebfc 823d e542 8d3b
00000330: 3e04 993d 4120 a2bd e0c4 a3bd af82 4fbc
00000340: 541c 29bd 4cd8 40bc 653d 793c 31b4 0e3d
00000350: bc7e edbc 03ad 913d db66 853d a41e 5dbd
00000360: 10e5 f63b f8a1 a83c cee6 54bd cfb4 c4bc
00000370: dfb8 2abd bd27 b53c 81a8 093d 57d9 813d
00000380: dacd 7c3d 9f29 22bd 49f9 8cbd 3685 cabc
00000390: d6b9 9e3c 607b 4bbc 6a96 4cbd 1c88 f83c
000003a0: 0fc6 903c e2a3 9ebd 9906 133d c4a8 41bd
000003b0: 53cf 373d 4578 fabc e903 2e3c e812 053d
000003c0: 479a 3fbc 3f79 90bd 433b 3bbd 0570 88bc
000003d0: 0676 83bd 5b49 c5bc cb58 d4bc d751 9bbd
000003e0: 157d 733d 1aba 94bd 29c9 d7bc 6633 113d
000003f0: 50df abbb 97bb b43d a6c7 4f3c e454 81bd

conv2.bias f4 [96]
0.014190598 -0.03359865 -0.061645657 0.042751025 -0.009335724 -0.024963051 -0.06017572 -0.07028036
-0.03343977 0.03879394 -0.013927305 0.0025185717 -0.061200336 -0.07750916 0.009176637 0.042956095
0.039621048 -0.03086029 0.05146531 0.044570394 0.05017295 0.01930482 -0.06634041 0.0627726
0.054658487 0.044359457 0.0350213 -0.007061101 0.055126008 0.01319679 0.07401755 0.022271538
0.06664172 0.0024099164 -0.019118112 -0.02301387 0.007241527 0.026816972 0.07790741 0.056991775
0.005570952 0.0322047 -0.010434271 -0.0066070883 -0.06516381 -0.017074678 -0.015298958 -0.054174803
0.07528126 -0.05067548 -0.01989299 -0.031883888 -0.022057727 -0.05174985 0.011835597 0.04446803
0.0017942628 -0.045402087 0.027307361 0.026057297 -0.06722072 -0.06548866 0.071111806 0.058497667
-0.051709708 -0.070717886 0.075384595 0.0006360693 -0.05182578 0.012438399 0.05242959 -0.035919935
-0.014409998 -0.051780462 0.035078116 0.040387515 0.06861439 0.06545243 0.0030911986 -0.003975955
0.030727237 0.053109776 -0.073859796 -0.054891605 0.04448465 -0.007640792 0.04196923 -0.0021494555
-0.015479294 -0.025693623 0.018643692 0.04120079 0.051656857 0.016285846 0.05809291 -0.06924841
00000000: af7f 683c bd9e 09bd 2880 7cbd b31b 2f3d
00000010: ddf4 18bc 507f ccbc d17a 76bd 26ef 8fbd
00000020: 24f8 08bd 65e6 1e3d 5a2f 64bc 9f0e 253b
00000030: 34ad 7abd 1fbd 9ebd 9b59 163c bbf2 2f3d
00000040: ae49 223d b8ce fcbc 4acd 523d 728f 363d
00000050: 2782 4d3d 2425 9e3c 7bdd 87bd ec8e 803d
00000060: 94e1 5f3d 43b2 353d 7f72 0f3d cf60 e7bb
00000070: cfcb 613d 5937 583c 8396 973d cd72 b63c
00000080: 747b 883d b0ef 1d3b 969d 9cbc 9587 bcbc
00000090: 554a ed3b 44af db3c ec8d 9f3d 3570 693d
000000a0: 888c b63b 13e9 033d 81f4 2abc 4680 d8bb
000000b0: 9b74 85bd 32e0 8bbc 7ba8 7abc 66e6 5dbd
000000c0: 102d 9a3d 1891 4fbd a0f6 a2bc ae98 02bd
000000d0: 68b2 b4bc a7f7 53bd 18ea 413c 1c24 363d
000000e0: 782d eb3a 8af7 39bd b0b3 df3c 1d76 d53c
000000f0: 04ab 89bd eb1e 86bd 11a3 913d 409b 6f3d
00000100: 8fcd 53bd 8ad4 90bd 3d63 9a3d e3bd 263a
00000110: 4547 54bd 6dca 4b3c 69c0 563d c820 13bd
00000120: ea17 6cbc c017 54bd 12ae 0f3d 616d 253d
00000130: b485 8c3d ec0b 863d b595 4a3b ba48 82bb
00000140: b0b7 fb3c a389 593d ce43 97bd 05d6 60bd
00000150: 8935 363d 9c5f fabb ede7 2b3d e1dd 0cbb
00000160: dd9c 7dbc 6f7b d2bc a8ba 983c 29c2 283d
00000170: 2496 533d e569 853c d5f2 6d3d 1cd2 8dbd

fc.weight f4 [2, 96]
-0.082377486 -0.03178218 0.094315626 0.04588046 0.08868008 -0.040873725 -0.048676472 0.029572066
-0.05229084 -0.016984973 0.010045889 0.040346563 -0.077848926 0.037746556 0.053843305 0.061670743
-0.081666455 0.005838306 -0.027262786 -0.008464158 -0.029041028 -0.08301476 -0.067180365 0.020165019
-0.1043051 -0.07294154 0.08518137 -0.08553941 0.0032378882 0.06562184 0.09622762 -0.049048208
0.031332757 -0.019574493 -0.039801683 -0.06603033 -0.041456338 -0.06025937 -0.06162125 -0.0049431995
0.08040664 -0.060956746 -0.0261938 -0.014645493 -0.048084367 -0.06922654 -0.08913287 0.03387157
-0.008078563 0.07644218 0.030573605 0.06466399 0.021176223 0.033311162 0.06943817 -1.4961994e-05
-0.0019977086 -0.027928835 -0.0066734254 0.07668135 -0.016027823 0.08852119 -0.08466469 -0.07606181
-0.0041593025 0.083228625 -0.056372244 0.082160115 -0.013149856 0.073940895 -0.07094033 -0.09994034
-0.09380175 -0.028219413 0.08765686 0.09990452 0.0071753818 -0.07404053 -0.099932976 0.08613361
0.08590721 0.054353565 0.0060947035 -0.028375799 0.068173 0.031165162 0.060691882 -0.008077142
0.008832651 -0.046751566 0.02333179 0.06836614 -0.069222376 0.053540595 -0.067235574 0.0060544657
-0.026019474 0.036870796 0.0028466927 -0.029787341 0.046188116 0.08771898 0.042304415 -0.06833039
-0.0112805385 -0.10107877 0.024823317 0.08124805 0.033017218 0.052928027 -0.019239215 0.014007682
0.01304316 -0.019729141 0.026198948 -0.0017109181 -0.032099273 0.010601876 0.048548207 0.045766965
0.10140339 -0.09982258 0.02562486 0.09305749 -0.07358178 0.038905855 -0.10144716 0.0596551
-0.022735685 0.016281506 -0.03742012 -0.060666874 -0.09996285 0.07239109 -0.03208777 0.019840593
0.01565721 0.082867004 -0.08235098 -0.019540085 -0.07254557 -0.030216243 -0.07161961 -0.0146223325
0.063570224 0.082363404 0.072305724 0.013950135 0.084456645 0.10064461 0.03182442 0.06849317
-0.0010199765 0.027528895 0.054203972 -0.05214092 0.07682125 -0.08503485 -0.007930611 0.10043929
0.06694206 -0.05620893 -0.027713308 -0.100372836 -0.015120485 -0.013205747 -0.046899293 -0.08337615
0.010224789 -0.080467686 0.033525646 -0.08864278 0.08765811 -0.03762946 -0.07297983 0.07536959
-0.015653113 -0.018474171 -0.09386808 -0.015448826 -0.09187711 0.07615512 -0.026501326 0.0027991736
-0.09634403 0.063419536 0.06267004 -0.10031155 -0.07964038 -0.0005395387 -0.063633546 0.09258503
00000000: 87b5 a8bd 082e 02bd 8d28 c13d 26ed 3b3d
00000010: e79d b53d 356b 27bd fb60 47bd 1e41 f23c
00000020: eb2e 56bd 1224 8bbc 8397 243c 7042 253d
00000030: 426f 9fbd 229c 1a3d cc8a 5c3d 769a 7c3d
00000040: be40 a7bd 434f bf3b 3556 dfbc 40ad 0abc
00000050: 73e7 edbc a403 aabd dc95 89bd 1c31 a53c
00000060: ea9d d5bd 6062 95bd 9273 ae3d 492f afbd
00000070: c032 543b be64 863d fd12 c53d c6e6 48bd
00000080: c756 003d b05a a0bc 1707 23bd e93a 87bd
00000090: 1fce 29bd 87d2 76bd 9066 7cbd 90fa a1bb
000000a0: 3dac a43d c8ad 79bd 6194 d6bc a6f3 6fbc
000000b0: 1df4 44bd a5c6 8dbd 4b8b b6bd eabc 0a3d
000000c0: f35b 04bc b88d 9c3d 7f75 fa3c 8e6e 843d
000000d0: c279 ad3c 4971 083d 9935 8e3d 4605 7bb7
000000e0: fdeb 02bb 03cb e4bc c0ac dabb 1d0b 9d3d
000000f0: c84c 83bc 994a b53d ae64 adbd 4bc6 9bbd
00000100: c24a 88bb c573 aa3d 95e6 66bd 9043 a83d
00000110: 7e72 57bc 536e 973d 2a49 91bd 85ad ccbd
00000120: 221b c0bd 662c e7bc 7185 b33d be9a cc3d
00000130: 771f eb3b 90a2 97bd a9a9 ccbd d166 b03d
00000140: 1ff0 af3d d8a1 5e3d 14b6 c73b 5d74 e8bc
00000150: 499e 8b3d 154e ff3c 0d98 783d fd55 04bc
00000160: d3b6 103c 927e 3fbd 4f22 bf3c 8c03 8c3d
00000170: 76c4 8dbd 624d 5b3d ceb2 89bd 8a64 c63b
00000180: cb26 d5bc d505 173d 948f 3a3b 9504 f4bc
00000190: c02f 3d3d 02a6 b33d 6547 2d3d cef0 8bbd
000001a0: 02d2 38bc 6302 cfbd 455a cb3c 6165 a63d
000001b0: 103d 073d 0fcb 583d 8f9b 9dbc 7a80 653c
000001c0: fab2 553c 029f a1bc 2d9f d63c e340 e0ba
000001d0: 877a 03bd 7eb3 2d3c 7cda 463d 2476 3b3d
000001e0: 95ac cf3d c86f ccbd 3aeb d13c ed94 be3d
000001f0: 0bb2 96bd bf5b 1f3d 87c3 cfbd e858 743d
00000200: 3040 babc cb60 853c d745 19bd d47d 78bd
00000210: 53b9 ccbd c841 943d 776e 03bd bd88 a23c
00000220: 8d43 803c 2db6 a93d a1a7 a8bd 8712 a0bc
00000230: c692 94bd 0e88 f7bc 4dad 92bd 8292 6fbc
00000240: 1b31 823d 25ae a83d 0615 943d 1b8f 643c
00000250: 9bf7 ac3d c31e ce3d 535a 023d 2646 8c3d
00000260: bbb0 85ba 4784 e13c fc04 5e3d b891 55bd
00000270: 7654 9d3d c026 aebd 65ef 01bc 1db3 cd3d
00000280: eb18 893d 563b 66bd 0507 e3bc 4690 cdbd
00000290: e9bb 77bc eb5c 58bc 7919 40bd 1dc1 aabd
000002a0: e085 273c 3ecc a4bd 3052 093d 598a b5bd
000002b0: 1886 b33d 5921 1abd 7376 95bd 5f5b 9a3d
000002c0: f53a 80bc 2557 97bc e83d c0bd 131d 7dbc
000002d0: 112a bcbd 37f7 9b3d 4f19 d9bc 5772 373b
000002e0: 0550 c5bd 1ae2 813d 2659 803d 2470 cdbd
000002f0: 7f1a a3bd d46f 0dba 4e52 82bd 389d bd3d

fc.bias f4 [2]
0.046133816 0.070735104
00000000: d0f6 3c3d 91dd 903d
