audio_classifier2.pth (torch, 914514 bytes, 12 tensors)

lstm.weight_ih_l0 f4 [512, 40]
000000 fb 41 8b 3d 6e 68 5e 3c 04 9c f9 3c 83 8b 83 3d
       0.06799694 0.013574703 0.030469902 0.06423094
000010 78 f2 c0 bd f2 eb b2 3b 41 a3 71 bd 06 07 11 3d
       -0.09421247 0.005460256 -0.05899358 0.03540709
000020 a5 5e a2 bd f7 80 47 3c 53 43 76 3b 62 bf 18 3d
       -0.07928208 0.012176744 0.003757675 0.037291892
000030 2a a6 6f 3d 43 c7 4c 3c 2c 6d 5f bd 38 e0 80 bd
       0.058508076 0.01249868 -0.054547474 -0.06292766
000040 83 5c be 38 9b 4e 1d bc 3c 8d e0 bc e8 98 2a 3c
       9.077138e-05 -0.009601261 -0.027411096 0.010412432
000050 d3 15 8a 3d 60 11 72 bd 4e 89 5e bd 6c 80 92 3c
       0.06742444 -0.0590986 -0.054330163 0.017883502
000060 c0 0a 60 bd 97 14 8f bd cc e7 cc bb 88 55 88 bd
       -0.054697752 -0.06986349 -0.0062532183 -0.06656939
000070 97 51 7f bc a5 db 43 bc 8c 36 b2 3d b4 ad 37 bd
       -0.015583417 -0.011954223 0.0870181 -0.04484339
000080 de 7a 25 3c 57 cb 3f bd 64 c6 9e 3d b2 fa 6b 3c
       0.010100095 -0.04682478 0.07752684 0.014403032
000090 a0 f4 4a bc 92 c4 64 bd e2 dc 8e bc ac 69 1e 3c
       -0.012387425 -0.055851527 -0.01743931 0.009668749
0000a0 48 ee c2 bb 1d 42 31 bd 01 cd db bd e1 5a 59 3c
       -0.0059488155 -0.04327594 -0.10732461 0.013266296
0000b0 00 17 7f 3d 4e 50 5e bd 99 4d aa 3c c2 39 05 bd
       0.062277794 -0.054275803 0.020788955 -0.032525785
0000c0 e7 07 f1 3c ee df d0 3c c8 f8 27 38 5b 72 c3 3d
       0.029422713 0.025497403 4.00476e-05 0.09543296
0000d0 93 9b b0 bd db f9 cd 3d 6a 70 1f bd 07 ca dd 3c
       -0.086234234 0.10057422 -0.038925566 0.027073873
0000e0 83 59 3a bd cb cb 65 bd 90 b8 28 bd 58 22 84 bd
       -0.04549552 -0.056102555 -0.041191638 -0.06451863
0000f0 a3 17 27 bd 41 9a 3b 3d 5b ca 63 3d 5a 22 88 3d
       -0.040794026 0.045801405 0.055612903 0.06647177
000100 7d 63 52 3d 18 52 73 bc ac 4d 2c 3c 94 98 84 bc
       0.05136441 -0.014851116 0.010516565 -0.016186036
000110 da 74 b0 3b 47 e7 d7 bc 36 5b ab 3d c7 86 98 3d
       0.0053850235 -0.026355399 0.083670065 0.07447582
000120 81 8d a5 bd c3 92 4d 3d aa b9 86 bd ec c3 a8 3b
       -0.0808363 0.05018879 -0.06578381 0.005150309
000130 9d 78 44 bd 81 9a 7b bd 89 af 97 bd 9e d7 45 3d
       -0.04796659 -0.061426643 -0.074065275 0.04830133
000140 76 ba b7 3c 4f 0f a2 3d 1b 23 a5 3d c4 9d bb 3c
       0.022427779 0.07913076 0.080633365 0.022902377
000150 f7 df 0e 3d d4 be 0c bc 80 9c e5 3c 5b b5 0d bd
       0.03488156 -0.008590419 0.028028727 -0.034596782
000160 0b 29 ad 3d b0 f1 d4 3d 8a 5c 19 3d e2 a5 21 3c
       0.08455094 0.10397661 0.037441768 0.00986621
000170 1a ed af bc b4 1b c6 3d a0 a7 56 bc 29 90 17 3d
       -0.021475364 0.09673253 -0.013101488 0.037002716
000180 d1 08 84 bd 20 9c 1f 3d 92 72 cb bc 04 ef 84 bd
       -0.06446994 0.03896725 -0.024834905 -0.06490901
000190 63 84 86 3d 5d 3e 96 bd 15 76 4b bd 9f d7 04 bc
       0.065682195 -0.073361136 -0.04967316 -0.008108049
0001a0 57 68 d1 3c ad 0c 8b bd 3a 14 cc 3c 83 11 a8 bd
       0.025562448 -0.06789527 0.024911989 -0.08206465
0001b0 29 99 67 bd 0f d3 9f 3c 33 57 e1 bb 7d 29 54 3d
       -0.05654255 0.01950982 -0.00687685 0.05179738
0001c0 1e 23 5f bd 5e f8 a5 3d af 03 95 3d 0f 26 3c 3d
       -0.05447685 0.08104013 0.07276093 0.045934733
0001d0 05 6a e9 3c e6 1d a7 3d ed 4e d8 3c f6 48 33 bd
       0.028492937 0.081599995 0.026404822 -0.043770753
0001e0 91 f3 f5 bc 86 04 e7 bc ae 6c 23 3d 8b 56 66 bc
       -0.030023368 -0.0282004 0.039898567 -0.014058719
0001f0 11 a8 de 3b 30 04 07 3e 89 42 a5 3d 99 f5 3e 3d
       0.0067949374 0.13185191 0.08069331 0.04662094
000200 00 8b 82 bc 33 f3 d2 3d 34 01 b9 3d 30 34 b7 bc
       -0.015935421 0.10300293 0.090334326 -0.022363752
000210 88 05 22 3c 4c ce 58 3d 3d 67 f3 bc 67 fa be 3d
       0.009889014 0.052931115 -0.029712314 0.09325104
000220 84 ba 56 bd 80 25 82 bd 27 6e 4a bd 20 54 b3 bd
       -0.05242397 -0.06354809 -0.049421456 -0.0875628
000230 46 40 17 3d 3b 1d 3d 3b 13 2a f9 3c a3 aa e1 3c
       0.03692653 0.0028856534 0.03041557 0.027547186
000240 6c 30 81 bd 03 d9 d7 3c a2 dd 26 bd 61 3f a5 bd
       -0.06308064 0.026348596 -0.04073871 -0.08068729
000250 60 2d e7 3c 5d 43 22 bc 46 0b 23 bc c5 d0 41 3d
       0.028219879 -0.009903756 -0.009951418 0.04731824
000260 f9 5c 5c 3d ab 03 77 3d d6 96 08 bd 3f 58 51 3d
       0.053799603 0.060306232 -0.033346973 0.05110955
000270 ef e8 49 bc d1 7e 66 3d 2b 7c db bc b3 cd 08 bd
       -0.012323602 0.056273285 -0.026792606 -0.033399295
000280 11 39 7d bd 36 87 c6 3c a6 c6 09 bc 87 5f 85 3d
       -0.061822 0.024234395 -0.008409178 0.06512361
000290 8c eb 9f bd 77 c1 a9 3d 8f 65 bf 3c 83 3d 02 bd
       -0.07808599 0.082888536 0.023363857 -0.031796943
0002a0 9d a0 c5 3c 49 29 8b bd 59 e6 f8 3c 85 4f 6e 3d
       0.024124438 -0.06794984 0.030383276 0.058181304
0002b0 76 d2 b2 bd 15 db 30 bd 6d 15 19 3d 88 53 87 3d
       -0.087315485 -0.043177683 0.03737395 0.06607729
0002c0 6b 97 1d 3c 35 fd 18 3d c2 7f ac 3d 4f d7 d2 b9
       0.00961862 0.037350852 0.08422805 -0.0004021474
0002d0 06 aa 93 3c 65 53 d1 3c a6 76 5d bd 03 4e 39 bd
       0.01802541 0.02555246 -0.05406823 -0.045240413
0002e0 39 a3 ab 3c c6 55 e9 3b fb 22 60 3c eb 06 fe 3c
       0.020951854 0.0071208207 0.013680215 0.031009158
0002f0 ad c1 a1 bd dd ea 76 3d df 91 c5 3b 3e d3 3d bc
       -0.07898269 0.060282577 0.006029352 -0.011586009
000300 d6 70 a1 bd be 42 08 3d bd 7a 35 bd 4a 47 b8 bc
       -0.0788285 0.033266775 -0.044306505 -0.02249493
000310 4a 9f b3 bc 4d 0e 35 3d 61 0b ab bd d5 9f 37 bd
       -0.02192654 0.04420309 -0.0835178 -0.044830162
000320 b3 73 33 3b c6 71 00 bc 38 e9 98 bd 76 a9 8a 3d
       0.0027382195 -0.007839626 -0.07466358 0.06770603
000330 48 e0 10 bd 37 e2 0a 3d 9f 72 a2 bd f4 b6 37 3d
       -0.03537014 0.03390714 -0.079320185 0.044852212
000340 70 12 9f bd c1 18 83 bd 52 14 32 bd 16 a6 81 3c
       -0.077671885 -0.06401206 -0.04347641 0.015826266
000350 8e 96 89 bd a1 ae 34 bc e7 5e b3 3b a1 57 9c bd
       -0.06718169 -0.011027963 0.0054739597 -0.076339014
000360 a8 03 ac bd 7a 40 a6 bb 1a 94 36 3c b5 e2 52 3d
       -0.08399135 -0.005073604 0.011143709 0.051485736
000370 7a 5f 66 bd bb 3b ab 3d 67 0e 5a 3d 21 9a 3e bd
       -0.056243397 0.08361002 0.05323639 -0.046533708
000380 9f d2 76 bd ac ce e7 3c 9f 7e c3 3c 78 3f 18 bd
       -0.060259458 0.028296791 0.023864089 -0.037169904
000390 20 2b c2 3d 60 ad 71 bd 1d f1 f1 bc 77 7d 8f bc
       0.09480882 -0.059003234 -0.029533917 -0.017515881
0003a0 bc 10 82 3d a9 42 8f 3d 76 88 4c 3d c3 b1 19 bd
       0.06350848 0.06995136 0.049934827 -0.037523042
0003b0 57 16 a0 bd c5 2c 4f bd 46 b7 0c bd 4c c7 23 bd
       -0.07816761 -0.050579805 -0.03435447 -0.039984986
0003c0 46 1b a1 3c 18 32 d2 3c f9 45 12 bd 03 cf bf 3d
       0.019666325 0.025658652 -0.035711262 0.09365656
0003d0 98 f1 aa 3d 8e ce 89 bd c8 97 8c bd 4f e0 d9 3c
       0.083468616 -0.0672885 -0.068648875 0.026596216
0003e0 8f 53 73 3c cf ff 30 3c bc 40 8e 3d 43 6b e1 3d
       0.014851465 0.010803177 0.06945941 0.11006787
0003f0 1a 68 60 bb d4 2a d7 3d 3c b0 cf 3c a9 b1 01 bd
       -0.0034241737 0.10506216 0.02535259 -0.03166357

lstm.weight_hh_l0 f4 [512, 128]
000000 2b b3 af bd 04 b7 84 bc ac 12 83 bc e8 7f 93 bd
       -0.085790955 -0.01620055 -0.016000114 -0.072021306
000010 d2 e5 fa bc 0a 50 31 3d 7d b9 a9 3d 8c ea ce bc
       -0.030627165 0.04328922 0.08287332 -0.025258325
000020 d2 13 38 3d 81 e3 82 3d e2 86 86 bd dc 23 a3 bd
       0.044940777 0.06391049 -0.065686956 -0.07965824
000030 94 03 9d bc c0 6f 4e bb da b4 5a 3d 78 38 cc 3c
       -0.019166745 -0.0031499714 0.05339513 0.02492927
000040 7e b7 b4 bd e5 e3 8e 3d 76 bf a4 bd ca bb 41 3d
       -0.08824061 0.06977061 -0.08044331 0.04729823
000050 18 90 13 3d c1 e3 a7 3d 18 66 2b 3c f9 59 49 bd
       0.03602609 0.081977375 0.010461353 -0.04915807
000060 04 d9 b3 bd f4 e3 b5 3c ce 3b b2 bd 79 e6 86 3d
       -0.08781627 0.022203423 -0.08702813 0.06586928
000070 9d 7f 54 bd f8 70 38 3c 63 f6 8a 3d 5a d3 1a 3d
       -0.051879514 0.011257403 0.06785276 0.037799217
000080 b1 ee 1c bd 6c 02 ed 3c 32 62 53 3d 7b d0 a5 3d
       -0.03831357 0.028931819 0.05160732 0.08096405
000090 82 88 9c bd 18 8c b1 bd 17 79 81 bd 63 f9 a8 3d
       -0.07643224 -0.08669299 -0.06321924 0.08250692
0000a0 75 8c 9e 3d a9 15 4f bd c9 08 58 bd 12 18 91 bd
       0.07741634 -0.050557766 -0.052742753 -0.07084669
0000b0 68 6c 12 3d 6c a2 ee 3c 48 11 71 3c 74 6b 02 3d
       0.035747916 0.029130183 0.014713593 0.031840757
0000c0 50 dd bd 3b 01 6b ac bd 11 06 97 bd c4 c5 d7 3c
       0.005794205 -0.08418847 -0.07374204 0.02633942
0000d0 80 0f 08 ba c6 d6 76 3d f6 1d 5f 3d 58 0b ce bc
       -0.0005190298 0.060263418 0.054471932 -0.025151893
0000e0 20 2f 2b 3b b2 a7 4a bd 8c a7 42 bd 1a 15 3c 3d
       0.0026120618 -0.049476333 -0.047523066 0.04591856
0000f0 92 72 73 3d 38 93 9f 3c 33 9d 87 3d ff 78 a3 3d
       0.059435435 0.019479379 0.0662178 0.079820625
000100 3c e4 80 3c ad b2 99 3d a0 50 66 3b 22 e8 7a 3d
       0.01573383 0.07504783 0.003514327 0.061256535
000110 00 20 20 b8 63 5c 86 3d ac 0d e8 bc 36 78 ae bd
       -3.8176775e-05 0.0656059 -0.028326832 -0.08519022
000120 cc 72 9e bd 60 ad 94 bd 44 92 ce bc c8 1b e5 3c
       -0.077367395 -0.07259631 -0.02521623 0.027967349
000130 f8 78 03 bc fe ab 70 bd 2c db 99 bc 1a 91 2c bd
       -0.008024447 -0.058757775 -0.018781267 -0.042130567
000140 7b b2 30 bd 40 09 a7 3c 1e 9a 5e 3d b7 59 80 bd
       -0.043138962 0.020390153 0.054346196 -0.06267112
000150 0c ce 63 bd 4b 6f 9d 3d ca af 25 3d 10 44 a7 3b
       -0.055616423 0.07687243 0.04045085 0.005104549
000160 11 b2 05 bd 01 e5 5d bd 5c 3d d7 bc dc 2e e0 3c
       -0.03264052 -0.054173473 -0.026274376 0.027366094
000170 4f a6 93 bd 20 9b 04 3d 2b de 6b bd bf 92 ad 3d
       -0.07209455 0.0323745 -0.057584923 0.08475255
000180 f0 ad b0 bc 30 b0 7e 3c 17 c6 b3 bd ad 42 98 3d
       -0.021567315 0.015544936 -0.08778017 0.074345924
000190 82 6f 63 3d e6 83 06 3d da a7 69 3d 9a 48 fe bc
       0.055526264 0.032840632 0.05704484 -0.031040478
0001a0 cf fd 81 bd 1d b7 a5 3d 19 a6 25 bd 59 34 84 3d
       -0.06347238 0.08091567 -0.040441606 0.06455297
0001b0 f3 e9 96 bd b6 1b 6f 3d eb 53 95 3d 0a 57 e7 bc
       -0.07368841 0.058376037 0.07291397 -0.028239746
0001c0 a0 6f 1a 3c 58 f8 38 bd 1b 76 8f 3d 51 b7 a5 bd
       0.009426028 -0.045158714 0.07004949 -0.080916055
0001d0 f0 d8 d0 bc 22 60 0f bd 13 c5 9f 3d 7d 0f 48 bd
       -0.025494069 -0.03500379 0.07801261 -0.048842896
0001e0 78 04 8a bc ae 67 28 bd 10 61 17 bd 0a f9 71 3d
       -0.016847834 -0.0411145 -0.0369578 0.059075393
0001f0 28 83 95 3c 45 97 6b bd 66 2e 17 3d 2a 62 59 bd
       0.018251017 -0.05751731 0.036909483 -0.053072132
000200 08 f0 7a bd 60 8c 6b 3c 7f b3 b1 3d 44 54 d0 3c
       -0.061264068 0.01437673 0.08676814 0.025430806
000210 5a ad 22 bd 78 42 90 3c 2e 2e 5f 3d ce 4d 8a bd
       -0.039716102 0.01760982 0.0544874 -0.06753121
000220 a0 e0 77 bb 02 ac 45 bd ed e5 a6 3d 2a d2 74 bd
       -0.0037823096 -0.048259743 0.081493236 -0.05977074
000230 1f ae a6 bd e8 bd 36 bc 00 dc e6 ba 3a 00 89 bd
       -0.0813868 -0.011153676 -0.0017613173 -0.06689496
000240 bd 34 69 bd 56 8a 24 3d 1b c7 81 3d bc a2 26 bd
       -0.05693506 0.04017099 0.063368045 -0.04068254
000250 0d 55 86 3d 9a 02 28 3d 40 9f 33 3c b0 3d 4d bc
       0.06559191 0.041018106 0.010963261 -0.0125269145
000260 f0 fb 6e 3c c1 b4 b4 3d 62 0c 10 3d 90 ea 29 3c
       0.014586434 0.088235386 0.03516806 0.010370865
000270 9c c9 82 bc a5 68 85 3d ba 25 2b bd a0 da ae 3b
       -0.015965275 0.065141 -0.041784026 0.0053361207
000280 da ed 6c 3d 78 89 a9 3c ea 4f 2b 3d b2 7d 7f 3d
       0.05784402 0.020695433 0.04182426 0.06237573
000290 1d 0f 46 bd c2 62 a3 bd e0 18 77 bb 00 e2 41 ba
       -0.048354257 -0.07977821 -0.0037704036 -0.00073960423
0002a0 de 9c b3 bd 76 65 8a bd f1 f3 89 3d 4e 45 dd bc
       -0.087701544 -0.067576334 0.06735981 -0.027010586
0002b0 23 0f 96 3d a5 bf 97 bd fc f7 a6 3c c0 53 1d bc
       0.07327106 -0.074096 0.02038192 -0.009602487
0002c0 5b b0 ad 3d 38 88 74 bd 8c a1 82 3c 0f b8 0f bd
       0.08480903 -0.05970022 0.015946172 -0.03508764
0002d0 d8 9e 41 bc e5 92 43 bd 80 6f 3f ba 40 5f 93 ba
       -0.011817656 -0.04774751 -0.00073026866 -0.0011243597
0002e0 67 64 0e bd 10 91 dc bc b6 c4 50 3d e1 cf 33 bd
       -0.03476372 -0.02692464 0.05096885 -0.04389942
0002f0 e8 0f d3 3c 80 96 c9 bb be 10 53 3d 70 04 8a bb
       0.02576442 -0.006151974 0.05152964 -0.004211955
000300 70 ae d1 bc 92 e0 0d 3d 2b 18 93 3d ca 85 2f 3d
       -0.025595874 0.034637995 0.07182344 0.0428522
000310 fd 7d 85 3d 14 8a 14 3d a8 8e b5 3c d4 71 aa bd
       0.06518171 0.036264494 0.02216275 -0.08322492
000320 98 87 89 bc af 61 ab bd b5 d1 1d bd eb 76 a0 3d
       -0.016788289 -0.08368241 -0.03853007 0.07835182
000330 14 14 e0 bc 20 6d aa bb 3e ce 55 bd 00 98 e0 39
       -0.027353324 -0.005200997 -0.05219864 0.00042837858
000340 7d 4d a5 3d 9c a5 06 3d 24 30 17 bd d4 5e 76 bd
       0.0807142 0.03287278 -0.036911145 -0.06014903
000350 a0 e3 6a bb 40 70 be 3a 60 28 d2 bb be c3 0a 3d
       -0.0035841241 0.0014529303 -0.0064135045 0.03387808
000360 00 52 08 3b 89 41 81 3d 78 0c a0 bc e0 cb b3 3c
       0.002080083 0.06311328 -0.019537196 0.021947801
000370 5e 5b 69 3d 11 83 33 bd c0 48 58 bc 3c 99 11 bd
       0.0569719 -0.043826167 -0.013200939 -0.035546526
000380 2c 33 08 3d e8 69 1b bc 5e 19 23 3d 38 28 ac bc
       0.033251926 -0.009485699 0.039819114 -0.021015272
000390 de 55 87 bd d0 ef bb bb 80 60 30 ba 42 0a 33 3d
       -0.06608175 -0.005735375 -0.0006728247 0.043710954
0003a0 4d 05 09 bd 1b 5b a4 3d 25 d1 83 3d 3c c6 81 bd
       -0.03345232 0.080251895 0.064363755 -0.06336638
0003b0 a4 78 cb bc 40 a8 1b 3c c6 6d 14 bd 0c d8 ff 3c
       -0.0248378 0.009500563 -0.0362375 0.031230949
0003c0 50 31 a5 3c 0c a6 c4 bc 14 2f 76 bd e5 b6 a9 3d
       0.020165116 -0.024004959 -0.06010349 0.082868375
0003d0 80 81 81 3c 88 c6 5a 3c 4a 90 f9 bc 4a 8e 36 bd
       0.01580882 0.013352998 -0.03046431 -0.04456929
0003e0 24 6f d0 3c 1c 3a 10 bd 38 94 c0 bc 02 f5 fd bc
       0.025443621 -0.035211667 -0.023508176 -0.031000618
0003f0 fb 9b 9d bd 80 f0 29 3a 8f 8c 8d bd a9 4b 97 3d
       -0.076957665 0.00064826757 -0.06911575 0.07387478

lstm.bias_ih_l0 f4 [512]
000000 c6 6d 75 3d 48 bb 9b 3d ba 04 4e 3c c7 53 64 3c
       0.05991914 0.076040804 0.012574369 0.01393599
000010 07 f4 aa 3d e5 d7 ee 3c 42 2d e8 bc b0 49 20 bd
       0.08347326 0.02915568 -0.028341893 -0.039132774
000020 ea 68 c1 3c 31 89 42 3d b8 be 9b 3b 1b c0 3c 3d
       0.023609597 0.047494117 0.00475296 0.046081644
000030 a0 13 92 3d cc 82 9a bd c6 c8 64 bd 45 4c 52 bd
       0.071326494 -0.07544479 -0.055855535 -0.051342268
000040 3a 2c 34 bd af c9 57 3d ca 13 02 bc d7 94 f7 bc
       -0.04398749 0.052682575 -0.007939288 -0.03022234
000050 10 30 f3 3b 82 10 69 3c 1f 80 6d 3d 35 25 b7 3d
       0.007421501 0.014225127 0.057983514 0.089426436
000060 43 8c 96 3d 01 cf 90 bd e1 70 37 3d cd 68 b2 bd
       0.073509715 -0.07070733 0.044785384 -0.087113954
000070 55 4b 90 3c 8f a4 84 bd b6 40 bb bd b1 2f 82 3d
       0.017614046 -0.064766996 -0.09143202 0.06356753
000080 52 87 03 bd 40 0c 06 bc 79 62 00 3d 7e 31 77 bd
       -0.032111473 -0.008181632 0.03134391 -0.060349934
000090 05 6e 86 bd b5 16 9d 3d fa de 74 3d cc 38 ae 3d
       -0.06563953 0.07670347 0.05978296 0.08506927
0000a0 41 31 03 bd 61 47 60 3d 4a a0 b2 3d 71 02 1a bd
       -0.032029394 0.054755572 0.08721979 -0.037599985
0000b0 e8 32 96 3a 29 41 33 3d 9f 8d 6b bc de 03 05 bd
       0.0011459263 0.043763313 -0.014377027 -0.03247439
0000c0 e9 c8 be 3c 38 6f 8d bd 9f e0 0f 3d eb 3c 89 3d
       0.02328916 -0.06905979 0.035126325 0.06701072
0000d0 5a d8 01 3c 1c 3f a5 bd 39 b6 ba bc 92 42 59 bd
       0.007925117 -0.08068678 -0.022791969 -0.053042002
0000e0 35 79 a9 bc d7 6b 17 3d d8 73 14 3c ec 74 8c 3d
       -0.020687679 0.03696808 0.009060822 0.068582386
0000f0 4f 0b 24 3d ac 2b d9 3c f6 4d ff 3c dc e5 48 bd
       0.040049847 0.026510082 0.031165104 -0.049047336
000100 63 62 ce bc 86 9c 93 bd e5 1e 97 bd e8 49 5d bd
       -0.025193399 -0.07207589 -0.073789395 -0.05402556
000110 d0 4a eb 3c 26 3d 09 3b 1a c7 27 bd 98 85 9e bd
       0.028722197 0.0020940988 -0.040961362 -0.07740325
000120 16 e0 60 3d 0c 62 44 3d ba 4d a9 bd 1c 8b 62 3d
       0.054901205 0.047945067 -0.08266778 0.055308446
000130 70 0d 78 bc 09 7d ad 3d a4 6a 43 bc fe 9b c7 bb
       -0.0151399225 0.08471114 -0.011927281 -0.0060915938
000140 20 99 dc 3b 1f 0e d8 bc 0c 63 d4 3c 66 6b 3b 3d
       0.006732121 -0.026373921 0.025926135 0.04575672
000150 ca a9 bf bc 2a f4 87 3d 2b 0d a0 bd 0b 7e 5f 3c
       -0.023396391 0.066383675 -0.078150116 0.013640891
000160 41 9f 0b bd bb f5 c3 bc df 29 49 bc 2f 57 b9 bc
       -0.034087423 -0.023920884 -0.012278049 -0.02262458
000170 cb 58 33 3d ae 67 9e bc 4d bb 40 3d 01 d7 9b bd
       0.04378585 -0.019336548 0.047053624 -0.07609368
000180 29 5e 63 bc b8 5d 52 bc 58 4b 8a 3d 03 6a 8a 3d
       -0.01387743 -0.012839727 0.06752652 0.067585014
000190 35 49 f3 3c 67 ca 4c 3c eb ba 1a bc 90 21 87 3c
       0.029697994 0.012499428 -0.009443979 0.016495496
0001a0 1c 4b ac 3c 44 7c cb 3d aa 93 a7 bd 72 c3 85 bd
       0.021031909 0.09935811 -0.081824616 -0.06531419
0001b0 b0 08 b0 3b 16 de aa 3d d2 eb 3c bd 57 7c e4 bc
       0.0053721294 0.08343141 -0.046123333 -0.027891321
0001c0 fd 4f 06 bd 0b e8 3d bd f5 af af 3d 94 12 ab 3d
       -0.032791127 -0.04636387 0.08578483 0.08353153
0001d0 fe b0 0b bc cf c7 a0 bc 9c ff 9d bd 01 a2 3d bd
       -0.008526085 -0.019626526 -0.07714769 -0.046297077
0001e0 88 8f a9 3d a1 7a 8b 3d af e3 b4 3c ed d0 95 3d
       0.082793295 0.06810499 0.022081224 0.0731524
0001f0 09 70 64 3d a8 9a 3c 3c 62 b0 6c 3d ed fd 6f 3d
       0.055770908 0.011511482 0.0577854 0.058591772
000200 d8 9d 8f bd 64 10 7d bd 52 6e 32 3d 90 6f 29 3c
       -0.07012528 -0.06178321 0.04356224 0.01034154
000210 94 b9 d1 3c ae d3 4b 3d e8 ca 57 3c 2b 72 6f bd
       0.025601186 0.04976242 0.013170935 -0.05845849
000220 48 fb fa 3c 98 81 a9 3c 84 30 a2 3c c3 ae 95 bd
       0.030637398 0.020691678 0.019798525 -0.07308724
000230 8c 89 b5 bc 44 0a 2a bd ab 9b a1 bd 87 be 18 bd
       -0.022160314 -0.041513696 -0.078910194 -0.037291076
000240 5b bb 4d bd ea 7c 12 3d ec e2 bc bc 82 4c 6a 3d
       -0.050227504 0.03576366 -0.023057424 0.05720187
000250 fe 5a 5d 3d 60 9b 1a 3c 62 46 29 3d 88 53 61 3c
       0.054041855 0.009436458 0.041326888 0.013752826
000260 5a 2a 7d 3d 4a 25 53 3d f9 4d aa 3d e5 7f a1 3d
       0.061807968 0.051549233 0.08315653 0.07885722
000270 12 69 03 3d 8a 70 0d bd 70 93 d4 3b 88 79 e3 3c
       0.032082625 -0.034531154 0.0064873025 0.027767912
000280 47 8a 4f bd 7b 9b 12 bd 34 01 ea 3c a0 70 09 3b
       -0.05066898 -0.03579281 0.028565027 0.002097167
000290 9a d6 33 3d 18 b6 b2 bd 26 6e 6a bd 0f 5b a8 3d
       0.043905832 -0.08726138 -0.057233952 0.08220493
0002a0 88 63 80 bc 9a d1 d4 bc 88 22 87 bc 90 d1 f6 bb
       -0.01567246 -0.025978852 -0.016495958 -0.007532306
0002b0 51 fa 98 3d ed b7 8f 3d fe ee 19 bd 8a db 7d 3d
       0.07469619 0.07017503 -0.037581436 0.061976947
0002c0 33 34 9b 3d 30 13 bd bc 5d 8e 95 3d e4 e6 05 3d
       0.075783156 -0.023080438 0.07302544 0.032690898
0002d0 a9 48 82 3d 4e ce 5d 3d a7 ec 67 bd 4b eb ac bd
       0.06361515 0.054151826 -0.056622174 -0.08443316
0002e0 d0 a6 99 bd 08 1e ec bc 3e 66 05 3d b0 b2 8d bd
       -0.0750252 -0.028822914 0.03256821 -0.069188476
0002f0 6a c9 7c 3d 0c 1e ce 3c cc 37 e3 3c ca 7d 28 3d
       0.06171552 0.025160812 0.027736567 0.041135587
000300 1e 19 08 bd 63 8a 93 3d 9a 9d 10 3d 5c b3 99 bc
       -0.03322708 0.072041295 0.03530655 -0.018762283
000310 07 b4 6b bd 4f 35 0d bd 66 33 53 3d 46 bb 50 3d
       -0.057544734 -0.034474667 0.05156269 0.050959848
000320 be 4d 3a 3d e8 d5 65 bc 98 2f f9 3c b1 3d 10 bd
       0.045484297 -0.01402805 0.030418202 -0.035215084
000330 04 c9 d2 bc f0 3d 24 bc 37 a3 9b 3d ea a0 59 3d
       -0.025730617 -0.010024533 0.0759949 0.053131975
000340 a0 1e 9d bd f6 cf a4 bd 27 fe 96 bd 5a 9a 20 3d
       -0.07671857 -0.08047478 -0.073726945 0.0392097
000350 fe 56 77 3d a8 fa 94 bd 30 76 85 3c 10 27 57 3c
       0.060385697 -0.072743714 0.016291708 0.013131872
000360 af bf 98 3d 40 4d a2 bb 7b b2 6b bd 26 db 2c 3d
       0.07458436 -0.0049530566 -0.05754326 0.042201184
000370 14 ab 8a bd 0b 3e a2 bd e0 a9 99 3c 02 11 08 3d
       -0.06770912 -0.0792199 0.01875776 0.033219345
000380 c6 73 7f 3d 2d e3 88 3d d2 a7 31 3d 19 a2 34 bd
       0.06236627 0.06683955 0.043372937 -0.0440999
000390 98 7a 67 3c e8 6b 8a bc 1c 27 d6 3c 1e 0b 3b bd
       0.01412835 -0.016897157 0.026141696 -0.0456649
0003a0 28 87 09 bc 71 21 83 3d 22 6c 3a 3d 00 27 d2 bb
       -0.00839404 0.06402863 0.04551328 -0.0064133406
0003b0 83 78 90 bd d0 e0 e8 3b 20 f8 8b bb d8 a1 71 bc
       -0.07054236 0.007106878 -0.004271522 -0.014748059
0003c0 81 58 60 bd 5d b6 92 3d f4 1a 64 bd c1 88 87 3d
       -0.054771904 0.07163689 -0.055689767 0.066178806
0003d0 b8 fb 07 bc e6 07 1f 3d ba ca 4a 3d e2 52 70 3d
       -0.0082997605 0.038825892 0.04950974 0.058672793
0003e0 1c 90 13 3d 70 02 87 bb 60 c4 e7 bc 48 09 6c bc
       0.036026105 -0.0041201636 -0.028291881 -0.01440651
0003f0 df 77 73 bd 54 cb 07 3d 50 ff 80 bd bc 28 97 bc
       -0.05944049 0.033152893 -0.06298697 -0.01845204

lstm.bias_hh_l0 f4 [512]
000000 93 3d 9e 3d bd 80 cf 3d 96 3c 68 3d f9 d9 12 3d
       0.07726588 0.10131977 0.056698404 0.035852406
000010 49 9d 2f bd 7b 07 02 3d ef c8 bd 3d db 09 3a 3d
       -0.04287461 0.031745415 0.09266841 0.045419555
000020 1e af 96 3d f3 0b 16 bd 84 b7 fd bc dc 43 08 bd
       0.0735762 -0.03663249 -0.030971296 -0.03326784
000030 af 74 f1 3c 3a c0 1a ba 17 6b 29 3d cf 94 3c bd
       0.029474584 -0.0005903278 0.041361894 -0.046040352
000040 2c 85 88 bd aa 90 68 bc 13 b4 08 bd 00 28 9a 3d
       -0.066660255 -0.014194647 -0.033374857 0.07527161
000050 31 50 80 3d 25 8a c0 3d 4e ec b4 bc 4f 6a bb 3d
       0.06265295 0.09401349 -0.022085335 0.09151136
000060 d2 48 81 bd 42 2a 5b bd 19 c6 96 3d bf 19 35 bb
       -0.063127175 -0.053507097 0.07362003 -0.0027633754
000070 bd 05 9f bd fe cf 1d bd a0 6c 39 3d 99 a4 fc 3c
       -0.07764766 -0.038528435 0.04526961 0.030840205
000080 50 30 15 bc d3 76 9f 3d ff ec 96 3d b3 14 4b bc
       -0.009105757 0.07786336 0.07369422 -0.012395072
000090 da 5a bc 3b 48 29 23 3d 30 1d 37 3c ca 40 93 3d
       0.005748135 0.03983429 0.011176392 0.07190092
0000a0 ed 19 a5 bc d5 aa 6d 3d 6d a8 ac 3c 89 69 88 bd
       -0.020153964 0.058024246 0.021076405 -0.06660754
0000b0 ad 45 5c bc 6f 48 1d bd 10 65 88 3c f0 7a 2b 3d
       -0.013444346 -0.038399156 0.016649753 0.04186529
0000c0 fd 8a cd bc 7a 47 95 3d 69 ac 4f 3d bb a8 15 bd
       -0.025090689 0.07289024 0.050701533 -0.036537867
0000d0 4d a1 ac 3d 8f 3d 8a bd 7a 4f 98 3d 25 88 8d 3d
       0.08429203 -0.067500226 0.07437034 0.06910733
0000e0 92 61 6d 3d 97 55 94 bd be 3b bb 3d e3 2e 56 3d
       0.05795438 -0.072428875 0.09142254 0.05229081
0000f0 69 b0 95 bd 68 05 55 bc 41 c0 19 3d 43 e4 79 bc
       -0.07309038 -0.013001777 0.037536863 -0.015252176
000100 35 78 32 3d ba ef 08 bd 2a 1d 2d bd 8a d7 25 3d
       0.04357167 -0.033431746 -0.04226414 0.040488757
000110 8b d0 d4 bd 6d 68 a4 3d 2b 49 85 3d 3b ff 26 bd
       -0.10391339 0.0802773 0.06508096 -0.04077075
000120 61 5e 84 bd 96 87 c6 3c 85 7a a0 3d 39 d7 af bd
       -0.06463314 0.024234574 0.07835869 -0.08585972
000130 04 a5 f3 bc c8 27 a7 bd 2d c9 c0 3d 13 45 8f bd
       -0.029741772 -0.081618845 0.09413371 -0.06995597
000140 c9 d1 09 bc c1 31 47 3d d7 d7 b4 bd 9a 40 79 bd
       -0.008411833 0.048631433 -0.08830231 -0.060852624
000150 0e 62 6d bc a5 bd 16 3d 39 5f 97 39 ac ee 8d 3d
       -0.01448871 0.036801953 0.0002887191 0.06930289
000160 f0 b6 d4 3b ef 07 a7 3d 9f 9c 90 3d 92 8d b6 bd
       0.0064915344 0.0815581 0.07061123 -0.08913721
000170 6d 1c a5 3d c4 2d 9b 3d 1d a4 a9 bd 24 b8 b4 3d
       0.080620624 0.075770885 -0.08283255 0.088241845
000180 de f9 1b 3d 37 53 4b 3d f9 6f d4 ba b0 7c b7 bc
       0.03808009 0.049639907 -0.0016207687 -0.022398323
000190 39 18 86 bd 9c 8c 45 3d 9b 15 70 3d 40 72 e2 bc
       -0.06547589 0.0482298 0.058614355 -0.02764237
0001a0 db fe 9c bd 3c 67 19 bd ad 9f 99 3d d6 3e 4e bc
       -0.07665797 -0.037451968 0.07501159 -0.012588223
0001b0 8e 68 54 3d 4a 78 06 3d 4a 44 1c 3d ba 25 b5 bd
       0.051857524 0.03282956 0.038151063 -0.088450864
0001c0 29 3f 18 bd dc 40 ef 3c 55 98 91 3d dd ef 2b 3d
       -0.03716961 0.029205732 0.07109133 0.0419768
0001d0 d4 97 f5 3c ce d8 e9 3b 0a 59 b9 3d 62 d6 2f 3d
       0.029979624 0.007136441 0.09050186 0.04292906
0001e0 c2 dc d7 3d 74 54 86 3a cf 46 b7 3d ab b0 8f bd
       0.10540153 0.0010248558 0.089490525 -0.070161186
0001f0 62 6d c7 3c 3d 5a fb 3b e5 f8 97 3d bd 5d 23 bd
       0.02434415 0.0076706694 0.0742052 -0.039884318
000200 1e 87 5e 3d 4c cf 82 3c 00 be 69 b9 a4 3d e1 3c
       0.054328077 0.015967987 -0.00022291392 0.027495213
000210 4f a9 80 bd ab 47 7b bd 02 59 26 bd ea 87 2c 3d
       -0.06282293 -0.061347645 -0.04061223 0.042121805
000220 40 a8 c4 bc f3 a0 25 bd 87 a1 ac 3d ff 95 22 bd
       -0.02400601 -0.040436696 0.084292464 -0.03969383
000230 4d 65 68 bd ce b3 45 3d 4e bd 7c 3d 74 96 9c bd
       -0.056737233 0.04826718 0.061703973 -0.07645884
000240 10 9a f5 3b 00 6e 16 bc 44 2b 8f bc 20 8b ed 3b
       0.0074951723 -0.0091814995 -0.017476685 0.007249251
000250 10 c9 f9 3b a4 1e 89 bd a9 04 b3 bd 77 ab 13 bd
       0.0076228455 -0.06695297 -0.08741123 -0.036052193
000260 38 68 c8 bc 9e fd 82 bd ae a8 4b 3d 38 fd 1a 3c
       -0.024463758 -0.0639603 0.049721412 0.009459786
000270 95 fa 3d bd 2b a1 b1 bd 00 44 06 39 40 8a 16 3b
       -0.04638155 -0.086733185 0.00012804568 0.0022970587
000280 cd fa 6e bd 20 a2 bf 3b 1f f8 b1 bd 78 fb fd 3c
       -0.05834465 0.005848184 -0.086899035 0.031003699
000290 85 f1 ab 3d 96 41 00 3d b0 26 f6 3b b0 5d 5f bc
       0.083956756 0.031312548 0.007511936 -0.013633177
0002a0 78 a8 0b 3c 2c 98 c7 bc b8 2e f6 3c 0c e0 af bc
       0.008524053 -0.024364553 0.030051574 -0.021469139
0002b0 20 c7 0a 3d 62 b5 ff bc 5c c5 76 bd 98 09 e6 bc
       0.033881307 -0.03121442 -0.06024681 -0.028080747
0002c0 4c a8 3c bd c0 cf 85 3a a0 ba 43 3b 86 45 0e bd
       -0.046058938 0.0010209009 0.0029865876 -0.03473427
0002d0 e9 39 82 3d 63 38 b2 3d 99 eb 88 3d c8 3c 68 bc
       0.06358702 0.08702161 0.06685562 -0.014174648
0002e0 ff 15 88 bd ed d2 2d bd f5 71 a6 3d c5 05 8d 3d
       -0.066448204 -0.042437483 0.08127204 0.06885866
0002f0 d4 e4 b6 bc c3 74 02 bd 14 c3 0a 3d c9 76 a2 3d
       -0.02232591 -0.031849634 0.033877447 0.07932813
000300 75 32 b2 3d ea 3d 36 3d 71 d0 13 bd 9b 4e 3e bd
       0.0870103 0.04449264 -0.036087457 -0.046461683
000310 a6 ab 7e 3d 40 2f 89 3b cc 99 04 bd 0f d6 0c bd
       0.062175415 0.004186541 -0.032373235 -0.03438383
000320 c0 a4 4f bc 1d 64 4e bd f8 aa 00 3d 94 21 f6 bc
       -0.012673557 -0.050388444 0.03141305 -0.030045308
000330 fc 37 3d bd 8b 70 ae bd ea 97 4d 3d 72 88 5c 3d
       -0.04619597 -0.085175596 0.050193705 0.053841062
000340 6e 42 72 3d 08 a1 9c bd b6 ad 4f 3d e9 04 8a bd
       0.059145384 -0.07647902 0.050702773 -0.06739218
000350 38 8a 1f bc 87 df b3 bd 50 34 ef 3b 54 cf 1d bd
       -0.009737544 -0.08782869 0.0072999373 -0.0385278
000360 f4 ef 93 3c f8 61 ff 3c c2 c9 35 3d d7 47 92 bd
       0.018058755 0.031174645 0.044381864 -0.071426086
000370 a4 07 ed bc ff 49 99 bd 80 98 91 3b 80 e3 e3 3a
       -0.028934307 -0.07484817 0.0044432282 0.0017386526
000380 f0 c0 5b 3c 13 b6 84 3d 96 0f 51 3d c0 c4 0b 3c
       0.013412699 0.064800404 0.051040255 0.008530796
000390 80 ee bb bc 9e 79 28 3d b6 07 48 bd 3c d2 b1 bd
       -0.022940874 0.04113161 -0.04883548 -0.08682677
0003a0 48 4a 15 bc 00 62 12 bb 38 85 cb 3c 8b cd 9a 3d
       -0.009111948 -0.0022336245 0.024843797 0.075587355
0003b0 e0 79 f5 3b 47 e7 96 3d f2 f2 6d 3d e0 b8 89 3b
       0.0074913353 0.073683314 0.05809302 0.004202947
0003c0 a2 bb 22 3d f8 48 4d 3c 9e 83 5e bd e1 79 94 3d
       0.03972972 0.012529604 -0.05432474 0.07249809
0003d0 9a dc 92 bd 5b e9 5f bd 1f 4f 99 3d 47 df 9c 3d
       -0.07170983 -0.054665904 0.07485794 0.07659774
0003e0 7a a3 58 bd d4 34 f9 bc 53 c5 44 bd f0 1d 6b 3c
       -0.05289028 -0.030420698 -0.048039746 0.014350399
0003f0 2c aa 6d bd 18 76 a1 bd 70 12 8a 3b 00 e9 65 bc
       -0.058023617 -0.07883853 0.0042136237 -0.014032602

lstm.weight_ih_l1 f4 [512, 128]
000000 26 d5 23 bd 62 88 1f bd 03 3b 05 be 09 53 0f 3e
       -0.039998196 -0.038948424 -0.13010792 0.13996519
000010 84 03 e4 3d 0f 20 b2 bc 86 01 aa 3b 48 1f a7 bd
       0.11133483 -0.021743802 0.00518817 -0.08160263
000020 ca 44 69 bd 40 31 0b bd 06 01 81 3d 58 79 de 3d
       -0.056950368 -0.033982515 0.06299023 0.10862988
000030 2d 78 a7 3c 62 fa e1 bd 46 05 28 3d fe c1 4d 3d
       0.020443046 -0.11034085 0.041020654 0.050233833
000040 9a 9f ba bc 1c dd e1 bc d4 bb 47 bd 56 22 a5 bd
       -0.022781182 -0.027571253 -0.04876311 -0.0806319
000050 bd 95 96 bd a9 11 81 bd 29 31 79 3d 48 d7 e3 bd
       -0.07352779 -0.063021965 0.0608379 -0.11125046
000060 12 60 05 3d ed 77 f8 3c 82 83 69 3d f4 0a b6 3c
       0.032562323 0.030330623 0.05701018 0.02222202
000070 17 05 94 bd 23 94 b1 bd 69 24 6d bd bc 5d 79 3d
       -0.07227533 -0.08670833 -0.05789605 0.060880408
000080 68 54 38 3d 60 0a 3f bc fd f7 42 bd 03 df 50 bd
       0.04500237 -0.011660188 -0.04759978 -0.05099393
000090 1e b3 67 3d 36 40 75 bc b2 28 44 3d ea 36 2b 3d
       0.056567304 -0.014968922 0.047890373 0.041800417
0000a0 6e 5a 44 bd a0 cd a2 bc a0 cf b2 3d 04 5e 35 bd
       -0.047937803 -0.01987344 0.087310076 -0.044279113
0000b0 e8 70 c4 3d 45 29 2c bc 0d e1 84 bd 80 eb e9 3d
       0.09591848 -0.010507886 -0.064882375 0.11421871
0000c0 09 11 c7 3d cb ee ab bd 7a 86 0b 3b a6 11 dc bc
       0.09720046 -0.083951555 0.002128987 -0.026863884
0000d0 dd 8a 28 bc e1 73 4f 3c 1d b1 82 3d f9 74 25 3b
       -0.010287014 0.012661905 0.06381438 0.0025246723
0000e0 14 d3 1b 3d bd a7 ed 3c 05 8f 96 3d 60 40 dc bc
       0.038043097 0.029010648 0.073514976 -0.026886165
0000f0 28 99 db bb 60 32 c6 3b fe 22 d7 3d 3a 6f 8c bd
       -0.0067016073 0.0060484856 0.10504721 -0.06857152
000100 06 53 8c bd c2 6b aa 3d 2c 65 03 3d 30 9b 86 bd
       -0.06851773 0.083213344 0.032078907 -0.065725684
000110 5d 4b 0b bd 07 0e 40 bd 51 7c 54 3d 9c 91 bb bd
       -0.03400742 -0.046888378 0.05187637 -0.09158632
000120 89 56 2b bd ed 4b 34 3d 35 42 86 bd 4b 27 55 bd
       -0.041830573 0.04401772 -0.06555597 -0.052039426
000130 5d 56 85 bd 56 ff 29 bd 47 18 7f bd 78 ae 9b bd
       -0.06510613 -0.041503273 -0.062279012 -0.07601637
000140 40 34 77 3d bb b1 68 bc bd e8 25 bd fe c7 09 bd
       0.060352564 -0.0142025305 -0.04050516 -0.033637993
000150 6e 6f da bd 69 9c 5f 3d 39 67 28 bd 3f 9c 87 bd
       -0.10665785 0.054592524 -0.041114066 -0.066215985
000160 ea 89 23 3d 62 ae 97 bc 84 f6 90 bd 2e c0 07 3d
       0.039926447 -0.01851577 -0.07078269 0.03314226
000170 a1 02 d7 3b e4 9c 7c bc da 0c f3 3c b3 da 78 3d
       0.0065615927 -0.015418265 0.029669214 0.060755443
000180 a5 91 cf 3d 4b 3f 77 3d 22 fa 0b bd 72 2f 55 3d
       0.10135201 0.060363095 -0.034174092 0.0520472
000190 a1 f2 a1 bd 4e 6c dd bd 91 c8 4e 3d d6 46 41 3d
       -0.07907606 -0.10811673 0.050484244 0.047186695
0001a0 7a 0c 12 bb fd 61 1e bd 48 e2 68 bd 00 7b 39 bd
       -0.0022285269 -0.038667668 -0.056856424 -0.045283318
0001b0 f0 16 ca bc f3 72 18 3d e2 1d 7e 3d 54 80 82 3b
       -0.02466914 0.037219 0.062040217 0.003982583
0001c0 c8 7e ae bd f9 41 72 bc d1 f5 0d bd 87 56 c5 bc
       -0.08520275 -0.014786237 -0.034658257 -0.024089111
0001d0 87 7d 3e 3a 38 0b 46 3d 10 bf b3 3c 70 8e 7b bc
       0.000726663 0.048350543 0.021941692 -0.015353784
0001e0 c6 93 82 3c 59 1c e9 3c 8f 2c 5e 3b 99 3f f2 bd
       0.015939604 0.0284559 0.003390107 -0.118285365
0001f0 a6 4f dd 3d 8b db 2e bd 18 30 6c bc 75 58 ec bd
       0.10806207 -0.04268984 -0.014415763 -0.11540309
000200 bc 8c c4 3d ac 67 8f bd b3 3b 3e bb 76 f5 97 3d
       0.095971555 -0.07002196 -0.0029027283 0.07419865
000210 9c d3 c7 3d c7 6a a5 bd 4a 4d 96 3d c3 d6 43 bd
       0.09757158 -0.08077007 0.073389605 -0.047812235
000220 86 40 81 bd 2a 9f 44 3d da 6c 67 3d bd 9e 05 bd
       -0.06311135 0.048003353 0.056500293 -0.032622088
000230 43 32 ef bc c2 d8 0d bd 35 df 32 3b ea 12 76 3d
       -0.029198771 -0.034630544 0.0027293686 0.06007663
000240 fd d7 62 3a 9b 95 01 3e ea cd c1 3c 63 38 99 3c
       0.00086534006 0.12654726 0.023657758 0.018703645
000250 48 44 7a 3c 06 1a 8e 3d 18 c0 a0 3d 5c 71 95 3c
       0.015275069 0.06938557 0.07849139 0.01824253
000260 6f a4 c2 3d be db 94 3c fe fa 47 3d ea d6 9f 3b
       0.095040195 0.018171187 0.04882335 0.0048779147
000270 61 73 90 3d ce 9c d3 bb 41 44 f9 bc ce a2 d1 bc
       0.07053257 -0.0064579016 -0.030428054 -0.025590327
000280 88 62 91 3d 88 cb 17 3c 60 d6 8c 3c 2d 1d ed 3d
       0.070988715 0.009264834 0.017192066 0.115778305
000290 35 da 54 3d bf 0f 85 bd 19 cf 94 3d ee 7e 5f bc
       0.05196591 -0.06497144 0.07266063 -0.013641102
0002a0 70 70 b6 bc 2a 4c bc 3b eb 1c 39 bd 49 c2 4c 3d
       -0.022270411 0.005746384 -0.045193594 0.049989972
0002b0 47 f3 2e 3d 38 a4 84 3d bb e9 8d bd dd ae 83 3d
       0.042712476 0.06476635 -0.06929346 0.06429837
0002c0 f1 97 81 3d 4c ef b2 3d d4 b7 56 bd 57 4f 05 be
       0.06327809 0.087370485 -0.052421406 -0.13018547
0002d0 17 6e 05 3c f0 ea ba bc 47 3e 01 bd 25 3c 6b 3d
       0.008143923 -0.022817105 -0.031553533 0.057430405
0002e0 01 6a 87 3b 2f 6d 28 3c 5f fc 56 bb a2 b9 b9 bd
       0.0041325097 0.010279938 -0.0032804233 -0.0906861
0002f0 92 0b 0b 3d 40 ea 6a bb 09 ad a2 bc 2b 8c 7e bd
       0.03394658 -0.003584519 -0.0198579 -0.062145393
000300 29 06 c2 bd 06 59 c4 bc 2b c8 99 3d 72 1a 10 bc
       -0.09473831 -0.023968231 0.07508882 -0.008795368
000310 a9 3c 55 3b 2c 20 d0 3d 3d 8f 2e 3b 70 07 ac bc
       0.0032537377 0.10162386 0.002663567 -0.02099964
000320 1f cc 85 3d c6 a0 00 be dc af bc bc 24 3c 61 bd
       0.06533074 -0.1256133 -0.023033075 -0.054988995
000330 e2 41 a4 bd d1 9a 99 3d 23 6e 83 3c 41 71 63 3c
       -0.08020379 0.07500232 0.016043728 0.013881982
000340 3f 23 ca 3d e8 b4 3b bd cc 7b 98 bd f7 db ce bc
       0.09870004 -0.045826823 -0.074454874 -0.025251372
000350 17 45 bf bd 8e d6 89 bc f0 a2 b3 3d 5f 88 50 bd
       -0.0933935 -0.01682594 0.08771312 -0.050911304
000360 17 ff 4e bd d4 ed e3 bc 4b 85 e0 bd 53 1a c7 3c
       -0.05053624 -0.027823366 -0.109629236 0.024304545
000370 7b 99 c6 bd 76 d4 d0 3d da 8f a6 bd 66 6d 8b 3d
       -0.09697243 0.10196774 -0.08132906 0.068079755
000380 fb 2f 98 3c bc 01 bc bd 0b 6d 87 3c a0 6c 1e bc
       0.018577566 -0.09180018 0.016531488 -0.009669453
000390 d5 02 ba bc 87 98 fb 3b 2f 13 ee bc 33 52 16 3d
       -0.022706429 0.007678095 -0.029061882 0.036699485
0003a0 aa 88 a6 bd 7c 5c c0 3d 54 da b4 ba fb 61 aa bc
       -0.08131535 0.0939264 -0.0013797977 -0.020798674
0003b0 d2 ed 5a 3d d0 58 b0 bc ac 78 59 bb fc d0 dc bc
       0.05344946 -0.021526724 -0.0033183498 -0.02695512
0003c0 94 f6 6b bd c8 04 1d 3c 99 2d 85 bd a1 b2 d8 3d
       -0.057608202 0.0095836595 -0.06502838 0.10580946
0003d0 74 de 2e 3d 00 66 65 3b 07 36 55 bd 74 f3 8e bd
       0.042692617 0.0035003424 -0.052053478 -0.06980029
0003e0 20 72 d0 bd 80 33 9a bd d4 d3 f8 3d 82 71 8b bc
       -0.101780176 -0.07529354 0.12149778 -0.017021898
0003f0 8b 3c b1 3d 17 91 ee bc 5c dd 83 bc c3 82 dd 3c
       0.08654126 -0.029121919 -0.016096763 0.027039891

lstm.weight_hh_l1 f4 [512, 128]
000000 9e 87 54 3d 99 6a 84 bd e7 a7 a1 3d b5 25 a0 bd
       0.051887147 -0.064656444 0.07893353 -0.07819692
000010 5e 45 7f 3d 24 1f d0 3c b6 92 a9 bd 3a 94 1f 3d
       0.062322013 0.025405474 -0.08279936 0.03895972
000020 bf 83 97 3d ed b3 88 3d 06 f3 3b bd 8a 87 35 3d
       0.073981754 0.06674943 -0.045886062 0.044318713
000030 48 79 09 3c af a6 9d 3d 7c eb bf 3c 62 a0 86 bd
       0.008390732 0.07697808 0.023427717 -0.06573559
000040 e0 73 59 bb a4 6c bc bc dd a7 2a bd f0 8f da 3c
       -0.003318064 -0.023001023 -0.041663993 0.026679963
000050 b0 a0 eb 3b 02 06 57 bd a6 35 90 bd e0 80 a0 bd
       0.0071907863 -0.052495964 -0.070414826 -0.07837081
000060 ed 69 81 3d a3 e0 a6 3d 97 24 93 bd 81 16 8e 3d
       0.06319032 0.08148315 -0.07184713 0.06937886
000070 ce e3 1d 3d d6 61 92 bd a4 de c2 3c f1 0b b4 3d
       0.03854733 -0.07147567 0.023787804 0.0879134
000080 02 bf 7f 3d 60 42 b9 bb 40 6e be bb bd e1 84 3d
       0.06243802 -0.0056536645 -0.0058114827 0.06488369
000090 90 26 ad 3c 47 b7 a2 bd ba d6 52 3d e7 e0 8a 3d
       0.021136552 -0.07945114 0.05147431 0.06781178
0000a0 0a c2 3a 3d 0a 18 34 3d c3 02 9b 3d 18 4c 57 bc
       0.045595206 0.043968238 0.07568886 -0.013140701
0000b0 c4 24 a9 bc 9e 3f 4d 3d ca 24 77 bd 7a c6 0f bd
       -0.020647414 0.0501095 -0.06033782 -0.03510139
0000c0 44 cc a1 3c 4e a5 6e 3d c0 17 59 bc 8c 1d de bc
       0.019750722 0.058263116 -0.013250291 -0.027113698
0000d0 f0 fc cd bb 05 d8 93 3d 90 83 26 bc c0 11 fc ba
       -0.006286256 0.07218937 -0.010163203 -0.0019231364
0000e0 2f c9 97 3d 73 6b b1 3d 37 f5 36 bd b6 41 81 bd
       0.074114196 0.086630724 -0.04466745 -0.063113615
0000f0 12 7a a9 bd e7 ac b0 bd db 9a ad 3d ac 39 a3 bd
       -0.08275236 -0.086267285 0.08476802 -0.079699844
000100 ca 3a 70 3d 0d 79 af bd 30 18 b7 3c c0 59 32 3b
       0.058649816 -0.085680105 0.0223504 0.002721414
000110 1e 58 e4 bc 80 19 e7 3a f3 bd 9a bd 62 c2 7a 3d
       -0.027874049 0.0017631501 -0.07555761 0.061220534
000120 4a 6e 37 3d c8 ae 88 bc b2 69 12 bd 18 43 03 bd
       0.044782914 -0.016684905 -0.03574533 -0.032046407
000130 54 e8 78 bd c0 7a e7 ba 9d af 1a bd e0 b8 14 3d
       -0.06076844 -0.0017660484 -0.037765134 0.036309123
000140 d5 69 9b 3d 15 6b 99 3d 5d 07 9e bd 6a 59 1d 3d
       0.07588545 0.074911274 -0.07716248 0.03841535
000150 4c d1 a2 bd f0 92 83 bb 52 26 71 bd a9 fa 89 3d
       -0.079500765 -0.004015319 -0.058874436 0.06737263
000160 ca c9 4a bd ce f1 05 3d 10 c3 0b bc ba 65 92 bd
       -0.049508847 0.032701306 -0.008530393 -0.07148309
000170 00 cc ca b9 32 6f 78 3d 86 09 41 3d bc f9 fa bc
       -0.00038680434 0.06065292 0.047128223 -0.03063666
000180 f0 63 3b bc e8 93 88 bd 80 9f 84 ba d1 df 25 bd
       -0.011437401 -0.06668836 -0.0010118335 -0.04049665
000190 32 80 78 bd f2 e9 9c bd 72 2a 65 3d fe 9c 2d 3d
       -0.06066913 -0.07661809 0.055948682 0.042386048
0001a0 e4 11 8b bc f4 35 10 3d 98 a0 0f bc c5 58 82 3d
       -0.016976304 0.035207704 -0.008766316 0.06364588
0001b0 00 5d cb 3b 22 3a 97 bd 5f d4 a6 3d 04 76 d3 bc
       0.006206155 -0.07384135 0.08145975 -0.02581311
0001c0 b0 ad 01 3c 5e 56 8a bd 1f 95 aa 3d da 1a 2a 3d
       0.0079149455 -0.067547545 0.08329224 0.041529514
0001d0 a0 13 86 bd 0b 27 83 bd c7 7b 89 3d 71 fa 86 bd
       -0.06546712 -0.06403931 0.06713062 -0.06590737
0001e0 98 f8 13 bd 00 d3 72 3c 43 32 8b 3d 33 06 a2 bd
       -0.03612575 0.014820814 0.06796696 -0.07911339
0001f0 80 af c1 3a 38 d5 0a 3c 97 6d 8a 3d 06 1f d7 bc
       0.0014777035 0.008473687 0.06759184 -0.02625991
000200 a4 b5 82 bc c7 57 a8 bd b4 07 8b bd 64 51 99 3c
       -0.015955754 -0.08219867 -0.06788579 0.018715568
000210 80 fd 21 3c 01 d4 a9 3d 1c eb ed bc 1e b9 a0 bd
       0.009887099 0.0829239 -0.029042773 -0.07847808
000220 32 52 a3 bd 90 08 3a 3c b2 5d 7e bd 5c e1 b8 3c
       -0.07974662 0.0113545805 -0.062101074 0.022568397
000230 75 84 b4 3d 09 af 8b 3d ae 18 5b bd 4c 15 94 bc
       0.08814327 0.06820495 -0.053490333 -0.018076561
000240 ea 6e 4f 3d 1b 5f a6 bd de 49 6e bd ae 01 33 bd
       0.050642885 -0.08123609 -0.058175914 -0.043702774
000250 5e 3f 3b 3d a6 aa 4d 3d 43 bf 8f bd eb 72 5a bd
       0.04571473 0.05021157 -0.07018902 -0.05333225
000260 0a 0f 7b 3d 1c 15 05 3d 80 c9 b9 bb e5 c1 b2 3d
       0.06129364 0.032490835 -0.0056697726 0.08728389
000270 dc 77 ac bc 03 a4 af 3d c0 53 0a 3b 98 13 83 bc
       -0.021053247 0.08576205 0.0021107048 -0.016000554
000280 13 87 9b 3d 21 c1 b4 bd 70 54 a6 bc 9d 52 a5 3d
       0.07594123 -0.08825899 -0.020303935 0.08072398
000290 fc ad a7 bc 57 a6 b4 3d 00 7b 0f bc be 2f 0d bd
       -0.020468704 0.08820789 -0.008757353 -0.03446936
0002a0 e9 da 87 3d 05 06 ad 3d 4e 40 3f 3d 31 ab ae 3d
       0.06633551 0.08448414 0.046692185 0.08528746
0002b0 6c 31 83 bc a0 dd f7 bb bc 57 4a bd 18 84 7f 3c
       -0.016014777 -0.0075642616 -0.049400076 0.015595458
0002c0 91 02 a5 3d d4 78 d1 bc a6 ff 01 bd ed ba 99 3d
       0.0805713 -0.02557031 -0.031737946 0.075063564
0002d0 2c 1d 82 3c d4 c3 9a 3c e0 7d 4a bc af 2a 8f 3d
       0.01588305 0.018892206 -0.0123591125 0.06990563
0002e0 0c f9 d8 3c 9c 82 a1 bc c0 6a 7e 3c e2 fb 36 3d
       0.026485942 -0.0197156 0.015528381 0.044673808
0002f0 f8 56 33 bc e4 93 94 bc f6 2a 0a bd 8e 5d 80 bd
       -0.010946028 -0.018136926 -0.033732377 -0.06267844
000300 c2 71 8f bd b8 ee 32 bd bb eb a2 bd 21 61 50 bd
       -0.070041195 -0.04368469 -0.07955118 -0.05087388
000310 f9 08 95 bd 9c b9 bb bc ff e2 87 3d 68 38 0c bc
       -0.07277102 -0.022915654 0.06635093 -0.00855837
000320 fe d0 35 3d 0e 5b 39 3d ef 94 a2 3d c0 e8 78 bb
       0.044388764 0.045252852 0.07938563 -0.0037980527
000330 5a 0a 9a bd 5f bd 96 3d 58 18 3c bc 58 3b d4 3c
       -0.07521506 0.073603384 -0.011480413 0.025907204
000340 f3 d1 92 3d ba bc 9e bd d0 43 9d 3b f2 0e 69 3d
       0.07168951 -0.077508405 0.0047993436 0.05689902
000350 de 8c 13 3d c6 de fa bc dc 5f cd bc e8 b8 2f 3c
       0.036023013 -0.030623805 -0.025070123 0.010725237
000360 50 be 9e bc ae 9c 08 3d 74 17 de 3c b8 14 1d bc
       -0.019377857 0.033352546 0.027110793 -0.009587459
000370 6f 3e 88 3d b8 8b c5 3c 4b 39 93 bd f4 7c 5e bd
       0.06652533 0.024114475 -0.07188662 -0.054318383
000380 9e 77 5f 3d 9c 3f 96 bd aa 49 fe bc d0 4a ce bb
       0.054557435 -0.07336351 -0.031040985 -0.0062955394
000390 30 95 31 bc 2e d8 72 3d 60 0b cf bc ed 53 a5 3d
       -0.010838792 0.059288196 -0.025273979 0.08072648
0003a0 6f e7 a8 3d aa 54 b3 bd 70 38 cb bc 70 27 39 3c
       0.082472675 -0.08756383 -0.024807185 0.011300907
0003b0 cf 1c 8a bd 7c c1 92 3c e4 92 bc bc 41 00 63 bd
       -0.06743776 0.017914526 -0.023019262 -0.055420164
0003c0 90 8e 87 3c 40 89 9f 3b da ba 71 3d d0 47 ae 3b
       0.016547471 0.0048686564 0.059016086 0.0053186193
0003d0 40 bf 81 3c 99 a5 97 bd 5e f1 3c 3d 16 49 6d 3d
       0.015838265 -0.07404632 0.046128623 0.05793103
0003e0 b4 73 ae bd 44 d7 75 bd 98 54 aa bc 45 3b 9c bd
       -0.08518162 -0.060019746 -0.02079229 -0.07628492
0003f0 fb 0d 86 3d f0 86 a5 bb 00 f7 bb 3a 6b 10 ab 3d
       0.06545635 -0.005051486 0.001434058 0.08352741

lstm.bias_ih_l1 f4 [512]
000000 d5 6e 48 3c bf c4 17 3d ec fc 0a bc 3c ad 23 bc
       0.012233456 0.037052866 -0.008483153 -0.009990033
000010 b0 b7 ab 3c 46 a4 ba 3d 6f 9f a2 3d de 89 1f 3d
       0.020961612 0.09113364 0.07940566 0.03894984
000020 29 4a 2c bd 11 2b fa 3d b0 12 b0 3d 40 14 cd 3d
       -0.042062912 0.122152455 0.08597314 0.10013628
000030 b9 43 13 3c 88 af f5 3b f4 39 98 3d 82 69 3a bd
       0.008988314 0.0074977316 0.07432929 -0.045510776
000040 c4 94 c1 bb bc 93 11 3c 63 3c f6 3d 13 94 00 bd
       -0.005907627 0.00888532 0.120232366 -0.031391215
000050 1b 21 a4 3b c4 48 ed 3c 9a ef b1 3d bd 6b 32 3d
       0.0050088293 0.028965361 0.086882785 0.04355978
000060 72 e4 b3 38 0a ce 02 3c 73 68 4a 3d d8 3e 9a 3d
       8.5779364e-05 0.007983694 0.049416017 0.07531518
000070 b5 06 1c 3c d0 dd e6 39 ad 92 04 bd e9 a1 cb 3d
       0.009523083 0.00044034282 -0.032366443 0.09942991
000080 8a 58 08 3e 62 db f9 3c 87 31 cf 3d 39 51 8b 3d
       0.13315025 0.030500118 0.101168685 0.06802601
000090 be 29 2f 3d 40 ea 0e 3d c2 73 04 3c fd aa 37 bd
       0.042764418 0.034891367 0.008084239 -0.0448408
0000a0 3c 84 92 3d cc 90 d2 3d 30 6b cc 3c b9 41 83 3d
       0.07154128 0.10281524 0.024953455 0.0640902
0000b0 58 5f e1 3c ab 18 51 3a 79 46 64 3d dd d4 e1 3d
       0.027511284 0.0007976393 0.05573127 0.110269286
0000c0 78 fe 39 bd 6c af c8 3b 66 ba ee 3d 1a c2 34 3d
       -0.045408696 0.0061244275 0.116566464 0.044130422
0000d0 7b e4 cb 3d eb 2f 71 3d a7 a2 f4 bc a3 5b 65 3c
       0.099556886 0.05888359 -0.029862715 0.013998899
0000e0 9c 97 c1 3d e3 33 4f bd dd ef 89 bc a9 04 97 3d
       0.09452745 -0.050586592 -0.016838009 0.07373936
0000f0 92 c5 b4 bc 5e 88 0a 3d e2 f0 95 3d ea 47 f2 bb
       -0.022066865 0.033821456 0.073213354 -0.0073938267
000100 89 c8 ae 3d 9a 90 ab 3d f0 db d5 3d dd 8f 47 3d
       0.08534343 0.0837719 0.104423404 0.048721183
000110 3f 42 64 3c a5 11 ed 3d e4 43 87 3d 55 72 ef 3b
       0.01393181 0.11575631 0.06604746 0.0073073306
000120 b4 a7 6e 3c 76 f9 37 3d 01 ee 38 bc 5d 3e fe 3d
       0.014566351 0.04491564 -0.011287213 0.124142386
000130 df bf 2c 3d 31 63 e9 bc de cc 38 3d e6 e1 fa 3d
       0.04217517 -0.028489681 0.04511725 0.12250118
000140 9a 06 b0 bc 6b 0a d0 3d c3 c8 b8 3d 18 5c 9c 3d
       -0.021487523 0.10158237 0.09022667 0.07634753
000150 27 2b f3 3c c4 60 22 bb 7f fb e8 3d 10 48 8a 3d
       0.029683663 -0.0024776915 0.11376094 0.06752026
000160 24 20 a3 3d 0c f1 82 3c 1f 4f bf bc 9f 32 c8 3d
       0.07965115 0.01598408 -0.023353158 0.0977528
000170 bd cf 91 3b 76 57 ad 3d b7 ab d8 bb ec 4a 0f 3d
       0.004449813 0.084639475 -0.006612267 0.03498356
000180 ea d8 87 3c 2c 46 d7 3c b5 39 fe 3d 73 c2 2e bd
       0.016582925 0.026278578 0.124133505 -0.04266591
000190 82 d3 e5 3d a5 78 c2 3d b1 db 4a bd 05 0b 9c 3d
       0.112219825 0.09495667 -0.04952592 0.07619289
0001a0 ae 70 c5 3d fb f8 99 3d a0 26 62 3b 5e 5c b9 3c
       0.096406326 0.075181924 0.0034507886 0.022627052
0001b0 eb e5 03 3e cf 21 91 3c b5 fa 28 3d 52 61 ed 3d
       0.12880675 0.017716317 0.041254718 0.11590828
0001c0 39 3f cd bc c8 0c ce 3c 80 49 c3 3d 14 56 9a 3d
       -0.025054561 0.025152579 0.095355034 0.07535949
0001d0 89 08 ea 3d f1 23 dc 3d e5 df a0 3c 80 ff e4 3d
       0.11427409 0.10749043 0.019638011 0.11181545
0001e0 96 e2 dd 3d ed 45 eb 3d a0 0c 6c 3d 9c dc 0b 3e
       0.108342335 0.11487947 0.057629228 0.13658375
0001f0 96 e5 14 bd 01 5d e9 3d cc b3 29 3d fd 89 40 bc
       -0.036351763 0.11394692 0.041431233 -0.011751649
000200 ea 86 36 3d a8 c7 27 bc 9b 70 87 bd 89 b5 b1 bd
       0.044562258 -0.010240473 -0.06613275 -0.08677203
000210 62 78 1d 3d 4a 56 5b bd 4c ff c8 bc 60 dc c4 3b
       0.038444884 -0.05354909 -0.024535798 0.006007716
000220 bc 1a c3 3c 28 e0 db 3c 48 0b 30 3c 0f 01 a2 3d
       0.023816459 0.026840284 0.010744877 0.07910358
000230 d1 67 19 bd 48 72 1d 3c 82 12 0f bd 80 ae 84 bd
       -0.037452523 0.009609766 -0.03492976 -0.06478596
000240 da e9 01 3d 11 fd 31 bd 2a aa 69 3d fe f3 3b 3d
       0.03171716 -0.043454234 0.057047047 0.045886986
000250 d0 46 9a bd f2 4d 4e 3d e0 90 4d bd 93 bf 58 bd
       -0.07533038 0.050367303 -0.05018699 -0.052917074
000260 3e b3 a8 bd 6c 08 c9 bc 48 2b 6d 3c a0 94 ac 3c
       -0.08237313 -0.024540149 0.014475651 0.021066964
000270 d0 fd aa bc ee 22 57 3d da 1b a1 bd b0 21 03 bc
       -0.02087298 0.052523546 -0.078666404 -0.008003637
000280 c8 76 02 3c f0 4b 52 bc 9d ac 92 3d 00 60 2e b8
       0.00796289 -0.012835488 0.071618296 -4.157424e-05
000290 a0 ee 37 bd fe 14 47 3d 65 7c ad 3d e0 82 da 3b
       -0.044905305 0.048604004 0.08470992 0.0066684335
0002a0 f0 2e d9 bb 41 74 b1 3d 58 42 42 3c fa f6 6b 3d
       -0.00662791 0.08664752 0.011856638 0.057608582
0002b0 0e cc 8d bd 26 8e 2c 3d a7 4f 98 bd 02 c5 2f 3d
       -0.06923686 0.04212775 -0.074370675 0.04291249
0002c0 20 e3 14 bc f0 4d 93 bd dc bf 83 bc 20 75 37 bb
       -0.009087354 -0.071926 -0.016082697 -0.0027993396
0002d0 0a 32 aa bd 16 64 18 bd 60 fe 56 bd 69 d0 b2 3d
       -0.083103254 -0.037204824 -0.052488685 0.08731157
0002e0 bb f6 77 bd ec 5a c4 bc d8 84 60 bd 08 43 d4 3c
       -0.060538035 -0.023969136 -0.05481419 0.02591087
0002f0 b4 83 85 3c 5c 2e b8 bc 12 3f 75 3d a2 e6 0c 3d
       0.016298153 -0.022483043 0.0598746 0.034399636
000300 0c 5c 7a bd 09 7c 86 3d fe ae 46 3d 30 3c 80 3c
       -0.06112294 0.065666266 0.04850673 0.0156537
000310 b6 91 32 3d f0 f8 b5 3c 10 f9 b8 bb 80 d6 66 bc
       0.043595992 0.02221343 -0.005644925 -0.014089227
000320 9b 59 86 3d b8 13 fb bc c0 68 a7 ba a8 90 79 bc
       0.0656006 -0.030649051 -0.0012772307 -0.015232243
000330 ec bd 98 3c 90 fe 72 bc 7a 95 7e 3d cf 9f 63 bd
       0.01864525 -0.0148312 0.06215427 -0.055572327
000340 00 a4 c4 ba c9 34 9b 3d 50 de 12 3d 0e 32 70 3d
       -0.0015002489 0.07578427 0.035856545 0.058641486
000350 00 01 19 bb 00 ac 26 bb 5a 3a 3d 3d ea 37 58 3d
       -0.0023346543 -0.002543211 0.046198227 0.0527877
000360 38 c5 5e bc 36 8d 3e 3d 6f d0 87 bd 83 ea 89 3d
       -0.013596825 0.046521388 -0.066315524 0.06734183
000370 d8 c4 67 3c 7c 49 c8 3c 30 78 90 bb 3b df 8a 3d
       0.014146052 0.024449103 -0.0044088587 0.06780859
000380 9c a7 87 bc f7 c1 a7 3d e4 1e 0d 3d f8 b0 c8 3c
       -0.016559415 0.08191293 0.034453288 0.024498448
000390 60 4c e5 3c 6b 66 8b bd de 43 08 3d 7b b5 b1 bd
       0.02799052 -0.06806644 0.03326785 -0.08677193
0003a0 6d 00 4d bd 41 c4 9e bd 18 0b 8b 3c 70 30 81 3c
       -0.050049234 -0.07752276 0.016973063 0.015770167
0003b0 55 87 9a 3d 56 e9 7d 3d 3e 22 22 3d 0e 25 5c 3d
       0.07545344 0.061990105 0.039583437 0.053746276
0003c0 c5 b3 a9 3d 36 a0 57 3d d0 bb 82 bd c6 8c 32 3d
       0.082862414 0.052643023 -0.06383479 0.043591283
0003d0 90 12 4c bc a0 88 0f bd 1c d1 b0 bc 40 50 7c bd
       -0.0124555975 -0.035042405 -0.021584086 -0.06159997
0003e0 a0 69 7f 3b fe 35 7b 3d 68 fc 92 bd f9 53 91 3d
       0.003897287 0.061330788 -0.07177049 0.07096095
0003f0 27 c9 83 3d aa 6c 0c 3d 80 d3 59 3b 3d 2d 73 bd
       0.06434851 0.034283318 0.0033237636 -0.059369314
