audio_classifier2.pth (torch, 914514 bytes, 12 tensors)

lstm.weight_ih_l0 f4 [512, 40]
0.07649678 0.028144404 -0.044262778 0.058756247 -0.048837498 0.024414616 -0.07637102 0.053131074
0.04517801 -0.085925795 -0.034521542 0.00033644575 -0.014492932 0.073438704 -0.04552863 0.06583877
0.056671355 0.0358459 0.042710662 0.05315467 0.0027168337 0.048965808 -0.08049266 -0.05725847
0.06409224 0.011536774 -0.079237536 0.049933236 0.049839858 0.051468845 -0.0025277173 -0.08151037
0.009759422 -0.06041101 -0.04293265 0.06824345 0.066951685 0.05981384 0.047488093 0.063647285
0.0018765744 0.08350656 0.0021152305 0.003158027 -0.050118893 0.069946505 -0.08826836 -0.060040306
-0.02306416 0.039557606 -0.086567976 -0.08099822 -0.07866883 -0.05526547 0.008665776 -0.067855716
-0.013582969 -0.021214034 0.06598477 0.047579605 -0.07529549 -0.06675646 0.062788315 -0.007341671
-0.0660093 -0.016846675 -0.0024419904 0.06450721 -0.060854036 0.06817363 0.059612554 -0.059553858
0.00888663 0.040232364 -0.062632106 -0.008287115 0.025929179 -0.056563884 -0.0672535 -0.01843821
0.020416103 -0.08709233 -0.01781743 -0.07049854 -0.07592762 -0.02302239 0.034069024 0.054132067
0.0004804507 -0.066703126 0.07796573 0.06163784 0.035949513 -0.07249585 -0.088180475 0.074156694
-0.02538272 0.03326997 0.022227868 -0.07045577 0.00423456 -0.044099733 -0.06682289 0.0821153
0.072417565 0.07195576 -0.051064722 -0.038803887 0.07802554 -0.045446776 0.05634997 -0.08263854
-0.0705651 -0.059327535 -0.0034245402 -0.07381604 -0.009497255 0.016756251 0.014718905 0.0776537
-0.0053682355 0.05449371 0.027507916 0.07507417 -0.020675868 0.060251623 -0.039858684 -0.02308423
0.051816605 -0.0473622 0.08603631 0.008454023 0.03164605 -0.033296965 -0.024574852 -0.0004603899
-0.04030061 -0.009387256 0.024543563 -0.03467089 0.020544995 0.03165804 -0.035052776 0.019733287
0.08298502 -0.01599797 -0.051054552 -0.030787729 0.059005823 0.06443872 0.08677125 -0.03752374
0.03373633 0.0843687 -0.045659967 -0.036007565 0.055137277 -0.0895365 -0.0038853292 0.03264601
0.001375368 0.020978099 -0.07264093 0.055079665 0.08007911 0.07085564 -0.01674758 -0.015398473
-0.03911997 -0.03806917 -0.08115749 0.015161939 -0.0037051674 0.0370596 -0.0528774 0.078806005
0.034122046 -0.010174262 0.058051556 -0.0012427749 -0.08018043 0.056749485 0.06258669 0.012624876
0.033776835 0.066056006 0.005861225 0.069131285 -0.070134215 -0.05278268 0.03535648 -0.0586357
-0.005161992 -0.04915018 -0.05184824 -0.08194246 -0.03876349 0.0654195 0.036840316 0.008213233
-0.030002587 0.08769345 0.0114056105 0.03376215 0.08308164 0.072033815 -0.029952629 0.063872784
-0.030833365 0.06579592 0.028931895 0.06283019 0.075499974 -0.06103764 0.057713024 0.07404692
0.07582858 0.040142868 -0.07686705 -0.06968559 -0.06773277 0.048691317 -0.06146939 0.039332584
0.07045422 -0.02598163 0.08027297 -0.037590366 -0.002620934 0.01507283 -0.053618267 -0.052691437
0.041127563 -0.02404861 0.009952889 -0.0067224554 -0.07722016 -0.069669075 -0.029253071 0.04178764
0.08178487 -0.037999522 -0.05698875 -0.018909756 -0.08692916 -0.07197339 -0.05210096 -0.044412773
-0.025242332 0.062134825 -0.005579046 -0.08598231 0.017429784 -0.048586555 -0.06410055 0.089457475
00000000: 58aa 9c3d 188f e63c e34c 35bd 64aa 703d
00000010: d409 48bd 2901 c83c 6968 9cbd f89f 593d
00000020: 940c 393d ddf9 afbd 7666 0dbd fc64 b039
00000030: c373 6dbc 0867 963d 3b7c 3abd 7ad6 863d
00000040: 3920 683d 27d3 123d 60f1 2e3d b6b8 593d
00000050: e80c 323b 5f90 483d 56d9 a4bd dc87 6abd
00000060: cb42 833d bd04 3d3c 4a47 a2bd cb86 4c3d
00000070: e124 4c3d ffd0 523d 0fa8 25bb e9ee a6bd
00000080: fce5 1f3c 8971 77bd 25da 2fbd 39c3 8b3d
00000090: f71d 893d 5bff 743d e082 423d 8259 823d
000000a0: 63f7 f53a 7d05 ab3d ae9f 0a3b e7f6 4e3b
000000b0: 7849 4dbd 1d40 8f3d 0bc6 b4bd d3ec 75bd
000000c0: 0df1 bcbc 2807 223d 8d4a b1bd 65e2 a5bd
000000d0: 201d a1bd 0c5e 62bd e6fa 0d3c f0f7 8abd
000000e0: 1a8b 5ebc 0ec9 adbc 0623 873d d5e2 423d
000000f0: 8634 9abd 9cb7 88bd 2997 803d 6692 f0bb
00000100: e22f 87bd 0a02 8abc cd09 20bb 5b1c 843d
00000110: 1542 79bd 9e9e 8b3d 4b2c 743d bfee 73bd
00000120: 3a99 113c b1ca 243d 4345 80bd aec6 07bc
00000130: 6e69 d43c 88af 67bd 34bc 89bd bb0b 97bc
00000140: ac3f a73c 775d b2bd dcf5 91bc 8a61 90bd
00000150: f17f 9bbd 7499 bcbc f68b 0b3d 96b9 5d3d
00000160: 00e5 fb39 a69b 88bd 7fac 9f3d f677 7c3d
00000170: cc3f 133d b478 94bd f797 b4bd 77df 973d
00000180: 6cef cfbc 1846 083d 3817 b63c 1d4b 90bd
00000190: 10c2 8a3b eca1 34bd 70da 88bd 112c a83d
000001a0: a94f 943d 8b5d 933d 3e29 51bd d3f0 1ebd
000001b0: dbcb 9f3d 6626 3abd 3acf 663d 653e a9bd
000001c0: 6f84 90bd 6e01 73bd 406e 60bb dd2c 97bd
000001d0: 609a 1bbc 6844 893c 9027 713c e708 9f3d
000001e0: 06e8 afbb cc34 5f3d 4858 e13c 7dc0 993d
000001f0: 7060 a9bc 68ca 763d dc42 23bd 241b bdbc
00000200: a63d 543d defe 41bd ce33 b03d be82 0a3c
00000210: 4a9f 013d 6662 08bd 3351 c9bc 7d60 f1b9
00000220: 4112 25bd 01cd 19bc 950f c93c 1003 0ebd
00000230: fa4d a83c dcab 013d 8093 0fbd b4a7 a13c
00000240: 0df4 a93d 2d0e 83bc 941e 51bd 8c36 fcbc
00000250: 17b0 713d 73f8 833d 20b5 b13d 7eb2 19bd
00000260: 1b2f 0a3d 7fc9 ac3d f205 3bbd ab7c 13bd
00000270: a0d7 613d ea5e b7bd 02a1 7ebb d3b7 053d
00000280: b145 b43a 43da ab3c c5c4 94bd 379b 613d
00000290: 8400 a43d c31c 913d 3932 89bc e049 7cbc
000002a0: 433c 20bd 6bee 1bbd e635 a6bd c869 783c
000002b0: 65d2 72bb cfcb 173d f995 58bd 0b65 a13d
000002c0: 8fc3 0b3d f3b1 26bc 78c7 6d3d 9be4 a2ba
000002d0: a335 a4bd 2672 683d 732d 803d 91d8 4e3c
000002e0: 9459 0a3d 5f48 873d 850f c03b b494 8d3d
000002f0: 87a2 8fbd a732 58bd f5d1 103d fd2b 70bd
00000300: ed25 a9bb b351 49bd d25e 54bd 73d1 a7bd
00000310: 77c6 1ebd a9fa 853d dfe5 163d cc90 063c
00000320: fcc7 f5bc a098 b33d 99de 3a3c 2e4a 0a3d
00000330: b526 aa3d 7786 933d 375f f5bc bccf 823d
00000340: 4196 fcbc 03c0 863d 9502 ed3c 1dad 803d
00000350: bb9f 9a3d 9b02 7abd 7e64 6c3d e9a5 973d
00000360: 044c 9b3d d96c 243d 796c 9dbd 52b7 8ebd
00000370: 7bb7 8abd 8c70 473d 54c7 7bbd 341b 213d
00000380: 4d4a 903d 6dd7 d4bc 2866 a43d 5bf8 19bd
00000390: fac3 2bbb 08f4 763c d49e 5bbd fad2 57bd
000003a0: 6075 283d 9701 c5bc 7111 233c 0b48 dcbb
000003b0: 9a25 9ebd a9ae 8ebd 23a4 efbc 8429 2b3d
000003c0: d37e a73d 63a5 1bbd 096d 69bd a2e8 9abc
000003d0: ea07 b2bd c966 93bd d167 55bd 2bea 35bd
000003e0: 02c9 cebc 1681 7e3d 6ed0 b6bb 7e17 b0bd
000003f0: e8c8 8e3c b202 47bd 2647 83bd 7b35 b73d

lstm.weight_hh_l0 f4 [512, 128]
0.02363655 -0.04031538 0.08759228 -0.07464988 -0.067235984 -0.008316986 -0.011314176 0.005042754
0.044803955 0.019921295 -0.07418059 0.049186 -0.06265965 -0.017871246 0.049401917 0.07560875
-0.058960102 0.075644724 -0.033815205 -0.0067550316 0.024904333 -0.055445854 0.025175251 0.041863136
0.008627579 -0.049783055 -0.04984992 0.04350572 -0.045241144 0.025344715 -0.043979287 0.04022976
-0.019254386 0.0017180145 0.05869519 -0.048385203 0.023818098 -0.0755264 0.005063288 -0.070706606
-0.06931262 0.071944065 0.055637978 -0.070120126 -0.006164819 0.077054806 0.007383056 -0.06024938
0.037675627 -0.037888635 -0.055543456 0.006737277 0.080397405 -0.02376192 0.07171141 0.067870505
0.075925194 -0.063360095 -0.011710472 0.06093932 -0.023646586 0.072531514 0.082406335 -0.010030493
-0.0011110306 -0.019677795 -0.031020734 -0.0004968345 0.031455323 0.0749316 -0.014178157 -0.084500745
0.07000438 0.013150737 0.0222352 0.031738892 0.07056419 0.0070703775 -0.058964904 0.017932482
0.07012042 0.08191792 -0.03460034 0.029447943 -0.030788336 0.07502086 0.0051166713 -0.0824849
-0.016453013 0.075002335 0.055061586 0.07536838 -0.06655936 -0.03465535 0.018179052 -0.0768482
0.054727383 0.078980304 -0.06903384 0.04482112 -0.04153631 0.024577588 0.006542802 -0.07739633
0.0024440512 0.0470367 -0.06617329 -0.08770193 -0.06593975 -0.031208709 -0.06632991 -0.013974838
-0.01027289 0.054435737 -0.068333045 -0.029509094 -0.028487138 0.04352335 0.048258 -0.021722056
-0.030574378 0.017554246 0.013637394 -0.01935678 0.054131843 0.030289657 -0.061098546 0.042125486
-0.0126796365 -0.06627073 0.046878792 0.02370809 0.038631 -0.0814259 0.04822185 -0.056565568
0.0017123297 0.03181319 0.042269744 -0.061640926 -0.032816917 0.0013255253 0.014723957 -0.0014802888
-0.07201394 0.06905491 -0.0019152462 -0.081559725 -0.0016353801 0.057188116 0.08291022 0.0659251
0.04912164 -0.06842425 0.073243774 0.058563523 -0.07800252 -0.08357078 -0.0316469 -0.0029871762
0.0086667165 0.017399207 -0.031021345 0.045146696 -0.014917158 0.0005027503 0.0011733919 0.074528016
-0.06448914 0.032525674 -0.04615672 -0.055858586 0.029274076 -0.0025255233 -0.0074032173 0.013150699
-0.017789245 -0.021229073 -0.057592385 0.036926262 0.065640666 0.07371905 0.029652528 -0.07248373
0.003881082 0.0036595985 0.06663666 -0.044713803 0.00050246716 -0.023829259 -0.030052938 0.022514887
0.034893937 -0.012972631 -0.020302631 0.036729254 -0.07593122 0.07761463 0.02891671 -0.020301491
-0.017324291 -0.04554495 -0.0276891 0.082756944 -0.019000866 -0.047079504 -0.06370175 -0.027536318
-0.048457254 -0.06934485 0.086107366 -0.046330005 0.057034798 -0.022909291 -0.07868527 -0.010447875
0.07397539 0.055782013 0.041719623 -0.046120062 -0.033410806 -0.07338448 -0.07189286 0.08472987
-0.03763996 -0.015476942 -0.08396866 -0.082708634 -0.020649038 0.07331709 0.03814187 0.06772586
-0.027744513 0.047126062 -0.07233335 -0.0031606331 -0.01980257 0.048984773 -0.07044368 0.05986484
-0.03544707 -0.0048236996 -0.050577093 -0.068827964 0.06911319 -0.02984291 -0.06840507 -0.050288893
-0.008639716 -0.045140885 0.010361709 -0.03964364 0.022312887 -0.04521948 0.04169675 0.015125617
00000000: 70a1 c13c bd21 25bd 9563 b33d 09e2 98bd
00000010: 05b3 89bd f843 08bc 185f 39bc b03d a53b
00000020: 5a84 373d fc31 a33c feeb 97bd 4277 493d
00000030: b453 80bd b866 92bc aa59 4a3d c3d8 9a3d
00000040: 2680 71bd 9feb 9a3d d081 0abd 5059 ddbb
00000050: 2c04 cc3c 311b 63bd 543c ce3c ae78 2b3d
00000060: b05a 0d3c 51e9 4bbd 6e2f 4cbd 0e33 323d
00000070: c74e 39bd b89f cf3c a023 34bd f6c7 243d
00000080: 60bb 9dbc 002f e13a 5e6a 703d 902f 46bd
00000090: 2c1e c33c 96ad 9abd f0e9 a53b a0ce 90bd
000000a0: c6f3 8dbd 6957 933d a6e4 633d 249b 8fbd
000000b0: 4002 cabb e9ce 9d3d 90ed f13b 0ec8 76bd
000000c0: c251 1a3d 1d31 1bbd 8981 63bd 60c4 dc3b
000000d0: 65a7 a43d 5ca8 c2bc 6fdd 923d b1ff 8a3d
000000e0: ab7e 9b3d f0c2 81bd 48dd 3fbc 829b 793d
000000f0: 7cb6 c1bc 678b 943d a7c4 a83d f056 24bc
00000100: 00a0 91ba 5433 a1bc 321f febc 003e 02ba
00000110: 4cd7 003d bd75 993d 804b 68bc ba0e adbd
00000120: 755e 8f3d 3076 573c 9826 b63c a400 023d
00000130: f583 903d a0ae e73b 2f85 71bd 24e7 923c
00000140: 4b9b 8f3d 95c4 a73d 16b9 0dbd d03c f13c
00000150: d237 fcbc 89a4 993d c0a9 a73b d8ed a8bd
00000160: 78c8 86bc d39a 993d 4288 613d bd5a 9a3d
00000170: 4650 88bd c5f2 0dbd 3cec 943c 9762 9dbd
00000180: d229 603d 6dc0 a13d 9d61 8dbd 5a96 373d
00000190: fa21 2abd f056 c93c 0065 d63b f881 9ebd
000001a0: 602c 203b 8ea9 403d dd85 87bd 129d b3bd
000001b0: 6b0b 87bd 68a9 ffbc fad7 87bd b8f6 64bc
000001c0: a04f 28bc 02f8 5e3d 32f2 8bbd 0ebd f1bc
000001d0: dc5d e9bc 8a45 323d 2eaa 453d 74f2 b1bc
000001e0: 1e77 fabc eccd 8f3c 606f 5f3c 1c92 9ebc
000001f0: 5ab9 5d3d 0422 f83c 7842 7abd c68b 2c3d
00000200: 40be 4fbc f3b8 87bd fa03 403d 7837 c23c
00000210: 8a3b 1e3d 9fc2 a6bd 4684 453d 4cb1 67bd
00000220: 4070 e03a 8c4e 023d 0a23 2d3d 327b 7cbd
00000230: 086b 06bd 40bd ad3a c03c 713c 4006 c2ba
00000240: 0b7c 93bd a96c 8d3d 0009 fbba c908 a7bd
00000250: 405a d6ba 163e 6a3d d5cc a93d bd03 873d
00000260: c633 493d 0322 8cbd d500 963d 4ee0 6f3d
00000270: c9bf 9fbd 2827 abbd 2ea0 01bd 80c4 43bb
00000280: d8fe 0d3c c888 8e3c 7a20 febc beeb 383d
00000290: 1867 74bc 00cb 033a 80cc 993a 25a2 983d
000002a0: e212 84bd a439 053d d40e 3dbd f9cb 64bd
000002b0: 30d0 ef3c 4083 25bb b096 f2bb 0876 573c
000002c0: c0ba 91bc 98e8 adbc fee5 6bbd fe3f 173d
000002d0: 9d6e 863d 03fa 963d dce9 f23c 5a72 94bd
000002e0: c059 7e3b e0d5 6f3b cd78 883d d225 37bd
000002f0: 00b8 033a 9435 c3bc 9431 f6bc 2471 b83c
00000300: f2ec 0e3d 288b 54bc b451 a6bc 6a71 163d
00000310: d481 9bbd 6bf4 9e3d bce2 ec3c 504f a6bc
00000320: aceb 8dbc 578d 3abd 40d4 e2bc 797c a93d
00000330: b4a7 9bbc 70d6 40bd 1076 82bd d893 e1bc
00000340: 1d7b 46bd ac04 8ebd 0f59 b03d 88c4 3dbd
00000350: 529d 693d 44ac bbbc be25 a1bd 902d 2bbc
00000360: 6980 973d ae7b 643d 32e2 2a3d 64e8 3cbd
00000370: c5d9 08bd 9a4a 96bd 903c 93bd db86 ad3d
00000380: 5c2c 1abd 0093 7dbc c3f7 abbd 2563 a9bd
00000390: 2c28 a9bc 4527 963d a63a 1c3d dbb3 8a3d
000003a0: 7648 e3bc 4207 413d 8223 94bd a022 4fbb
000003b0: 0039 a2bc 42a4 483d c744 90bd d634 753d
000003c0: f230 11bd 2010 9ebb ed29 4fbd adf5 8cbd
000003d0: 378b 8d3d 1e79 f4bc f517 8cbd bafb 4dbd
000003e0: 988d 0dbc a6e5 38bd 28c4 293c 5f61 22bd
000003f0: 84c9 b63c 1038 39bd 36ca 2a3d 70d1 773c

lstm.bias_ih_l0 f4 [512]
0.05901927 0.039915014 0.07368613 0.019210642 -0.00097307685 -0.02646819 -0.02174607 0.00352999
0.07047219 0.07656451 0.06771517 0.034913577 0.051429674 0.0039084414 -0.03207237 -0.036246914
0.0027368106 0.076311804 -0.034799315 0.021769363 -0.027672684 0.05825593 0.045879554 -0.08601466
-0.007646152 0.052920002 0.021954304 -0.004120276 -0.021151876 0.012425832 -0.050629545 -0.066520944
-0.030182974 -0.030094903 0.07565114 0.008838706 -0.06584991 -0.08624305 -0.034688972 0.025711294
-0.058094162 -0.076881 -0.06543927 -0.030227669 0.087839745 -0.051005375 -0.063383214 0.06144786
-0.0007407314 -0.032147527 0.06718836 0.0792133 -0.043169692 0.04730042 -0.026210759 0.007978802
0.0774611 0.05703403 0.034970853 0.082162015 0.029316287 -0.025163768 -0.029485451 -0.0077739204
-0.044282652 0.054896966 0.017683094 -0.0048530153 -0.063454874 -0.03857498 -0.033144843 -0.077574484
0.022266008 0.033202752 -0.046284392 0.094285995 0.017463269 -0.0698574 0.04952102 0.03828296
-0.037317645 -0.0011226784 -0.026809003 0.08506913 0.012763287 -0.033328265 -0.048576046 0.01724092
-0.08633959 -0.06644025 0.036234975 0.08878945 0.039969902 0.0053598443 0.017782625 -0.07814055
-0.05271543 0.014877364 -0.06990974 0.034469355 0.043306172 -0.03936026 0.008769591 -0.00065495196
0.05176384 -0.056976426 -0.052175675 0.036812786 0.06795122 0.031015584 0.08826259 -0.013595633
-0.006454058 -0.053820156 -0.057604965 -0.035084564 0.033080366 0.07748828 0.014460183 -0.028404923
-0.08667551 0.053100318 -0.019538179 -0.045522835 -0.071109146 -0.022434674 -0.08036941 -0.06462396
0.028205179 -0.07827246 -0.024691395 -0.0852397 0.01479879 -0.029858366 -0.027745038 0.076130174
-0.07761339 -0.085996985 0.0022681653 -0.040525246 0.033800274 -0.025350109 -0.07906385 0.013024047
-0.01728674 0.037808754 -0.011686295 -0.04317891 0.052784227 -0.036925096 0.019350998 0.082416765
-0.058141008 0.04215326 0.04028254 0.032977857 -0.07995777 0.019454397 0.004025437 0.07707148
0.025349535 0.028618142 -0.05183385 -0.006057471 0.022416547 0.044531398 0.079187654 -0.01248277
-0.049049594 -3.3527613e-05 0.0093912855 0.058144636 0.013834871 -0.087837875 -0.022646986 0.07398821
-0.020800859 -0.010054313 0.05698874 0.018405505 -0.028237429 -0.034457408 -0.07790416 -0.014053412
0.045893155 0.04588086 0.075303726 -0.027011916 0.04726974 0.036678426 -0.08270288 -0.023474291
-0.03675403 0.0016154349 -0.048465103 -0.055237774 -0.008078501 0.05146279 -0.079996645 -0.066819236
-0.08655543 0.058217175 0.016094334 0.06686234 0.030006312 0.027971737 0.004837036 0.02504532
-0.02394469 0.004804224 -0.08612433 0.0027117282 -0.07332912 -0.0882147 -0.020237789 0.025638454
-0.051187158 0.069433324 -0.042045653 -0.06573907 0.022612132 0.057923727 0.072159834 -0.06402791
0.004299529 -0.045935366 0.06398431 0.014842212 -0.07852526 -0.0024081022 -0.01434318 0.07785081
-0.06439305 -0.08090683 0.0017341971 -0.0064237937 -0.015807219 -0.0044473484 0.009863436 -0.028045997
0.01881747 0.060697816 0.005690865 0.07359814 0.0042047203 -0.029195964 0.08326677 -0.0766099
-0.057520226 -0.07519446 -0.061451092 0.045670293 0.01058922 -0.044687018 -0.0808825 -0.04265692
00000000: 31be 713d ed7d 233d c1e8 963d a35f 9d3c
00000010: 1516 7fba d1d3 d8bc d024 b2bc 6857 673b
00000020: b953 903d dbcd 9c3d 40ae 8a3d 8a01 0f3d
00000030: eca7 523d 6212 803b 515e 03bd a577 14bd
00000040: 105c 333b 5d49 9c3d ba89 0ebd aa55 b23c
00000050: d3b1 e2bc c59d 6e3d 33ec 3b3d 7428 b0bd
00000060: 928c fabb a5c2 583d 83d9 b33c 6103 87bb
00000070: b346 adbc b895 4b3c ed60 4fbd 223c 88bd
00000080: 4942 f7bc 9689 f6bc fcee 9a3d 38d0 103c
00000090: 51dc 86bd 32a0 b0bd 0616 0ebd 7ea0 d23c
000000a0: 25f4 6dbd c973 9dbd 0605 86bd 04a0 f7bc
000000b0: 53e5 b33d 03eb 50bd 0fcf 81bd c0b0 7b3d
000000c0: a52d 42ba 20ad 03bd 0d9a 893d 953a a23d
000000d0: b4d2 30bd 16be 413d f2b7 d6bc 85b9 023c
000000e0: eda3 9e3d 849c 693d 993d 0f3d 8f44 a83d
000000f0: b628 f03c 3f24 cebc 798b f1bc 5fbc febb
00000100: ba61 35bd a4db 603d 23dc 903c 0b06 9fbb
00000110: a1f4 81bd cc00 1ebd e3c2 07bd 5fdf 9ebd
00000120: 3467 b63c 9cff 073d b494 3dbd 0419 c13d
00000130: 210f 8f3c 6611 8fbd 8ed6 4a3d 98ce 1c3d
00000140: 63da 18bd d626 93ba 8e9e dbbc b938 ae3d
00000150: 1b1d 513c 3883 08bd adf7 46bd d43c 8d3c
00000160: d0d2 b0bd d311 88bd 206b 143d 3ed7 b53d
00000170: 7bb7 233d a2a1 af3b deac 913c 2708 a0bd
00000180: 22ec 57bd 30c0 733c d62c 8fbd bd2f 0d3d
00000190: d061 313d 3938 21bd 55ae 0f3c 15b1 2bba
000001a0: 5206 543d 1d60 69bd 29b6 55bd 01c9 163d
000001b0: 022a 8b3d 6514 fe3c 04c3 b43d 38c0 5ebc
000001c0: 907c d3bb 8672 5cbd 2ff3 6bbd d5b4 0fbd
000001d0: 477f 073d 2db2 9e3d 67ea 6c3c 71b1 e8bc
000001e0: ee82 b1bd b87f 593d 880e a0bc 2776 3abd
000001f0: aca1 91bd ecc8 b7bc b898 a4bd 9159 84bd
00000200: 8c0e e73c 504d a0bd 9c45 cabc 2792 aebd
00000210: a076 723c 8899 f4bc 9049 e3bc 23ea 9b3d
00000220: c5f3 9ebd 301f b0bd 80a5 143b cdfd 25bd
00000230: 2872 0a3d 08ab cfbc 3aec a1bd d062 553c
00000240: ec9c 8dbc 5add 1a3d e077 3fbc 5edc 30bd
00000250: 4634 583d c53e 17bd fc85 9e3c 1fca a83d
00000260: 4425 6ebd e6a8 2c3d 4eff 243d ca13 073d
00000270: e6c0 a3bd d45e 9f3c d0e7 833b a7d7 9d3d
00000280: d4a9 cf3c 9870 ea3c bb4f 54bd c07d c6bb
00000290: e8a2 b73c 8e66 363d 232d a23d 8884 4cbc
000002a0: 3ae8 48bd 00a0 0cb8 e8dd 193c 1229 6e3d
000002b0: a8ab 623c 58e4 b3bd 2c86 b9bc 2187 973d
000002c0: 9066 aabc d8ba 24bc 066d 693d 24c7 963c
000002d0: 2e52 e7bc 3623 0dbd 378c 9fbd 4840 66bc
000002e0: 76fa 3b3d 92ed 3b3d d738 9a3d 1848 ddbc
000002f0: ea9d 413d 1e3c 163d 2160 a9bd 284d c0bc
00000300: 658b 16bd 00bd d33a 5883 46bd 0141 62bd
00000310: b05b 04bc a6ca 523d 48d5 a3bd 86d8 88bd
00000320: f943 b1bd 2275 6e3d 44d8 833c 1fef 883d
00000330: cccf f53c fc24 e53c 0080 9e3b d82b cd3c
00000340: a827 c4bc c06c 9d3b f461 b0bd 40b7 313b
00000350: 942d 96bd e9a9 b4bd b8c9 a5bc bc07 d23c
00000360: a0a9 51bd 0f33 8e3d 1038 2cbd 35a2 86bd
00000370: 143d b93c 6e41 6d3d 89c8 933d 1121 83bd
00000380: 10e3 8c3b b926 3cbd 350a 833d c02c 733c
00000390: dad1 a0bd 40d1 1dbb a8ff 6abc 3f70 9f3d
000003a0: 81e0 83bd 7bb2 a5bd 004e e33a b07e d2bb
000003b0: 247e 81bc 10bb 91bb 409a 213c b8c0 e5bc
000003c0: 1827 9a3c 469e 783d 707a ba3b 9fba 963d
000003d0: c0c7 893b 602c efbc c587 aa3d a7e5 9cbd
000003e0: 549a 6bbd 8eff 99bd 24b4 7bbd c610 3b3d
000003f0: 687e 2d3c bc09 37bd b9a5 a5bd 06b9 2ebd

lstm.bias_hh_l0 f4 [512]
-0.081242986 0.07380618 -0.07337995 0.06255078 -0.048925377 -0.018121252 0.0066937674 -0.006760679
0.011519646 -0.020122334 0.029420478 -0.012898928 0.07521085 0.076665245 -0.021884993 -0.034889188
-0.016627066 0.022133255 -0.04367839 -0.05053921 -0.0786073 0.041505713 0.053775575 -0.045024466
0.0434642 0.016187115 -0.07794382 0.07570558 -0.02655092 -0.02910769 -0.014381513 0.05180105
-0.03078342 0.050080486 -0.06109219 0.03834617 0.010453878 0.06305658 -0.029321432 -0.02968331
-0.0076307873 0.028889637 -0.0038009074 0.04305118 4.204468e-05 0.04597441 -0.08276287 -0.018268123
-0.017435703 0.05515317 -0.010534413 -0.011408299 -0.086944334 -0.069943495 0.003374018 0.049826708
-0.06215682 0.030657884 0.03965607 -0.07399661 -0.0422052 0.004061131 0.035874363 0.010981232
-0.08430797 0.008334263 0.04755083 -0.01696604 -0.037792817 -0.08594377 -0.045365144 -0.00938482
-0.048096046 -0.05179486 -0.0062412415 -0.04462202 0.055407435 -0.037502665 0.017612144 -0.08874149
0.05967677 0.06041246 -0.026826074 -0.024895933 -0.024634605 0.032982536 -0.048652425 0.019804299
0.043014403 -0.033461384 -0.07418537 -0.023024498 -0.054968514 -0.013213453 -0.06780979 0.017662043
-0.02315349 -0.067604505 0.004938528 0.012090658 -0.004331662 0.0048402566 -0.0016560762 -0.07035055
-0.05185076 0.049910348 -0.020632109 -0.048266783 -0.05597536 -0.067223154 0.019279623 -0.07655503
-0.06467598 0.0082911225 0.025152765 0.038416155 0.088118166 0.07859888 -0.08059365 -0.0057100323
0.013134229 -0.03534554 -0.03965774 0.015387588 0.029924348 -0.060524993 0.06953435 0.008428636
-0.0869566 -0.018918507 -0.060959496 0.06570337 -0.012310185 0.08469019 0.08280031 -0.03211416
0.05542078 -0.039194588 0.020392753 -0.060718454 -0.03834495 -0.080716185 -0.029090028 0.08264216
-0.023763321 0.08350525 -0.07397426 0.045152746 -0.027054556 0.05131281 -0.053591594 -0.04651993
0.008596569 0.0477368 0.018659793 0.0007348433 -0.045477796 0.007512599 -0.01286304 0.076067574
-0.007899858 0.0028539598 0.0400159 -0.07753614 0.04353387 0.043584533 0.020951703 0.07639051
0.049677886 -0.0051402077 0.0005189851 0.026804648 -0.057868086 0.080536805 0.050778903 0.020606898
-0.026932321 0.037773035 0.07618251 -0.039417703 -0.081876844 -0.07777117 -0.022149831 0.0040294603
-0.07998894 -0.0713769 0.050618403 -0.05825216 -0.07905409 0.030355342 -0.037377544 -0.06776689
-0.083906904 -0.081709206 -0.071148664 -0.013449505 0.084737144 0.004488766 -0.05540887 -0.08502053
-0.06799981 -0.07017979 -0.018804848 0.04877817 0.036111347 -0.08640599 0.08143767 0.024358414
0.047659732 0.078306384 -0.03731098 -0.026310466 -0.030725043 -0.07777412 -0.022789963 -0.079892375
-0.06337586 0.031243332 0.032171026 -0.050990596 -0.008487068 -0.0077118427 -0.019106157 -0.04173934
0.003704831 -0.02918626 -0.05625641 0.061070196 0.033998452 0.008034125 0.02585262 0.06332298
0.020214997 -0.07300703 0.024509348 -0.016798519 -0.08721974 -0.0386491 0.048798032 0.06853516
-0.07138503 0.035651974 -0.08352534 -0.006306991 -0.008367896 -0.0018590018 0.07911598 -0.08147445
-0.008444428 0.047855593 0.037968628 -0.08569388 -0.039823588 -0.027622223 0.023951896 0.075667255
00000000: b962 a6bd b227 973d 3a48 96bd a01a 803d
00000010: fa65 48bd 0573 94bc 6457 db3b b088 ddbb
00000020: e6bc 3c3c 98d7 a4bc 3703 f13c 0656 53bc
00000030: 2508 9a3d ab02 9d3d 2848 b3bc f7e7 0ebd
00000040: 7c35 88bc cd50 b53c 1de8 32bd 3402 4fbd
00000050: ddfc a0bd e501 2a3d c743 5c3d 936b 38bd
00000060: 8407 323d d79a 843c 02a1 9fbd 870b 9b3d
00000070: 5181 d9bc 4073 eebc 70a0 6bbc 562d 543d
00000080: 832d fcbc 3221 4d3d ce3b 7abd e010 1d3d
00000090: be46 2b3c cf23 813d 8033 f0bc 6a2a f3bc
000000a0: af0b fabb f6a9 ec3c a518 79bb 6f56 303d
000000b0: 2259 3038 aa4f 3c3d 947f a9bd 08a7 95bc
000000c0: 52d5 8ebc 4ae8 613d 8898 2cbc e0e9 3abc
000000d0: df0f b2bd 893e 8fbd a11e 5d3b 1717 4c3d
000000e0: 2698 7ebd 3e26 fb3c 676e 223d 898b 97bd
000000f0: 5cdf 2cbd 3c13 853b fff0 123d a0ea 333c
00000100: a8a9 acbd 6f8c 083c a9c4 423d 5dfc 8abc
00000110: a4cc 1abd 4a03 b0bd cdd0 39bd cac2 19bc
00000120: 5c00 45bd d926 54bd 5483 ccbb 94c5 36bd
00000130: e8f2 623d 659c 19bd 5847 903c 19be b5bd
00000140: a16f 743d 0e73 773d 5bc2 dbbc 8ef2 cbbc
00000150: 83ce c9bc b218 073d c447 47bd a03c a23c
00000160: df2f 303d ce0e 09bd 80ee 97bd df9d bcbc
00000170: aa26 61bd 3d7d 58bc dcdf 8abd fdaf 903c
00000180: 63ac bdbc 3b74 8abd 60d3 a13b e517 463c
00000190: 9df0 8dbb 049b 9e3b b210 d9ba f313 90bd
000001a0: 7661 54bd cb6e 4c3d ab04 a9bc 64b3 45bd
000001b0: 6b46 65bd 4bac 89bd 4df0 9d3c e2c8 9cbd
000001c0: d774 84bd 7dd7 073c 2c0d ce3c 425a 1d3d
000001d0: 4c77 b43d 73f8 a03d 490e a5bd 391b bbbb
000001e0: f330 573c 7cc6 10bd 2870 22bd 391c 7c3c
000001f0: e823 f53c 0ee9 77bd 0668 8e3d 4318 0a3c
00000200: 4d16 b2bd fcfa 9abc aab0 79bd 7d8f 863d
00000210: a8b0 49bc 0d72 ad3d 3593 a93d 238a 03bd
00000220: e600 633d 818a 20bd b40e a73c eab3 78bd
00000230: 980f 1dbd 874e a5bd 364e eebc 4b40 a93d
00000240: 4cab c2bc cd04 ab3d d17f 97bd 16f2 383d
00000250: 84a1 ddbc 622d 523d dc82 5bbd af8b 3ebd
00000260: a0d8 0c3c aa87 433d 6cdc 983c 80a2 403a
00000270: ed46 3abd 402c f63b 80bf 52bc 51c9 9b3d
00000280: 686e 01bc 8009 3b3b b6e7 233d 45cb 9ebd
00000290: 9250 323d b285 323d e8a2 ab3c a172 9c3d
000002a0: 0a7b 4b3d 306f a8bb 800c 083a 6c95 db3c
000002b0: 1607 6dbd 7bf0 a43d 8afd 4f3d cccf a83c
000002c0: 2ca1 dcbc e6b7 1a3d 9305 9c3d 7574 21bd
000002d0: 0caf a7bd 7e46 9fbd 9073 b5bc 9009 843b
000002e0: 3ed1 a3bd 0d2e 92bd 3e55 4f3d d199 6ebd
000002f0: 1ce7 a1bd c4ab f83c 3219 19bd 5ec9 8abd
00000300: 62d7 abbd 2857 a7bd 64b6 91bd 505b 5cbc
00000310: ab8a ad3d 8016 933b 69f4 62bd 3e1f aebd
00000320: 7c43 8bbd 6cba 8fbd a00c 9abc 9ecb 473d
00000330: 7ee9 133d a0f5 b0bd cbc8 a63d 4c8b c73c
00000340: da36 433d 195f a03d 66d3 18bd 0c89 d7bc
00000350: 16b3 fbbc 0a48 9fbd 04b2 babc 9d9e a3bd
00000360: 34cb 81bd 04f2 ff3c c4c5 033d 84db 50bd
00000370: 580d 0bbc a0b3 fcbb 8484 9cbc dff6 2abd
00000380: c0cc 723b 0618 efbc 1f6d 66bd be24 7a3d
00000390: f641 0b3d 90a1 033c e0c8 d33c 7baf 813d
000003a0: ec99 a53c b684 95bd d4c7 c83c 0c9d 89bc
000003b0: 43a0 b2bd 854e 1ebd 72e0 473d 295c 8c3d
000003c0: 5132 92bd ce07 123d 550f abbd e0aa cebb
000003d0: 8019 09bc c0a9 f3ba 8f07 a23d 14dc a6bd
000003e0: 805a 0abc 3a04 443d fe84 1b3d 4680 afbd
000003f0: 0f1e 23bd 0048 e2bc c436 c43c 6ff7 9a3d

lstm.weight_ih_l1 f4 [512, 128]
-0.051669482 -0.06556288 -0.055829085 0.092870645 0.0010121498 0.043546695 0.02884242 0.030796513
0.06086352 -0.006786996 -0.0013325856 0.025822172 0.004454486 -0.07682942 -0.08629193 0.0001800161
-0.013128006 -0.0288641 -0.021325905 0.035359792 -0.0059127626 -0.022748888 -0.08539491 -0.059172563
-0.06726149 -0.026177777 0.0070875087 -0.031278122 -0.04567916 0.06523328 0.090888254 -0.05580211
0.02167178 -0.045565244 -0.030844571 0.076777585 0.027700111 0.07949008 0.012420197 -0.0017007773
0.045791164 0.006545727 0.003936525 -0.046906985 0.07454738 -0.09059684 -0.04054658 0.0020592802
-0.0973199 0.015913915 0.040690817 0.012560055 0.028681708 0.07786865 0.07404175 0.09012905
-0.077072404 -0.06856822 -0.04671062 -0.04526982 -0.0034235045 0.08034569 -0.062359665 -0.09590331
0.016691387 0.092430875 0.06696461 -0.042810015 -0.012225663 -0.0072934697 -0.059346575 0.019369945
-0.08797939 0.069804244 0.04815223 0.00283979 -0.049181778 -0.023027577 -0.050561514 0.0898692
-0.017725624 -0.057194166 -0.013996401 -0.11883064 0.040088005 0.071585864 0.07990831 -0.04715987
-0.0035322085 -0.072310254 -0.0039352584 -0.0736445 0.04826323 0.09401067 -0.0063931504 0.03674224
-0.029308477 -0.06283492 -0.07086943 -0.014306693 0.08653409 0.04750358 0.11109247 -0.040443283
0.019293703 -0.018668441 0.087836996 0.03408132 -0.05526506 0.08171132 -0.0554248 -0.12226086
-0.06237932 -0.006715598 -0.06727377 0.043803047 -0.006434518 -0.010081848 0.06960562 0.011639806
0.009282867 -0.06102065 -0.010445173 -0.019113386 -0.09047869 0.06783855 0.061196122 0.07873942
0.0038276194 0.053139035 -0.04583293 -0.017825214 -0.016942238 0.06436236 0.065593705 -0.07948794
-0.0772628 0.05582349 0.07347943 0.06358638 0.07156258 0.03753265 0.050716966 -0.015383943
0.05077024 -0.08675954 -0.012200051 -0.060725085 0.01839359 0.069396086 0.013415451 -0.013413454
0.04239879 -0.074026026 -0.07051335 -0.013453494 -0.037489563 0.04646681 -0.019548824 0.05558892
-0.07606361 -0.03760435 -0.04172891 -0.08223442 -0.0027411417 -0.023332614 0.039918866 -0.0427687
-0.05154125 -0.0015562641 0.031700186 -0.088571355 -0.011360543 0.07271067 0.0027761697 -0.044597596
-0.09098072 0.11733593 -0.03416088 -0.019786313 -0.07554009 -0.084666066 -0.083792575 0.024145843
0.012813413 0.03686477 0.05432209 0.051076297 0.040177483 -0.028449561 -0.06149218 -0.05673514
0.01737899 -0.00048200216 0.09978691 0.00987571 0.07156036 0.007962545 -0.0029045877 -0.025261253
-0.09927652 0.02422924 -0.06500262 0.032375585 0.045765333 -0.0037899928 0.021528859 0.04341326
0.06834104 -0.05238231 -0.05249625 0.045713007 0.020564213 0.0573053 0.06780897 0.013621531
-0.0045414674 -0.028324 0.08331502 -0.020075902 0.050730083 -0.014899488 0.06592999 -0.057253573
-0.03643578 -0.008750506 -0.03945984 0.022059778 -0.03768383 -0.05294843 0.059661027 0.08575022
-0.04107859 -0.019833326 0.072163545 -0.043303475 -0.03990346 -0.027520569 0.004660038 0.026651045
-0.03485 -0.0070800367 -0.07055396 -0.019198438 0.0409038 -0.06713137 0.073636405 0.06214051
-0.010664207 0.040717322 0.03216651 -0.054484304 0.022201922 -0.00434416 0.06516638 -0.023713544
00000000: 61a3 53bd d545 86bd 0aad 64bd f732 be3d
00000010: 1daa 843a 055e 323d f046 ec3c f848 fc3c
00000020: 074c 793d 7365 debb 27aa aeba 0589 d33c
00000030: f0f6 913b be58 9dbd d3b9 b0bd b4c2 3c39
00000040: d916 57bc 6874 ecbc aab3 aebc 6ed5 103d
00000050: d9bf c1bb e05b babc 87e3 aebd ee5e 72bd
00000060: 64c0 89bd c772 d6bc 553e e83b 7d1d 00bd
00000070: 121a 3bbd 0799 853d 9f23 ba3d c190 64bd
00000080: 0489 b13c 9fa2 3abd c1ad fcbc 913d 9d3d
00000090: 58eb e23c b2cb a23d 157e 4b3c 9eec deba
000000a0: 848f 3b3d 8a7d d63b f7fd 803b 8a21 40bd
000000b0: 4cac 983d d68a b9bd 2c14 26bd fdf4 063b
000000c0: a84f c7bd e65d 823c 6aab 263d b0c8 4d3c
000000d0: e7f5 ea3c 9979 9f3d 33a3 973d 9495 b83d
000000e0: 23d8 9dbd 7f6d 8cbd a353 3fbd d96c 39bd
000000f0: e05c 60bb 488c a43d d96c 7fbd f468 c4bd
00000100: 60bc 883c 664c bd3d be24 893d 8e59 2fbd
00000110: 264e 48bc 0ffe eebb 6515 73bd b8ad 9e3c
00000120: 8a2e b4bd 87f5 8e3d 463b 453d c51b 3a3b
00000130: d572 49bd 54a4 bcbc 9719 4fbd 580d b83d
00000140: 5435 91bc 6e44 6abd 2951 65bc 7b5d f3bd
00000150: 5233 243d 9c9b 923d f8a6 a33d b52a 41bd
00000160: a07c 67bb 6617 94bd 57f3 80bb edd2 96bd
00000170: aaaf 453d ab88 c03d a27d d1bb 087f 163d
00000180: 5518 f0bc 98af 80bd fe23 91bd 9f66 6abc
00000190: c938 b13d 1d93 423d 7384 e33d dba7 25bd
000001a0: d40d 9e3c 8fee 98bc e2e3 b33d db98 0b3d
000001b0: 9e5d 62bd 4458 a73d 1d05 63bd e763 fabd
000001c0: 7581 7fbd 850e dcbb d5c6 89bd d36a 333d
000001d0: a6d8 d2bb 562e 25bc 648d 8e3d e3b4 3e3c
000001e0: 2b17 183c caf0 79bd 3b22 2bbc ad93 9cbc
000001f0: e44c b9bd f0ee 8a3d c9a8 7a3d 2242 a13d
00000200: ccd8 7a3b 51a8 593d 4fbb 3bbd 2f06 92bc
00000210: 73ca 8abc 6ad0 833d fe55 863d 93ca a2bd
00000220: f53b 9ebd 2ca7 643d 627c 963d 9339 823d
00000230: 678f 923d d6bb 193d 98bc 4f3d ef0c 7cbc
00000240: 75f4 4f3d fcae b1bd b9e2 47bc deba 78bd
00000250: 27ae 963c 891f 8e3d 7bcc 5b3c 1bc4 5bbc
00000260: 5baa 2d3d f59a 97bd 4e69 90bd 0b6c 5cbc
00000270: a88e 19bd fb53 3e3d db24 a0bc 35b1 633d
00000280: 3dc7 9bbd 0507 1abd efeb 2abd 856a a8bd
00000290: baa4 33bb 0a24 bfbc f781 233d 3b2e 2fbd
000002a0: eb1c 53bd 8ffb cbba 0ed8 013d e664 b5bd
000002b0: 9221 3abc 55e9 943d 66f0 353b f8ab 36bd
000002c0: 1a54 babd d24d f03d 47ec 0bbd e816 a2bc
000002d0: c3b4 9abd 6765 adbd 719b abbd 81cd c53c
000002e0: 59ef 513c 83ff 163d d780 5e3d 6135 513d
000002f0: 2591 243d 0e0f e9bc 39df 7bbd 1b63 68bd
00000300: 625e 8e3c 3cb5 fcb9 145d cc3d bbcd 213c
00000310: 3d8e 923d 5675 023c e55a 3ebb b0f0 cebc
00000320: 7d51 cbbd 667c c63c 1820 85bd 439c 043d
00000330: 6e74 3b3d 8761 78bb 4a5d b03c 1ad2 313d
00000340: 63f6 8b3d d58e 56bd 4f06 57bd 903d 3b3d
00000350: 4876 a83c f6b8 6a3d 6edf 8a3d d82c 5f3c
00000360: 97d0 94bb bc07 e8bc 11a1 aa3d 3876 a4bc
00000370: 59ca 4f3d fb1c 74bc 4d06 873d b982 6abd
00000380: af3d 15bd 485e 0fbc a4a0 21bd b5b6 b43c
00000390: 5c5a 1abd 74e0 58bd 1f5f 743d d09d af3d
000003a0: 0642 28bd 8079 a2bc 7bca 933d fc5e 31bd
000003b0: cf71 23bd d172 e1bc 3bb3 983b 4b53 da3c
000003c0: e0be 0ebd a7ff e7bb 987e 90bd 0b46 9dbc
000003d0: be8a 273d 2c7c 89bd afce 963d 0c87 7e3d
000003e0: edb8 2ebc 35c7 263d 08c1 033d ef2a 5fbd
000003f0: cee0 b53c 7559 8ebb f375 853d e842 c2bc

lstm.weight_hh_l1 f4 [512, 128]
-0.07747316 -0.08534335 0.020089328 0.08195945 -0.044870503 0.025475107 -0.062236913 0.06466683
-0.07405424 0.056522615 -0.051720694 -0.031374525 -0.06101578 -0.029179644 -0.07528356 -0.057114564
0.06791579 0.055103786 0.00548774 0.056596704 -0.0063180253 -0.084488064 0.01090011 -0.026121069
-0.07084537 -0.08222902 0.03497734 0.009079032 -0.04150079 0.0018457025 0.019616485 -0.042513654
-0.07190964 0.08317832 0.053564496 -0.08249925 -0.040379398 -0.07224519 0.016325034 -0.043793462
0.055825956 -0.027477626 -0.033038206 0.025508292 0.020761102 -0.005545251 -0.02549059 0.08085891
-0.052415673 -0.06684079 -0.075481445 -0.03432157 -0.0624901 -0.07311817 0.07514148 -0.044773713
-0.012227625 -0.08388871 0.03161923 0.03169734 0.045602806 0.00248909 -0.04167515 0.08829405
-0.014393263 0.049889438 0.04111617 -0.014921382 0.05202619 0.01725357 -0.030379362 0.03369555
0.030013382 -0.05262688 0.0105386 -0.03997168 0.02528204 -0.061719157 -0.0063356906 0.03643591
0.047352545 -0.041153226 -0.068462655 -0.01646626 -0.067869335 -0.046771683 0.07436695 -0.036006294
-0.00090993196 0.0004420802 0.048117034 0.037572898 -0.07034954 -0.00014644116 -0.06630501 -0.03254408
-0.030682545 -0.025350392 -0.019416966 -0.08417179 0.011446767 0.0007371381 -0.03603312 -0.07041679
-0.03712579 -0.072602294 0.07941268 -0.0010694563 0.02867236 -0.009164892 0.072821 -0.015338376
-0.009514205 0.07704862 0.071170665 -0.07650517 0.00657697 0.07301129 0.06196914 0.072241314
-0.008328743 -0.062123157 -0.0867541 -0.031456713 0.08531239 0.041847862 0.020290367 -0.08812947
-0.06657461 0.07337163 -0.022909455 -0.033495523 -0.002320528 0.020010605 0.088061 -0.062743075
0.05441598 0.011260144 0.03217242 -0.02960679 -0.06640873 0.059273846 0.05663418 -0.07356438
-0.07568032 0.057013057 0.036347367 0.057276063 0.041936584 0.061948784 0.050611205 0.013489835
-0.031219289 0.062062927 -0.044590954 -0.08499228 -0.0881331 0.024210744 0.004986845 -0.03494435
-0.052074328 0.08551391 0.05063594 0.030751318 0.0008179322 -0.0061353147 0.08178843 0.07478709
-0.030886348 -0.08118689 -0.05317791 0.062476464 -0.0531655 -0.06705445 -0.010307632 -0.0053340346
0.077887215 0.051141687 -0.026610076 0.02521804 -0.042117957 0.015362486 0.04415118 0.009128861
0.070768885 0.07117564 -0.016022228 0.02121272 0.07941026 0.0255588 -0.009108633 0.028616115
0.0349845 -0.08040933 0.049801238 -0.024601988 -0.08761453 -0.057967585 0.012099117 -0.056611657
-0.0103747845 0.037766628 0.00022298098 0.01905343 -0.0026432723 -0.057997994 0.0026561543 -0.058632523
-0.051251683 -0.00030129403 -0.071230456 0.047764204 0.012898609 0.043523453 -0.06949173 -0.085466124
-0.029724821 0.024709657 -0.041628085 0.07520307 -0.030535959 -0.06712193 0.086680956 -0.028241768
-0.004667118 -0.06059526 -0.0024299473 -0.0025482923 0.06922007 0.053882934 -0.07868575 0.016558446
0.057282023 0.07410503 0.015768051 0.015155248 -0.045096546 -0.013801336 0.012369752 -0.03181303
0.049873598 -0.051897846 0.03127574 -0.04369761 0.05057361 0.04585538 -0.032514155 0.0839536
-0.071123235 0.030417316 0.04459987 -0.057843074 0.034400076 0.0004471466 -0.024134792 0.0736488
00000000: 40aa 9ebd 7fc8 aebd 6092 a43c 5bda a73d
00000010: 22ca 37bd 2cb1 d03c 22ec 7ebd 0b70 843d
00000020: c0a9 97bd 4284 673d 14d9 53bd 9382 00bd
00000030: afeb 79bd 260a efbc 442e 9abd f6f0 69bd
00000040: 6f17 8b3d 82b4 613d 80d2 b33b f2d1 673d
00000050: 7007 cfbb 1408 adbd 6096 323c dafb d5bc
00000060: 6117 91bd b067 a8bd 6644 0f3d 38c0 143c
00000070: bbfc 29bd 80eb f13a c0b2 a03c cc22 2ebd
00000080: 5d45 93bd 6559 aa3d 7266 5b3d 5ef5 a8bd
00000090: de64 25bd 49f5 93bd 14bc 853c c660 33bd
000000a0: c2a9 643d c218 e1bc 1253 07bd c4f6 d03c
000000b0: 3013 aa3c f0b4 b5bb a4d1 d0bc 5b99 a53d
000000c0: d1b1 56bd d3e3 88bd 0496 9abd c694 0cbd
000000d0: 9ef5 7fbd fbbe 95bd c7e3 993d a464 37bd
000000e0: 6056 48bc d8cd abbd 2a83 013d 12d5 013d
000000f0: 02ca 3a3d 0020 233b 90b3 2abd 83d3 b43d
00000100: b8d1 6bbc de58 4c3d 6e69 283d d078 74bc
00000110: 6a19 553d 5c57 8d3c 24de f8bc 5804 0a3d
00000120: a0de f53c 498f 57bd 18aa 2c3c 58b9 23bd
00000130: 481c cf3c 3acd 7cbd a09b cfbb d23d 153d
00000140: bef4 413d 4990 28bd 2636 8cbd 40e4 86bc
00000150: 14ff 8abd aa93 3fbd b34d 983d 567b 13bd
00000160: 8088 6eba 00c7 e739 5e16 453d 0ae6 193d
00000170: 6b13 90bd 008e 19b9 ecca 87bd f14c 05bd
00000180: f659 fbbc a0ab cfbc 5410 9fbc 4262 acbd
00000190: 388b 3b3c 803c 413a 7797 13bd ae36 90bd
000001a0: 3611 18bd 83b0 94bd 1da3 a23d 002d 8cba
000001b0: 4ce2 ea3c 5828 16bc 2d23 953d d04d 7bbc
000001c0: 78e1 1bbc abcb 9d3d edc1 913d beae 9cbd
000001d0: a083 d73b f186 953d 5ad3 7d3d 41f3 933d
000001e0: 4875 08bc da74 7ebd 22ac b1bd c1d8 00bd
000001f0: 43b8 ae3d aa68 2b3d fc37 a63c 397d b4bd
00000200: 4558 88bd dd43 963d 9cac bbbc 9a32 09bd
00000210: 0014 18bb 48ed a33c 5359 b43d 717f 80bd
00000220: 4ae3 5e3d 787c 383c 3ac7 033d f089 f2bc
00000230: 4d01 88bd 22c9 723d 3ef9 673d eca8 96bd
00000240: 49fe 9abd 8686 693d fae0 143d 4e9a 6a3d
00000250: b2c5 2b3d 02be 7d3d b24d 4f3d 7804 5d3c
00000260: 98bf ffbc b235 7e3d 01a5 36bd 6f10 aebd
00000270: 207f b4bd 9c55 c63c b068 a33b cf21 0fbd
00000280: e44b 55bd eb21 af3d a267 4f3d 30ea fb3c
00000290: 806a 563a c00a c9bb b180 a73d f929 993d
000002a0: 5e05 fdbc 5045 a6bd 15d1 59bd 52e7 7f3d
000002b0: 11c4 59bd d853 89bd 58e1 28bc 20c9 aebb
000002c0: 5583 9f3d f279 513d 60fd d9bc 1096 ce3c
000002d0: e183 2cbd f0b2 7b3c ded7 343d 3891 153c
000002e0: 47ef 903d 89c4 913d 0c41 83bc 4cc6 ad3c
000002f0: d9a1 a23d b060 d13c 603c 15bc 586c ea3c
00000300: e84b 0f3d a6ad a4bd 62fc 4b3d 1c8a c9bc
00000310: 3f6f b3bd 6b6f 6dbd 603b 463c a0e1 67bd
00000320: 00fb 29bc 2eb1 1a3d 00d0 6939 f015 9c3c
00000330: c03a 2dbb 4e8f 6dbd e012 2e3b a828 70bd
00000340: 49ed 51bd 00f7 9db9 46e1 91bd 66a4 433d
00000350: b054 533c a645 323d ae51 8ebd dd08 afbd
00000360: 7881 f3bc e86b ca3c 3682 2abd 1104 9a3d
00000370: 8c26 fabc 3977 89bd c985 b13d 485b e7bc
00000380: a0ee 98bb bc32 78bd c03f 1fbb 4001 27bb
00000390: 41c3 8d3d 5ab4 5c3d ff25 a1bd 94a5 873c
000003a0: 8ea0 6a3d 61c4 973d 002c 813c b84d 783c
000003b0: 28b7 38bd 001f 62bc 80aa 4a3c 614e 02bd
000003c0: 4248 4c3d d692 54bd fe1a 003d 44fc 32bd
000003d0: 4626 4f3d dad2 3b3d 902d 05bd ddef ab3d
000003e0: 0fa9 91bd bc2d f93c 5aae 363d dcec 6cbd
000003f0: 18e7 0c3d 006f ea39 54b6 c5bc 2fd5 963d

lstm.bias_ih_l1 f4 [512]
-0.015739001 0.013549523 -0.048344478 0.027665056 0.024107825 0.008701185 0.057796452 0.029929753
-0.044335376 -0.023465449 0.036015514 0.05672434 -0.019195966 0.07921975 0.06706628 0.046674345
-0.04573341 0.029839255 -0.0026560407 0.055548836 0.05849495 0.046531927 0.044572953 -0.037005834
0.11716268 0.050043833 0.10236735 0.02733187 0.065937914 0.03689818 0.048688244 0.09072101
-0.06116533 -0.0061224233 -0.03749399 0.032777764 -0.04927469 0.035396833 -0.0009040604 0.10475813
0.0017331894 -0.07757638 0.011882862 -0.02933844 0.073061176 0.044890612 0.038718373 -0.0043537472
0.017533204 -0.00083412277 0.046729337 -0.034667194 -0.027320033 -0.018858414 -0.022292383 -0.009422578
0.046326064 -0.0042621694 0.048779774 0.072711796 -0.017818356 0.009363668 0.06662003 0.07911974
-0.0529638 -0.029568689 0.062667616 -0.06178544 -0.010053691 -0.019777756 -0.047153734 0.08264888
0.03834215 0.035692215 -0.07411016 0.038333815 -0.03509752 0.034798436 0.026581332 -0.008700327
0.04334272 -0.016013645 -0.00030514863 0.024601432 0.087602824 0.00998805 -0.029435096 0.08520777
0.10787899 -0.011456845 0.029864796 0.05130309 -0.042216983 0.06061636 -0.022910198 -0.05205365
-0.0221455 -0.0128760915 0.07704077 0.023929583 -0.03903641 0.07196207 0.039005373 0.090482295
0.028768547 -0.012911594 0.054365236 -0.045732737 0.08906976 0.061023325 0.04332133 0.063229136
0.013790627 -0.021284744 0.014975616 -0.035025492 0.007430397 0.06817813 -0.014684978 -0.039976526
0.088758536 -0.08086313 -0.025395613 0.014602021 -0.009392132 0.05515166 0.041989617 0.10189727
0.039149575 -0.063283354 0.031874627 -0.07910027 0.07107233 0.0675113 0.08697524 -0.0035463497
-0.058407187 0.07615406 -0.038996454 -0.0007169619 0.060987152 0.03375809 -0.067120954 -0.040418595
-0.066320404 -0.019763857 -0.035947416 0.03834658 0.046597548 0.075658284 -0.033367123 0.0053291023
0.012747407 -0.05832739 -0.07613883 -0.055246226 0.070240594 -0.06273469 -0.027236812 -0.049146216
0.036216438 -0.012776636 -0.07741893 0.07055024 -0.02073197 0.012929976 0.029431053 0.07910476
0.0004942864 0.07083272 -0.06441604 -0.04211171 0.048060335 0.062843524 -0.067243315 -0.034696285
-0.045400195 -0.07925075 0.03223841 0.030985676 -0.072099075 -0.017926216 0.04888334 -0.06503154
-0.013622902 0.037535273 0.0766753 -0.027474605 0.047275 -0.0803584 -0.07063566 0.013559505
-0.03517122 -0.04985813 -0.06147611 0.030146554 -0.061762594 0.02403403 -0.0055343136 -0.03307692
0.06690971 0.068720005 -0.033081863 0.07963077 -0.07219125 0.011674389 0.0064313486 -0.025164679
0.00064118207 -0.020754628 -0.040323563 -0.04489089 0.050417773 0.045950107 -0.03776166 -0.054674093
-0.043801185 -0.087393805 0.033253007 -0.08239172 -0.06676017 -0.035938352 0.04502996 -0.019008748
-0.061239526 0.020903781 0.083399154 -0.08402054 -0.039092444 -0.08461644 0.04490722 -0.07649273
0.03435295 -0.03622258 0.009046055 0.030422404 -0.033474363 -0.00067123026 -0.064854905 0.055929355
0.078452446 0.053284876 0.067471094 0.0081231 0.045745753 -0.0265273 -0.05088979 -0.0031743199
0.005858198 0.07820528 -0.006868385 0.03206922 -0.03467104 0.043368913 0.068848915 -0.018765874
00000000: 14ef 80bc d2fe 5d3c dc04 46bd d4a1 e23c
00000010: c67d c53c 6a8f 0e3c f9bb 6c3d 3e2f f53c
00000020: 0399 35bd 9d3a c0bc 0185 133d c857 683d
00000030: dc40 9dbc f73d a23d 0c5a 893d 992d 3f3d
00000040: f552 3bbd 7471 f43c f810 2ebb 2d87 633d
00000050: 6798 6f3d 4398 3e3d 2192 363d 6e93 17bd
00000060: fdf2 ef3d c3fa 4c3d f9a5 d13d 16e7 df3c
00000070: 750a 873d 8c22 173d 536d 473d f0cb b93d
00000080: 7f88 7abd 9c9e c8bb 4c93 19bd fa41 063d
00000090: 42d4 49bd 45fc 103d 77fe 6cba 6e8b d63d
000000a0: 302c e33a 5de0 9ebd 56b0 423c 2b57 f0bc
000000b0: 19a1 953d 38df 373d 2897 1e3d e1a9 8ebb
000000c0: cba1 8f3c 08a9 5aba 4367 3f3d 30ff 0dbd
000000d0: 43ce dfbc f67c 9abc 849e b6bc 2861 1abc
000000e0: 66c0 3d3d aba9 8bbb 4dcd 473d ece9 943d
000000f0: cdf7 91bc 126a 193c 1570 883d 8809 a23d
00000100: 92f0 58bd 093a f2bc e157 803d bb12 7dbd
00000110: 3db8 24bc f604 a2bc 4624 41bd d143 a93d
00000120: a90c 1d3d 0032 123d 11c7 97bd eb03 1d3d
00000130: 6bc2 0fbd ce88 0e3d 18c1 d93c d18b 0ebc
00000140: 2388 313d 0c2f 83bc 5bfc 9fb9 f188 c93c
00000150: 1c69 b33d eba4 233c df21 f1bc 6981 ae3d
00000160: a9ef dc3d 7eb5 3bbc 04a7 f43c 3023 523d
00000170: b7eb 2cbd dc48 783d 2bae bbbc 3536 55bd
00000180: 7b6a b5bc 3ef6 52bc 8dc7 9d3d f907 c43c
00000190: a5e4 1fbd da60 933d 19c4 1f3d c84e b93d
000001a0: 04ac eb3c 268b 53bc 15ae 5e3d 4052 3bbd
000001b0: 356a b63d 98f3 793d b571 313d 477e 813d
000001c0: 15f2 613c 585d aebc 495c 753c e476 0fbd
000001d0: b07a f33b faa0 8b3d 4399 70bc 6dbe 23bd
000001e0: 09c7 b53d 929b a5bd 760a d0bc 513d 6f3c
000001f0: 75e1 19bc b5e6 613d 4efd 2b3d 84af d03d
00000200: 4e5b 203d b49a 81bd f88e 023d 53ff a1bd
00000210: 5f8e 913d 5d43 8a3d 1320 b23d e069 68bb
00000220: 603c 6fbd a9f6 9b3d bfba 1fbd 80f2 3bba
00000230: aacd 793d ec45 0a3d b676 89bd f88d 25bd
00000240: fed2 87bd d0e7 a1bc 993d 13bd 4e11 1d3d
00000250: 12dd 3e3d bbf2 9a3d f7ab 08bd c09f ae3b
00000260: 80da 503c b4e8 6ebd adee 9bbd de49 62bd
00000270: 4dda 8f3d 0c7b 80bd bc1f dfbc 8b4d 49bd
00000280: b057 143d 1855 51bc d18d 9ebd a57c 903d
00000290: 18d6 a9bc 40d8 533c 6419 f13c ad01 a23d
000002a0: 0093 013a bf10 913d 8fec 83bd 547d 2cbd
000002b0: eada 443d 1bb4 803d ddb6 89bd b11d 0ebd
000002c0: 8ef5 39bd 384e a2bd 6c0c 043d acd5 fd3c
000002d0: aea8 93bd 00da 92bc e639 483d 422f 85bd
000002e0: 9832 5fbc 96be 193d f107 9d3d 6c12 e1bc
000002f0: 6ea3 413d f292 a4bd 6ea9 90bd b028 5e3c
00000300: b20f 10bd 0a38 4cbd 60ce 7bbd e8f5 f63c
00000310: c6fa 7cbd 04e3 c43c 3059 b5bb aa7b 07bd
00000320: f507 893d 13bd 8c3d d980 07bd 7515 a33d
00000330: 02d9 93bd f045 3f3c 10be d23b 2826 cebc
00000340: 0015 283a 9c05 aabc 522a 25bd 83df 37bd
00000350: de82 4e3d 2e36 3c3d f8ab 1abd f1f1 5fbd
00000360: df68 33bd 86fb b2bd 4e34 083d fdbc a8bd
00000370: 8eb9 88bd 1834 13bd 5671 383d 3cb8 9bbc
00000380: 4cd6 7abd 683e ab3c 2dcd aa3d f612 acbd
00000390: 661f 20bd 624b adbd a2f0 373d 38a8 9cbd
000003a0: aeb5 0c3d 215e 14bd e835 143c 6838 f93c
000003b0: 6a1c 09bd 80f5 2fba a6d2 84bd 2e16 653d
000003c0: adab a03d 3e41 5a3d 492e 8a3d c016 053c
000003d0: e65f 3b3d c84f d9bc d071 50bd 4008 50bb
000003e0: 20f6 bf3b 172a a03d 3010 e1bb 045b 033d
000003f0: 3803 0ebd 9aa3 313d a900 8d3d e4ba 99bc
