models/audio_classifierCNN_datasetPeople_split2.pth (torch, 73170 bytes, 5 tensors)

conv1.weight f4 [48, 24, 3]
0	0x3db39405	0.08768467
1	0xbcaea4a4	-0.021318741
2	0xbdb0f5c3	-0.08640625
3	0xbcf213a0	-0.029550374
4	0xbbe521b0	-0.0069925413
5	0xbd997f19	-0.07494945
6	0xb976cab9	-0.00023535908
7	0x3da50409	0.0805741
8	0xbce5962e	-0.028025713
9	0x37680b46	1.3830902e-05
10	0x3c785bb7	0.015158585
11	0xbd0ba16d	-0.034089494
12	0xbc62e074	-0.013847459
13	0x3bb9884a	0.005661999
14	0x3cd37a07	0.025815023
15	0x3c6156f4	0.013753641
16	0xb8aec447	-8.333526e-05
17	0x3aee68f8	0.0018189242
18	0x3c85d9d0	0.016339213
19	0xb8a348b1	-7.7859855e-05
20	0x3c15f47b	0.009152527
21	0x3bf97aa6	0.007613498
22	0xbb078dec	-0.0020683957
23	0xbcfad993	-0.030621326
24	0x3a33d372	0.0006859816
25	0xbc842dc4	-0.016135104
26	0xbb7ca737	-0.0038551816
27	0xbcfe66fe	-0.03105497
28	0xbc8b8863	-0.017032808
29	0xbce7aadc	-0.028279714
30	0x372a2216	1.0140726e-05
31	0xbac3edff	-0.0014948248
32	0x382a3d8e	4.0588486e-05
33	0xbd9b588b	-0.075852476
34	0x3dde38a0	0.10850644
35	0xbd97ee31	-0.07418478
36	0xbd7ffaeb	-0.062495153
37	0x38efc301	0.000114327304
38	0x3d492562	0.049107917
39	0x3cda008a	0.026611585
40	0x3e068cb0	0.13139606
41	0xbda3b590	-0.07993615
42	0x3d3b16c7	0.04567602
43	0x3d048cc0	0.032360792
44	0x3dcb338b	0.099219404
45	0x3d634c38	0.05549261
46	0xbc87e31c	-0.016587786
47	0xbcee9be1	-0.029127063
48	0x3b03cfec	0.0020112945
49	0xbc39329b	-0.011303569
50	0xbcf03658	-0.029322788
51	0xbd54b75b	-0.051932674
52	0x3dde7c1a	0.10863514
53	0xbd86e319	-0.06586284
54	0xbcf4dd05	-0.029890547
55	0x3d88fd38	0.06688923
56	0xbd5fbafa	-0.054621674
57	0xbd4835d2	-0.048879452
58	0xbc890fdb	-0.016731193
59	0xbcd985dd	-0.026553089
60	0x3d402de4	0.046918765
61	0xbc93a5a0	-0.018023312
62	0xbd493e58	-0.04913172
63	0xbd053f62	-0.03253115
64	0xbd460a60	-0.048349738
65	0x3c99f535	0.018793682
66	0x3c00e18a	0.007866273
67	0xbd901998	-0.070361316
68	0x3d095823	0.03353132
69	0xbb2d4c75	-0.0026443277
70	0xbd75c6fb	-0.060004216
71	0x3d1abf51	0.03778011
72	0x3e0e5536	0.13899693
73	0xbc2bfbda	-0.010497058
74	0xbbeff978	-0.00732344
75	0xbcb1d339	-0.021707164
76	0xbcb02425	-0.02150161
77	0xbafed555	-0.001944224
78	0x3d776655	0.060400326
79	0xba061f52	-0.00051163614
80	0xbc6cdb00	-0.014456511
81	0x38bc087c	8.966119e-05
82	0x348fb28f	2.6765744e-07
83	0x3b10b746	0.0022081896
84	0x3c6523e2	0.013985606
85	0xb166e8bf	-3.3601706e-09
86	0xbbc122f7	-0.0058940607
87	0xbd0dba33	-0.0346014
88	0x3b3ef73c	0.0029139062
89	0xbc5913d5	-0.013249357
90	0xbc02b2b2	-0.007977175
91	0xbbd627f5	-0.006535525
92	0x3ccd7feb	0.02508541
93	0x3c63d33c	0.013905343
94	0xbc25f89b	-0.010130073
95	0xbb8cd890	-0.004298277
96	0xbbda0ce8	-0.0066543706
97	0x36b09191	5.262155e-06
98	0x3c8f6b91	0.017507346
99	0xbb854f87	-0.0040683183
100	0x3bc66a59	0.006055158
101	0x3be71d58	0.0070530586
102	0xbbcdbfc1	-0.0062789624
103	0xbd0fbe5e	-0.035093658
104	0x3ceacad1	0.028661164
105	0xbddac1b1	-0.10681475
106	0xbc9b64db	-0.01896899
107	0x3ba901a8	0.005157668
108	0x3d8e9d43	0.06963589
109	0xbbaf58df	-0.0053511704
110	0xbc61ce66	-0.013782119
111	0xbd6ab99d	-0.05730592
112	0xbcab873b	-0.020938506
113	0xbab175d7	-0.0013539147
114	0x3d8d4072	0.068970576
115	0xbcaa0b6a	-0.020757396
116	0x3ce26b38	0.027639017
117	0x3e118421	0.1421056
118	0x3b27a38e	0.0025579664
119	0x3b08e352	0.0020887447
120	0x3df316d1	0.11869586
121	0x3c381bc2	0.011237087
122	0xbce5e1dc	-0.0280618
123	0x3d02a7ca	0.031898297
124	0x3c3e21cc	0.0116047375
125	0x3c0956db	0.008382524
126	0x3c270878	0.01019489
127	0x3b8edd70	0.0043598935
128	0x3af2ac59	0.0018514498
129	0xbc881e6f	-0.016616074
130	0xb7f08a75	-2.8674704e-05
131	0x399d865b	0.00030045476
132	0xbc344c47	-0.011004514
133	0xb83193a7	-4.23376e-05
134	0x3cae89bf	0.021305917
135	0xbcc29287	-0.02375151
136	0xbc443ec0	-0.011977851
137	0xba16926a	-0.00057438633
138	0xbce91dea	-0.028456647
139	0x3a87531c	0.0010324451
140	0x3b2f96d3	0.002679278
141	0x3c3dd8e0	0.011587352
142	0xbd0a8e8a	-0.033827342
143	0xb914704b	-0.00014156212
144	0x3c6a15b9	0.014287406
145	0xbb40dd67	-0.002942884
146	0xbdc80c57	-0.09767979
147	0xbc42baa7	-0.011885322
148	0xbdce0e80	-0.100613594
149	0xbda89f3a	-0.08233495
150	0x3c815205	0.01578618
151	0xbc3e7d02	-0.011626484
152	0xbd0c0de7	-0.034192946
153	0x3cacb695	0.021083156
154	0xb8d084a2	-9.942918e-05
155	0xb7604a33	-1.3368716e-05
156	0x3bf52ea7	0.007482368
157	0xbcff9330	-0.031198114
158	0xb7349d19	-1.0765413e-05
159	0x3b831694	0.0040004943
160	0xb8ba026e	-8.869624e-05
161	0xb778fc0a	-1.4840634e-05
162	0x3b08bcd8	0.0020864513
163	0xb8e6a33b	-0.00010997659
164	0xb9a904f3	-0.0003223788
165	0xbc80cb09	-0.015721815
166	0xbcc1ffed	-0.023681605
167	0xbc5dcb1f	-0.013537197
168	0xbca5d987	-0.020245327
169	0xbbfe19f7	-0.00775456
170	0xbb654839	-0.0034985675
171	0x3d0e34ce	0.034718327
172	0xba7c58e3	-0.0009626282
173	0xbbde6321	-0.0067867194
174	0x3b86ae01	0.0041100984
175	0xbaaa04f1	-0.0012971443
176	0xbbb00ce3	-0.00537263
177	0xbd6b8a3f	-0.05750489
178	0x3d4918a9	0.049095783
179	0x3d638d12	0.055554457
180	0xbd33b419	-0.043872926
181	0xbd84e506	-0.06488995
182	0x3df2923a	0.11844297
183	0x3df7c0d0	0.12097323
184	0xbba30e12	-0.0049760425
185	0xbce12d46	-0.027487408
186	0xbdb339c1	-0.0875125
187	0x3d93bfc6	0.07214312
188	0xbc12d577	-0.008962027
189	0x3db79f3a	0.08965917
190	0xbd5797b0	-0.052634895
191	0x3cd54ba0	0.026037037
192	0x3c9e9f96	0.019363206
193	0x3c823ab1	0.015897127
194	0xbd8411c9	-0.06448705
195	0xbd1a6581	-0.037694458
196	0xbd8883d8	-0.06665772
197	0xba68a261	-0.0008874294
198	0x3cd9810e	0.026550796
199	0x3cfc579a	0.03080349
200	0xbd35fc5c	-0.04443012
201	0xbc148e7e	-0.009067176
202	0x3c8a416b	0.016876897
203	0x3d47fa2f	0.048822578
204	0xbd0b270e	-0.033972792
205	0xbc8325f4	-0.016009308
206	0x3cd892c9	0.02643718
207	0x3c43b68e	0.01194538
208	0xbd6f90db	-0.058487754
209	0x3d8445f9	0.06458659
210	0x3b54d02c	0.0032472713
211	0xbc957676	-0.018244963
212	0x3b4d7848	0.003135221
213	0x3d86c128	0.065798104
214	0xbad3836f	-0.0016137193
215	0xbc996619	-0.018725442
216	0x3c211e7f	0.009833931
217	0xbd797cfd	-0.060910214
218	0x3d7a7cd2	0.061154194
219	0x3d336986	0.043801807
220	0x3d818231	0.0632366
221	0xbd3049c3	-0.043039095
222	0x3b9cf5c5	0.00479004
223	0x3b28e0d4	0.0025768774
224	0xbcaa9b3c	-0.020825975
225	0x3ca0aafa	0.019612778
226	0x3aa90303	0.0012894574
227	0xb59b48b3	-1.1569558e-06
228	0xbc2e606d	-0.010643107
229	0xb68cfa48	-4.2014617e-06
230	0x3c16aba0	0.009196192
231	0xbc0d4ca8	-0.008624233
232	0x3a923053	0.0011153318
233	0xb75b8ab0	-1.3085708e-05
234	0xbcf603e0	-0.030031145
235	0xb9abf0b9	-0.00032795014
236	0x3c07ab73	0.008280623
237	0xba2c2a3d	-0.00065675733
238	0xbba54cd5	-0.0050445595
239	0x3c514ad6	0.01277419
240	0xbc4f04de	-0.012635438
241	0xbb4e8f5d	-0.0031518557
242	0x3acfb5e3	0.0015847053
243	0xb830a388	-4.211397e-05
244	0xbc39d051	-0.01134117
245	0xba708895	-0.0009175626
246	0x3cf4afbc	0.029868953
247	0xbbb10a51	-0.005402841
248	0xbbd27c7b	-0.0064235306
249	0xbd9fbcd5	-0.07799689
250	0x3c97feea	0.01855417
251	0xbdacb44e	-0.08432828
252	0x3d921061	0.0713203
253	0x3d682056	0.056671463
254	0x3d840931	0.064470656
255	0xbc83b258	-0.016076252

conv1.bias f4 [48]
0	0xbb3f062f	-0.0029147973
1	0xb8a9888a	-8.08398e-05
2	0xbd28430c	-0.041079566
3	0xbbe4fcf8	-0.006988164
4	0xbcd190a5	-0.025581667
5	0x3d94dab0	0.07268274
6	0x3d869cb5	0.06572858
7	0x3d02dbae	0.031947784
8	0xb86586f0	-5.4723525e-05
9	0xbc95c81a	-0.018283892
10	0xbc558a1c	-0.013033416
11	0x3cf7afca	0.03023519
12	0xbd2d93a3	-0.042377125
13	0xbc68bc1e	-0.014205007
14	0xb977fba6	-0.00023649502
15	0x3c395349	0.011311361
16	0x3bbb9da5	0.00572558
17	0xbbbe749f	-0.005812242
18	0xbc84fad4	-0.016232885
19	0xbb160518	-0.002289122
20	0x3c808f89	0.015693443
21	0xbbaeb711	-0.005331882
22	0xbcb60437	-0.022218807
23	0xb9123685	-0.00013943955
24	0x3da88717	0.08228891
25	0x3c4a1dbe	0.012336193
26	0xbbd4f9d4	-0.0064995084
27	0x3c71a6c6	0.014749235
28	0xbc48009e	-0.012207178
29	0x3b8cd20a	0.0042974995
30	0x3d026b95	0.03184088
31	0xba73c7d4	-0.0009299491
32	0xbaf6ea6a	-0.0018838171
33	0xba134ec3	-0.00056193414
34	0xb907af1b	-0.00012939835
35	0x3d137982	0.03600455
36	0x3d8fe1ea	0.070255116
37	0x3d47b082	0.048752315
38	0xbc79d445	-0.015248363
39	0xbce38ddf	-0.02777761
40	0xbce69a7e	-0.02814984
41	0xbc02c5c0	-0.007981718
42	0xbc787741	-0.015165151
43	0x3c4aaeec	0.012370806
44	0x3db36c55	0.08760897
45	0x3d849aa2	0.06474806
46	0xbd095097	-0.033524122
47	0x3d5d5b4d	0.05404215

conv2.weight f4 [96, 48, 3]
0	0x3aa5063f	0.0012590362
1	0x3d5e98a1	0.054344777
2	0x3d83fa5b	0.06444236
3	0x3d199554	0.037495926
4	0xbcaa2d21	-0.020773472
5	0x3b1103ff	0.0022127626
6	0xbda62a72	-0.081135646
7	0x3a735eb8	0.00092838285
8	0xbcaf9ff1	-0.02143857
9	0x3cce0f7c	0.025153868
10	0x3b9586bd	0.004563181
11	0x3be093e1	0.006853566
12	0xbc92229b	-0.017838767
13	0xbd58182f	-0.05275744
14	0x3d58420a	0.052797355
15	0xbbf3cd8b	-0.007440274
16	0x3c5cb12c	0.013469975
17	0x3d41eb47	0.04734352
18	0xbc94c970	-0.01816246
19	0x38bbdfcc	8.95854e-05
20	0x3d33a006	0.043853782
21	0x3d9171fd	0.0710182
22	0x3d5658a8	0.052330643
23	0xbceae1da	-0.028672148
24	0x3ad8a352	0.0016528165
25	0x3c24bc90	0.010054722
26	0x3cfa0a40	0.030522466
27	0x3c020628	0.007936038
28	0x3c95cf9f	0.018287478
29	0x3d37f509	0.044911418
30	0x3d33a378	0.043857068
31	0x3d0f8dd0	0.035047352
32	0xbab0e46e	-0.0013495812
33	0x3cd5c4f3	0.02609489
34	0xbbe8f57a	-0.007109341
35	0xbc0ae3da	-0.008477176
36	0x3c540306	0.012940174
37	0x3d0146d2	0.03156168
38	0x3b118495	0.002220427
39	0x3d8ae84e	0.0678259
40	0xbc834275	-0.0160229
41	0x3d1c9d86	0.038236164
42	0xbcd46b84	-0.025930174
43	0x3a1d45f4	0.00059994985
44	0x3a5e40ee	0.0008478303
45	0xbd6183b5	-0.055057246
46	0xbd625a5c	-0.055261955
47	0x3d229fdd	0.03970324
48	0x3d9e3a57	0.07725971
49	0xbc24e0f7	-0.010063401
50	0xbcc1c698	-0.023654267
51	0xbb748248	-0.00373091
52	0x3c296a15	0.010340233
53	0xbd62df21	-0.055388574
54	0xbd91d2d1	-0.07120288
55	0xbcd92157	-0.026505155
56	0xbcb38caa	-0.02191766
57	0x3d59c79f	0.05316889
58	0xbd38762e	-0.04503458
59	0x3d55844f	0.052128132
60	0x3ca42c02	0.020040516
61	0xbcb52a68	-0.022114947
62	0xbb99c252	-0.0046923542
63	0x3d0ae1eb	0.03390686
64	0x3cf040e3	0.029327815
65	0xbcc8c934	-0.024510004
66	0xbd3b58f9	-0.045739148
67	0x3d37ea09	0.044900928
68	0x3cfa8fbf	0.030586122
69	0xbd558ae4	-0.05213441
70	0x3d94b2d5	0.07260672
71	0xbd73f567	-0.059560206
72	0xbc567f43	-0.013091865
73	0xbd3cf909	-0.046135936
74	0x3d8e1f85	0.069396056
75	0xbcf6f09d	-0.03014403
76	0xbc169053	-0.009189683
77	0xbcf69061	-0.030098142
78	0x3cbff63c	0.023432843
79	0x3d411082	0.047134884
80	0x3d0ba36c	0.034091398
81	0xbd74978a	-0.05971483
82	0xbd120057	-0.035644855
83	0xbda73f7a	-0.08166404
84	0xbc6a49e4	-0.014299843
85	0xbc8315e2	-0.016001645
86	0xbc1a87e9	-0.009431818
87	0x3c6ad048	0.014331885
88	0xbd05982a	-0.032615818
89	0x3d967839	0.073471494
90	0x3d08ca1a	0.033395864
91	0xbc2fe2c0	-0.010735214
92	0x3d04361c	0.032278165
93	0xbd79bf56	-0.060973488
94	0x3b8b7d40	0.0042568743
95	0x3d025d9f	0.031827565
96	0xbc5b5d9b	-0.0133890165
97	0x3bb5bdae	0.005546293
98	0xbd024009	-0.03179935
99	0x3d873772	0.06602372
100	0xbd453d79	-0.048154328
101	0x3ccbd1db	0.02488034
102	0x3d23885e	0.03992497
103	0x3ccde565	0.025133798
104	0xb52d0d3f	-6.44668e-07
105	0x3c22f69e	0.009946493
106	0x3d73e75a	0.059546806
107	0xbbf5f46d	-0.0075059445
108	0x3d45e716	0.048316084
109	0xbcb81f2c	-0.022475801
110	0x3d9fb01a	0.077972606
111	0xbdc57687	-0.09641748
112	0x3d30fa15	0.043207247
113	0xbd80e911	-0.06294454
114	0x3caaf84a	0.020870347
115	0xbd7df2c6	-0.061999105
116	0x3c5ed591	0.013600723
117	0x3d79bdd1	0.06097204
118	0x3d5da010	0.054107726
119	0x3c473992	0.012159722
120	0x3d6fc1ff	0.05853462
121	0x3d2019e0	0.039087176
122	0xbc9ff52b	-0.019526085
123	0x3cd58724	0.026065417
124	0x3c25bee1	0.01011631
125	0xbc427273	-0.011868107
126	0x3d87dd7a	0.0663404
127	0xbcbb63d9	-0.02287476
128	0x3d3feb93	0.04685552
129	0x3cc356d2	0.02384511
130	0xbc4fede6	-0.012690997
131	0xbaff3ca0	-0.0019473024
132	0xbd86c12c	-0.06579813
133	0x3cd69815	0.026195565
134	0xbce181d3	-0.027527725
135	0xbd1f305e	-0.038864486
136	0x3ce23014	0.027610816
137	0x3d88d44f	0.0668112
138	0xbbc90f70	-0.0061358735
139	0x3d0652d9	0.032793853
140	0x3a7cb802	0.00096404564
141	0x3cfa1605	0.030528078
142	0xbcfb9ec4	-0.030715354
143	0xbcb28dbf	-0.021796105
144	0x3daac61e	0.08338569
145	0xbacd3b95	-0.0015658016
146	0xb5a62f59	-1.2381744e-06
147	0x3d82ea26	0.063923165
148	0xbbf05b8c	-0.007335132
149	0xbbae62bc	-0.0053218286
150	0xbd3095c9	-0.043111596
151	0xbca0eddc	-0.01964467
152	0xb6c5211c	-5.874912e-06
153	0x3d2319a3	0.03981937
154	0x37874d56	1.6129266e-05
155	0x3a64e206	0.000873119
156	0x3d9317bc	0.07182261
157	0x3a74696c	0.00093235704
158	0x3a5d9fc5	0.00084542885
159	0xbcac78f7	-0.021053774
160	0xbca9febb	-0.020751348
161	0xbbab4e73	-0.0052278577
162	0xbda8b15b	-0.08236953
163	0xbbba167e	-0.005678951
164	0x3be2ab34	0.0069173817
165	0xbca5ba35	-0.020230392
166	0x3c85ef64	0.016349502
167	0x3b81abfc	0.0039572697
168	0x3b9c5758	0.0047711544
169	0xbb8f74e6	-0.004377949
170	0x3b5246f7	0.0032085755
171	0x3c6ac70b	0.014329682
172	0x3c2eece3	0.010676595
173	0x3b41fb95	0.0029599417
174	0xbc6622f2	-0.014046418
175	0x3ba802d1	0.005127289
176	0xbcd6ab32	-0.02620468
177	0x3c7a0f03	0.015262368
178	0x3b836788	0.0040101446
179	0xbb372cac	-0.002795021
180	0xbcd44da8	-0.025915936
181	0x3bee53fb	0.007273195
182	0x38c1a235	9.2331706e-05
183	0x3d889eaf	0.066708915
184	0x3c54be65	0.012984847
185	0x39ae49b2	0.00033242773
186	0x3b9fa10d	0.0048714937
187	0x39cda974	0.000392269
188	0xbbddc214	-0.0067675207
189	0x3cc37bf4	0.023862816
190	0xbcc31001	-0.023811342
191	0x3c30dde8	0.010795094
192	0xbd6a7cae	-0.05724781
193	0x3c5b19d4	0.013372857
194	0xba292c4b	-0.00064534385
195	0xbd684bde	-0.056712978
196	0xbd2c2327	-0.04202571
197	0x3ce79500	0.02826929
198	0x3d89211c	0.06695768
199	0xbb0b6c67	-0.002127433
200	0x3c95b2e2	0.018273775
201	0x3d760163	0.060059916
202	0xbad729cd	-0.0016415656
203	0x3a9a119d	0.0011754517
204	0x3d48efed	0.049056936
205	0xbad7dcc0	-0.0016468987
206	0x3c29a8da	0.010355199
207	0x3d08b1ee	0.033372812
208	0x3c986223	0.018601483
209	0x3c0dd1f7	0.008656017
210	0xbc137055	-0.00899895
211	0xbc753957	-0.014967284
212	0xbc42b10b	-0.011883031
213	0x3ce52ebe	0.02797639
214	0x3b9cdc6d	0.004787019
215	0xb937711f	-0.00017494381
216	0xbb108c50	-0.002205629
217	0x3d10a014	0.035308912
218	0xbd532e24	-0.051557675
219	0xbc993078	-0.01869987
220	0xbca0f03f	-0.019645808
221	0xbb30c400	-0.0026972294
222	0x3b4ec0e4	0.0031548077
223	0x3a78453a	0.0009470765
224	0xbd432875	-0.047646005
225	0x3d4765c1	0.048681024
226	0xba9d235a	-0.0011988685
227	0xba2579b0	-0.00063123833
228	0x3caefdc1	0.021361234
229	0x37d1b011	2.4996729e-05
230	0x355fabd4	8.3324016e-07
231	0x3daed549	0.08536775
232	0xbc20b2a2	-0.009808214
233	0xbb7092d1	-0.0036708603
234	0xbbb8528d	-0.005625075
235	0xbc0bdc13	-0.0085363565
236	0xbb772ce8	-0.0037715975
237	0xbcd324b8	-0.025774345
238	0xbc61c689	-0.013780245
239	0x3aa68bdc	0.0012706476
240	0xbc0378e6	-0.00802443
241	0x3b2a7bf1	0.0026013816
242	0x3caaec9b	0.020864775
243	0xbcfe6785	-0.031055221
244	0xbc54477b	-0.012956495
245	0x3d335fc4	0.0437925
246	0x3ca139b9	0.019680845
247	0x38147d2f	3.5402536e-05
248	0x3afeda85	0.0019443786
249	0xbda09a97	-0.07841986
250	0x3cae1cc9	0.02125396
251	0x3b244aef	0.0025069078
252	0x3b5167dc	0.0031952774
253	0x3bfd304a	0.007726704
254	0x3aabf36e	0.0013118812
255	0x3d278126	0.04089465

conv2.bias f4 [96]
0	0x3c93da98	0.01804857
1	0x3be162aa	0.0068782168
2	0x3cb3bab6	0.021939617
3	0xbb85a284	-0.0040782113
4	0xbc9f05ff	-0.019412039
5	0x3c9d303e	0.019188043
6	0xbc505185	-0.012714748
7	0x3d2632da	0.04057584
8	0xbd37a92b	-0.044839066
9	0x3d1f4899	0.038887594
10	0xbd504a96	-0.05085238
11	0x3d8df8ba	0.069322065
12	0x3d9cd2a4	0.07657364
13	0x3b935b7e	0.0044969907
14	0xbbf48df6	-0.007463212
15	0xbcd29db9	-0.025709974
16	0x3d837064	0.06417921
17	0xbc3a9a0a	-0.011389265
18	0x3c976d38	0.018484697
19	0xb9547451	-0.00020261227
20	0x3d603978	0.054742306
21	0xbca73df6	-0.020415287
22	0x3dc46f17	0.09591501
23	0xbca6a07f	-0.020340202
24	0x3cb78447	0.022401942
25	0x3d0336eb	0.032034796
26	0xbd22dc79	-0.03976104
27	0xbb64946c	-0.0034878505
28	0xb939ab24	-0.0001770673
29	0x3c7b95e7	0.015355564
30	0x3c9d3ad1	0.019193085
31	0x3b8d8eae	0.0043199873
32	0x3d9fadec	0.07796845
33	0xba2019d8	-0.00061073666
34	0x3c406708	0.011743315
35	0x3dbaf493	0.0912868
36	0xbae09fd9	-0.0017137482
37	0x3cfe7e54	0.031066097
38	0x3d904c73	0.070458315
39	0xbc5d8bae	-0.013522072
40	0x3db19c91	0.08672441
41	0x3c73be83	0.0148769645
42	0xbcf3a2a1	-0.029740633
43	0xbab83430	-0.0014053639
44	0xbacb09cf	-0.0015490594
45	0x3dc05ec4	0.09393075
46	0xb6cbd7ac	-6.074979e-06
47	0xbd0f7188	-0.03502038
48	0xbb86ee37	-0.004117753
49	0x3d8fb4cb	0.070169054
50	0x3d96e58e	0.07368003
51	0xbbb1ace1	-0.00542222
52	0xbb7c9fc5	-0.0038547378
53	0x38677f7e	5.5193428e-05
54	0xbc631bac	-0.013861578
55	0x3c885622	0.016642634
56	0x3d16bce9	0.036801253
57	0xbab23cc4	-0.0013598432
58	0x3ba071e0	0.0048963875
59	0xbb38b20b	-0.0028182294
60	0xbbf38bbd	-0.0074324296
61	0x3bcce4ed	0.006252876
62	0xbb014993	-0.0019727692
63	0xbc71af2b	-0.014751236
64	0xbb3e0c91	-0.002899919
65	0x3b717965	0.0036846038
66	0x3d048b61	0.032359485
67	0x3d96feb7	0.07372802
68	0x3dc281c4	0.09497407
69	0xbce18137	-0.027527435
70	0x3d4e6230	0.050386608
71	0x3d1883e0	0.03723514
72	0xbce3e8a1	-0.027820887
73	0xb85bca7f	-5.2402258e-05
74	0xbd175dce	-0.036954693
75	0x3bf19ee0	0.0073736757
76	0x3d1e35b2	0.038625427
77	0x3b89ba35	0.004203106
78	0xbd0d5d2f	-0.034512695
79	0xbc02869a	-0.007966662
80	0x3c59b28c	0.013287198
81	0xbcc06c8f	-0.023489265
82	0xbc3746b0	-0.011186287
83	0xbc3d0448	-0.011536665
84	0xbcb0053c	-0.021486871
85	0xbc89f9f1	-0.016842814
86	0x3db7757e	0.08957957
87	0x3d4fcac6	0.05073049
88	0xbc11cdec	-0.008899193
89	0xbc7e6e15	-0.015529175
90	0x3ce16da6	0.027518105
91	0xbc863854	-0.016384281
92	0x3ccaa945	0.024738917
93	0xbd21c9da	-0.03949914
94	0x3bc28b45	0.0059370124
95	0xbc97cef6	-0.018531304

fc.weight f4 [1, 96]
0	0x3d82aa7e	0.06380175
1	0x3d55c8ea	0.05219356
2	0xbd8f229d	-0.06989024
3	0xbd1e076d	-0.0385813
4	0x3d9ba795	0.07600323
5	0xbc084b12	-0.008318679
6	0x3d4bd746	0.049765848
7	0xbcb768ad	-0.02238878
8	0x3dd40480	0.10352421
9	0xbd130025	-0.03588881
10	0x3dadc349	0.08484513
11	0xbd47e2cc	-0.048800275
12	0xbd3bd4aa	-0.04585711
13	0x3ca21b35	0.019788364
14	0xbd69bd2d	-0.057065178
15	0x3d8d1b38	0.06889957
16	0xbd1af072	-0.037826963
17	0xbc970b40	-0.018437982
18	0xbbac1bbc	-0.0052523296
19	0x3b433662	0.0029787053
20	0xbcfd1a9b	-0.030896476
21	0x3daa3d8e	0.08312522
22	0xbde28c90	-0.110619664
23	0x3d4f72ea	0.0506467
24	0x3d38f482	0.045155056
25	0x3dd9c329	0.10632927
26	0x3d9d660f	0.07685482
27	0x3c803e2e	0.01565465
28	0x3ca6877e	0.02032828
29	0x3dceb8a9	0.10093815
30	0x3c86bef5	0.016448477
31	0xbdad7843	-0.08470204
32	0xbdb83072	-0.08993615
33	0x3d331539	0.04372141
34	0x3d50c9fd	0.05097388
35	0xbda67d50	-0.0812937
36	0x3cacfe9e	0.021117505
37	0x3db76bc5	0.08956102
38	0xbd3ff807	-0.046867397
39	0x3d529487	0.051411178
40	0xbd391ab5	-0.045191485
41	0xbcf177df	-0.029476104
42	0x3e00d45c	0.12581009
43	0x3cc38e95	0.0238717
44	0x3d88132d	0.066442825
45	0xbde83394	-0.11337963
46	0xbcef1365	-0.029184053
47	0x3dbb36e4	0.09141329
48	0x3c3b8dbb	0.011447365
49	0xbd3848a9	-0.04499117
50	0xbdc37b88	-0.09545046
51	0xbd83c64d	-0.06434307
52	0x3c9be549	0.01903023
53	0xb9a9bedc	-0.00032376393
54	0x3d3d913c	0.046281084
55	0x3d9a87b2	0.07545413
56	0x3d8fa3ed	0.07013688
57	0xbd9b87d0	-0.075942636
58	0x3c90cbe4	0.017675348
59	0x3d2396b7	0.039938655
60	0x3d82573c	0.06364295
61	0xbde11b90	-0.10991585
62	0x3b337200	0.0027381182
63	0x3d3d35c5	0.046193857
64	0x3be25dd0	0.006908156
65	0x3cbd4686	0.023104917
66	0xbda4de35	-0.08050195
67	0xbda22580	-0.07917309
68	0xbda36848	-0.079788744
69	0x3db4cbd8	0.088279426
70	0xbca09cc4	-0.019606002
71	0xbc7e8bd7	-0.01553627
72	0x3e16505c	0.14679092
73	0xbc0cf61a	-0.008603597
74	0x3d95776c	0.072981685
75	0x3cb54cef	0.022131411
76	0xbd67fb51	-0.05663616
77	0xbe19097d	-0.14945026
78	0xbd90291a	-0.070390895
79	0x3d42f3c4	0.047595754
80	0xbd24ece6	-0.040264986
81	0x3de88cf8	0.11355013
82	0xbd25758b	-0.0403953
83	0x3d030166	0.031983756
84	0x3d1d0f40	0.03834462
85	0x3ddd0eb6	0.107938215
86	0xbdb0ae69	-0.08627016
87	0xbcf8fb16	-0.030393165
88	0xbc5f5986	-0.013632184
89	0xbda0c8f6	-0.0785083
90	0xbdbbad0d	-0.09163866
91	0x3dab11cb	0.08353003
92	0xbdb9e31d	-0.090765215
93	0x3d9be02b	0.07611116
94	0xbd6a8ea3	-0.057264935
95	0x3d1eefb2	0.03880281
