models/audio_classifierCNN2.pth (torch, 72906 bytes, 5 tensors)

conv1.weight f4 [48, 24, 3]
0.004054747 0.09913716 -0.026501274 -0.093369916 0.036989775 0.022933217 0.09067635 0.06453161
0.027845537 0.02329694 0.033474047 0.028222986 -0.0466791 -0.008073473 -0.0009480511 0.05886342
0.0012238867 -0.000106381136 -0.01696039 0.0073464145 -0.00010428638 -0.020814415 0.032144144 -0.021422336
0.0052448614 0.07949606 0.036057465 -0.010951126 1.3491027e-05 0.059482116 -0.06339354 0.0031255796
1.371709e-05 0.1132926 0.08276712 0.05993326 0.091526575 -0.029974233 0.06282462 0.09169381
0.002688117 0.002507877 0.023936402 0.020775324 0.11607572 -0.09756255 0.03109481 0.11542451
0.075630195 0.039667927 0.0068526682 0.09593238 -0.0030646294 0.004114595 -0.06950839 -0.069980726
0.0072905226 -0.034168866 0.047197863 -0.060300734 -0.01570615 -0.015927143 -0.018457284 0.06175866
0.09237884 0.06578646 0.03689808 -0.096381135 -0.0924153 -0.08828393 -0.045411725 0.018801488
0.017310502 -0.10985405 -0.012450284 0.027294934 -0.055528563 0.008837836 -0.017407909 0.04672451
-0.010858514 0.005916499 -0.00030109807 -0.0012879313 -0.020916382 -0.008323528 0.011581174 0.001702285
0.036451723 -0.056990854 6.062001e-06 0.010953235 -0.018228326 -0.055428293 -0.041996453 0.00020325149
-0.00021856239 0.0014242468 0.019381724 -0.013722954 0.040041152 -0.038139943 0.052563444 1.0438502e-05
0.0012301519 -0.0732243 -0.04860156 0.117159754 -0.10755462 0.03613676 -0.095909104 -0.020084538
-0.0030593118 0.035008255 0.016559947 -0.06901208 -0.00061291654 -0.0061796852 0.08395467 -0.06969657
-0.014945254 -0.053685702 0.0738565 -0.037261516 -0.05337896 -0.011775824 0.01939402 0.07422361
-0.008775863 0.007134668 0.08127151 -0.05742098 -0.019576978 0.08412676 -0.08403362 -0.042018104
0.08281119 -0.07814404 -0.004849123 -0.005518516 0.04069693 0.0018593897 -0.0319797 0.06334223
-0.05095327 -0.07986346 -0.06208145 0.06456033 -0.023954045 0.04066175 -0.09852444 0.023359992
-0.03213509 -0.040040884 6.7059264e-06 -0.006986996 -0.015887128 0.0022939115 0.051884986 0.023072213
-2.1187773e-06 0.021006443 -0.04828783 -0.0009511788 -0.019767532 0.037833374 -0.06555908 0.0072759427
-0.0019412553 -0.045803707 -0.0009028825 -0.03577926 -2.9182056e-06 0.045023974 0.038539015 -0.021593504
0.03452001 0.037187487 -0.00023139236 -0.037453867 0.07606757 0.00879652 -0.0050371336 -0.008543805
-0.05425761 0.014099699 0.023138708 -0.046407796 -0.09044453 0.0073901163 -0.00957501 -0.026347494
-0.038015977 -0.015206738 0.0020729832 -0.055599615 0.0018845061 0.0012861335 -0.016482512 -0.07148449
0.0078989025 0.07497633 0.036222894 0.039320994 -0.014639699 -0.0193012 -0.0009851917 0.03556682
-0.0121558 -0.0047481083 -0.012127691 -0.022882205 -0.03287313 0.04049898 -0.045826625 -0.0010507731
0.09618603 0.069077484 -0.09931034 -0.053419802 -0.058590543 0.100547776 -0.07103748 0.071870245
0.06538316 0.016400347 0.000720302 0.036309537 9.799415e-07 -0.017995292 0.037679486 -0.020483134
0.046041213 0.040657148 6.836884e-05 0.0002262012 -0.0026422564 -0.014260182 -0.0056452183 0.0003140862
0.041645776 -0.0773254 -0.033688422 0.00044162216 -0.022589218 0.0015780552 -0.025008077 0.053354193
0.008721931 0.02471833 0.0830914 0.08757126 -0.1069274 -0.08723652 0.029788496 -0.023576505
00000000: afdd 843b 6c08 cb3d 3319 d9bc ba38 bfbd
00000010: 9782 173d 71de bb3c 86b4 b93d 2629 843d
00000020: 531c e43c 39d9 be3c 151c 093d e433 e73c
00000030: 9532 3fbd 9a46 04bc a286 78ba c51a 713d
00000040: d36a a03a f018 dfb8 84f0 8abc 31ba f03b
00000050: 53b4 dab8 fe82 aabc 94a9 033d e57d afbc
00000060: 16dd ab3b d5ce a23d feb0 133d 5a6c 33bc
00000070: 8557 6237 85a3 733d 79d4 81bd 86d6 4c3b
00000080: 7422 6637 f305 e83d cf81 a93d 947c 753d
00000090: 4972 bb3d 868c f5bc 32aa 803d f7c9 bb3d
000000a0: 1f2b 303b 325b 243b 4616 c43c 0331 aa3c
000000b0: 1bb9 ed3d e0ce c7bd 8bba fe3c af63 ec3d
000000c0: 01e4 9a3d d67a 223d 598c e03b 3278 c43d
000000d0: f3d7 48bb b9d3 863b 6a5a 8ebd 0e52 8fbd
000000e0: 56e5 ee3b a7f4 0bbd 8c52 413d e7fd 76bd
000000f0: 2faa 80bc a479 82bc bb33 97bc a6f6 7c3d
00000100: 1e31 bd3d 0dbb 863d 7122 173d 7963 c5bd
00000110: 3c44 bdbd 35ce b4bd a501 3abd 9405 9a3c
00000120: c1ce 8d3c 29fb e0bd 47fc 4bbc a099 df3c
00000130: eb71 63bd 92cc 103c 089b 8ebc 3362 3f3d
00000140: e9e7 31bc 31df c13b b3dc 9db9 cecf a8ba
00000150: d558 abbc 685f 08bc f7be 3d3c 351f df3a
00000160: 674e 153d 3e6f 69bd 3168 cb36 3375 333c
00000170: 9253 95bc c708 63bd 7904 2cbd e81f 5539
00000180: e52d 65b9 cbad ba3a 6cc6 9e3c 3ed6 60bc
00000190: 3102 243d a138 1cbd c44c 573d 0621 2f37
000001a0: 0c3d a13a 9ff6 95bd 6e12 47bd 74f1 ef3d
000001b0: 9945 dcbd 2404 143d fe6b c4bd 5488 a4bc
000001c0: bc7e 48bb d164 0f3d baa8 873c 3556 8dbd
000001d0: 22ac 20ba f57e cabb 6df0 ab3d 13bd 8ebd
000001e0: f0dc 74bc 8ae5 5bbd 1442 973d 889f 18bd
000001f0: e5a3 5abd 63ef 40bc 35e0 9e3c 8c02 983d
00000200: a3c8 0fbc efc9 e93b ad71 a63d 4332 6bbd
00000210: e65f a0bc a74a ac3d d219 acbd 2d1b 2cbd
00000220: ea98 a93d fc09 a0bd 64e5 9ebb abd4 b4bb
00000230: d3b1 263d c4b6 f33a 25fd 02bd 92b9 813d
00000240: 60b4 50bd 748f a3bd 1e49 7ebd 3538 843d
00000250: 463b c4bc ef8c 263d 2ec7 c9bd 745d bf3c
00000260: 16a0 03bd e901 24bd 7803 e136 2cf3 e4bb
00000270: b925 82bc 7355 163b 5a85 543d f001 bd3c
00000280: 5130 0eb6 b415 ac3c 76c9 45bd 8758 79ba
00000290: 85ef a1bc 2bf7 1a3d d743 86bd 086b ee3b
000002a0: b871 feba ab9c 3bbd 6baf 6cba 468d 12bd
000002b0: 64d6 43b6 0f6b 383d 16db 1d3d dce4 b0bc
000002c0: db64 0d3d e851 183d eaa1 72b9 3a69 19bd
000002d0: 50c9 9b3d 471f 103c 8a0e a5bb 51fb 0bbc
000002e0: 3a3d 5ebd 6d02 673c 638d bd3c 1a16 3ebd
000002f0: fb3a b9bd ca28 f23b 81e0 1cbc b3d6 d7bc
00000300: a4b6 1bbd af25 79bc e3da 073b 6cbc 63bd
00000310: 8801 f73a 7b93 a83a 5506 87bc 7666 92bd
00000320: 666a 013c 318d 993d 755e 143d 0d0f 213d
00000330: 59db 6fbc 8d1d 9ebc 8c21 81ba 84ae 113d
00000340: 1f29 47bc 0596 9bbb 39b3 46bc 7673 bbbc
00000350: faa5 06bd 42e2 253d b3b4 3bbd 18ba 89ba
00000360: 2efd c43d 7f78 8d3d 3863 cbbd b9ce 5abd
00000370: a3fc 6fbd feeb cd3d 197c 91bd b530 933d
00000380: 9be7 853d 055a 863c a6d2 3c3a 4fb9 143d
00000390: 8986 8335 dd6a 93bc ce55 1a3d 3fcc a7bc
000003a0: b695 3c3d 1c88 263d 3e61 8f38 6c30 6d39
000003b0: b529 2dbb 8aa3 69bc 86fb b8bb f0ab a439
000003c0: c394 2a3d c85c 9ebd dffc 09bd 8689 e739
000003d0: 060d b9bc bfd6 ce3a bddd ccbc ed89 5a3d
000003e0: 6ee6 0e3c 187e ca3c d32b aa3d 9058 b33d
000003f0: c1fc dabd 10a9 b2bd 0107 f43c 8423 c1bc

conv1.bias f4 [48]
-0.005733545 -0.022749476 -0.04778548 -0.013596416 -0.014698481 0.100593016 -0.044481385 0.099004544
0.041166652 0.08816785 0.054363765 0.052845303 -0.029408706 -0.061407518 -0.0013464404 -0.0008745533
-0.08720047 0.08163962 -0.027783882 0.026366934 0.027464302 0.023935908 -0.06648353 -0.08830834
0.06257992 0.08281346 -0.045471 0.014213702 -0.039865404 0.010436589 0.057697885 -0.039637055
-0.09554507 -0.091478005 -0.021855539 0.040565096 -0.021327602 0.09771518 -0.018576419 -0.010262153
0.020228377 0.093841 0.033783335 -0.051922616 0.03776336 0.044449158 0.07866533 -0.008477536
00000000: 76e0 bbbb 1c5d babc b5ba 43bd 81c3 5ebc
00000010: e6d1 70bc b603 ce3d 1d32 36bd e5c2 ca3d
00000020: 5d9e 283d 5991 b43d 8aac 5e3d 5174 583d
00000030: 87ea f0bc 7386 7bbd 0b7b b0ba 4742 65ba
00000040: 2996 b2bd ac32 a73d 069b e3bc 78ff d73c
00000050: d1fc e03c 3d15 c43c 8428 88bd 01db b4bd
00000060: e729 803d 1a9a a93d cd3f 3abd 96e0 683c
00000070: e849 23bd 3afe 2a3c 9e54 6c3d 775a 22bd
00000080: 22ad c3bd d258 bbbd 630a b3bc 9627 263d
00000090: 39b7 aebc e51e c83d 932d 98bc 9722 28bc
000000a0: fbb5 a53c b62f c03d 6560 0a3d cfac 54bd
000000b0: c1ad 1a3d 5210 363d 4a1b a13d 5de5 0abc

conv2.weight f4 [96, 48, 3]
-0.00068544503 -0.04817944 0.048037194 0.0049929684 -0.015202594 0.019685766 0.06153276 0.022862922
0.06276623 0.073014304 -0.060910553 -0.06930524 -0.041480944 -0.032718785 -0.082193464 0.07758367
0.079643205 0.04255837 0.029358495 -0.0033924088 0.026668519 -0.0038105757 0.034769297 0.06562817
0.07724642 0.055910986 0.057080124 -0.048584875 -0.04848802 -0.07930566 3.9675673e-05 0.057478532
0.04343045 -0.022606652 0.03440493 0.032705016 0.048819344 -0.06485011 -0.038284495 0.041034486
0.023829535 -0.065884925 -0.042873904 -0.009096044 -0.06403238 -0.0018928244 0.013837168 -0.0020648476
-0.06512707 -0.06512376 0.019109245 -0.04726243 0.030657206 0.029066022 -0.06432617 -0.039209317
-0.077298254 0.013902814 0.050543692 0.040846538 -0.008886801 0.042608984 0.01702243 0.06241626
0.02169295 -0.035879593 0.057420522 -0.06891093 -0.008652501 0.06323676 0.08293788 0.0707339
-0.069609985 -0.006335987 0.017887954 -0.05470978 0.055935077 0.045165174 -0.0541952 0.07351136
-0.07671918 -0.02282897 0.059177373 -0.0028106833 -0.019721283 -0.0027687198 0.013525986 -0.034593225
-0.073264375 -0.062801786 0.06523911 -0.029514976 0.0054400847 0.0065351347 0.04715938 -0.021916121
-0.024889236 0.037511755 -0.029142298 -0.08054266 0.038638335 0.000546177 0.03684031 -0.03532775
0.024023473 0.0106812585 -0.06968207 -0.032583214 -0.071580954 0.016462967 0.013991072 0.0014009087
-0.0603687 -0.060200717 0.036073007 0.014031531 0.042572998 0.0730831 -0.015384212 -0.008964321
-0.0016018098 0.026520586 -0.04655213 0.0404276 0.023293745 0.007853331 0.024042988 -0.06922502
-0.081447594 -0.030062009 -0.021917615 -0.03221837 0.04996177 0.08093255 -0.04447975 0.07947493
-0.044071406 -0.019700581 -0.0682468 -0.06864085 -0.03401706 -0.0073133097 0.066011705 0.004594987
-0.0049671857 0.052623462 0.06580187 -0.057364464 -0.030630728 -0.004933285 0.0036582325 0.016389545
-0.03633188 -0.04768908 -0.0018904052 0.07593287 0.06662872 0.030992823 0.03943982 -0.05114813
0.06616613 0.05922291 0.05926329 -0.0048655705 0.046167765 -0.04132568 -0.01414977 -0.035586853
-0.05445528 0.027844634 -0.019425862 0.008113376 -0.0021646097 -0.006758096 0.034503628 0.011520494
0.0827009 -0.03322006 -0.011417899 0.05659144 0.091550514 -0.058892604 0.013657427 0.004565347
-0.031205012 0.005411193 0.0072825328 0.053150356 -0.019372365 0.029612888 -0.018258346 0.0036696044
0.03995288 -0.07254274 0.0077726943 0.012983446 -0.03295521 -1.1056223e-05 -0.0007076664 -0.022070697
-0.033203352 -0.013543955 -0.024905955 0.085993655 -0.049185038 -0.015785692 0.07479626 -0.030087447
-0.046706427 -0.034791395 -0.07271174 -0.059842445 -0.01867135 0.015579264 -0.06992102 -0.00792683
0.07210326 -0.00582929 -0.004931626 0.002324348 0.043347977 -0.03506104 0.07319139 0.041910194
0.03888339 -0.06622288 0.015417523 0.06676742 -0.03995199 -5.793319e-07 0.0055670035 -0.046580918
0.0053195585 -0.044135775 0.020528467 0.009623044 -0.017806737 0.06977493 -0.03328452 0.027438631
-0.06965344 -0.010484421 0.030798908 -0.0028021003 -0.050693713 0.050688062 -0.038716465 -0.015772004
-0.0134337945 -0.02220838 0.066018514 0.05577711 0.06367776 0.07344919 -0.0031858243 0.0010285861
00000000: 70af 33ba ce57 45bd a6c2 443d 0e9c a33b
00000010: 4d14 79bc 0b44 a13c c609 7c3d 064b bb3c
00000020: 958b 803d 8688 953d 587d 79bd e8ef 8dbd
00000030: ece7 29bd 2204 06bd 0c55 a8bd 30e4 9e3d
00000040: fa1b a33d af51 2e3d 3a81 f03c 2d53 5ebb
00000050: f077 da3c daba 79bb 406a 0e3d 1068 863d
00000060: 5f33 9e3d eb02 653d d9cc 693d ef00 47bd
00000070: 609b 46bd 026b a2bd 6e69 2638 9c6e 6b3d
00000080: 21e4 313d 9631 b9bc 2fec 0c3d b2f5 053d
00000090: cbf6 473d 22d0 84bd 34d0 1cbd c713 283d
000000a0: 2836 c33c adee 86bd 8c9c 2fbd 9307 15bc
000000b0: 6923 83bd a618 f8ba 4ab5 623c 6552 07bb
000000c0: 5761 85bd 9b5f 85bd fe8a 9c3c 4096 41bd
000000d0: d224 fb3c de1b ee3c 70bd 83bd f399 20bd
000000e0: 8c4e 9ebd a1c8 633c e706 4f3d b34e 273d
000000f0: f299 11bc c286 2e3d a072 8b3c 31a8 7f3d
00000100: 6ab5 b13c 7bf6 12bd c831 6b3d 2c21 8dbd
00000110: 38c3 0dbc 4682 813d 56db a93d efdc 903d
00000120: ae8f 8ebd 1c9e cfbb c289 923c 5d17 60bd
00000130: 2e1c 653d 1eff 383d c9fb 5dbd 208d 963d
00000140: f21e 9dbd d203 bbbc f963 723d 7133 38bb
00000150: 878e a1bc 6973 35bb 199c 5d3c a0b1 0dbd
00000160: a20b 96bd 399e 80bd 159c 853d 64c9 f1bc
00000170: bd42 b23b af24 d63b 322a 413d 7089 b3bc
00000180: 83e4 cbbc eda5 193d d4bb eebc 8df3 a4bd
00000190: 3b43 1e3d 512d 0f3a dde5 163d d5b3 10bd
000001a0: e0cc c43c 7200 2f3c 79b5 8ebd fa75 05bd
000001b0: 0999 92bd 58dd 863c cf3a 653c b29e b73a
000001c0: 2c45 77bd 0795 76bd 4ac1 133d 82e4 653c
000001d0: 0661 2e3d 98ac 953d 100e 7cbc 16df 12bc
000001e0: d1f3 d1ba b341 d93c 72ad 3ebd 6997 253d
000001f0: 86d2 be3c 42ab 003c cdf5 c43c d9c5 8dbd
00000200: ffcd a6bd 9a44 f6bc 928c b3bc 69f7 03bd
00000210: b7a4 4c3d f7bf a53d 6630 36bd c1c3 a23d
00000220: 3884 34bd 1d63 a1bc fac4 8bbd 9393 8cbd
00000230: 7955 0bbd 7da4 efbb 2531 873d 8b91 963b
00000240: c6c3 a2bb b38b 573d 21c3 863d 00f7 6abd
00000250: 4bed fabc 65a7 a1bb f5be 6f3b 5e43 863c
00000260: bdd0 14bd a055 43bd 79c7 f7ba b182 9b3d
00000270: a374 883d a9e4 fd3c a68b 213d b480 51bd
00000280: 1c82 873d b993 723d 10be 723d 5d6f 9fbb
00000290: 691a 3d3d 1e45 29bd 70d4 67bc 85c3 11bd
000002a0: 800c 5fbd 6e1a e43c fc22 9fbc f7ed 043c
000002b0: 20dc 0dbb 0573 ddbb ad53 0d3d 74c0 3c3c
000002c0: 175f a93d c211 08bd 2412 3bbc 6dcc 673d
000002d0: d67e bb3d 5f39 71bd 67c3 5f3c e898 953b
000002e0: a7a1 ffbc 6050 b13b 50a2 ee3b 30b4 593d
000002f0: cbb2 9ebc ba96 f23c 8792 95bc bf7d 703b
00000300: a2a5 233d 4a91 94bd 16b2 fe3b 85b8 543c
00000310: 0bfc 06bd 1e7e 39b7 b082 39ba 9bcd b4bc
00000320: 3d00 08bd 77e7 5dbc 9307 ccbc 711d b03d
00000330: 4076 49bd ff50 81bc c82e 993d f379 f6bc
00000340: 3d4f 3fbd 6c81 0ebd e5e9 94bd 5a1d 75bd
00000350: a9f4 98bc 2b40 7f3c c032 8fbd 89df 01bc
00000360: e0aa 933d a103 bfbb 7a99 a1bb 1754 183b
00000370: a68d 313d 2a9c 0fbd 5ee5 953d 06aa 2b3d
00000380: 3144 1f3d dc9f 87bd c799 7c3c 5bbd 883d
00000390: b3a4 23bd 6383 1bb5 696b b63b a2cb 3ebd
000003a0: b14f ae3b b7c7 34bd 512b a83c f9a9 1d3c
000003b0: 6fdf 91bc 29e6 8e3d 5955 08bd fbc6 e03c
000003c0: 76a6 8ebd d9c6 2bbc fe4d fc3c 71a3 37bb
000003d0: 36a4 4fbd 499e 4f3d 2895 1ebd 4a34 81bc
000003e0: 6b19 5cbc 59ee b5bc b734 873d 8a76 643d
000003f0: 7c69 823d 876c 963d 43c9 50bb 9fd1 863a

conv2.bias f4 [96]
-0.037706632 0.0131457755 -0.06952314 -0.0694534 -0.014790708 -0.02954046 -0.05827743 -0.0025253168
-0.048140157 -0.006401456 -0.037146904 -0.036337838 0.014350484 -0.029585622 0.0012817613 -0.035591047
-0.060016543 -0.00022137038 0.038516548 0.00510198 0.053186797 -0.039886843 -0.004413245 -0.032044034
0.058998745 -0.03360036 -0.03604693 -0.0574802 -0.025350163 -0.00044481174 -0.034566905 0.023527324
-0.017795812 -0.08018496 -0.06073899 -0.012383494 -0.019814985 -0.043176346 -0.060394455 0.07082113
-0.034150835 -0.03584994 0.09395618 0.027398914 0.07088832 -0.0077229626 -0.03347443 0.012993074
-0.050432436 -0.067713656 -0.04420761 -0.008268798 -0.031602874 -0.043790787 0.004211085 -0.057897456
-0.010013028 0.04811144 0.014547973 -0.00032301812 0.024017898 -0.00031250523 0.0054101944 -0.032474395
0.041111965 0.0149415815 0.03292737 0.018731656 -0.05411036 0.034292664 0.0020850275 -0.058374528
0.03405018 -0.045980584 0.0070767943 -0.01684692 0.025332455 0.057680722 -0.02102286 -0.039050132
0.058045216 0.014839021 0.07132027 0.0056813895 -0.034107503 -0.0081872195 -0.008379925 -0.02811371
-0.0040098224 0.046426944 -0.03804428 0.014215735 0.08153205 -0.029520333 -0.074456304 0.04457247
00000000: 4572 1abd 6161 573c 2662 8ebd 963d 8ebd
00000010: ba54 72bc d6fe f1bc 50b4 6ebd c97f 25bb
00000020: 9d2e 45bd 4ec3 d1bb 5a27 18bd fcd6 14bd
00000030: 4b1e 6b3c 8c5d f2bc c600 a83a ebc7 11bd
00000040: e8d3 75bd a91f 68b9 87c3 1d3d 832e a73b
00000050: 66da 593d 6360 23bd fb9c 90bb 9b40 03bd
00000060: aba8 713d 88a0 09bd f2a5 13bd 5c70 6bbd
00000070: 25ab cfbc 9f35 e9b9 0796 0dbd 60bc c03c
00000080: 86c8 91bc 0338 a4bd 72c9 78bd 23e4 4abc
00000090: 0953 a2bc aed9 30bd 2d60 77bd ab0a 913d
000000a0: bfe1 0bbd 63d7 12bd 196c c03d b073 e03c
000000b0: e52d 913d e810 fdbb 7c1c 09bd e7e0 543c
000000c0: 3e92 4ebd 75ad 8abd 0a13 35bd da79 07bc
000000d0: 0472 01bd f85d 33bd 24fd 893b e225 6dbd
000000e0: af0d 24bc 8010 453d 9f5a 6e3c c25a a9b9
000000f0: 2fc1 c43c bed7 a3b9 0048 b13b df03 05bd
00000100: 0565 283d 89cd 743c dade 063d 2173 993c
00000110: d3a2 5dbd 7776 0c3d f5a4 083b 211a 6fbd
00000120: 3478 0b3d 2356 3cbd 74e4 e73b 8d02 8abc
00000130: 0286 cf3c 9f42 6c3d 2238 acbc 08f3 1fbd
00000140: d2c0 6d3d 5d1f 733c 5d10 923d f32a ba3b
00000150: 4fb4 0bbd b023 06bc f44b 09bc b94e e6bc
00000160: d464 83bb 2e2a 3e3d 52d4 1bbd 1de9 683c
00000170: 47fa a63d a0d4 f1bc 8c7c 98bd 9f91 363d

fc.weight f4 [1, 96]
-0.098824784 0.07308419 -0.05002539 0.10253033 -0.06500456 0.026276669 0.08569679 -0.074648224
0.09559108 -0.009122243 0.08295695 -0.006921141 -0.001312144 0.03755684 0.09178542 0.09791215
-0.06215865 -0.026926754 0.03251246 0.031051883 -0.017203866 -0.05026991 0.12409078 0.117942244
-0.014578413 0.03915567 -0.025431283 0.039886937 0.03899521 -0.019363943 0.065682605 -0.043127727
0.026372792 0.09537149 0.037420228 -0.019947004 0.043254692 0.014766474 -0.07703346 -0.014251128
-0.02553608 -0.04182796 -0.08471506 0.09013827 -0.010979787 -0.08557914 0.008355516 0.060182683
0.08051828 0.082831725 -0.030093001 -0.05889649 -0.070424266 0.011759986 0.028710136 0.07250034
-0.09915679 -0.007467681 0.040519983 -0.09368266 0.028051328 -0.002334733 -0.0012676818 -0.009035938
0.13333294 0.09795005 0.09960076 0.04043195 0.09761342 0.06336672 0.018425545 0.085736655
-0.05445415 -0.07533536 0.06319322 0.03361617 -0.074724145 -0.086350024 -0.04227336 -0.07087283
-0.050197314 0.050091777 -0.059859037 -0.07170013 0.08470583 -0.011621714 0.025728393 -0.054828018
-0.004629417 -0.019548187 0.038158223 -0.037179712 -0.020792142 -0.069221854 0.07689044 0.105801344
00000000: a664 cabd 2aad 953d 6ce7 4cbd 6cfb d13d
00000010: 1c21 85bd 2b42 d73c cc81 af3d 2be1 98bd
00000020: 42c5 c33d 7675 15bc 55e5 a93d bdca e2bb
00000030: 3ffc abba 33d5 193d fff9 bb3d 2a86 c83d
00000040: 129a 7ebd 7f95 dcbc c92b 053d 8560 fe3c
00000050: 1fef 8cbc d2e7 4dbd 4f23 fe3d b48b f13d
00000060: 4cda 6ebc b261 203d 4455 d0bc 7c60 233d
00000070: 71b9 1f3d 22a1 9ebc 9a84 863d b3a6 30bd
00000080: c10b d83c 2152 c33d f445 193d e667 a3bc
00000090: d52b 313d 15ef 713c b8c3 9dbd 907d 69bc
000000a0: 0b31 d1bc cc53 2bbd 177f adbd 6a9a b83d
000000b0: 91e4 33bc 1e44 afbd 93e5 083c 1e82 763d
000000c0: c5e6 a43d aea3 a93d 9985 f6bc 723d 71bd
000000d0: 993a 90bd f5ac 403c 8531 eb3c 0f7b 943d
000000e0: b712 cbbd 73b3 f4bb 48f8 253d b2dc bfbd
000000f0: e6cb e53c 5202 19bb 5828 a6ba 790b 14bc
00000100: 6e88 083e 099a c83d 7cfb cb3d f99b 253d
00000110: 8be9 c73d 69c6 813d 2bf1 963c b396 af3d
00000120: 510b 5fbd 6d49 9abd 726b 813d 1cb1 093d
00000130: f908 99bd 48d8 b0bd d526 2dbd c625 91bd
00000140: b39b 4dbd 092d 4d3d c02e 75bd 85d7 92bd
00000150: 407a ad3d 0069 3ebc 5ac4 d23c 5893 60bd
00000160: 5db2 97bb 8523 a0bc cc4b 1c3d c149 18bd
00000170: 4854 aabc 30c4 8dbd bc78 9d3d 60ae d83d
