models/audio_classifierCNN.pth (torch, 72896 bytes, 5 tensors)

conv1.weight f4 [48, 24, 3]
-0.10874415 -0.011791996 0.075858265 0.10714591 -0.0139128035 -0.06781986 0.019899871 -0.00728351
0.08548316 0.0056559276 -0.078372434 -0.00030854155 0.07065407 -0.014825837 -0.06295786 0.018921722
-0.0023556075 -0.035364933 -8.005778e-05 -0.00015757815 0.035585504 0.0028099949 0.0071661714 -0.001530962
0.093439735 -0.073963076 -0.027653007 -0.07833387 0.054999445 0.013151704 0.0020397818 0.06592383
-0.028271182 -0.0855042 -0.069558755 0.10186751 0.111084275 -0.0032620726 -0.0036468697 -0.095980704
-0.050876908 -0.081587404 -0.08819373 0.031878073 -0.07664985 0.12612861 -0.01985437 -0.066213295
0.0055637406 0.0726517 0.03920894 0.028708782 -0.07688193 -0.060216837 -0.0758899 -0.09318602
-0.08124786 0.005049323 -0.093780264 -0.033752985 -0.043288767 0.037698142 0.0015729528 -0.011846331
-0.082693875 0.07385285 0.018229485 -0.08765309 -0.028432034 0.025711704 0.091675274 -0.10903263
0.07072277 0.08964708 0.025131654 -0.08715685 -0.021458428 -0.0754447 0.07124364 0.010800008
-0.03253074 -0.023086743 0.030215094 -0.051502503 -0.08896686 0.08792104 0.014240861 -0.05501558
0.00016008604 0.00031325183 0.07188877 0.050338957 -0.029956132 0.006633725 0.08944268 -0.0013889682
-0.07218921 0.023182143 -0.0010169446 -0.0048103957 0.000115506664 -0.085781574 -0.060033914 -0.0794399
0.05232437 -0.07232476 -0.06442879 0.019900026 -0.08794659 -0.06088074 -0.01145866 0.09265684
0.08941496 -0.0370886 -0.07489823 -0.07208915 -0.020904923 -0.024686534 0.059020557 0.0033154371
-0.08825823 0.0005664228 -0.007892074 0.030709976 0.09524083 -0.080056794 -0.063340746 0.010550274
-0.08780724 0.032910593 0.107450046 0.00013746278 -0.068103105 -0.022497784 0.012244616 -0.042811584
-0.041082244 0.08365802 -0.0073475195 0.0023657584 8.915574e-05 -0.011994911 0.08031882 0.04338085
0.03538183 0.04952266 -0.10154271 -0.03658923 -0.07179211 0.029277606 -0.106231384 -0.015953355
0.0014584888 -0.04020214 0.053020354 0.08174025 -0.008502214 -0.013492933 0.023509976 0.064878054
0.03929782 -0.047077656 0.018332796 0.07359986 0.034187403 0.06833339 -0.001288558 0.055255964
0.015908834 0.005446264 0.056792006 0.054200362 -0.03816162 0.08096786 0.056001663 0.0062918593
0.057051092 -0.06484395 0.098252624 0.038161814 0.012487488 -0.02764935 0.0181655 0.0005697529
-0.004899485 0.084802814 0.081332214 0.09421047 -0.07080602 0.032461233 -0.009535644 0.020397834
0.00048493702 0.09761556 0.09479027 0.012866989 -0.06236516 0.019207971 -0.044723 -0.00037482852
-0.08838772 -0.02188764 -0.08527327 -0.10345521 -0.050037213 -0.050317973 -0.066669166 0.06276778
0.07736543 0.0433965 0.03484474 -0.094601594 0.08856343 0.07119821 -0.012719461 -0.04892976
-0.07411451 -0.10067588 0.040893067 -0.038055502 -0.11782889 -0.1223797 0.112635955 -0.017434279
-0.029426347 -0.000105625804 0.029468358 -0.0063507673 -0.029823733 -0.046431307 0.06629394 -0.0031527556
-0.027500475 0.0074425736 -0.03289481 -0.06087346 -0.07866437 0.08350179 -0.010604115 -0.07331707
-0.039874922 -0.00823521 -0.040850516 -0.0015056848 -0.0835933 0.054363877 0.024045361 0.05313833
0.08976658 -0.10232965 0.10705766 0.1020289 0.05302092 -0.04104247 0.056460295 -0.006544646
00000000: 41b5 debd 3733 41bc 945b 9b3d 516f db3d
00000010: 87f2 63bc 24e5 8abd 0e05 a33c 83aa eebb
00000020: cc11 af3d 5c55 b93b ba81 a0bd bfc3 a1b9
00000030: 15b3 903d 11e8 72bc 0df0 80bd ba01 9b3c
00000040: 8960 1abb d2da 10bd b2e4 a7b8 903b 25b9
00000050: 1bc2 113d e427 383b 34d2 ea3b 8faa c8ba
00000060: 555d bf3d f479 97bd 8f88 e2bc 826d a0bd
00000070: 1947 613d 3f7a 573c dcad 053b 1303 873d
00000080: f798 e7bc d31c afbd d274 8ebd ea9f d03d
00000090: 2780 e33d 7fc8 55bb 5200 6fbb 8891 c4bd
000000a0: 4e64 50bd 4c17 a7bd ea9e b4bd 9592 023d
000000b0: 99fa 9cbd dc27 013e a2a5 a2bc d69a 87bd
000000c0: 0a50 b63b 6aca 943d 8e99 203d ae2e eb3c
000000d0: 4674 9dbd eea5 76bd 2a6c 9bbd 50d8 bebd
000000e0: 4765 a6bd cb74 a53b de0f c0bd 9240 0abd
000000f0: 904f 31bd 5e69 1a3d 8a2b ce3a 1d17 42bc
00000100: 685b a9bd 2a40 973d 0056 953c 7783 b3bd
00000110: 4cea e8bc 5aa1 d23c 3fc0 bb3d 804c dfbd
00000120: 1ad7 903d e398 b73d e6e0 cd3c 4a7f b2bd
00000130: 96c9 afbc c082 9abd 2fe8 913d 84f2 303c
00000140: f43e 05bd 6920 bdbc a585 f73c 4af4 52bd
00000150: 4234 b6bd f20f b43d 8052 693c 0458 61bd
00000160: c5dc 2739 f33b a439 6b3a 933d 3930 4e3d
00000170: 9066 f5bc b85f d93b b92d b73d 0a0e b6ba
00000180: f0d7 93bd 7ae8 bd3c 004b 85ba 86a0 9dbb
00000190: 2b3c f238 40ae afbd 1fe6 75bd 63b1 a2bd
000001a0: 1452 563d 011f 94bd 3ef3 83bd 6105 a33c
000001b0: 571d b4bd 155e 79bd 1abd 3bbc dfc2 bd3d
000001c0: 311f b73d 37ea 17bd 3e64 99bd 7aa3 93bd
000001d0: cd40 abbc 6a3b cabc 8abf 713d ce47 593b
000001e0: bbc0 b4bd fe7b 143a c24d 01bc 7d93 fb3c
000001f0: a00d c33d d1f4 a3bd cbb8 81bd 0edb 2c3c
00000200: 48d4 b3bd 42cd 063d c50e dc3d e223 1039
00000210: a479 8bbd 464d b8bc a49d 483c 335b 2fbd
00000220: db45 28bd e554 ab3d 76c3 f0bb d70a 1b3b
00000230: 20f9 ba38 4e86 44bc 327e a43d 1eb0 313d
00000240: 8aec 103d 46d8 4a3d a0f5 cfbd 97de 15bd
00000250: be07 93bd 97d7 ef3c d78f d9bd 9cb0 82bc
00000260: c32a bf3a 00ab 24bd df2b 593d 6f67 a73d
00000270: df4c 0bbc 7611 5dbc fe97 c03c c9de 843d
00000280: c0f6 203d 80d4 40bd a92e 963c 86bb 963d
00000290: 1708 0c3d 60f2 8b3d d5e4 a8ba 1454 623d
000002a0: 3e53 823c 9376 b23b bc9e 683d 3301 5e3d
000002b0: 5c4f 1cbd 7ad2 a53d 0062 653d f12b ce3b
000002c0: 68ae 693d e8cc 84bd ac38 c93d 904f 1c3d
000002d0: 5298 4c3c e480 e2bc d1cf 943c 785b 153a
000002e0: dc8b a0bb 19ad ad3d 8191 a63d 6bf1 c03d
000002f0: bf02 91bd 12f6 043d 643b 1cbc 5c19 a73c
00000300: 253f fe39 abea c73d 6721 c23d 10d0 523c
00000310: 9c72 7fbd 095a 9d3c 772f 37bd a284 c4b9
00000320: 9f04 b5bd b54d b3bc c1a3 aebd 53e0 d3bd
00000330: d2f3 4cbd 381a 4ebd d889 88bd 658c 803d
00000340: c471 9e3d 87c0 313d 5cb9 0e3d 7bbe c1bd
00000350: be60 b53d 5ed0 913d 4965 50bc 926a 48bd
00000360: 59c9 97bd 282f cebd 7d7f 273d 16e0 1bbd
00000370: 4650 f1bd 35a2 fabd aead e63d 55d2 8ebc
00000380: 860f f1bc 6c83 ddb8 a067 f13c 191a d0bb
00000390: e750 f4bc c12e 3ebd 1ec5 873d 769e 4ebb
000003a0: ad48 e1bc d5e0 f33b b5bc 06bd 7356 79bd
000003b0: c91a a1bd fd02 ab3d e2bc 2dbc 4327 96bd
000003c0: e353 23bd f9ec 06bc df52 27bd 665a c5ba
000003d0: f732 abbd a8ac 5e3d c7fa c43c 94a7 593d
000003e0: 8ad7 b73d 3592 d1bd 0c41 db3d 87f4 d03d
000003f0: 772c 593d 261c 28bd e942 673d 7874 d6bb

conv1.bias f4 [48]
-0.022474298 0.08912917 0.06993759 0.012365341 -0.0014553658 -0.03527058 0.09849175 -0.04196381
-0.045895997 0.07557813 0.016186707 -0.05151848 -0.036911942 -0.10445293 -0.057928268 -0.08701247
0.08551055 0.10294217 0.078180835 0.09542781 0.09887847 -0.017177457 -0.023924626 0.065945804
-0.06110036 0.014475341 -0.09231909 -0.010542473 0.07904058 -0.075257294 -0.08310713 -0.09251045
0.03165758 0.008804123 -0.04171811 0.029054891 -0.014091509 0.0784209 -0.08995095 0.008114753
-0.08121794 -0.09440631 -0.034665156 -0.052469086 -0.08567219 0.04150138 -0.06842814 -0.061980363
00000000: 051c b8bc 5b89 b63d 703b 8f3d 0098 4a3c
00000010: f9c1 beba e277 10bd 0bb6 c93d 3ee2 2bbd
00000020: 71fd 3bbd b5c8 9a3d fc99 843c 0b05 53bd
00000030: fa30 17bd 6beb d5bd 3146 6dbd 9833 b2bd
00000040: 2820 af3d 58d3 d23d 461d a03d a86f c33d
00000050: cc80 ca3d bdb7 8cbc 94fd c3bc 980e 873d
00000060: 5f44 7abd fb29 6d3c cb11 bdbd 56ba 2cbc
00000070: 07e0 a13d 7f20 9abd 1234 aabd 1e76 bdbd
00000080: 61ab 013d 2b3f 103c 9ce0 2abd 8604 ee3c
00000090: 13e0 66bc 239b a03d 3438 b8bd bef3 043c
000000a0: 9755 a6bd 1858 c1bd 0dfd 0dbd d3e9 56bd
000000b0: e774 afbd 5afd 293d 0d24 8cbd 1fdf 7dbd

conv2.weight f4 [96, 48, 3]
0.027830351 0.022455255 0.07101671 0.014639506 -0.058799196 0.018795332 -0.021951405 -0.06234319
0.06712873 0.05812281 -0.016651066 0.044063687 0.024508057 0.00018731179 0.015244347 -0.026936652
0.064791754 -0.0029346745 -0.01876262 0.029186081 0.06559416 0.008082666 0.051954947 -0.036863834
0.05428155 0.008652522 0.0024903424 0.04464314 0.058977544 0.065176316 -0.04993719 0.07433357
-0.0015146019 0.012209423 -0.054178778 0.04600963 0.03531625 0.01466523 -0.042273305 -0.052068267
-0.06656704 0.019700078 -0.05598953 0.064164944 -0.00143245 0.041615568 0.00039158462 -0.025879892
-0.022359772 0.0024026632 -0.007910169 -0.02902031 -0.051828727 -0.02926941 0.045003414 0.010205768
-0.07196849 -0.051513392 -0.042532362 0.06520826 -0.055067595 0.039964885 -0.024517652 0.014660403
0.026547141 -0.0550622 -0.060214836 -0.0344922 0.0091383895 -0.042993974 -0.046671137 -0.010578467
0.02321328 -0.06831502 -0.07940723 -0.033345677 0.016139114 0.0706744 0.041880812 0.04727499
-0.027089823 0.05281262 -0.057672363 0.00045869048 -0.05876479 0.08808402 -0.024378998 -0.035034087
0.05379704 0.018052837 0.049246415 -0.0049620094 -0.05103321 0.06118185 0.05048155 -0.066462226
-0.0036679108 0.027221134 -0.00025868107 0.04768561 0.04172621 0.07818571 -0.00070758385 0.068520196
0.0030770337 0.0666099 -0.0041598952 0.047052063 -0.04923341 -0.079943016 0.006961333 -0.022709891
0.05526937 0.026423905 -0.014893808 0.018548904 0.028503273 -0.05541914 0.0048821596 0.029411811
0.047209844 0.06400052 0.048547674 0.072712846 0.05323258 -0.034328323 -0.0033062894 0.030341836
-0.04049484 -0.037453596 0.056274425 -0.04316817 -0.016819427 0.039240796 -0.079365455 0.057779174
-0.03122105 0.070938386 -0.05753041 -0.057495184 -0.03339475 0.00014951643 0.0012231076 0.042871706
0.07720682 -0.0773323 0.08030806 0.036949642 0.062101405 0.007875512 0.060473844 -0.073405765
0.01558256 -0.035735138 0.035791073 0.021206904 -0.03278631 0.040526234 0.07621745 0.007348444
0.010564625 0.033954043 0.047372423 0.06917635 0.033005208 0.010684741 -0.05859685 0.018958626
-0.04288305 0.061510455 -0.016160607 0.016226975 0.03608514 -0.018744495 -0.079579175 -0.015506875
0.018970184 -0.011359068 0.06738843 -0.06997662 -0.029541127 -0.060630918 0.03295489 -0.06148283
-0.059854083 -0.060570937 0.0330141 -0.0471425 0.023635909 0.015708461 0.013054139 0.039040104
0.07008176 -0.046362024 -0.014184623 -0.0010510779 -0.027777016 0.02507411 0.024968306 0.05379421
0.06731235 0.031689174 -0.020649865 -0.044269275 -0.03807693 0.048497975 0.024741203 0.057517055
0.0036037548 0.067586325 -0.02058935 -0.08141221 0.050161816 0.0011824339 0.07992144 0.0018141079
-0.015458547 -0.06167887 -0.026994562 -0.03750298 0.0044314903 -0.027029844 0.013369382 0.08165958
0.050257865 -0.033555962 0.06878229 0.017531483 0.055687416 -0.0182188 -0.066660374 0.072754115
0.026680015 -0.023031205 -0.037033327 -0.005647321 0.01749144 0.07011353 0.08283941 -0.031791165
-0.0028562527 0.034386553 -0.056018714 0.011723479 -0.032481384 -0.015784131 -0.038843278 -0.024059739
0.037571408 0.003075218 0.04026118 0.0020053019 -0.04603902 0.027018175 -0.059144866 0.017062653
00000000: 7afc e33c 15f4 b73c 3571 913d 8ada 6f3c
00000010: 6dd7 70bd abf8 993c 6fd3 b3bc 935b 7fbd
00000020: ca7a 893d 2f12 6e3d d167 88bc 207c 343d
00000030: 1fc5 c83c 2069 4439 6dc3 793c 41aa dcbc
00000040: 8ab1 843d ab53 40bb 11b4 99bc a617 ef3c
00000050: 3b56 863d 296d 043c b6ce 543d 88fe 16bd
00000060: 5556 5e3d 4fc3 0d3c 0335 233b badb 363d
00000070: 7092 713d 297b 853d f08a 4cbd 333c 983d
00000080: 9b85 c6ba 080a 483c 91ea 5dbd 9874 3c3d
00000090: c6a7 103d 6f46 703c c626 2dbd 8945 55bd
000000a0: 4d54 88bd 0f62 a13c 4755 65bd e968 833d
000000b0: 0cc1 bbba 1675 2a3d 994d cd39 1102 d4bc
000000c0: d72b b7bc 0076 1d3b a799 01bc 00bc edbc
000000d0: 5c4a 54bd 67c6 efbc 8055 383d 1836 273c
000000e0: 3764 93bd b5ff 52bd 6a36 2ebd e98b 853d
000000f0: 8f8e 61bd 38b2 233d 3ed9 c8bc 3032 703c
00000100: 6479 d93c e788 61bd d5a3 76bd b147 0dbd
00000110: 2fb9 153c 731a 30bd 3c2a 3fbd 4e51 2dbc
00000120: c729 be3c bfe8 8bbd 42a0 a2bd 7a95 08bd
00000130: 2d36 843c bdbd 903d 378b 2b3d 6ba3 413d
00000140: 7aeb ddbc 0c52 583d db39 6cbd 657c f039
00000150: 59b3 70bd 6565 b43d 77b6 c7bc e77f 0fbd
00000160: 495a 5c3d 8be3 933c 9cb6 493d 5a98 a2bb
00000170: 3308 51bd d299 7a3d bec5 4e3d 591d 88bd
00000180: 5561 70bb dbfe de3c 969f 87b9 fc51 433d
00000190: 1ae9 2a3d d41f a03d 267d 39ba 5154 8c3d
000001a0: 0fa8 493b c56a 883d bb4f 88bb aab9 403d
000001b0: f9a8 49bd 2ab9 a3bd e51b e43b 180a babc
000001c0: 2362 623d f276 d83c 2905 74bc dff3 973c
000001d0: b27f e93c 2eff 62bd 86fa 9f3b 0af1 f03c
000001e0: 1c5f 413d b412 833d edd9 463d 79ea 943d
000001f0: 680a 5a3d db9b 0cbd 55ae 58bb 718f f83c
00000200: ebdd 25bd f168 19bd 0380 663d 1bd1 30bd
00000210: e5c8 89bc f5ba 203d 5b8a a2bd dba9 6c3d
00000220: 4ac3 ffbc 2548 913d 02a5 6bbd 1280 6bbd
00000230: efc8 08bd 83c7 1c39 ae50 a03a 3e9a 2f3d
00000240: 9c1e 9e3d 6660 9ebd 8d78 a43d 8258 173d
00000250: 0b5e 7e3d 4b08 013c 6cb3 773d c355 96bd
00000260: fe4d 7f3c 025f 12bd a999 123d 1aba ad3c
00000270: f04a 06bd d6fe 253d e517 9c3d 37cb f03b
00000280: 4017 2d3c 6513 0b3d 9609 423d 55ac 8d3d
00000290: 7830 073d 0d0f 2f3c 4003 70bd 1f4f 9b3c
000002a0: 23a6 2fbd 63f2 7b3d 4063 84bc 6fee 843c
000002b0: 03ce 133d 0e8e 99bc 68fa a2bd 8c10 7ebc
000002c0: 5c67 9b3c 621b 3abc f202 8a3d e74f 8fbd
000002d0: 3c00 f2bc 2058 78bd b5fb 063d 6cd5 7bbd
000002e0: 8e29 75bd 3b19 78bd cb39 073d 7e18 41bd
000002f0: 18a0 c13c 08af 803c 07e1 553c 84e8 1f3d
00000300: 0787 8f3d 1be6 3dbd 9f66 68bc 52c4 89ba
00000310: a08c e3bc 3868 cd3c 558a cc3c 5157 5c3d
00000320: 0fdb 893d 82cc 013d e829 a9bc b353 35bd
00000330: 8ef6 1bbd d0a5 463d 10ae ca3c 0197 6b3d
00000340: f92c 6c3b b36a 8a3d ffaa a8bc 72bb a6bd
00000350: 7a76 4d3d e6fb 9a3a daad a33d 5cc7 ed3a
00000360: d845 7dbc fca2 7cbd b323 ddbc ba9c 19bd
00000370: 0936 913b b16d ddbc 410b 5b3c 233d a73d
00000380: 31db 4d3d fa71 09bd bbdd 8c3d 2f9e 8f3c
00000390: 7d18 643d 983f 95bc 3c85 88bd 1c00 953d
000003a0: 0c90 da3c f0ab bcbc 42b0 17bd 2a0d b9bb
000003b0: 354a 8f3c af97 8f3d b5a7 a93d 7437 02bd
000003c0: f82f 3bbb ead8 0c3d e173 65bd d613 403c
000003d0: 330b 05bd b94d 81bc 211a 1fbd ee18 c5bc
000003e0: 7ae4 193d 9989 493b e8e8 243d 626b 033b
000003f0: 6993 3cbd 3855 dd3c e341 72bd fac6 8b3c

conv2.bias f4 [96]
-0.018521352 0.011743414 0.050785016 0.025007987 0.06866914 0.064700164 -0.06387163 0.05748904
-0.07942178 0.025646871 -0.011265998 0.027780976 0.019658545 0.0544182 -0.03991601 0.04928692
0.033280935 0.038555283 0.03469873 -0.020375049 0.05639442 0.06962974 -0.049294937 0.05661444
-0.069041274 -0.0088947965 -0.036991768 0.033200264 -0.067273416 -0.017455015 0.047891434 -0.022644354
-0.052221186 -0.003801479 -0.04308732 -0.05296875 0.051973116 -0.04648955 -0.05684119 0.08080745
0.047984313 0.075419776 -0.06246771 0.068233676 0.036613382 0.028990055 0.019636953 -0.03966482
0.034652818 -0.04464814 0.007713285 -0.053644717 0.024647659 -0.016304044 0.034535844 0.049665358
0.04745712 0.011224249 0.06817077 0.03595988 0.01730577 -0.05846783 0.039739072 -0.04131565
-0.02450564 0.05382058 0.0069857775 0.017448133 0.08304935 0.07214467 -0.018774021 -0.0244357
0.0075854883 -0.064581804 -0.022417622 0.0071620564 0.051385105 0.020929549 0.021727076 -7.9080026e-05
-0.05316881 0.04344352 -0.006919704 -0.036502633 0.052077413 -0.0144243315 0.02344118 0.07039865
-0.030387644 0.08156062 0.038334846 0.030225417 0.006819413 -0.0680023 0.051340703 -0.018019868
00000000: 17ba 97bc 7367 403c f303 503d 8ddd cc3c
00000010: 68a2 8c3d 8581 843d 21cf 82bd a179 6b3d
00000020: e3a7 a2bd 6319 d23c 0595 38bc ee94 e33c
00000030: f50a a13c 9ee5 5e3d f87e 23bd 15e1 493d
00000040: 9751 083d 25ec 1d3d 4120 0e3d 93e9 a6bc
00000050: d6fd 663d 0a9a 8e3d 7de9 49bd 8be4 673d
00000060: 8365 8dbd 7bbb 11bc ae84 17bd 00fd 073d
00000070: a5c6 89bd d2fd 8ebc cf29 443d a780 b9bc
00000080: e2e5 55bd 3c22 79bb 547c 30bd c3f5 58bd
00000090: c3e1 543d d46b 3ebd 4fd2 68bd 607e a53d
000000a0: 338b 443d af75 9a3d 24de 7fbd 19be 8b3d
000000b0: eaf7 153d 8d7c ed3c addd a03c 9477 22bd
000000c0: 1df0 0d3d f8e0 36bd b9bf fc3b 90ba 5bbd
000000d0: e3e9 c93c 0f90 85bc 7575 0d3d e76d 4b3d
000000e0: 6662 423d eae5 373c 1e9d 8b3d ab4a 133d
000000f0: d5c4 8d3c f77b 6fbd 70c5 223d 993a 29bd
00000100: 0dc0 c8bc f872 5c3d f3e8 e43b 63ef 8e3c
00000110: c715 aa3d 96c0 933d facb 99bc 612d c8bc
00000120: b08f f83b 7743 84bd 29a5 b7bc afaf ea3b
00000130: 3079 523d 7274 ab3c fbfc b13c c4d7 a5b8
00000140: 8ac7 59bd d5f1 313d afbe e2bb c983 15bd
00000150: 204f 553d 0854 6cbc b807 c03c 2b2d 903d
00000160: 82ef f8bc 4109 a73d 0005 1d3d 4b9b f73c
00000170: 6275 df3b ca44 8bbd a14a 523d 679e 93bc

fc.weight f4 [1, 96]
0.009149164 -0.051295005 0.044672105 0.08107777 0.0497678 0.09805511 0.08610975 -0.027499693
0.048126176 -0.016660541 -0.020733995 -0.045290187 0.0789102 -0.08983277 -0.08909946 0.002609744
0.049767945 -0.09847311 0.020928072 0.022492906 0.048947334 -0.051403984 -0.027607866 -0.053084336
0.029589668 0.03293505 -0.0037763256 0.09193163 0.059755284 -0.029931748 0.045244426 0.0764364
-0.10438635 0.07236168 -0.0982526 -0.07501336 -0.002557034 -0.051727396 0.009846693 -0.065199524
0.04889882 -0.034522813 0.049423825 -0.09673816 -0.044559427 0.06082308 0.09626255 0.0037865192
-0.029625097 -0.06963251 0.079631045 0.057725556 0.047838002 -0.0140102245 -0.054494053 0.028637853
0.06979124 0.037785795 -0.024091909 -0.06871311 0.047934957 -0.013800014 0.09099795 0.097085215
0.019963985 -0.010662086 0.0006113873 0.055697635 -0.08169449 -0.029580459 0.042150818 -0.049009155
0.009454399 -0.02091691 0.09847569 0.08058988 -0.016272863 -0.0032482476 0.066547275 -0.04547348
0.028342925 0.020200275 -0.093831286 0.04506355 -0.064328015 0.017422361 0.03990241 0.0913328
0.07738145 -0.05278746 -0.08183385 0.08778536 -0.047777884 -0.028707394 0.0516361 -0.087323874
00000000: 60e6 153c b61a 52bd 19fa 363d 1a0c a63d
00000010: 52d9 4b3d 1ed1 c83d 4f5a b03d 0947 e1bc
00000020: f41f 453d b07b 88bc 57da a9bc 3482 39bd
00000030: ac9b a13d 3efa b7bd c779 b6bd 3d08 2b3b
00000040: 79d9 4b3d 45ac c9bd 5971 ab3c 0b43 b83c
00000050: 007d 483d fc8c 52bd e429 e2bc f66e 59bd
00000060: 0866 f23c e7e6 063d 3b7c 77bb a746 bc3d
00000070: f5c1 743d 6d33 f5bc 3852 393d b08a 9c3d
00000080: 83c8 d5bd 5c32 943d a938 c9bd 9ba0 99bd
00000090: e993 27bb 1be0 53bd 0654 213c 5487 85bd
000000a0: 214a 483d cb67 0dbd a370 4a3d a81e c6bd
000000b0: f283 36bd 9f21 793d 4d25 c53d 4027 783b
000000c0: 55b0 f2bc 7d9b 8ebd 9a15 a33d a271 6c3d
000000d0: c8f1 433d 248b 65bc 2835 5fbd ee99 ea3c
000000e0: b6ee 8e3d 47c5 1a3d 655c c5bc 76b9 8cbd
000000f0: 7257 443d 7419 62bc 225d ba3d 9dd4 c63d
00000100: 838b a33c 08b0 2ebc 8245 203a 3423 643d
00000110: 714f a7bd b852 f2bc 56a6 2c3d d3bd 48bd
00000120: a0e6 1a3c f159 abbc 9fad c93d 4f0c a53d
00000130: ab4e 85bc 8de0 54bb f049 883d 6642 3abd
00000140: 6c2f e83c 0c7b a53c 9e2a c0bd 8f94 383d
00000150: 68be 83bd 57b9 8e3c b670 233d b10c bb3d
00000160: 2a7a 9e3d aa37 58bd 8198 a7bd d0c8 b33d
00000170: beb2 43bd c52b ebbc 6080 533d dcd6 b2bd
