models/audio_classifierCNN3.pth (torch, 9034 bytes, 5 tensors)

conv1.weight f4 [16, 24, 3]
000000 ff 8f bb bd 58 1e a6 3d 24 07 e0 ba f7 f3 99 3c
       -0.091583245 0.08111256 -0.0017091972 0.01879309
000010 0e fd 9f 3d 56 c8 d5 bd 75 e6 28 bd 35 fc 25 bd
       0.07811938 -0.10438602 -0.041235406 -0.040523726
000020 51 9f c0 3d fc 66 b7 bd 73 65 4a 3d 33 9c 2b 3a
       0.09405387 -0.089551896 0.049413156 0.0006546408
000030 64 ab 94 bc 37 0e 6a 3c 10 9f 95 3c d2 b6 08 3c
       -0.018148132 0.014285616 0.018264323 0.008344369
000040 7a 6a 22 3d a7 5e c9 3c 09 58 41 3c 60 43 1e 3c
       0.039652325 0.024581267 0.011800774 0.009659618
000050 32 5d 56 bd e8 2b 11 b8 d7 c6 20 3d aa 73 d1 bc
       -0.05233497 -3.4611585e-05 0.03925213 -0.025567848
000060 67 db ba bd cf 9f c1 bd 55 e4 78 3d 09 fc 93 bd
       -0.09123879 -0.09454309 0.06076463 -0.07225806
000070 f5 1f b8 3b 50 d4 30 3d 53 03 e8 3c 53 54 09 3d
       0.005619044 0.043171227 0.028321898 0.033527683
000080 83 98 a8 bd 56 16 67 bd 84 51 21 3d 81 bb 80 bd
       -0.08232214 -0.056417786 0.03938438 -0.062857635
000090 cc 66 7a 3d 3d b2 48 3b ad c3 84 3d e1 70 d1 bd
       0.06113319 0.0030623816 0.06482635 -0.10226608
0000a0 08 cb c6 3c 93 4b 83 bd 35 1a 5b bd e2 53 b8 bd
       0.024266735 -0.06410899 -0.05349179 -0.090003744
0000b0 59 f3 19 3c c4 c3 29 3b 12 47 a7 3d ee b1 ad 3d
       0.0093963975 0.002590404 0.081678525 0.08481203
0000c0 46 be d8 bd c7 b2 b5 bd 2a a4 3a 3d 48 82 25 3d
       -0.10583167 -0.0887199 0.045566715 0.04040745
0000d0 de 43 bc 3d 97 0a ec bd 72 10 d9 bd 3f 5d bd ba
       0.09192632 -0.11525457 -0.1059884 -0.0014447345
0000e0 d7 ca 92 3d e0 ba ff 3c 1b a8 91 3d b3 71 ba 3d
       0.07167595 0.031217039 0.07112142 0.09103718
0000f0 cf f8 9b bd 6f f8 be 3d f3 e3 0a 3d 85 f0 67 3d
       -0.07615816 0.09324729 0.033908796 0.05662586
000100 7d 55 6c bd 28 97 d1 bd 7a 00 8a bd 9c f3 82 bd
       -0.057698715 -0.10233909 -0.06738372 -0.06394121
000110 44 de 7d 3d 3f de ba bd 22 e6 70 bd a0 42 00 3d
       0.061979547 -0.09124421 -0.05881322 0.03131354
000120 a5 fc 99 3d 50 92 96 bd a7 43 57 bd 23 f0 38 bd
       0.07518891 -0.07352126 -0.052554753 -0.045150887
000130 a9 d9 b0 3d 7e 3e 1a bd 9b f7 b6 bd 24 ab 41 bd
       0.086352654 -0.037657253 -0.08933946 -0.047282353
000140 c3 0e 97 3d 3e e2 6d bd d8 3a 6a 3d f1 8c 83 3d
       0.073758624 -0.05807709 0.057185024 0.06423367
000150 9a 33 41 3d ba b3 fb bc 2e a3 bd aa 92 c0 11 38
       0.04716835 -0.030725349 -3.3686373e-13 3.475004e-05
000160 f8 a0 a5 bd 58 35 9b 3c a1 17 6c bc a5 a6 80 bd
       -0.08087343 0.018946335 -0.01440993 -0.06281785
000170 4f 85 3f 3d 2d 6c 2b 3c e6 74 54 bc 25 cf 9e bc
       0.046757992 0.010462803 -0.012967324 -0.019385884
000180 0e 79 00 3d fb 1c b6 3d b7 62 e1 bc 8f 55 6d bd
       0.031365447 0.08892246 -0.027512891 -0.057942923
000190 89 03 a4 ba 7b 0e 9c 3a 5a 50 c0 bc 3d 4e 67 3b
       -0.0012513261 0.0011906171 -0.023475815 0.0035294436
0001a0 21 92 a0 3c 53 8f 21 3d fb 40 87 bd fd 5d 05 bd
       0.01960093 0.039443325 -0.06604191 -0.032560337
0001b0 e0 1c 5e bc 48 36 a8 bd 41 4d 95 bd f8 41 5a 3d
       -0.013556689 -0.08213478 -0.07290126 0.05328557
0001c0 13 b2 f9 bd 91 53 e4 35 08 d8 44 bc dc f5 f6 bd
       -0.12192168 1.7011645e-06 -0.0120143965 -0.12058613
0001d0 6d 40 5f 25 b3 3d 86 3b f4 b8 aa bd 9e 94 ee bc
       1.9363995e-16 0.0040967106 -0.08336058 -0.0291236
0001e0 e8 0b e3 bd 08 61 25 3b 80 03 6b 3d a7 07 cc 3d
       -0.11086255 0.0025234837 0.057376385 0.09962397
0001f0 ca bd bd bc c3 98 e8 bc ac 32 a9 bd 98 60 99 3d
       -0.023161788 -0.028393155 -0.08261618 0.07489127
000200 ba f6 7a bd e9 8b ea bd f7 9e a5 3c c9 2e 46 b9
       -0.061270453 -0.11452467 0.020217402 -0.0001890018
000210 ea 12 4c bd f8 91 89 bd cd 4f 84 bd 2f 3d 0b 3d
       -0.049822725 -0.067172945 -0.06460533 0.033993896
000220 c4 49 90 3d 07 67 30 b9 59 fa bd 3d c0 e9 00 3d
       0.0704532 -0.00016823049 0.09276266 0.03147292
000230 de 4b 41 3b 4c 41 e6 bd 58 99 b2 3d ae f1 2c bd
       0.0029494683 -0.11242923 0.08720654 -0.04222267
000240 7c f3 c6 3d ed 17 8e bd fd 34 42 3d 87 48 cd bd
       0.0971441 -0.06938157 0.047413815 -0.10023599
000250 47 20 b8 bd 10 26 87 bc 29 6d aa bd 3c 66 85 3d
       -0.089905314 -0.016497642 -0.08321602 0.0651364
000260 b5 4a 9b 3d f8 ff 26 bc df 47 85 3d 74 7b 67 bd
       0.075826086 -0.010192864 0.06507849 -0.05651422
000270 32 40 5c b8 82 8b 58 3d fc fb 8d 3d 02 b8 6d 39
       -5.2511874e-05 0.05286742 0.06932828 0.0002267063
000280 68 0a ea 3b 52 1e 75 3d e4 4e 0b 3d 7b 18 05 bd
       0.007142354 0.05984337 0.034010783 -0.03249405
000290 e2 6b 8c 39 12 aa 15 bc b5 38 d7 bc e9 bf 90 3d
       0.0002678326 -0.009134786 -0.026272157 0.07067854
0002a0 de 3d 0f 3d fe ef c6 bc a2 ed 9e bd 4b 2a 34 3d
       0.03497111 -0.024284359 -0.077601686 0.043985646
0002b0 e1 cb ac 3d 9e f6 5b bd 9b 14 f5 3b d3 e7 35 bb
       0.08437324 -0.05370199 0.007479263 -0.0027756586
0002c0 78 bc 9a bc 86 e6 9d bd 35 a6 90 3d 8f d1 67 bd
       -0.018888697 -0.077099845 0.070629515 -0.056596335
0002d0 92 aa 5e bd 92 fb cb 3d 73 ea 4f bc 1d 22 c0 bd
       -0.054361887 0.099600926 -0.012690174 -0.093815066
0002e0 22 e4 b0 bd 95 9e ce bd 2a c1 00 3e 4d b5 be 3d
       -0.08637263 -0.10088841 0.12573686 0.09311924
0002f0 41 08 7d bd a7 e6 aa 3d f8 d2 fd bb df c5 41 bd
       -0.06177545 0.08344775 -0.0077460967 -0.047307845
000300 fc 51 66 3d 76 e3 d9 3c 7a fc e8 3d 03 6d 6a bd
       0.05623053 0.02659772 0.11376281 -0.057232868
000310 c1 22 e1 bd 13 26 0d 3d b7 49 f0 bb 62 6c 8f 3d
       -0.10992957 0.03446014 -0.0073330062 0.07003094
000320 15 3b b6 3d cd ef ea bd 95 28 89 3d 2a 9b c5 3d
       0.08897988 -0.114715196 0.066971935 0.09648736
000330 9d 00 b3 3d 8b 9f 65 3d e0 aa dc bc e2 c4 8e 3d
       0.08740351 0.056060355 -0.026936948 0.06971146
000340 e3 c7 96 3d 69 1e dc bd ef ee 20 bc 29 7d 10 3d
       0.07362344 -0.10747988 -0.009822591 0.035275612
000350 72 b8 6c bd f6 0a 63 bc 14 e3 4c 3d a8 87 9c 3d
       -0.05779309 -0.013857594 0.050021246 0.07643062
000360 82 73 e0 bc c6 ab 92 3d 96 25 44 bd 18 d0 5f bd
       -0.027398828 0.071616694 -0.047887407 -0.054641813
000370 7a c0 d7 bd a9 5b c2 3b 81 37 75 3d 81 9f 96 3d
       -0.10534759 0.005931337 0.059867386 0.07354642
000380 a9 f3 78 bd b8 35 b6 3d 30 1b 7a 3d 91 0b f5 bc
       -0.060779247 0.08896965 0.061061084 -0.029912742
000390 61 9d 1a bb 0f d2 97 bd 21 66 0e bd c2 53 02 3c
       -0.002359234 -0.07413112 -0.034765366 0.00795454
0003a0 bc 8c 81 b9 e8 56 8c 3d 0f 48 b0 3d b9 f2 92 bc
       -0.00024709653 0.068525136 0.08607494 -0.017938005
0003b0 e1 89 5d bc 18 c5 ab bd 94 e2 a1 3d 1c f3 35 bc
       -0.013521642 -0.08387202 0.079045445 -0.011105325
0003c0 1f d3 1f bd 32 bb 01 3d b2 40 cc 3d 97 2e a5 3d
       -0.0390197 0.031672664 0.09973277 0.08065527
0003d0 4b b4 4c 3d 4a 5e 7a 3d 2f 21 ef bc 1b 9f bc 3d
       0.04997663 0.061125077 -0.029190628 0.092100345
0003e0 77 ac 8d 3d 99 68 8b 3d 0f 9b 29 bc 13 f9 9c bb
       0.06917661 0.0680706 -0.01035191 -0.004790434
0003f0 60 1d c2 bc 87 96 e4 bd db 6b 9c bd 25 bd b4 bd
       -0.023695648 -0.11161523 -0.07637759 -0.08825139

conv1.bias f4 [16]
000000 d5 e5 ad 3d 5d bd 8f 3d c9 39 31 bd 6b df 1d 3d
       0.084911026 0.0701854 -0.043268 0.038543146
000010 e3 6f ef bb a7 f0 41 3d b1 07 38 bc 3f 91 be 3d
       -0.007307039 0.047348645 -0.0112323025 0.09305047
000020 5c 58 55 bc 1f b9 cb bd 56 26 b1 3d 6e af b5 bd
       -0.013021555 -0.099474184 0.0864989 -0.08871351
000030 5b a9 c1 3d 21 18 3a bd 22 39 4c 3d 36 f7 ba bd
       0.0945613 -0.045433167 0.049859174 -0.09129183

conv2.weight f4 [8, 16, 3]
000000 1c 43 4f bd d5 79 6d 3d 52 7c 88 3d 8c e5 0a bd
       -0.05060111 0.057977516 0.06664337 -0.03391032
000010 ab 31 a0 3d 16 d2 fe bd c6 4f 60 bc fe f8 04 be
       0.078219734 -0.124424145 -0.0136908945 -0.12985608
000020 6c 03 32 3c 87 4b 8e 3d 42 91 da 3c 7a 3e 00 3e
       0.010865074 0.069479994 0.026680592 0.12523833
000030 04 99 f5 3d d7 1b 39 3d 99 4a ac bd 83 a2 b6 bd
       0.11992076 0.045192566 -0.08412666 -0.089177154
000040 f5 1d d5 3b ba c4 4b 3d 58 f2 c0 3d f1 f8 36 3d
       0.0065038153 0.04974816 0.094212234 0.044671003
000050 1a ee 0b 3e 59 c4 aa 3d 17 7b 1b bd 5b a2 00 be
       0.13665047 0.083382316 -0.037959184 -0.12561934
000060 6a 1f b6 bd b5 4c 5b bc eb f7 c9 3d 75 d2 06 be
       -0.088927105 -0.013384988 0.0986174 -0.1316622
000070 7a be 9f 3d ce e0 07 3e 72 b6 06 be 44 b5 cc 3c
       0.078000024 0.1326935 -0.13155535 0.024988778
000080 32 90 c4 bd b6 f2 a8 3d a6 c9 86 3d 2f ab ac 3d
       -0.095978156 0.082494184 0.0658143 0.08431088
000090 14 01 6f bd 43 00 90 bd 19 7a b0 bd bd a0 07 be
       -0.058350638 -0.070313 -0.08617038 -0.1324491
0000a0 0f 6d 85 bd 19 57 24 bd c0 88 7d 3d ba c6 a9 bd
       -0.06514942 -0.040122125 0.061897993 -0.08289857
0000b0 33 e0 f6 bd c9 ff 09 bd 40 70 8b bd 06 12 a5 bd
       -0.12054481 -0.0336912 -0.06808519 -0.08060078
0000c0 91 1e da bd a5 fd 6b bd f6 d3 67 3c 1d 3c 66 3d
       -0.10650361 -0.05761494 0.0141496565 0.056209672
0000d0 e5 1c 09 be d4 68 ff 3d a6 61 51 3b 24 44 da 3d
       -0.13389929 0.12471166 0.0031949072 0.10657528
0000e0 74 21 74 3d 94 01 e1 bd 8a a0 ba bd b5 ce 14 bd
       0.059602216 -0.10986629 -0.09112652 -0.036329944
0000f0 47 bf a1 bd a3 6c a0 3c 41 07 76 3d fc 84 36 3d
       -0.078978114 0.019583052 0.06006551 0.044560418
000100 d8 31 55 3d b7 7e df bd 55 6a 96 bc 91 a3 4f 3d
       0.052049488 -0.10912841 -0.01836125 0.0506931
000110 15 95 f7 3d 98 b8 10 3e 9d c8 68 3d e0 6c e3 bc
       0.12088982 0.14132917 0.056831945 -0.027761877
000120 72 8d bc 3d 60 a9 1c 3e 9d 31 d4 3d 4c 5b 71 bd
       0.09206666 0.15298986 0.103610255 -0.058924958
000130 df bf 04 be ed c7 2c 3d d1 26 3b bd 49 41 a5 3d
       -0.12963818 0.04218285 -0.045691315 0.08069093
000140 03 25 13 3e f3 ed dd bc 45 8e 65 3d fa 9c bc bd
       0.14369588 -0.027091002 0.056043882 -0.092096284
000150 f7 3d 27 3d 5d d6 25 bd d6 26 57 bd 2f 94 b9 bd
       0.04083058 -0.040487636 -0.05252727 -0.09061467
000160 d1 ee 0e 3d 06 91 59 3d a7 cd 24 bd d6 db d9 3d
       0.03489572 0.05311682 -0.040235188 0.106376335
000170 b1 a5 a9 3d 33 04 e0 bc 4f 92 d2 3d b7 3c ca bd
       0.08283556 -0.027345752 0.102818124 -0.09874862
000180 82 bf 8d bd 45 1f 27 3d 4c 67 f8 3d 54 1c b8 3d
       -0.06921293 0.040801305 0.12129077 0.08989778
000190 b0 55 83 3c 34 50 cf 3d cf f4 ec 3b 25 15 9c bd
       0.01603207 0.101227194 0.007231332 -0.076212205
0001a0 e7 af 98 3d 2c 7f 8f 3d e2 d0 e8 bd 2d 5c 12 3e
       0.07455426 0.07006678 -0.11367966 0.14292975
0001b0 75 47 75 3d 52 56 04 3c a9 46 0e be d8 ad 92 3d
       0.0598826 0.008077221 -0.13894142 0.07162064
0001c0 ba 19 52 3d 13 da a2 3c 14 df a3 bd 03 72 b9 3d
       0.051294066 0.019879377 -0.08001533 0.09054949
0001d0 66 7c b5 3a aa 4a 91 bd ee dc dd bd 5e af e8 3c
       0.0013846278 -0.07094319 -0.108331546 0.028403934
0001e0 7a b4 6c bc 6b a7 99 3d d9 b4 e5 3c f9 35 af bd
       -0.014447326 0.075026356 0.028040336 -0.08555216
0001f0 16 28 80 3d 60 9f ca 3d 28 f6 93 3d 1a a1 d0 3d
       0.06257646 0.098936796 0.07224685 0.10186978
000200 df 98 83 bd 29 c5 e9 bd 8f 6f 90 3d 41 d1 8e bd
       -0.06425642 -0.114145584 0.07052528 -0.06973506
000210 f9 4d 19 3d c7 52 a9 3c 21 be c9 bd 85 97 bb 3d
       0.037427876 0.020669354 -0.09850717 0.091597594
000220 eb 08 f5 bc 2f 30 19 bd da 43 00 3e c5 d1 d4 bd
       -0.029911479 -0.037399467 0.12525883 -0.10391573
000230 51 a5 97 bd 7b 37 0c 3e 48 71 08 3c 72 74 0b bc
       -0.074045785 0.13693039 0.00832779 -0.008511649
000240 38 1f 06 be d5 ab c6 3d 91 6f f8 bc bc 76 96 bd
       -0.13097847 0.09700743 -0.030326637 -0.073468655
000250 a6 f7 a6 3d 0e 4c 5b bd 6b 41 8b bb a6 5b 99 bd
       0.08152704 -0.05353933 -0.004249742 -0.07488184
000260 be 4d 12 be e1 9b 82 bd 19 3e 0d bd b4 48 ab 3d
       -0.14287469 -0.06377388 -0.03448305 0.083634764
000270 7f 7f 9a bd b9 81 eb 3c 75 11 95 3d e1 01 e5 3d
       -0.07543849 0.02874838 0.0727872 0.11181999
000280 0c d5 a0 bd 6e c1 09 3e f7 31 ad bb b5 e1 d7 bd
       -0.078531355 0.13452694 -0.0052854973 -0.10541097
000290 56 66 de bc 56 10 34 3d d3 7c 88 bd 1c 19 08 be
       -0.027148407 0.04396089 -0.06664433 -0.13290828
0002a0 71 09 21 bc 7e fa 99 bc f8 c1 a0 3d d2 16 f6 bd
       -0.009828911 -0.018796202 0.078494966 -0.120160714
0002b0 54 46 07 be a0 99 53 3d 34 01 41 bd 5b 31 94 3d
       -0.13210422 0.05166018 -0.047120288 0.07235976
0002c0 d6 e4 04 be a2 6b 50 3d 5e 4c 85 3d 28 df 06 3c
       -0.12977919 0.050883897 0.065087065 0.0082319155
0002d0 e4 27 2f bc ea 06 0f 3e 12 d7 31 bd 1d ed 91 bd
       -0.010690663 0.13967481 -0.043417998 -0.07125304
0002e0 d4 e9 dc 3d 1e bb d4 3d 1e 12 4b bd 75 4d 3a 3d
       0.10786787 0.10387252 -0.049577825 0.045484025
0002f0 04 1b d4 bc d8 60 f7 bd f5 a1 03 be 86 c5 51 3d
       -0.025891788 -0.12079018 -0.1285475 0.051213764
000300 85 a8 fd 3c 58 b2 d2 bc fd dd 9c bd ff 5e b1 3d
       0.030964145 -0.025719807 -0.076595284 0.08660697
000310 b2 46 d0 3c 9f 0f 5a bd af 93 c6 3a 5c b7 04 be
       0.025424335 -0.053237554 0.0015150214 -0.12960571
000320 5d 43 da bc 70 f8 fe 3c f3 d5 a7 bd 76 7d fe bd
       -0.02664345 0.031124324 -0.081951044 -0.124262735
000330 54 a1 f2 bc 4e 64 ca bd 9d 06 03 3e 87 3c 2b 3c
       -0.029617943 -0.09882413 0.12795492 0.010451443
000340 1a 02 a6 bd 83 61 b4 3d fd 74 24 3d 52 80 1a bd
       -0.081058696 0.088076614 0.04015063 -0.037720032
000350 1d 06 0a 3e d8 32 f9 3d ad 27 0c 3d 0d 20 cc 3d
       0.13478895 0.12167901 0.034217525 0.09967051
000360 c6 af 03 3e 64 c2 b3 bc 7a 3f e5 bd 0c 04 9e 3d
       0.12860021 -0.021943279 -0.11193748 0.07715616
000370 3f d7 23 bd 8e df 2a 3c b5 c9 0c be 39 c6 f1 bd
       -0.040000197 0.010429276 -0.1374882 -0.11805386
000380 e0 9a ef bd 36 1c dd 3d 55 0f 1c bd 43 96 e7 3d
       -0.11699462 0.107963964 -0.03810056 0.11307957
000390 0e b9 7f bd 4f 6e e9 bd 0e 56 96 3c 54 55 97 bd
       -0.06243234 -0.11397993 0.018351581 -0.07389322
0003a0 29 c8 ea 3d 28 b2 da bd 88 91 f1 bd 44 fd 08 3e
       0.11463959 -0.10678512 -0.11795336 0.13377863
0003b0 50 ec a1 3d 9b 24 10 3d 51 1d 9e bc b2 80 25 3c
       0.07906401 0.03519116 -0.019301089 0.010101484
0003c0 23 f4 17 bc 46 d3 82 bd c9 79 91 3d c7 76 0b be
       -0.009274515 -0.063879535 0.07103307 -0.13619529
0003d0 bc 1d da bc 5f 6f 0d 3e 36 21 01 bd 19 cd 95 bd
       -0.026625507 0.13812016 -0.031525813 -0.0731451
0003e0 cc db ff 3d ca a1 10 3d 34 1c 0d 3e 1d 81 d9 bd
       0.12493095 0.035310544 0.1378029 -0.106203295
0003f0 66 8f 5b 3d 24 11 c0 3d fb 20 07 be 99 5e ff bd
       0.053603552 0.09378269 -0.13196175 -0.12469215

conv2.bias f4 [8]
000000 a8 b9 f8 3d 24 b8 d2 3d ce 36 1b 3e f9 c5 0e 3e
       0.12144786 0.10289028 0.15157625 0.13942708
000010 d5 30 00 3e a2 02 da 3d bf 67 c1 3d 5e 3b 3e bd
       0.12518628 0.106450334 0.09443616 -0.046443336

fc.weight f4 [1, 8]
000000 89 40 35 3e 3e 86 b4 3e 87 b5 e9 bd a9 08 a7 be
       0.177004 0.3525867 -0.11411577 -0.32623795
000010 e2 24 8d bd 6d 6d 94 3e 04 89 07 3d 25 f0 7f be
       -0.068918005 0.28989735 0.033089653 -0.24993952
