models/audio_classifierCNN.pth (torch, 72896 bytes, 5 tensors)

conv1.weight f4 [48, 24, 3]
-0.024693433 -0.078735396 0.06200062 0.10789076 0.11779651 0.07727227 0.07827509 -0.012501442
0.08382996 0.061413493 0.005546869 0.0126841 0.048499417 -0.019606689 0.04677984 0.0691881
0.00037335584 0.06735561 -0.06744812 0.063199215 0.00063853344 0.020297956 -0.08558957 0.09807507
-0.04312227 -0.0633616 -0.038693666 -0.006022975 0.049143378 0.04981733 0.00014379942 -0.007794659
0.04291929 0.055092372 0.059612397 -0.0607611 0.02555476 0.08767097 0.08037404 -0.07535623
-0.10594015 0.037146658 -0.002719861 0.10393258 -0.093743525 0.0016974654 -0.0011088859 0.033311635
-0.080029406 0.05504633 -0.0044713966 0.0049037538 0.027144268 -0.0034000543 0.012195106 -0.051335856
-0.1209665 0.044260465 -0.051670883 -0.0028589345 0.091909036 0.006439431 -0.018985538 0.042527385
-0.09908329 0.05472978 -0.08329655 -0.049071923 -0.10697903 -0.017813636 -0.0719039 0.008689718
-0.058052164 0.030974582 -0.016366843 -0.034384195 0.10937794 -0.038760442 0.117569745 0.039143622
0.0051968438 0.070219964 0.032641318 -0.020393487 -0.0692169 -0.07753396 -0.030417075 0.06835288
0.07414932 -0.02464212 0.07875219 -0.01590508 -0.032543175 -0.022522172 -0.029019795 0.016238123
-0.012566067 -0.06700111 -0.084231354 0.0055508497 -0.086494 -0.020458272 0.08843193 -0.081166625
0.059398312 0.09905707 -0.10117938 0.048962817 -0.08427492 -0.10091316 0.048358686 -0.051896524
0.008384878 -0.0075446106 -0.10099187 -0.061209317 -0.10841919 -0.03703543 -0.09782219 -0.09220514
0.09958285 -0.034347422 0.08453314 0.06147633 -0.03500254 0.10356599 -0.094310574 -0.086405516
-0.013116323 0.08456675 -0.025507217 0.04734918 -0.028023433 0.084068015 -0.09085372 -0.029349808
-0.06099786 -0.11330959 0.07087186 -0.02200892 0.031145245 -0.07700803 -0.046318687 0.093755074
-0.0032453602 -0.024713581 -0.052076675 -0.10901384 0.059936456 0.04758278 -0.09933128 -0.002813558
0.08722337 0.04389797 0.06240454 0.03617469 -1.0744317e-05 0.030813402 -1.0240872e-05 -0.07135533
-0.029866457 -0.052137144 0.06188852 0.08086452 -0.00040564194 0.10301314 0.0995962 0.03980523
-0.018210309 0.04010322 -0.056319237 0.09057868 0.042198095 -0.0033299606 0.03923661 -0.027046569
0.064668044 0.113355845 0.1093035 -0.0408641 0.018658046 -0.1129532 0.05511478 -0.08818261
0.038654022 -0.08892312 0.048490092 0.042116344 -0.04213034 0.033690203 0.116146 -0.0037807627
0.06482407 0.12209607 -0.011451379 0.088318646 -0.10709797 -0.057893306 0.039801408 -0.06424337
-0.096610576 -0.0078575 0.107196786 0.08690195 0.098567374 0.11639685 -0.016065668 0.09999172
-0.0725255 0.033080075 -0.0071241483 -0.042871453 0.033916138 0.017660253 -0.04412967 -0.022087416
-0.02535278 0.113035284 -0.1052901 0.030099055 0.109844 0.104904614 -0.053787924 0.0063024475
0.068652816 0.019835724 0.07939669 -0.013173561 0.068210125 -0.045952085 -0.039035454 -0.05247973
-0.102214016 0.004580252 0.00567837 0.021080317 0.027399529 -0.013790452 0.069073744 -0.009795774
-0.10270938 0.042495195 0.08438673 0.083399184 0.0643477 0.0019663312 0.0023325733 0.09894873
-0.058213037 0.105395965 -0.024900999 0.05631372 -0.109998494 -0.086881034 -0.022516198 -0.08625583
00000000: e249 cabc 0640 a1bd 5df4 7d3d d5f5 dc3d
00000010: 4c3f f13d ed40 9e3d b14e a03d d9d2 4cbc
00000020: 0baf ab3d b78c 7b3d 82c2 b53b f9d0 4f3c
00000030: 53a7 463d 359e a0bc 389c 3f3d 7eb2 8d3d
00000040: f9be c339 bdf1 893d 3d22 8abd 976e 813d
00000050: 4163 273a e647 a63c 9649 afbd 95db c83d
00000060: faa0 30bd bac3 81bd 407d 1ebd 605c c5bb
00000070: 914a 493d 420d 4c3d ddc8 1639 576a ffbb
00000080: 23cc 2f3d 8aa8 613d 212c 743d a2e0 78bd
00000090: 3758 d13c d68c b33d 259b a43d 5e54 9abd
000000a0: 26f7 d8bd 1827 183d b23f 32bb 9bda d43d
000000b0: 9bfc bfbd 7d7d de3a 0958 91ba c871 083d
000000c0: 75e6 a3bd 4378 613d cb84 92bb abaf a03b
000000d0: a85d de3c 72d3 5ebb fbcd 473c 8c45 52bd
000000e0: 49bd f7bd 764a 353d d9a4 53bd f65c 3bbb
000000f0: ce3a bc3d dd01 d33b 8f87 9bbc 3231 2e3d
00000100: 2eec cabd 552c 603d 6297 aabd a4ff 48bd
00000110: d217 dbbd e7ed 91bc 5a42 93bd 525f 0e3c
00000120: 1bc8 6dbd 68be fd3c c213 86bc 71d6 0cbd
00000130: 8b01 e03d 45c3 1ebd 68c8 f03d 1055 203d
00000140: 494a aa3b 7ccf 8f3d e7b2 053d 3e10 a7bc
00000150: 97c1 8dbd 20ca 9ebd 3b2d f9bc 98fc 8b3d
00000160: 99db 973d 45de c9bc d448 a13d 5f4b 82bc
00000170: fe4b 05bd 6b80 b8bc ecba edbc d005 853c
00000180: e8e1 4dbc e137 89bd 7d81 acbd e7e3 b53b
00000190: c423 b1bd 1b98 a7bc cd1b b53d b03a a6bd
000001a0: a54b 733d 6fde ca3d 2337 cfbd 3c8d 483d
000001b0: 5498 acbd 8fab cebd c213 463d 7391 54bd
000001c0: ba60 093c c838 f7bb d3d4 cebd 9fb6 7abd
000001d0: e10a debd 77b2 17bd 0057 c8bd 0cd6 bcbd
000001e0: 18f2 cb3d e2af 0cbd b61f ad3d 9bce 7b3d
000001f0: d35e 0fbd 681a d43d e725 c1bd 60f5 b0bd
00000200: d9e5 56bc 5531 ad3d 83f4 d0bc 37f1 413d
00000210: 6691 e5bc da2b ac3d 8411 babd 026f f0bc
00000220: e4d8 79bd dc0e e8bd 4425 913d 0d4c b4bc
00000230: 5024 ff3c 63b6 9dbd aab8 3dbd a902 c03d
00000240: 1cb0 54bb 2374 cabc 5a4e 55bd a642 dfbd
00000250: ee7f 753d 29e6 423d 336e cbbd ac63 38bb
00000260: 2ba2 b23d 5cce 333d e79b 7f3d e92b 143d
00000270: 7d42 34b7 636c fc3c 36d0 2bb7 be22 92bd
00000280: 80aa f4bc c28d 55bd d17e 7d3d 4c9c a53d
00000290: 57ac d4b9 8ef8 d23d 18f9 cb3d cf0a 233d
000002a0: c92d 95bc 4643 243d 00af 66bd 5181 b93d
000002b0: e9d7 2c3d 783b 5abb 91b6 203d c490 ddbc
000002c0: ae70 843d 1c27 e83d 83da df3d 1d61 27bd
000002d0: c2d8 983c 0254 e7bd 09c0 613d 1699 b4bd
000002e0: ae53 1e3d 531d b6bd 8c9d 463d 3082 2c3d
000002f0: dd90 2cbd bdfe 093d f4dd ed3d acc6 77bb
00000300: 7bc2 843d 810d fa3d 919e 3bbc 68e0 b43d
00000310: 2e56 dbbd 8821 6dbd cd06 233d 0792 83bd
00000320: c4db c5bd bebc 00bc fd89 db3d a6f9 b13d
00000330: b1dd c93d 7961 ee3d 269c 83bc 75c8 cc3d
00000340: 4088 94bd f97e 073d b071 e9bb fa99 2fbd
00000350: a6eb 0a3d 3cac 903c 50c1 34bd abf0 b4bc
00000360: a2b0 cfbc 0b7f e73d 56a2 d7bd 4b92 f63c
00000370: e4f5 e03d 3bd8 d63d ba50 5cbd c384 ce3b
00000380: d999 8c3d 877e a23c bb9a a23d ebd5 57bc
00000390: c0b1 8b3d 4138 3cbd a4e3 1fbd fcf4 56bd
000003a0: 9555 d1bd f015 963b 9f11 ba3b a1b0 ac3c
000003b0: fa74 e03c 59f1 61bc 8976 8d3d 747e 20bc
000003c0: 4c59 d2bd 710f 2e3d f3d2 ac3d 31cd aa3d
000003d0: bac8 833d 90dd 003b 16de 183b a2a5 ca3d
000003e0: cb70 6ebd d7d9 d73d 2efd cbbc 37a9 663d
000003f0: e446 e1bd afee b1bd e473 b8bc e6a6 b0bd

conv1.bias f4 [48]
0.040297706 -0.088367864 0.01350814 0.10867302 -0.04632286 0.067292094 -0.017023034 0.01798607
0.082098715 -0.06048891 -0.09862149 -0.051970262 0.10127137 0.08717696 0.09814374 -0.010394423
0.08474066 -0.034186445 0.052543316 0.017073283 0.08315638 0.06985227 -0.07747243 0.07348944
0.111974195 0.04042586 0.03956337 -0.08174807 -0.0023955288 0.015388719 0.040417828 0.0127907125
0.011302143 0.07885807 0.07217715 -0.062766634 -0.00057502993 0.0036869152 -0.08981855 -0.025400952
0.04503918 -0.015637374 -0.012505245 0.10460811 -0.05626997 -0.056345828 -0.012189227 -0.0479231
00000000: 350f 253d 36fa b4bd 3f51 5d3c f68f de3d
00000010: 0abd 3dbd 70d0 893d e473 8bbc 8657 933c
00000020: 5f23 a83d 38c3 77bd 10fa c9bd c5de 54bd
00000030: 5d67 cf3d d689 b23d 96ff c83d 5f4d 2abc
00000040: 838c ad3d 1607 0cbd a937 573d 45dd 8b3c
00000050: e44d aa3d b50e 8f3d dea9 9ebd a281 963d
00000060: ba52 e53d 9695 253d 330d 223d 886b a7bd
00000070: 4efe 1cbb f720 7c3c 2a8d 253d 2390 513c
00000080: a02c 393c 5780 a13d 9dd1 933d cb8b 80bd
00000090: 9bbd 16ba 2ca0 713b caf2 b7bd a815 d0bc
000000a0: 017b 383d f319 80bc cde2 4cbc c73c d63d
000000b0: 577b 66bd e2ca 66bd 53b5 47bc 034b 44bd

conv2.weight f4 [96, 48, 3]
0.003975226 0.025133358 0.04516241 -0.07938733 0.02945452 -0.0519146 -0.00067349075 -0.0073738066
-0.065879315 0.026966078 0.025651082 -0.020584663 -0.024372442 -0.016189955 -0.0389436 -0.013153485
-0.06965683 0.016843708 -0.014353815 0.062370133 -5.108221e-08 -0.014856693 0.06764268 0.029374765
-0.03733636 0.018494638 -0.027645541 -0.009017143 0.081034936 0.018071458 -0.049356557 4.4529727e-07
0.009503431 0.052321482 0.06415349 0.0281567 -0.048595004 -0.079219356 -0.0034557255 -0.054060098
-0.049083296 0.0057976055 -0.04588966 -0.036027744 0.06695458 0.030116262 0.07968974 -0.022253549
0.042764023 0.053525247 0.02537995 0.043539338 0.06816544 -0.012565388 -0.011537974 -0.04655786
0.016632598 -0.035088588 -0.053017206 0.038175542 0.058698285 0.06485362 -0.042164974 -0.07166663
0.05267467 -0.038312018 0.04510518 0.037867412 0.0017235227 -0.020977674 -0.042881686 0.028884938
0.06985942 -0.005570845 -0.0024198482 0.0145425415 -0.024083931 0.07020023 0.00545254 -0.06696002
0.021082422 0.06457224 -0.044089045 0.023702104 -0.06363901 0.037784204 -0.062436488 0.03716711
-0.07694168 -0.010591393 -0.046699025 0.01343449 -0.01863472 -0.027286252 -0.033231523 0.027789911
0.0104097575 -0.01911642 -0.0034498197 -0.014707051 -0.031575084 -0.048296694 0.009977359 0.019494932
0.06845763 -0.05987214 -0.0022911786 0.009874265 -0.06374482 -0.06567431 -0.03172122 0.0049318816
-0.022924423 0.030585377 -0.04139094 -0.002671509 0.022667168 -0.04058887 -0.047874182 -0.0036613932
-0.06388045 0.050644748 0.07078144 -0.0783581 -0.052763827 -0.023032403 0.05193611 0.07097002
0.021412801 -0.022421 -0.042607076 -0.0002008604 0.0263084 -0.06270867 -0.024405923 -0.0015661999
-0.05264331 -0.044956703 0.056196645 -0.041948006 0.038842894 -2.2893891e-08 -0.058408733 -0.04600319
0.06280949 -0.06141617 0.043372966 -0.07089151 0.0580902 -0.07813416 0.06404326 -0.0120073445
-0.008764501 -0.06484866 -0.02452542 0.061285462 -0.008673985 0.000187232 0.024914147 0.059274983
0.03303455 -0.04473647 -0.07175422 -0.042067263 0.060059436 -0.06866529 0.017706519 0.06289307
0.025342414 0.053499468 0.009423418 0.062160138 -0.066868566 -0.040422723 0.0471803 -0.0016455032
0.016744664 -0.0129263075 0.0431093 -0.07863515 -0.011716794 0.00221567 -0.0052002724 0.034600716
-0.08276653 0.07081058 -0.019264162 0.0056053954 -0.017045174 -0.04198922 -0.011261215 -0.026233362
0.030152671 0.05280466 -0.06880466 -0.0149746705 0.01500048 0.07876061 -0.039871857 0.016457254
-0.050626248 0.054203082 -0.017903524 0.013022378 -0.05983433 0.008565707 0.035636015 -0.00023035564
0.04745497 -0.015328502 -0.07316274 -0.036890548 -0.015038194 -0.024180043 -0.047722008 -0.037468776
0.073479354 0.024086524 0.00077678997 0.027592337 0.026398221 0.027728617 0.07636956 -0.06518639
0.0086186705 -0.01863542 -0.0407698 0.025762431 -0.067048036 0.056342244 -0.0035276276 -0.048237298
0.053233862 0.06556078 -0.0042795646 -0.07849283 -0.04162432 0.04539131 0.07277055 0.043634474
0.07281969 0.0028023159 -0.034149572 0.011166875 0.07785568 0.058625016 -0.0057248543 -0.06353642
-0.0434849 0.03782194 0.07035883 0.005903671 0.061890084 -0.02025701 -0.051467385 0.046283603
00000000: 9d42 823b 79e4 cd3c 38fc 383d d395 a2bd
00000010: 9b4a f13c 67a4 54bd 338d 30ba f99f f1bb
00000020: bceb 86bd f7e7 dc3c 3822 d23c 2ba1 a8bc
00000030: b7a8 c7bc cca0 84bc 5383 1fbd b781 57bc
00000040: 3da8 8ebd d1fb 893c 432c 6bbc d377 7f3d
00000050: 7c65 5bb3 7d69 73bc 3f88 8a3d 59a3 f03c
00000060: 03ee 18bd 1182 973c e778 e2bc a4bc 13bc
00000070: a5f5 a53d 980a 943c 1a2a 4abd 3111 ef34
00000080: 47b4 1b3c 0d4f 563d e862 833d e1a8 e63c
00000090: 8e0b 47bd c23d a2bd 7479 62bb 1f6e 5dbd
000000a0: 910b 49bd d7f9 bd3b ccf6 3bbd d491 13bd
000000b0: 7c1f 893d 61b6 f63c 6034 a33d 134d b6bc
000000c0: 5429 2f3d 4a3d 5b3d 9de9 cf3c 4e56 323d
000000d0: 529a 8b3d 0fdf 4dbc c509 3dbc 74b3 3ebd
000000e0: 1641 883c 0db9 0fbd 9228 59bd f55d 1c3d
000000f0: 9d6d 703d fad1 843d 2eb5 2cbd f4c5 92bd
00000100: 65c1 573d 10ed 1cbd 36c0 383d dc1a 1b3d
00000110: d3e7 e13a 5fd9 abbc b5a4 2fbd 1ba0 ec3c
00000120: 7512 8f3d a38b b6bb 5196 1ebb d743 6e3c
00000130: aa4b c5bc 23c5 8f3d 38ab b23b 5622 89bd
00000140: 0bb5 ac3c 733e 843d b796 34bd ea2a c23c
00000150: 2b55 82bd 9cc3 1a3d 67bd 7fbd 8a3c 183d
00000160: 9993 9dbd 8687 2dbc 7a47 3fbd 561c 5c3c
00000170: d7a7 98bc 6b87 dfbc c71d 08bd aba7 e33c
00000180: b08d 2a3c 0a9a 9cbc 5f16 62bb d8f5 70bc
00000190: e054 01bd c1d2 45bd 1478 233c d6b3 9f3c
000001a0: 8433 8c3d 7d3c 75bd 9927 16bb abc7 213c
000001b0: a58c 82bd 4180 86bd 1cee 01bd 9f9b a13b
000001c0: 00cc bbbc 2f8e fa3c 8c89 29bd 7c14 2fbb
000001d0: 7fb0 b93c 8440 26bd b817 44bd fcf3 6fbb
000001e0: c1d3 82bd de70 4f3d dcf5 903d 367a a0bd
000001f0: e21e 58bd 73ae bcbc f5ba 543d bb58 913d
00000200: e669 af3c 3fac b7bc c284 2ebd 0e9e 52b9
00000210: b784 d73c 676d 80bd eeee c7bc f348 cdba
00000220: 83a0 57bd 8524 38bd 742e 663d acd1 2bbd
00000230: ba19 1f3d 33a8 c4b2 ff3d 6fbd d76d 3cbd
00000240: 43a2 803d 868f 7bbd daa7 313d 912f 91bd
00000250: fdef 6d3d cd04 a0bd 1d29 833d 74ba 44bc
00000260: fb98 0fbc 60cf 84bd 89e9 c8bc 7706 7b3d
00000270: 541d 0ebc b553 4439 c118 cc3c 53ca 723d
00000280: 3c4f 073d 973d 37bd e0f3 92bd b94e 2cbd
00000290: e200 763d 63a0 8cbd 430d 913c 15ce 803d
000002a0: e59a cf3c 4222 5b3d ae64 1a3c a19b 7e3d
000002b0: 63f2 88bd 4c92 25bd 2140 413d edad d7ba
000002c0: 1b2c 893c ddc8 53bc 6193 303d 770b a1bd
000002d0: ccf7 3fbc c634 113b 0c67 aabb 7bb9 0d3d
000002e0: 8081 a9bd 2305 913d e0cf 9dbc 77ad b73b
000002f0: 52a2 8bbc e3fc 2bbd f680 38bc 59e7 d6bc
00000300: bc02 f73c b349 583d 75e9 8cbd 5258 75bc
00000310: 93c4 753c 3e4d a13d ac50 23bd 5dd1 863c
00000320: 785d 4fbd 0d04 5e3d 69aa 92bc d05b 553c
00000330: d814 75bd 2e57 0c3c 12f7 113d 9f8b 71b9
00000340: 2560 423d 6624 7bbc 59d6 95bd 8b1a 17bd
00000350: c262 76bc 3a15 c6bc 2778 43bd dc78 19bd
00000360: 587c 963d 1a51 c53c 7ea1 4b3a 5309 e23c
00000370: 1541 d83c 2027 e33c a567 9c3d 7180 85bd
00000380: 5335 0d3c 4fa9 98bc 3cfe 26bd bc0b d33c
00000390: 7b50 89bd 20c7 663d c52f 67bb 7994 45bd
000003a0: c00b 5a3d bb44 863d 973b 8cbb d9c0 a0bd
000003b0: 437e 2abd 3dec 393d ba08 953d 10ba 323d
000003c0: 7d22 953d 0fa7 373b 6ce0 0bbd 45f5 363c
000003d0: cc72 9f3d c920 703d 8f97 bbbb 621f 82bd
000003e0: 391d 32bd 2eeb 1a3d 4a18 903d 9573 c13b
000003f0: 7580 7d3d 07f2 a5bc 77cf 52bd e093 3d3d

conv2.bias f4 [96]
0.060981885 -0.076288074 -0.04119635 -0.06729443 0.029165994 0.029278543 -0.0019767643 0.057607222
0.007913987 0.054279987 0.03959152 0.066479385 -0.0024294867 -0.0161442 -0.0012683616 0.005964626
0.0010138587 -0.04407301 -0.0657737 -0.007773392 -0.006902582 -0.024460612 -0.0019641877 -0.014575765
0.04968049 -0.049972404 -0.07696277 0.04692205 0.079988986 0.03046339 0.012591444 0.0845752
0.0215837 -0.013351116 -0.047116946 0.05069308 -0.06492821 0.06270326 -0.044732016 0.031683195
-0.020738835 0.0243809 0.032978725 0.0463261 -0.020318521 0.04377689 -0.052432172 0.021015689
-0.061388772 0.0061326944 -0.049716856 0.028509304 -0.03100345 -0.02743475 -0.017398845 0.05470683
0.037357617 0.002195075 0.056781586 0.04105654 -0.065849334 0.05421087 0.033852488 -0.035810992
0.019180194 0.06829768 -0.021909975 -0.016350022 0.017930161 -0.019929577 -0.043436743 0.038886126
-0.026472876 0.03514894 0.05061455 0.013652906 0.007297175 0.0766212 -0.07177422 0.071551844
-0.021636197 -0.03400459 0.056007113 -0.000954047 0.06788175 0.07207219 -0.03301585 0.06499935
0.0015249433 0.03649603 0.08036702 -0.0356326 0.023402752 -0.007318413 -0.0053128377 0.011579045
00000000: 24c8 793d ec3c 9cbd 81bd 28bd aad1 89bd
00000010: 86ed ee3c 8ed9 ef3c 9a8c 01bb 8df5 6b3d
00000020: aba9 013c b154 5e3d b82a 223d 5826 883d
00000030: 0638 1fbb d740 84bc 273f a6ba e972 c33b
00000040: 74e3 843a e785 34bd 5db4 86bd f0b7 febb
00000050: 0e2f e2bb 9f61 c8bc 9ab9 00bb 30cf 6ebc
00000060: c57d 4b3d ddaf 4cbd a89e 9dbd 5631 403d
00000070: 44d1 a33d 5c8e f93c 584c 4e3c c335 ad3d
00000080: 4dd0 b03c a4be 5abc b3fd 40bd 8ca3 4f3d
00000090: 15f9 84bd 916a 803d eb38 37bd 3dc6 013d
000000a0: 7de4 a9bc 74ba c73c b314 073d 70c0 3d3d
000000b0: 0773 a6bc 654f 333d 1ec3 56bd 1829 ac3c
000000c0: cb72 7bbd c5f4 c83b e7a3 4bbd 588c e93c
000000d0: f2fa fdbc d7be e0bc 0688 8ebc 4514 603d
000000e0: 4d04 193d 3fdb 0f3b cf93 683d e72a 283d
000000f0: 04dc 86bd 380c 5e3d e8a8 0a3d 8cae 12bd
00000100: c81f 9d3c a7df 8b3d 8c7c b3bc 7bf0 85bc
00000110: 46e2 923c 5a43 a3bc baea 31bd 0f47 1f3d
00000120: a5dd d8bc 56f8 0f3d 3451 4f3d 70b0 5f3c
00000130: 241d ef3b 93eb 9c3d 5dfe 92bd c689 923d
00000140: 653e b1bc 6648 0bbd b767 653d 0319 7aba
00000150: 9605 8b3d 969a 933d a13b 07bd 611e 853d
00000160: 9be0 c73a dc7c 153d 7797 a43d 7df3 11bd
00000170: 21b7 bf3c 4ccf efbb 5017 aebb 09b6 3d3c

fc.weight f4 [1, 96]
-0.08086808 -0.04464715 0.08776132 0.04810173 -0.07022599 -0.06613442 0.046502274 0.020363659
-0.05588057 -0.058351085 0.0781509 -0.09507998 0.013562122 -0.07851836 0.07387904 0.0060322704
0.045364168 0.056140788 -0.042002674 0.053832535 0.010143121 0.02191641 -0.086887814 -0.051357985
0.052395683 -0.023774328 0.02750068 -0.046013016 -0.060484767 0.052576166 -0.07468265 -0.10199027
0.011274804 -0.05527404 -0.029531354 -0.03700371 0.075013086 0.07278995 -0.05732521 -0.04967403
-0.016771339 0.057344347 -0.08315785 -0.07730998 0.052155104 0.053956583 -0.0026368543 -0.026044967
0.07593647 -0.09855268 0.004841834 0.054958288 0.064295664 0.05082396 0.070690565 0.008302549
0.062443998 0.015620304 0.050493177 -0.05867484 -0.0066866223 0.044867557 -0.001446068 -0.048780195
0.019210486 0.08658495 -0.034681514 0.08680278 -0.004006237 0.01271458 -0.00091753923 0.036644775
0.03073463 -0.017160092 0.008333055 -0.029744385 0.09475238 -0.06012268 0.08640045 0.03204403
-0.05325394 0.07232236 0.03785178 -0.04199068 0.09115301 0.032014593 -0.06528739 0.075107805
0.03716277 0.04934269 -0.020161739 -0.08616441 -0.0026268288 -0.04919824 0.056532964 0.012819655
00000000: 2a9e a5bd eedf 36bd 35bc b33d 5206 453d
00000010: a5d2 8fbd 7c71 87bd 2b79 3e3d b0d1 a63c
00000020: 06e3 64bd 8c01 6fbd 940d a03d 4bb9 c2bd
00000030: aa33 5e3c 3cce a0bd e54d 973d 5aaa c53b
00000040: c7cf 393d e2f3 653d ff0a 2cbd 817f 5c3d
00000050: 552f 263c 0b8a b33c 3df2 b1bd c05c 52bd
00000060: db9c 563d 61c2 c2bc 1b49 e13c 2578 3cbd
00000070: e0be 77bd 1b5a 573d 38f3 98bd 46e0 d0bd
00000080: f5b9 383c 0867 62bd bdeb f1bc 3491 17bd
00000090: 76a0 993d e612 953d d7cd 6abd ff76 4bbd
000000a0: 0c64 89bc e8e1 6a3d aa4e aabd b254 9ebd
000000b0: 97a0 553d 9401 5d3d 13cf 2cbb 415c d5bc
000000c0: 9484 9b3d fdd5 c9bd 3fa8 9e3b f11b 613d
000000d0: 72ad 833d c92c 503d 37c6 903d 6a07 083c
000000e0: 47c5 7f3d 4eec 7f3c efd1 4e3d 0755 70bd
000000f0: 741b dbbb 0bc7 373d fe89 bdba becd 47bd
00000100: 4f5f 9d3c 7353 b13d 340e 0ebd a8c5 b13d
00000110: c046 83bb d050 503c 0487 70ba d518 163d
00000120: 31c7 fb3c 5293 8cbc 5e87 083c 7faa f3bc
00000130: 890d c23d 3343 76bd b8f2 b03d 9a40 033d
00000140: ce20 5abd bf1d 943d 780a 1b3d 6bfe 2bbd
00000150: 6eae ba3d bc21 033d 65b5 85bd 1fd2 993d
00000160: fd37 183d 8f1b 4a3d 3b2a a5bc f776 b0bd
00000170: e026 2cbb 1884 49bd 1c8f 673d 8809 523c
