models/audio_classifier2.pth (torch, 914514 bytes, 12 tensors)

lstm.weight_ih_l0 f4 [512, 40]
0	0x3ca0345c	0.019556217
1	0xbbfe97d8	-0.007769566
2	0x3da787c2	0.081801906
3	0x3c2de7b7	0.010614327
4	0x3d93b2d5	0.07211844
5	0xbd9f7831	-0.077865966
6	0x3d357581	0.044301514
7	0x3d4dd076	0.050247632
8	0xbd9e553d	-0.07731102
9	0x3e1df878	0.15426815
10	0xbb647d89	-0.0034864864
11	0xbd5ee56f	-0.054418024
12	0x3d826876	0.063675806
13	0x3cf41a08	0.029797569
14	0xbbbc7612	-0.0057513798
15	0x3d74b3c9	0.05974177
16	0xbd444c49	-0.047924314
17	0xbbd8e340	-0.006618887
18	0xbdc822bb	-0.09772249
19	0x3dd57f7d	0.10424707
20	0xbdcb7812	-0.09935011
21	0xbd2b06df	-0.0417546
22	0xbd37b069	-0.044845972
23	0x3b1cfd28	0.0023954604
24	0xbd0c653e	-0.03427624
25	0x3d87ef15	0.06637398
26	0xbc69aea9	-0.014262834
27	0xbcb9b74d	-0.022670412
28	0x3d645c4a	0.055752076
29	0x3ca32b61	0.019918146
30	0xbd8652a3	-0.065587305
31	0xbdb7a2ed	-0.089666225
32	0xbdc91285	-0.098179854
33	0xbd343ac0	-0.04400134
34	0x3d33b9b6	0.04387828
35	0x3d7e0c28	0.06202331
36	0x3da369d9	0.07979173
37	0xbd91e2aa	-0.07123311
38	0x3c5f3931	0.013624475
39	0xbcb54c23	-0.022131031
40	0x3ce43e95	0.027861873
41	0x3d610846	0.05493953
42	0xbdcfa0c0	-0.101380825
43	0xbdc238d5	-0.09483496
44	0xbc6ebc1b	-0.014571215
45	0xbc31970d	-0.010839236
46	0x3e0e350f	0.13887428
47	0xbd2ca048	-0.042145044
48	0x3db2c592	0.0872909
49	0xbc5e12d7	-0.013554296
50	0xbd3d73ba	-0.046252944
51	0xbd489247	-0.048967626
52	0xbe04a9f3	-0.12955455
53	0xbbb58947	-0.0055400464
54	0x3c58a864	0.013223741
55	0xbdc8866f	-0.09791266
56	0x3dc64cc8	0.096826136
57	0xbc121843	-0.008916917
58	0x3c7b9fc0	0.015357912
59	0x3d3cddd2	0.04610998
60	0xbdd19fa5	-0.10235528
61	0xbcf38d85	-0.029730568
62	0x3be77836	0.007063891
63	0x3d800b77	0.06252187
64	0x3d69d128	0.057084233
65	0x3b144e80	0.0022629797
66	0x3d21e2f1	0.03952307
67	0x3d00c7f6	0.031440698
68	0x3d9aeb22	0.07564379
69	0xbc3ec936	-0.011644652
70	0x3c82f9c7	0.015988244
71	0x3d928ec8	0.071561396
72	0xbd28e74e	-0.041236214
73	0x3d7b88c1	0.061409716
74	0xbcdbceba	-0.026831973
75	0x3d498c45	0.049206037
76	0xbb8fe8db	-0.004391772
77	0xbd8b0ae5	-0.06789187
78	0xbe0058dd	-0.12533899
79	0xbd334a2c	-0.043771908
80	0x3dbc5714	0.09196296
81	0xbc69374e	-0.014234377
82	0x3cc6236f	0.024186818
83	0x3d627210	0.05528456
84	0xbda42978	-0.08015722
85	0x3bf94532	0.0076071257
86	0xbcabf1f7	-0.020989401
87	0xbd5fb315	-0.054614145
88	0x3d58b6c6	0.05290868
89	0x3d98f7a8	0.07469112
90	0xba729e37	-0.0009255143
91	0x3d88b434	0.06674996
92	0xbca3590c	-0.019939922
93	0x3d5a8f6a	0.053359427
94	0x3cc4b245	0.024010787
95	0xbb2f51bc	-0.0026751598
96	0x3b64b1c9	0.0034896007
97	0x3d3455e0	0.04402721
98	0x3c1b41ea	0.009476164
99	0xbd531a0b	-0.05153851
100	0x3da1c63e	0.0789914
101	0xba980aad	-0.0011599861
102	0x3db4571a	0.08805676
103	0xbd5e9dfd	-0.054349888
104	0x3c2985d7	0.010346851
105	0x3d91a0a8	0.07110721
106	0xbacad09a	-0.0015473545
107	0x3cd759e9	0.02628799
108	0x3d9f6095	0.077820934
109	0xbd059de2	-0.032621272
110	0x3d5d7402	0.05406571
111	0xbd31f480	-0.043446064
112	0xbd917c11	-0.07103742
113	0x3d6fca5f	0.058542605
114	0xbd67fa69	-0.056635294
115	0xbd9532d4	-0.07285085
116	0xbd98e46e	-0.074654445
117	0x3b68ea2a	0.0035539963
118	0x3d4b1d16	0.049588285
119	0xbc9768f0	-0.018482655
120	0x3daef47c	0.085427254
121	0x3c8d19ca	0.017224211
122	0xbb9eea9c	-0.004849745
123	0x3cdcf9d7	0.026974602
124	0xbd8fb551	-0.07017005
125	0x3d42843d	0.047489394
126	0xbd9b74eb	-0.0759066
127	0xbd8336cb	-0.06406935
128	0xbd7f9a59	-0.062403057
129	0x3d842c47	0.06453758
130	0x3d5fb9a4	0.0546204
131	0x3d1729f1	0.036905233
132	0x3d511eb0	0.051054657
133	0xbac7f99e	-0.0015256887
134	0x3dbfb729	0.09361107
135	0xbc85dd04	-0.01634074
136	0xbdade0b6	-0.08490126
137	0xbae12ab5	-0.0017178865
138	0x3db03f18	0.08605784
139	0xbc9dcfe9	-0.019264178
140	0x3da49368	0.08035928
141	0xbd828e3e	-0.06374787
142	0x3d4d14a3	0.05006851
143	0xbd639e4c	-0.055570886
144	0xbd490ab7	-0.049082484
145	0xbcc4a795	-0.02400569
146	0xbd92c34c	-0.07166156
147	0xbd255bc4	-0.040370718
148	0xbd0a9b75	-0.03383966
149	0xbd33e195	-0.043916304
150	0x3d65d747	0.056113508
151	0x3d27e629	0.040990982
152	0xbd1e9f0d	-0.0387259
153	0x3c26c090	0.010177746
154	0x3da3a4cc	0.07990417
155	0xbd75cc5d	-0.06000935
156	0xbd9b4583	-0.07581618
157	0x3cef6fb0	0.029228061
158	0xbc9d0ebb	-0.019172063
159	0xbd53a877	-0.051674332
160	0x3cc49366	0.023996066
161	0x3bfda14a	0.0077401744
162	0x3d013c12	0.03155143
163	0xbd98f916	-0.07469384
164	0xbc137578	-0.009000175
165	0xbd7a81e0	-0.061159015
166	0xbcc86222	-0.024460856
167	0xbd2edc39	-0.04269049
168	0xb9ebccfc	-0.00044975418
169	0x3a96b2de	0.0011497398
170	0x3d827f95	0.063719906
171	0xbd75da84	-0.060022846
172	0xbb827992	-0.0039817775
173	0x3d564d90	0.052320063
174	0xbd99c166	-0.07507591
175	0xbd975fd8	-0.073913276
176	0xbc5b72a9	-0.013394036
177	0x3da7e3dc	0.081977576
178	0x3cf061f1	0.029343577
179	0x3dab4c69	0.083641835
180	0xbd878b41	-0.066183574
181	0x3d1e3249	0.038622174
182	0x3c6f5cf4	0.014609564
183	0xbd82556e	-0.06363951
184	0x3cc4ad23	0.02400834
185	0x3cf21cc7	0.029554738
186	0x3aba6db3	0.0014223367
187	0x3d93a568	0.07209283
188	0x3cbb54dc	0.022867613
189	0x3b4a1395	0.0030834426
190	0x3d85b99a	0.06529541
191	0x3da3e785	0.08003143
192	0xbd3d8710	-0.046271384
193	0xbd1f2c22	-0.038860448
194	0x3bfd77a2	0.0077352086
195	0x3d883f46	0.066526935
196	0x3d5522ec	0.052035257
197	0x3d47d568	0.048787504
198	0x3c1f6771	0.009729252
199	0xbcdcac29	-0.026937561
200	0x3b7c279f	0.0038475764
201	0xbca0ade2	-0.019614164
202	0xbdb73c58	-0.089470565
203	0xbcce5a10	-0.02518943
204	0xbd4ce19f	-0.050019857
205	0x3d423122	0.047410138
206	0xbd7874e3	-0.060658347
207	0xbd815952	-0.063158646
208	0xbcd8178f	-0.026378421
209	0x3d343b00	0.04400158
210	0xbc58fa3d	-0.013243255
211	0xbd48eaaa	-0.049051918
212	0xbd3821ea	-0.044954218
213	0xbe05d0c5	-0.1306792
214	0x3ca035d8	0.019556925
215	0x3b50e642	0.0031875526
216	0xbda40a13	-0.08009734
217	0x3b76ed11	0.0037677924
218	0xbdaf7de0	-0.085689306
219	0xbdd2b1ab	-0.10287794
220	0x3d3a7bf9	0.045528386
221	0xbd5eb9c5	-0.054376382
222	0x3d9a0df6	0.07522194
223	0x3d91873c	0.07105872
224	0xbd6c8355	-0.057742435
225	0xbb589446	-0.0033047362
226	0x3add8002	0.0016899111
227	0xbd8c18ab	-0.068406425
228	0xbda05325	-0.078283586
229	0x3d3b818a	0.045777835
230	0x3b8a1df0	0.0042149946
231	0xbd248701	-0.040167812
232	0xbde353f6	-0.11099999
233	0x3ca8bc48	0.020597592
234	0x3d82b72a	0.06382592
235	0x3c3171d2	0.0108303595
236	0x3d971363	0.073767446
237	0xbae96933	-0.0017807841
238	0x3d899fa1	0.067199
239	0x3d9b58e0	0.07585311
240	0x3c52cd35	0.012866308
241	0xbd5c1dcd	-0.053739358
242	0xbd8d9c01	-0.06914521
243	0x3dc48dea	0.095973805
244	0xbcd10a64	-0.02551765
245	0x3b9419fa	0.004519698
246	0x3d589f2a	0.052886166
247	0xbd9ce4e7	-0.07660847
248	0x3db78ab0	0.089619994
249	0x3d27a7b0	0.040931404
250	0x3d9c1346	0.076208636
251	0xbd5e2626	-0.0542356
252	0x3d5b0d12	0.05347926
253	0x3d51becb	0.051207345
254	0x3da3d208	0.07999045
255	0xbd549989	-0.051904235

lstm.weight_hh_l0 f4 [512, 128]
0	0xb9c78900	-0.0003805831
1	0xbd65ee90	-0.056135714
2	0xbc34cfc0	-0.01103586
3	0x3d31bce6	0.04339304
4	0xbca0f110	-0.019646198
5	0x3d9a54cb	0.07535704
6	0x3da73549	0.0816446
7	0xbdadb625	-0.08482007
8	0x3d932321	0.07184435
9	0xbd87d00e	-0.0663148
10	0xbd70886d	-0.058723856
11	0x3cf22e64	0.029563136
12	0xbd2c8c13	-0.042125773
13	0x3ce41ba8	0.027845219
14	0x3da91e47	0.08257728
15	0xbd4d4fcc	-0.05012493
16	0x3d8e5f31	0.0695175
17	0x3c0994a0	0.008397251
18	0xbd4bf18c	-0.049790904
19	0x3d819b9f	0.063285105
20	0x3da14057	0.078736
21	0x3d3625b2	0.044469543
22	0x3ca9ae4c	0.020712994
23	0xbda42711	-0.08015264
24	0xbd87e1a9	-0.06634838
25	0xbd9e9948	-0.0774408
26	0xbbe09100	-0.006853223
27	0xbd97ff34	-0.07421723
28	0x3d7207b2	0.05908937
29	0x3d8472c3	0.064672016
30	0xbd4222ca	-0.04739646
31	0x3d11ddb6	0.03561183
32	0x3c7d5ae0	0.015463561
33	0xbd370c2a	-0.044689335
34	0x3cea972c	0.028636537
35	0x3d96289b	0.07331964
36	0xbcaf7b84	-0.021421202
37	0xbccc7a90	-0.024960786
38	0x3ad24480	0.0016042143
39	0xbc850fa8	-0.016242817
40	0x3d698156	0.05700811
41	0x3cdb77f0	0.02679059
42	0xbbb69a30	-0.00557258
43	0xbc50cae0	-0.012743682
44	0x3bb19180	0.0054189563
45	0x3c3334b8	0.010937862
46	0x3d6f2abe	0.05839037
47	0xbbece110	-0.007228978
48	0xbd2f4bc8	-0.04279688
49	0x3d2bdaaa	0.04195658
50	0x3d996c59	0.07491369
51	0x3d599646	0.053121828
52	0xbd84b616	-0.06480043
53	0x3d858885	0.0652018
54	0xbc9dec08	-0.019277588
55	0xbd21013b	-0.039307814
56	0xbcb13080	-0.021629572
57	0x3d5af9be	0.05346083
58	0x3c10f4e8	0.008847453
59	0x3cd112b4	0.025521614
60	0x3c6f6ab8	0.014612846
61	0x3c0c49c8	0.008562513
62	0x3cc0cd6c	0.023535453
63	0x3daf3b57	0.0855624
64	0xbd4bde7d	-0.04977273
65	0xbcb7cd50	-0.022436768
66	0x3da8a235	0.082340635
67	0x3d2a62fe	0.041598313
68	0x3c280018	0.010253929
69	0x3cc0c818	0.023532912
70	0xbd9b69d5	-0.07588545
71	0x3d83d3bf	0.06436872
72	0xbd7abdb8	-0.061216086
73	0xbc281698	-0.010259293
74	0xbb758840	-0.0037465245
75	0xbd2379dc	-0.039911136
76	0xbd559294	-0.05214174
77	0xbd9f8757	-0.07789486
78	0xbd0942d2	-0.03351099
79	0x3c9bc21c	0.019013457
80	0xbd289569	-0.041158114
81	0x3bc403d0	0.0059819
82	0xbc9a2a10	-0.018818885
83	0xbd1de1ae	-0.038545303
84	0x3d97317f	0.073824875
85	0x3cb13b0c	0.021634601
86	0xbd0fd8d1	-0.03511888
87	0xbda88f94	-0.0823051
88	0xbd8ef460	-0.069802046
89	0xbca7cc14	-0.020483054
90	0xbcab0924	-0.020878382
91	0x3d80283b	0.06257673
92	0xbdad47f9	-0.08460993
93	0x3d3b5cce	0.045742802
94	0x3c68ff98	0.014221095
95	0xbd1c9ded	-0.038236547
96	0x3d61a7be	0.055091612
97	0x3c0be060	0.008537382
98	0x3d8d290d	0.068925954
99	0xbd3be383	-0.04587127
100	0x3c644248	0.013931818
101	0xbd6662df	-0.056246635
102	0x3d63218a	0.055451907
103	0x3d934eb9	0.071927495
104	0xbcc6d2d4	-0.024270453
105	0x3d236eba	0.03990052
106	0xbcb22440	-0.021745801
107	0x3d52b846	0.051445268
108	0x3d9f350f	0.07773792
109	0xbcecb718	-0.0288959
110	0xbcdb5376	-0.026773196
111	0x3d811a35	0.06303827
112	0x3d334db6	0.043775283
113	0xbc4d6160	-0.012535423
114	0x3daa2873	0.08308496
115	0x3d9e0951	0.07716621
116	0x3c12f278	0.008968942
117	0x3aac99c0	0.001316838
118	0x3d7cddd2	0.06173498
119	0xbd49908e	-0.049210124
120	0xbd825eed	-0.06365762
121	0x3cbb6060	0.022873104
122	0xbd0a3652	-0.03374321
123	0x3dae444d	0.08509121
124	0x3b9db650	0.004812993
125	0xbd5448ab	-0.051827114
126	0xbd8b41a1	-0.06799627
127	0xbd4e260d	-0.050329257
128	0x3d1cbf36	0.03826829
129	0x3d165b4a	0.036708154
130	0xbca0e1ac	-0.019638859
131	0xbcdf315e	-0.02724522
132	0xbd4ab370	-0.04948753
133	0xbdac836a	-0.08423503
134	0xbda19f67	-0.07891732
135	0xbcd2f2c8	-0.025750533
136	0xbcc4f764	-0.024043746
137	0xbd96ccf5	-0.07363311
138	0xbd7431eb	-0.059617918
139	0x3d3e9736	0.046530925
140	0x3d9f348b	0.07773694
141	0xbdac488b	-0.08412274
142	0xbc9621d0	-0.01832667
143	0xbd156c11	-0.036480013
144	0xbd91002c	-0.07080111
145	0x3d995199	0.07486267
146	0x3d441f56	0.047881447
147	0xbcb2ab50	-0.021810204
148	0xbd9b7af1	-0.075918086
149	0xbd11ef61	-0.03562868
150	0x3c650c60	0.013980001
151	0x3b150960	0.0022741184
152	0xbc9eb96c	-0.019375525
153	0x3b814850	0.003945388
154	0xbd43dab0	-0.04781598
155	0xbc24ba58	-0.010054193
156	0xbd366760	-0.04453218
157	0xbb76b940	-0.0037647039
158	0xbced3298	-0.028954789
159	0x3cdbd5f8	0.026835427
160	0xbda73e7a	-0.08166213
161	0x3d9e56ef	0.07731425
162	0x3d9ab7d7	0.07554596
163	0xbc289528	-0.010289468
164	0xbdacefd8	-0.08444184
165	0x3db1addf	0.086757414
166	0xbdb17c74	-0.08666316
167	0xbd381fed	-0.04495232
168	0x3cc92a48	0.024556294
169	0xbd9e3664	-0.07725218
170	0xbd0b7c2a	-0.03405396
171	0x3bbac1a0	0.0056993514
172	0xbc367fe8	-0.011138894
173	0xbd2aedfd	-0.04173087
174	0x3d4323be	0.04764151
175	0xbcb50248	-0.022095814
176	0xbd974e00	-0.07387924
177	0x3d22f176	0.039781056
178	0x3bb53fe0	0.005531296
179	0x3c656628	0.014001407
180	0x3d9cedf1	0.07662571
181	0x3db0a09d	0.086243846
182	0x3d1ed20a	0.038774528
183	0x3c01fb38	0.00793343
184	0x3cb83eb0	0.02249083
185	0x3ca1ca34	0.019749738
186	0x3db3a46d	0.08771596
187	0xbb324280	-0.0027200282
188	0x3c622bc0	0.013804376
189	0xbd990049	-0.074707575
190	0xbc63ae00	-0.013896465
191	0x3d3e383a	0.04644034
192	0x3d2378fe	0.03991031
193	0x3dad5613	0.08463683
194	0xbd72326d	-0.05913012
195	0xbc7a65f8	-0.0152831
196	0x3d675f5e	0.056487434
197	0xbccd664c	-0.025073193
198	0x3d10e73e	0.03537678
199	0xbd680e29	-0.05665413
200	0xbda8e7da	-0.08247347
201	0x3cf96b70	0.030446738
202	0xbd94a72f	-0.0725845
203	0xbd5ef5d0	-0.054433644
204	0xbc3bfc30	-0.0114737
205	0x3da9e0e7	0.0829485
206	0xbd890616	-0.06690614
207	0x3d5dfee2	0.054198153
208	0xbda59bad	-0.080863334
209	0xbc9c72f8	-0.01909779
210	0xbb474ec0	-0.003041193
211	0xbd878a52	-0.066181794
212	0xbd374d24	-0.0447513
213	0xbd5420a9	-0.05178896
214	0xbd65e7cd	-0.056129266
215	0xbd8bf41f	-0.06833672
216	0xbc93c128	-0.01803644
217	0xbdac946a	-0.08426745
218	0x3d9d8f8b	0.07693394
219	0x3c9f3460	0.019434154
220	0xbd2541a5	-0.040345807
221	0x3c5ac010	0.013351455
222	0x3c5b2d10	0.013377443
223	0x3da8ba55	0.08238665
224	0x3d44523a	0.04792998
225	0x3d4de7fa	0.05027006
226	0xbbdae540	-0.0066801608
227	0x3a55ab80	0.00081508607
228	0x3cccb420	0.024988234
229	0xbc295ca8	-0.010337032
230	0xbcf2c748	-0.02963604
231	0x3d7a815e	0.06115853
232	0x3d4fba3e	0.050714724
233	0xbcbd6c54	-0.023122944
234	0xbd82b9ed	-0.06383119
235	0xbd894948	-0.067034304
236	0xbd30552d	-0.04304998
237	0x3d6de69e	0.05808126
238	0xbc5c19a0	-0.013433844
239	0x3db2122b	0.086948715
240	0x3d2ed762	0.042685874
241	0x3d2aecba	0.041729666
242	0xbc851c74	-0.01624892
243	0xbc9b5540	-0.018961549
244	0x3cda4ee4	0.026648946
245	0xbcf79d2a	-0.030226309
246	0x3d6e51b6	0.058183394
247	0x3d03cbb0	0.032176673
248	0xbcdef4e2	-0.027216379
249	0xbc01b3f8	-0.007916443
250	0xbc257b70	-0.010100231
251	0xbca46c68	-0.020071223
252	0xbd75744e	-0.05992537
253	0x3db1e885	0.08686928
254	0xbdb2852e	-0.08716808
255	0xba8b6280	-0.0010634214

lstm.bias_ih_l0 f4 [512]
0	0x3dbb3408	0.091407835
1	0x3dd578e5	0.104234494
2	0x3c3b8435	0.011445095
3	0x3ce9acb4	0.028524734
4	0x3da69df1	0.08135594
5	0x3d02be99	0.03192005
6	0x3d9d4e79	0.07680983
7	0xbbe482c2	-0.0069735954
8	0x3d6b41a3	0.057435643
9	0x3d8e062b	0.0693477
10	0x3d796b03	0.06089307
11	0x3c5c9166	0.0134624
12	0x3dc7df03	0.09759333
13	0x3c92d10c	0.017921947
14	0x3d512efc	0.0510702
15	0xbcd5c502	-0.026094917
16	0x3d9a9fd1	0.07550014
17	0xbc792460	-0.015206426
18	0xbd0fef89	-0.035140548
19	0x3be5ed5d	0.0070168213
20	0x3c90b69c	0.0176652
21	0x3dab3de9	0.08361418
22	0x3d90d545	0.07071928
23	0x3db97654	0.090557724
24	0x3c3e1779	0.011602276
25	0xbd6f8516	-0.05847653
26	0x3cee12c4	0.029061683
27	0xbd6b06f7	-0.05737969
28	0x3d561959	0.052270267
29	0xbc40370f	-0.011731877
30	0xbd462316	-0.048373304
31	0x3d75376a	0.0598673
32	0xbd92c3eb	-0.07166275
33	0x3d8d0ae4	0.06886843
34	0xbd64b3fa	-0.0558357
35	0xbd0d19f1	-0.034448568
36	0x3d8cc517	0.068735294
37	0xbd93cd2a	-0.07216866
38	0xbda68538	-0.08130878
39	0x3c8ebe06	0.017424595
40	0xbd9a58b5	-0.07536451
41	0xbd5e83d7	-0.05432495
42	0x3da6e060	0.08148265
43	0x3d5bd238	0.053667277
44	0xbc4b96cd	-0.01242609
45	0x3d64fbaf	0.055904087
46	0x3d12a6ea	0.035803713
47	0x3db4c6d4	0.08826986
48	0xbd906742	-0.07050945
49	0x3ca68d9e	0.0203312
50	0x3c4c3288	0.012463219
51	0x3d0f4a28	0.03498283
52	0xbcb01ddd	-0.021498615
53	0xbd9afb0f	-0.07567417
54	0xbd26d177	-0.040727105
55	0x3cc03d10	0.023466617
56	0xbde08edf	-0.109647505
57	0x3d08eb0a	0.033427276
58	0x3c8e3083	0.017357117
59	0x3d302fe1	0.04301441
60	0xbd92bc94	-0.07164875
61	0x3cc41f96	0.023940843
62	0xbcb980d4	-0.022644438
63	0x3d10b67b	0.035330277
64	0xbd31391f	-0.043267366
65	0xbd04d7aa	-0.032432236
66	0xbd289dcb	-0.041166108
67	0x3c654359	0.013993108
68	0x3d9edc7b	0.07756897
69	0x3d9db28a	0.07700069
70	0x3ce6db9f	0.028180895
71	0x3c6e99b0	0.014563009
72	0x3d3b6623	0.045751702
73	0xbcad605c	-0.021164112
74	0xbd727fe6	-0.059204005
75	0x3d5d2c09	0.053997073
76	0x3b16d5d7	0.0023015642
77	0x3d1066b0	0.03525418
78	0x3d743e8f	0.059629973
79	0xbd938535	-0.072031416
80	0xbda80371	-0.082037814
81	0xbda95079	-0.08267302
82	0x3d4ae2d4	0.049532726
83	0xbda525c1	-0.080638416
84	0xbd772fa1	-0.060348157
85	0x3c0d57f0	0.008626923
86	0xbc5382fe	-0.012909649
87	0xbc9238b0	-0.017849296
88	0xbbd58787	-0.0065164003
89	0xbd5078ac	-0.05089633
90	0xbcd61c09	-0.026136415
91	0xbcc88846	-0.024479043
92	0xbca43f91	-0.020049842
93	0x3d66edef	0.056379255
94	0x3dafc93e	0.08583306
95	0x3d94d5ee	0.07267366
96	0x3d88b36d	0.06674848
97	0xbd5dde2c	-0.054166958
98	0x3d85f5e6	0.06541042
99	0x3d6a8490	0.057255328
100	0xbc602521	-0.013680727
101	0xbd310a80	-0.043222904
102	0x3dbcc4a6	0.09217195
103	0xbc80757d	-0.015681023
104	0x3d300888	0.042976886
105	0x3d594ff3	0.05305476
106	0x3bc5966e	0.0060298955
107	0x3cf5c9dd	0.030003482
108	0xbd303900	-0.04302311
109	0x3ca3c594	0.019991674
110	0x3d24b2ba	0.04020951
111	0x3c86d6a5	0.016459772
112	0xbca93e33	-0.020659542
113	0xbd7ad3b9	-0.06123707
114	0xbd269750	-0.040671647
115	0x3d4bc3e1	0.04974735
116	0x3cf8b596	0.030360024
117	0x3b9d4315	0.0047992566
118	0xbd162326	-0.036654614
119	0x3d861806	0.06547551
120	0x3d6313a7	0.055438664
121	0xbd035e74	-0.0320725
122	0xbdb95724	-0.09049824
123	0x3bd5f06f	0.006528906
124	0xbc00baf4	-0.007857073
125	0x3d81af68	0.06332284
126	0x3d2898cc	0.041161343
127	0xbd026046	-0.031830095
128	0x3d2d782a	0.042350926
129	0xbd156d9d	-0.03648149
130	0x3c89d7c0	0.01682651
131	0x3ccf7100	0.025322437
132	0xbda06dbd	-0.07833431
133	0x3daf9b69	0.08574564
134	0x3ce68b7c	0.028142683
135	0xbd4006ea	-0.046881594
136	0xbda25402	-0.079261795
137	0xbd201a8a	-0.03908781
138	0x3bf8d9a0	0.0075943023
139	0x3c2339c8	0.009962507
140	0x3cffbe18	0.031218573
141	0xbc6e3fd8	-0.014541589
142	0xbd494fc9	-0.049148355
143	0x3c501280	0.012699723
144	0xbd686005	-0.056732196
145	0x3d832d89	0.064051695
146	0x3c5bfd20	0.013427049
147	0x3d15a96e	0.036538534
148	0x3da9bda7	0.082881264
149	0xbbddb270	-0.006765656
150	0xbc752398	-0.0149620995
151	0xbd869263	-0.0657089
152	0x3d25e966	0.04050579
153	0xbd2b914f	-0.041886624
154	0x3b12b880	0.0022387803
155	0xbd63612f	-0.055512603
156	0xbd3409cb	-0.04395465
157	0xbda91566	-0.082560346
158	0xbd06086c	-0.032722875
159	0x3db3b137	0.087740354
160	0xbd792be4	-0.060832873
161	0xbda8c176	-0.08240025
162	0x3d8f8a03	0.070087455
163	0x3dab3689	0.08360011
164	0xbd7be84e	-0.06150084
165	0xbd413019	-0.04716501
166	0x3da9a78b	0.082839094
167	0x3d76bd82	0.060239322
168	0x3cb29390	0.021798879
169	0xbce3d59e	-0.027811822
170	0xbd03f757	-0.032218304
171	0x3d9e956d	0.077433445
172	0xbd08595a	-0.033288337
173	0x3cfca230	0.030839056
174	0x3d48b96a	0.04900495
175	0x3d8b0457	0.06787937
176	0xbd08ec63	-0.03342856
177	0xbb20dea0	-0.0024546757
178	0x3bab0ff0	0.0052204058
179	0x3cab01d8	0.020874903
180	0x3d7435f2	0.05962176
181	0x3d9be3b9	0.07611794
182	0x3d6464c6	0.055760168
183	0x3bd3fa60	0.006469056
184	0xbd8c9872	-0.06865014
185	0x3d6ed3c6	0.05830743
186	0x3bc0ba60	0.0058815926
187	0x3cbdf164	0.023186393
188	0xbd46ea8f	-0.048563536
189	0x3cab0954	0.020878471
190	0x3dab4817	0.083633594
191	0x3d92e2ff	0.07172202
192	0x3d49c392	0.049258776
193	0xbc6f3698	-0.0146004185
194	0xbd20b0e6	-0.039231203
195	0xbd408237	-0.046999183
196	0x3d5fe3ee	0.05466073
197	0x3d87b1d9	0.066257186
198	0x3d82058d	0.06348715
199	0xbd93264d	-0.0718504
200	0xbc2ef5d0	-0.010678723
201	0xbcf0e476	-0.029405814
202	0xbd919999	-0.071093746
203	0x3d527cc2	0.05138851
204	0xbd854e8c	-0.06509122
205	0x3da0a371	0.07843674
206	0xbd6e790e	-0.058220915
207	0x3cc8e1f8	0.024521813
208	0x3d07a774	0.03311868
209	0x3d3bb8ba	0.045830466
210	0xbd9ea120	-0.07745576
211	0xbcc1cb50	-0.023656517
212	0x3d3151aa	0.04329077
213	0xbd1b1e14	-0.03787048
214	0xbd9b6aed	-0.07588754
215	0x3b504360	0.003177844
216	0x3a902240	0.0010996535
217	0x3d2fdce6	0.042935275
218	0x3bee6700	0.007275462
219	0xbd0ffbda	-0.035152294
220	0xbdb253de	-0.08707403
221	0xbc97f4bc	-0.018549316
222	0xbd73b3fc	-0.05949782
223	0xbc8ad8d4	-0.016949095
224	0x3da56c61	0.08077312
225	0x3d9f1ae3	0.077688
226	0x3d9f2f4d	0.07772694
227	0xbd817576	-0.06321232
228	0xbd94edcb	-0.07271918
229	0xbc3b2240	-0.01142174
230	0x3d4d2d22	0.05009187
231	0xbd53f72d	-0.051749397
232	0x3d3e9972	0.046533056
233	0xbd518864	-0.051155463
234	0x3d1aa356	0.037753426
235	0xbc78f5f8	-0.015195362
236	0x3d20fb4a	0.039302148
237	0xbd1ea8e6	-0.038735293
238	0x3d2769c2	0.040872343
239	0x3c9c2098	0.01905851
240	0xbbcc8020	-0.0062408596
241	0xbd2d7cb9	-0.042355273
242	0xbcbad020	-0.02280432
243	0x3d0340a2	0.03204406
244	0xbb6f5280	-0.003651768
245	0x3d91e6e1	0.07124115
246	0xbb30dd80	-0.0026987493
247	0x3d32ffb2	0.04370088
248	0xbd9f1358	-0.077673614
249	0x3c923618	0.01784806
250	0x3ba19be0	0.004931912
251	0xbd846c51	-0.06465972
252	0xbda99b57	-0.08281582
253	0x3d514012	0.051086493
254	0x3af20800	0.0018465519
255	0x3d710dd2	0.05885107

lstm.bias_hh_l0 f4 [512]
0	0x3d502bd0	0.050823033
1	0x3d27846e	0.04089778
2	0x3b8e90f5	0.0043507763
3	0x3d3c9610	0.04604155
4	0x3d4e03b5	0.050296504
5	0xbca95649	-0.020671027
6	0xbd79c1a9	-0.060975704
7	0x3cf56a7a	0.029957999
8	0x3dadeaaf	0.08492028
9	0xbae1017a	-0.0017166578
10	0x3d20690d	0.039162684
11	0x3cc13be8	0.023588136
12	0xbd4dc48f	-0.05023628
13	0xbc945292	-0.018105779
14	0xbc2ba46b	-0.010476212
15	0x3c7a21de	0.015266864
16	0xbd1affd2	-0.037841626
17	0x3d8e839b	0.069586955
18	0xbdaed8cf	-0.08537447
19	0x3bacfed5	0.005279402
20	0x3d906ab4	0.07051602
21	0x3d42fa9e	0.04760229
22	0x3dada901	0.084795006
23	0x3d4db713	0.05022342
24	0xbd6f324c	-0.058397576
25	0xbc8a9476	-0.016916495
26	0x3d4d81ce	0.05017262
27	0xbd796e6b	-0.06089632
28	0x3cb7c8be	0.022434589
29	0x3cccc82a	0.02499779
30	0x3cb86055	0.022506872
31	0xbc8323c8	-0.016008273
32	0xbdb847ae	-0.08998047
33	0x3d1373b6	0.035999022
34	0x3da283ac	0.07935271
35	0xbd25de48	-0.040495187
36	0x3cbe76de	0.02325004
37	0xbd6bf3e8	-0.057605654
38	0xbb38c012	-0.0028190655
39	0x3d728f3c	0.05921863
40	0xbc9a571e	-0.018840369
41	0x3ca00fb3	0.019538736
42	0x3d638b90	0.05555302
43	0x3dbdce5d	0.09267876
44	0xbd279c1b	-0.04092036
45	0x3bcded3c	0.006284384
46	0x3c41b402	0.011822702
47	0xbc9a0050	-0.018798977
48	0x3da08b4a	0.07839067
49	0x3d06a26c	0.03286974
50	0x3d415aaa	0.047205605
51	0x3d2f729c	0.04283391
52	0x3dc15714	0.09440437
53	0x3da54d7d	0.0807142
54	0xbd921f43	-0.07134869
55	0xbcfd795c	-0.030941658
56	0xbce8e878	-0.028431162
57	0x3db42db3	0.08797779
58	0x3d234da1	0.039868955
59	0x3d58083b	0.052742224
60	0xbdda8f27	-0.106718354
61	0xbd2418ad	-0.040062595
62	0xbd87fc18	-0.0663988
63	0x3c8dfcc9	0.017332451
64	0x3cf67482	0.030084852
65	0x3ddba3c7	0.107245974
66	0x3cade2bc	0.02122628
67	0xbdb9447f	-0.09046268
68	0xbcebe1e6	-0.02879424
69	0xbd130e65	-0.0359024
70	0xbc55048b	-0.013001571
71	0xbc80bf19	-0.015716122
72	0xbcbe2b14	-0.0232139
73	0xbd9fc5e9	-0.0780142
74	0x3d876197	0.06610411
75	0x3dc3e9aa	0.09566052
76	0xbcd64f8d	-0.02616098
77	0x3d441f24	0.04788126
78	0x3da7df86	0.081969306
79	0x3d307044	0.043075815
80	0x3d9c912d	0.076448776
81	0x3aaea166	0.0013323247
82	0xbdac5585	-0.08414749
83	0x3cb9e3c8	0.022691622
84	0x3d022137	0.031769957
85	0x3d0591aa	0.03260962
86	0xbd1f7b51	-0.038935963
87	0xbd821512	-0.06351675
88	0x3dd9e42a	0.10639222
89	0x3d9ef47c	0.077614754
90	0x3cbf49e1	0.023350658
91	0xbd1055db	-0.03523813
92	0x3c0ad00e	0.008472456
93	0x3de1408d	0.1099864
94	0xb9b6dc78	-0.00034878007
95	0x3d13831e	0.036013715
96	0xbdb10c39	-0.086449094
97	0x3db9d5e3	0.09073999
98	0x3c8df0e7	0.017326785
99	0x3d2aaa74	0.041666463
100	0xbd9aefc2	-0.075652614
101	0x3d427320	0.047473073
102	0xbcf1c1de	-0.029511388
103	0x3d5482de	0.051882617
104	0xbce9cbd8	-0.028539583
105	0xbda5ad71	-0.08089722
106	0xbcb910dd	-0.022591049
107	0xbce69568	-0.028147414
108	0xbda2b223	-0.07944133
109	0x3d9b396b	0.07579311
110	0x3d031d10	0.032010138
111	0x3d89ad47	0.06722503
112	0x3db63328	0.08896476
113	0x3c70e2ea	0.014702538
114	0xbd66b701	-0.05632687
115	0x3d5f10d9	0.054459427
116	0x3d8d84d0	0.069100976
117	0xbdaddf36	-0.0848984
118	0xbd87c611	-0.06629575
119	0xbc86caf8	-0.016454205
120	0x3cb55230	0.022133917
121	0x3d3bc182	0.04583884
122	0x3d723907	0.059136417
123	0x3c019592	0.0079091955
124	0xbcca6692	-0.024707112
125	0x3c17680b	0.009241114
126	0xbd88eb04	-0.06685451
127	0xbdb0bdd3	-0.08629956
128	0x3cbf6768	0.023364738
129	0xbd687dd1	-0.056760613
130	0x3c8bfea4	0.017089196
131	0xbcaf646c	-0.02141019
132	0x3d909113	0.07058921
133	0xbdb28b1f	-0.087179415
134	0xbd23ecf7	-0.04002091
135	0xbd44f8d5	-0.048088867
136	0x3d32b31e	0.04362785
137	0xbcc20548	-0.023684159
138	0xbbc91a70	-0.006137185
139	0xbd9a96de	-0.07548307
140	0x3cba3da0	0.022734463
141	0xbd607d71	-0.05480713
142	0xbcb6f478	-0.022333369
143	0xbdaaf05d	-0.08346627
144	0x3cd632ac	0.02614721
145	0x3d047bdc	0.032344684
146	0x3d9b5d61	0.0758617
147	0x3bef8fa0	0.0073108226
148	0x3c365130	0.011127755
149	0xba6a6800	-0.0008941889
150	0x3d4a8d8a	0.04945139
151	0xbd47f0c9	-0.048813615
152	0x3d8acb45	0.06777052
153	0x3d59fb5e	0.053218238
154	0xbb084a40	-0.002079621
155	0x3d205746	0.03914573
156	0xbd8ac6ec	-0.067762226
157	0x3d6f6bfa	0.058452584
158	0x3c083470	0.008313283
159	0x3cd1994c	0.025585793
160	0x3d985591	0.074381955
161	0x3c7c99c0	0.015417516
162	0x3dacad79	0.08431525
163	0x3ceda3a0	0.029008687
164	0x3db2f91f	0.08738922
165	0x3c871814	0.016490974
166	0xbd9de218	-0.077091396
167	0xbd1ee2e1	-0.038790587
168	0xbd4bcbff	-0.049755093
169	0xbd9c4a46	-0.07631354
170	0x3d75e6f6	0.060034715
171	0xbc1bedc8	-0.009517141
172	0x3d9f86ef	0.077894084
173	0xbd96bdf2	-0.07360448
174	0x39202e00	0.00015275925
175	0xbd67c2bc	-0.056582198
176	0x3d0db678	0.034597844
177	0x3cca9cf4	0.024733044
178	0x3d18c286	0.037294887
179	0xbdaf2ce9	-0.08553488
180	0xbd97a00c	-0.074035734
181	0x3c1e38d0	0.0096571
182	0xbd90d93a	-0.07072683
183	0xbd42b0d4	-0.047531918
184	0xbd7bbe30	-0.061460674
185	0xbc980a90	-0.018559724
186	0xbcf17d82	-0.029478792
187	0x3c774660	0.015092462
188	0xbd9d938c	-0.07694158
189	0xbcc44990	-0.023960859
190	0xbd0f8fbe	-0.035049193
191	0x3d6c43a6	0.057681702
192	0x3ce177d4	0.027522959
193	0x3ac74d00	0.0015205443
194	0x3da11099	0.07864494
195	0xbdabe87c	-0.08393952
196	0xbcb48984	-0.022038229
197	0xbd9ed190	-0.077548146
198	0xbd33abc5	-0.043864984
199	0x3d95cf3b	0.07314917
200	0xbda86857	-0.08223026
201	0x3d81f553	0.0634562
202	0x3da9a3ef	0.08283221
203	0x3cb28b78	0.02179502
204	0xbd08c683	-0.03339244
205	0xbd88b452	-0.06675018
206	0xbd30b618	-0.043142408
207	0xbcf78552	-0.03021494
208	0x3d11fa30	0.035638988
209	0xbd60ff40	-0.054930925
210	0xbcc261ac	-0.023728214
211	0xbdab198a	-0.083544806
212	0xbcbc1de8	-0.02296348
213	0x3d91e1db	0.07123157
214	0x3d3710ee	0.04469388
215	0x3cfe9360	0.031076133
216	0x3d37196e	0.044701986
217	0xbc7aa988	-0.015299208
218	0x3d875b5b	0.066092215
219	0xbd4ceda5	-0.050031323
220	0x3d83f621	0.0644343
221	0x3d17dd6a	0.03707639
222	0xbd3ee856	-0.04660829
223	0x3d22b876	0.039726697
224	0x3cf54304	0.029939182
225	0xbd584895	-0.052803595
226	0xbd827f74	-0.06371966
227	0x3d367f56	0.04455503
228	0xbcdfb40c	-0.027307533
229	0xbd90bb44	-0.07066968
230	0xbd798c4a	-0.060924806
231	0xbd1a1d0e	-0.037625365
232	0xbd6066e9	-0.054785643
233	0xbdaa6ebf	-0.083219044
234	0xbb22e920	-0.0024858192
235	0x3d2ccfe2	0.04219044
236	0x3cb3c3c4	0.021943934
237	0xbc31a6b8	-0.0108429715
238	0xbd30eed1	-0.043196503
239	0xbdadbb60	-0.084830046
240	0xbd748473	-0.059696626
241	0x3d98686b	0.07441791
242	0xbd8af70e	-0.06785403
243	0x3d3108c6	0.043221258
244	0xbdb31e73	-0.08746042
245	0xbd8bd57e	-0.0682783
246	0x3c801b04	0.015637882
247	0xbd1899cb	-0.037256043
248	0x3d26aeda	0.040694095
249	0x3d06f2d2	0.032946415
250	0x3dae27ad	0.08503661
251	0x3d95bf7b	0.073119126
252	0xbd7e579c	-0.06209527
253	0xbd583fdd	-0.05279528
254	0xbd861354	-0.06546655
255	0x3d0958b0	0.033531845

lstm.weight_ih_l1 f4 [512, 128]
0	0xbd235020	-0.039871335
1	0x3dc01326	0.09378652
2	0x3b79e162	0.0038128723
3	0x3d874986	0.0660582
4	0x3daa5b2a	0.083181694
5	0xbd8fcaaa	-0.07021077
6	0x3c52215d	0.012825337
7	0x3d5d9813	0.054100107
8	0x3bd398a4	0.006457405
9	0xbd90318e	-0.07040702
10	0x3cd83d53	0.02639643
11	0xbd7d168c	-0.06178908
12	0xbce88ded	-0.028387988
13	0x3d8e0d67	0.0693615
14	0x3de8dddf	0.113704436
15	0xbdcfb8cd	-0.1014267
16	0xbc9b4e23	-0.018958157
17	0x3d8396f1	0.06425274
18	0x3cbdf89b	0.023189833
19	0xbd58af82	-0.052901752
20	0xbc839563	-0.016062444
21	0x3d1ad9ec	0.037805483
22	0x3bd3a032	0.0064583058
23	0x3b69c0c0	0.0035667866
24	0xbe03ffeb	-0.12890594
25	0xbd82a462	-0.0637901
26	0xbd0641c6	-0.03277757
27	0xbdf3273c	-0.11872718
28	0xbb895c2f	-0.0041918973
29	0x3c31a91d	0.010843542
30	0xba0f0327	-0.0005455487
31	0xbdb8b450	-0.09018767
32	0xbabe4e11	-0.0014519115
33	0x3c18c14f	0.009323432
34	0xbc6a0925	-0.014284407
35	0x3e2628ae	0.16226456
36	0x3db9f7e3	0.09080484
37	0xbd14fba4	-0.036372796
38	0xbbab90e3	-0.0052357777
39	0xbe2c2db1	-0.16814305
40	0xbc49f3e8	-0.012326218
41	0xbcabb8d6	-0.02096216
42	0x3c7dc861	0.015489669
43	0xbd958f52	-0.07302727
44	0xbc923a13	-0.017849958
45	0xbd3d8ad6	-0.046274982
46	0xbb05d911	-0.002042357
47	0xbd902833	-0.070389174
48	0xbdd87977	-0.105700426
49	0xbd8bd1a0	-0.06827092
50	0xbce80905	-0.028324613
51	0x3de1c72a	0.11024316
52	0x3ddcb371	0.10776413
53	0xbd71ef70	-0.059066236
54	0xbd297751	-0.041373555
55	0x3d14cc40	0.0363276
56	0xbd0177ff	-0.031608578
57	0xbdec2c7b	-0.115319215
58	0x3c257230	0.010098025
59	0xbd39f6be	-0.045401327
60	0xb9554e5a	-0.00020342451
61	0xbd3b3bdd	-0.045711387
62	0x3d37f424	0.044910565
63	0xbcef2b11	-0.02919534
64	0x3d4355d0	0.04768926
65	0xbe37fdab	-0.1796786
66	0xbd1f59aa	-0.03890387
67	0xbdcb6bf0	-0.09932697
68	0x3d1a88cf	0.037728127
69	0xbde99f8c	-0.11407384
70	0xbd6647e9	-0.056220923
71	0xbcf9c4b5	-0.030489305
72	0x3d529faf	0.051421817
73	0x3d54f2ef	0.051989492
74	0x3da02a96	0.078206226
75	0xbd61b6e7	-0.05510607
76	0xbdb1c1f2	-0.0867957
77	0xbdb23b6a	-0.087027386
78	0x3df1c0aa	0.11804326
79	0x3d47120a	0.048601188
80	0xbd624efc	-0.055251107
81	0xbdf3dced	-0.119073726
82	0xbb30d5b4	-0.0026982846
83	0x3d5a79aa	0.053338684
84	0xbdd6bb09	-0.10484893
85	0xbe167244	-0.14692026
86	0xbde58ba9	-0.11208279
87	0x3c051520	0.008122712
88	0x3d4b703e	0.04966759
89	0x3df2b4be	0.1185088
90	0xbcc6c386	-0.024263155
91	0xbdfb4e50	-0.12270796
92	0x3dce4ee8	0.10073644
93	0x3d98698d	0.07442007
94	0xbc4bf27e	-0.012447951
95	0xbd0238f6	-0.031792603
96	0xbc388672	-0.011262523
97	0x3cef0d3d	0.029181117
98	0xbe19280a	-0.1495668
99	0x3cf8207f	0.030288933
100	0xbdb9e6e0	-0.09077239
101	0xbcbd7365	-0.023126313
102	0xbd4af773	-0.049552392
103	0xbdab2079	-0.08355803
104	0xbe3653b9	-0.17805375
105	0x3d3dec87	0.04636815
106	0x3cef6296	0.029221814
107	0x3d78c5ac	0.06073539
108	0xbda6c235	-0.08142511
109	0xbbed38a8	-0.00723942
110	0x3c22dee7	0.009940839
111	0x3cbf8d75	0.023382882
112	0xbc760bc0	-0.01501745
113	0x3dad8797	0.08473127
114	0x3e0fc8f7	0.14041506
115	0xbcb3e8e9	-0.021961646
116	0x3d76225e	0.06009137
117	0x3d86d4f3	0.065835856
118	0xbd3dd57c	-0.046346173
119	0xbd14a697	-0.036291685
120	0xbe3e3bb2	-0.1857746
121	0xbc97e1b7	-0.018540246
122	0xbd8aa6e4	-0.06770113
123	0xbd97e4a6	-0.07416658
124	0xbd558b90	-0.05213505
125	0xbe2f954a	-0.17146793
126	0xbc9262b3	-0.01786933
127	0x3d984b89	0.07436282
128	0xbd52d17b	-0.051469307
129	0x3cc35f34	0.023849107
130	0xbd66ff57	-0.056395855
131	0xbba9d743	-0.005183132
132	0xbd0089e0	-0.031381488
133	0xbc89dc56	-0.016828697
134	0x3b388ff2	0.002816197
135	0xbd23321c	-0.03984271
136	0xbce09491	-0.027414592
137	0x3d0842e5	0.03326692
138	0xbd2b0df2	-0.041761346
139	0x3c89ed2f	0.01683673
140	0xbda13dd3	-0.0787312
141	0xbd2c809f	-0.04211485
142	0xbc194664	-0.009355161
143	0x3daa647f	0.08319949
144	0x3be914bf	0.007113069
145	0x3d972b5f	0.07381319
146	0xbd2da005	-0.042388935
147	0x3c960d83	0.01831699
148	0xbd79fa37	-0.06102964
149	0x3cb5aa01	0.02217579
150	0x3c862ad2	0.01637784
151	0xbdb7d559	-0.0897624
152	0xbd88d76d	-0.06681714
153	0x3d78439b	0.06061135
154	0x3cf24978	0.029576048
155	0xbdb447ab	-0.08802732
156	0xbd1f80d0	-0.038941205
157	0x3dbeed32	0.09322585
158	0xbdbf65c5	-0.09345583
159	0x3c5f5738	0.013631634
160	0x3ca0b711	0.019618543
161	0xbd8dae67	-0.0691803
162	0x3b9f594c	0.00486294
163	0x3d6ef9c4	0.058343664
164	0x3d846680	0.06464863
165	0x3da4e439	0.080513425
166	0xbd963d7d	-0.07335947
167	0xbd73f86b	-0.05956308
168	0xbd4490f7	-0.04798981
169	0x3db97428	0.09055358
170	0xbca9fab3	-0.020749426
171	0xbca09e50	-0.01960674
172	0x3c4de6e6	0.0125672575
173	0xbcab7c83	-0.020933395
174	0xbdf03c4e	-0.11730252
175	0xbd42c8f3	-0.04755492
176	0x3cf2b306	0.02962638
177	0xbd06a6d1	-0.032873932
178	0x3c0c5be3	0.008566829
179	0x3d4fe719	0.0507575
180	0xbd038402	-0.032108314
181	0xbc06505b	-0.008197869
182	0x3ba2af46	0.004964742
183	0xbc3a27cd	-0.011362028
184	0x3d0d13a1	0.034442548
185	0xbda00f29	-0.078153916
186	0x3d23f7bc	0.04003118
187	0xbcb5b228	-0.022179678
188	0x3db2891d	0.087175585
189	0x3d45d851	0.048302
190	0xbc02329a	-0.007946635
191	0xbd2920d4	-0.041291073
192	0xbd8220c3	-0.06353905
193	0x3ca7ba5e	0.020474609
194	0xbc9feba2	-0.019521538
195	0x3b3265dc	0.0027221357
196	0xbc0fc216	-0.008774301
197	0xbdde2d43	-0.10848477
198	0xbdb87c7f	-0.09008121
199	0xbe019379	-0.12653913
200	0x3d98f4a0	0.074685335
201	0x3be4e3f1	0.0069851805
202	0x3a862899	0.0010235488
203	0xbc99638c	-0.018724225
204	0xbc2b4078	-0.010452382
205	0xbcc7c564	-0.024386115
206	0xbce7c460	-0.028291881
207	0x3c516844	0.0127812065
208	0xbdca5819	-0.098800845
209	0xbdafad68	-0.085779965
210	0xbdaa72dc	-0.08322689
211	0xbcd4aa90	-0.025960237
212	0xbdc2c1de	-0.095096335
213	0xbd039a4d	-0.032129575
214	0xbdf4fc53	-0.119621895
215	0x3d9e2d13	0.07723441
216	0xbcf5bb47	-0.029996527
217	0x3d9352ca	0.07193525
218	0xbbd3d176	-0.0064641787
219	0x3d02ac9a	0.031902887
220	0xbd312d05	-0.043255825
221	0xbcd5bb3c	-0.026090257
222	0x3d43b056	0.04777559
223	0x3ca5bce9	0.020231681
224	0xbd9c484e	-0.076309785
225	0x3b9c2d29	0.0047661257
226	0x3d464773	0.048407983
227	0x3d74be8f	0.059752043
228	0x3cbab5f4	0.02279184
229	0x3babd32b	0.005243679
230	0xbcbdcfb7	-0.023170335
231	0xbd4ba80e	-0.049720816
232	0x3c8052f9	0.015664564
233	0x3ccf8ae8	0.02533479
234	0x3de1e9ee	0.11030947
235	0x3d00efd8	0.031478733
236	0x3d66aa2d	0.056314636
237	0xbce3e4f9	-0.027819144
238	0x3dabdde8	0.08391935
239	0x3d1e7b01	0.038691524
240	0xbc1f1c1e	-0.0097112935
241	0xbd058195	-0.032594282
242	0x3a2df6b8	0.000663619
243	0x3dec1881	0.11528111
244	0xbcda5e11	-0.026656182
245	0xbbfa3d3c	-0.0076366942
246	0xbd040ace	-0.032236867
247	0x3da85a6b	0.08220371
248	0xbda13614	-0.07871643
249	0xbd7793ac	-0.060443565
250	0x3d28efa2	0.041244157
251	0xbc0f5773	-0.008748877
252	0xbdc2c57e	-0.09510325
253	0xbd88e945	-0.06685118
254	0x3d30355c	0.043019637
255	0x3d0ec616	0.03485688

lstm.weight_hh_l1 f4 [512, 128]
0	0xbd526603	-0.051366817
1	0x3d87ffed	0.06640611
2	0xbd92117a	-0.0713224
3	0xbbad89d0	-0.0052959695
4	0xbd8aec8b	-0.06783398
5	0x3c1e0868	0.009645559
6	0x3d8344df	0.064096205
7	0xbd847456	-0.06467502
8	0xbda34d49	-0.07973725
9	0x3c0619d0	0.008184865
10	0x3daa0d6f	0.083033435
11	0x3c285e48	0.010276385
12	0xbd7cf334	-0.061755374
13	0x3d6baa9e	0.05753576
14	0xbdaf2a8a	-0.085530356
15	0xbd85c864	-0.06532362
16	0xbd887b02	-0.06664087
17	0xbd82d139	-0.06387562
18	0x3c8791a0	0.016548932
19	0xbd224af1	-0.03962225
20	0x3d5883fa	0.052860238
21	0xbd846f1d	-0.06466506
22	0xbd783e32	-0.06060619
23	0xbd7e1899	-0.062035177
24	0xbd95de18	-0.07317752
25	0x3cb587f0	0.022159547
26	0x3d119bc4	0.03554894
27	0xbdb13a09	-0.086536475
28	0xbd3cf12d	-0.04612844
29	0xbd56e576	-0.052464925
30	0xbc9e5dcc	-0.019331835
31	0x3d180d6a	0.037122168
32	0x3dadaa73	0.08479776
33	0x3dabae5f	0.08382868
34	0x3d329f06	0.043608688
35	0x3d9e6115	0.07733361
36	0xbda9a541	-0.08283473
37	0xbd845b7e	-0.06462763
38	0xbda10ecd	-0.07864151
39	0xbd567ae5	-0.052363295
40	0xbda52480	-0.080636024
41	0xbc123c40	-0.0089254975
42	0x3dad9a73	0.084767245
43	0xbda6780f	-0.08128368
44	0xbd9d2f44	-0.07675031
45	0xbd75238c	-0.059848353
46	0x3cf66b14	0.030080356
47	0xbc898b24	-0.01678998
48	0x3da01a23	0.07817485
49	0x3d6dfb6e	0.05810111
50	0xbd90ceb5	-0.07070676
51	0x3d95e5f9	0.073192544
52	0xbd22c660	-0.039739966
53	0x3cbd2ca8	0.023092583
54	0xbda01d9c	-0.078181475
55	0xbd2acd2f	-0.041699585
56	0xbd0e3195	-0.034715254
57	0x3d87dad7	0.06633537
58	0x3c0b6ca0	0.008509785
59	0x3d71c816	0.059028707
60	0xbd22757d	-0.039662827
61	0x3d55b116	0.052170835
62	0xbd245c50	-0.0401271
63	0x3d7cf2fe	0.061755173
64	0xbcbd693c	-0.023121469
65	0xbd773c55	-0.06036027
66	0xbd9045fa	-0.07044597
67	0xbda3e760	-0.08003116
68	0x3adfc600	0.0017072558
69	0x3d08d740	0.033408403
70	0x3d8f9061	0.0700996
71	0xbd153eec	-0.03643696
72	0xbd85d970	-0.065356135
73	0xbbd9c820	-0.006646171
74	0x3d3d1b7a	0.04616878
75	0xbd994ba7	-0.07485133
76	0x3c6fedf0	0.014644131
77	0xbd49f666	-0.04930725
78	0x3cf17400	0.029474258
79	0x3a8695c0	0.0010268018
80	0x3d961f17	0.07330149
81	0x3d4f44ee	0.050602846
82	0xbd9a4d60	-0.07534289
83	0xbd899c53	-0.067192696
84	0xbdb0c13b	-0.08630606
85	0xbd110411	-0.03540427
86	0xbd406d63	-0.04697932
87	0xba2d8c00	-0.0006620288
88	0xbdb2eb46	-0.08736281
89	0x3d6c5cca	0.057705678
90	0x3ce8be74	0.028411128
91	0xbcdf81e8	-0.027283624
92	0xbcdb395c	-0.02676075
93	0x3d804365	0.062628545
94	0x3d573afa	0.05254648
95	0x3d958daf	0.073024146
96	0x3d4a9836	0.049461566
97	0x3c0de720	0.0086610615
98	0x3c423588	0.011853583
99	0x3d9714c9	0.07377011
100	0x3c815fac	0.01579269
101	0xbd0ae5df	-0.03391063
102	0xbd344c0d	-0.04401784
103	0x3d001076	0.0312657
104	0x3d99036d	0.074713565
105	0xbda7e585	-0.08198074
106	0x3cc961a0	0.024582684
107	0xbd2cec44	-0.042217508
108	0x3d3bb986	0.045831226
109	0xbd8e5787	-0.06950288
110	0x3ce70ac4	0.028203376
111	0x3d890de3	0.06692102
112	0x3cd65290	0.026162416
113	0xbdad40bc	-0.08459613
114	0xbbbd97c0	-0.0057859123
115	0xbd5398f1	-0.05165953
116	0xbd7ef6c8	-0.062247068
117	0xbd7b1e59	-0.06130824
118	0xbd01e996	-0.031716906
119	0xbc1fe000	-0.009757996
120	0x3d8dab17	0.069173984
121	0x3d9d8419	0.07691211
122	0x3c1922f0	0.009346709
123	0x3b5a9560	0.0033353195
124	0xbd91a0ea	-0.0711077
125	0x3cd91900	0.026501179
126	0xb8e02800	-0.00010688603
127	0x3d06fcda	0.03295598
128	0xbcddec40	-0.027090192
129	0x3d170ff2	0.03688044
130	0xbd0d307e	-0.034470074
131	0xbbdc6140	-0.0067254603
132	0xbc90d3bc	-0.017679088
133	0xbce18278	-0.027528033
134	0xbd31857a	-0.043340184
135	0x3c5b4390	0.013382807
136	0xbd66b0ac	-0.05632083
137	0x3cf38a1c	0.029728942
138	0xbd6eac94	-0.058270052
139	0xbc97af9c	-0.018516354
140	0xbcd201a8	-0.025635555
141	0x3ccf0700	0.025271893
142	0xbc3ddd10	-0.01158835
143	0x3d50ff0a	0.051024474
144	0xbda4426e	-0.08020483
145	0xbdafd964	-0.08586386
146	0xbd7da310	-0.061923087
147	0x3d1a37ca	0.03765086
148	0x3d116bea	0.035503305
149	0xbcebca5e	-0.02878302
150	0x3d0d71ec	0.034532472
151	0x3c977b58	0.018491432
152	0x3d3fb802	0.046806343
153	0xbd4393f7	-0.047748532
154	0xbcecf416	-0.028924983
155	0x3d2384ea	0.03992168
156	0x3d913b1b	0.070913516
157	0x3d63dada	0.055628635
158	0xbda799ea	-0.08183654
159	0xbc04ed38	-0.008113198
160	0x3dae5075	0.0851144
161	0xbb3be280	-0.002866894
162	0x3d910573	0.070811175
163	0x3ce3a6cc	0.027789496
164	0xbd819101	-0.063264854
165	0xbbb96710	-0.005658038
166	0x3d9041c3	0.07043793
167	0xbcb61550	-0.02222696
168	0x3d58b60a	0.05290798
169	0xbdb44360	-0.08801913
170	0xbcd59a6c	-0.02607461
171	0xbd39f4f8	-0.045399636
172	0xbd64d88c	-0.055870578
173	0x3d6514aa	0.05592791
174	0xbd527a6b	-0.051386278
175	0xbda215b6	-0.07914297
176	0x3d9db87d	0.07701204
177	0xbc8ad474	-0.016947009
178	0xbd9299b7	-0.07158225
179	0xbd0ad5c0	-0.033895254
180	0x3c59c400	0.013291359
181	0xbd4e9654	-0.050436333
182	0x3d4ea93a	0.050454356
183	0x3d04c77e	0.032416813
184	0x3d1c11de	0.038102977
185	0x3da4ee09	0.08053214
186	0xbca5e650	-0.020251423
187	0x3befd8d0	0.0073195472
188	0x3c96693c	0.018360727
189	0xbd04f967	-0.03246441
190	0x3ce01b00	0.027356625
191	0x3ca3bbac	0.01998695
192	0x3d9c1fef	0.07623278
193	0x3c047b20	0.008085996
194	0xbd868592	-0.06568445
195	0xbd95d710	-0.073164105
196	0x3cc9ee84	0.024649866
197	0x3d7a3d2e	0.0610935
198	0xbd8f5a1d	-0.069996096
199	0x3cc0011c	0.023438029
200	0x3da2a3cb	0.07941397
201	0xbd9a791e	-0.075426325
202	0xbd20c8ee	-0.03925412
203	0x3da0da83	0.07854178
204	0xbd844a0d	-0.064594366
205	0xbdaff32f	-0.085913055
206	0x3dacbbdf	0.08434271
207	0xbcf2ed12	-0.02965406
208	0x3da550cf	0.08072054
209	0x3c3da5b0	0.0115751475
210	0x3d845d91	0.06463159
211	0xbdaf1218	-0.08548373
212	0xbd37f3e0	-0.04491031
213	0xbd86b33c	-0.06577155
214	0x3d9280bd	0.07153461
215	0x3b0e25e0	0.0021690056
216	0xbd164310	-0.03668505
217	0x3d43137a	0.047625996
218	0x3d435c1a	0.047695257
219	0x3c4c5e50	0.012473658
220	0xbd488a7b	-0.04896019
221	0xbd89b452	-0.067238465
222	0x3bdb94e0	0.006701097
223	0xbc0d5358	-0.008625828
224	0x3c5500c0	0.013000667
225	0x3d6d2b32	0.057902522
226	0xbd80dd02	-0.06292154
227	0xbd2c12e5	-0.042010207
228	0x3ce82148	0.028336182
229	0xbd54ea00	-0.051980972
230	0xbd733a82	-0.05938197
231	0x3d888601	0.06666184
232	0xbd28262a	-0.04105202
233	0x3db08675	0.08619396
234	0xbcb26b14	-0.021779574
235	0xbc23b0a8	-0.009990849
236	0xbd16dee4	-0.03683366
237	0x3cd3adac	0.02583965
238	0x3da1240f	0.07868206
239	0x3c569aa0	0.013098389
240	0x3d650c4a	0.055919923
241	0xbd899683	-0.06718161
242	0x3d727296	0.05919131
243	0x3c309a58	0.010778986
244	0x3d62e462	0.055393584
245	0xbc81081c	-0.015750937
246	0xbcf91e6c	-0.030410014
247	0xbd22a0e4	-0.03970422
248	0xbd038baf	-0.032115635
249	0x3da9311f	0.08261322
250	0xbcc8eafc	-0.024526112
251	0xbc7ba038	-0.015358023
252	0x3cbd4378	0.02310346
253	0xbd823534	-0.06357804
254	0xbb75fcc0	-0.0037534684
255	0xbc3394e8	-0.010960795

lstm.bias_ih_l1 f4 [512]
0	0x3c96fa48	0.01842989
1	0xbd1e7889	-0.03868917
2	0x3cd9b471	0.026575299
3	0xbd00aa62	-0.03141249
4	0x3d099f30	0.03359908
5	0x3d74cce7	0.059765723
6	0x3d4a5a01	0.04940224
7	0x3dac1a0b	0.08403405
8	0x3deb0cba	0.11477037
9	0xbc96f0e8	-0.01842542
10	0x3db12faa	0.08651669
11	0x3d18d740	0.037314653
12	0x3d873b17	0.06603067
13	0x3b5f0dc7	0.0034035312
14	0x3ca2add1	0.019858273
15	0x3e06e59a	0.13173524
16	0xbcef6490	-0.029222757
17	0x3cac600c	0.021041892
18	0x3ccdb701	0.025111677
19	0x3de9d3b2	0.11417331
20	0x3d6d22e9	0.05789462
21	0x3e234e0f	0.15947746
22	0x3df92072	0.121643916
23	0x3cc8d223	0.024514263
24	0x3daa9224	0.08328655
25	0x3cd6a8b2	0.026203487
26	0x3d92773e	0.0715165
27	0x3d32aaa0	0.043619752
28	0x3d1b0422	0.03784574
29	0xbcac63f4	-0.021043755
30	0x3d25cae3	0.04047669
31	0x3d379616	0.044820867
32	0x3bac6837	0.005261447
33	0x3e125d82	0.14293483
34	0xbd09ec5a	-0.033672668
35	0x3e1861de	0.14881083
36	0x3d3a328c	0.04545836
37	0x3bfb4260	0.0076678246
38	0x3e2463d7	0.16053711
39	0x3b96efed	0.004606238
40	0x3b7234c8	0.003695773
41	0x3ddbfdca	0.10741766
42	0x3dceec0f	0.10103618
43	0x3daa8242	0.08325626
44	0x3d16ff80	0.036864758
45	0x3dd8af12	0.10580267
46	0x3e05b185	0.13056
47	0x3d1f6bd0	0.038921177
48	0x3d22d459	0.03975329
49	0x3bb0ee9c	0.005399538
50	0xbc04705b	-0.008083428
51	0x3d8f47a3	0.069960855
52	0xbc076fab	-0.00826637
53	0x3d3cf09b	0.046127897
54	0x3dd38d50	0.103296876
55	0x3d9ce9b4	0.07661763
56	0xbc6af25e	-0.014340011
57	0xbb93a3c7	-0.0045056078
58	0x3d685c1e	0.056728475
59	0x3e0d68eb	0.13809554
60	0x3d170d01	0.036877636
61	0x3d668b27	0.05628505
62	0x3d7ecf0d	0.062209178
63	0xbd3a0adf	-0.045420524
64	0x3d8de90d	0.069292165
65	0x3c1bdd3d	0.009513197
66	0x3e20a3c9	0.15687479
67	0xbd38e900	-0.04514408
68	0x3e013e35	0.12621386
69	0x3d355d21	0.044278268
70	0x3dc33312	0.09531225
71	0x3d0e9bea	0.03481666
72	0x3e256adb	0.16154043
73	0x3b75244b	0.0037405665
74	0xbb06221b	-0.0020467106
75	0xbd6b8d9d	-0.0575081
76	0x3defea8a	0.11714657
77	0x3d482a58	0.048868507
78	0xbc865c1c	-0.016401343
79	0x3df34b47	0.118795924
80	0x3c87a430	0.016557783
81	0x3a155035	0.00056958507
82	0x3c9b9a9a	0.018994618
83	0x3d7d5a65	0.061853785
84	0xb94282a5	-0.0001854995
85	0x3ba2fcbf	0.0049739773
86	0x3bb3a873	0.005482727
87	0x3d26b441	0.040699247
88	0xbcc1cb9d	-0.02365666
89	0x3d5cb5ee	0.05388444
90	0x3dd3ee78	0.10348219
91	0x3decdd88	0.11565691
92	0xbd77bcc0	-0.06048274
93	0x3dfafc31	0.12255133
94	0x3e1388b3	0.14407615
95	0x3b904b06	0.0044034747
96	0xbcf50553	-0.029909765
97	0x3db7443a	0.0894856
98	0x3db02ed4	0.08602682
99	0xbcbe197c	-0.023205511
100	0x3e01fb2e	0.12693474
101	0x3e062d88	0.13103306
102	0x3d824c14	0.06362167
103	0x3dc35e25	0.09539441
104	0xbc8cf3c2	-0.017206077
105	0x3e04e2b7	0.1297711
106	0x3dc55ae2	0.09636475
107	0x3e047174	0.12933904
108	0x3df2b178	0.11850256
109	0x3da68768	0.081312954
110	0x3d517df2	0.0511455
111	0xbd09099b	-0.033456426
112	0x3d589e38	0.052885264
113	0x3dd3a1cf	0.10333597
114	0x3ddba8eb	0.10725578
115	0x3dd8e4c7	0.10590511
116	0x3c466c90	0.012110844
117	0x3d6b99a0	0.057519555
118	0x3dce0f0b	0.10061463
119	0xbbd5ecef	-0.006528489
120	0x3d8c4659	0.06849355
121	0x3d7cfac7	0.061762597
122	0xbd44a5da	-0.04800973
123	0xbc3605f3	-0.011109817
124	0x3d4dc171	0.05023331
125	0x3d3e95dd	0.04652964
126	0x3dbd4cee	0.09243189
127	0xbd7303a0	-0.05932963
128	0xbd2e1239	-0.042497847
129	0xbd7af80e	-0.06127172
130	0xbd85f5b3	-0.06541004
131	0xbd857a78	-0.065175
132	0xbc754eb8	-0.014972381
133	0xbd30d09a	-0.043167688
134	0xbd23fe99	-0.040037725
135	0xbd85aeaa	-0.06527455
136	0xbd471896	-0.04860743
137	0x3d59a272	0.053133436
138	0xbd76694e	-0.06015902
139	0xbb7b4860	-0.00383427
140	0x3cae6544	0.021288522
141	0xbd8b97bc	-0.068160504
142	0xbd727f56	-0.05920347
143	0x3c99b130	0.018761247
144	0x3d8b9e1b	0.068172656
145	0xbd33f0d9	-0.043930862
146	0xbd704dce	-0.05866795
147	0x3d00bb68	0.031428725
148	0xbba402e0	-0.0050052255
149	0x3d8d48f9	0.06898684
150	0xbcff958a	-0.031199235
151	0x3d073222	0.033006795
152	0xbcfc92d0	-0.030831724
153	0xbca2b940	-0.019863725
154	0xbcce9570	-0.025217742
155	0xbdb32fa7	-0.08749323
156	0xba8ac840	-0.0010588244
157	0x3c2132a0	0.00983873
158	0x3d9a6bf9	0.075401254
159	0x3c8a63ec	0.01689335
160	0xbcedd26c	-0.029031001
161	0x3d904f03	0.0704632
162	0xbce101ce	-0.02746668
163	0xbd8d5f5f	-0.06902956
164	0xbd888e50	-0.06667769
165	0x3c036d80	0.008021712
166	0xbdb24b55	-0.08705775
167	0xbda67d42	-0.0812936
168	0xbd217593	-0.03941877
169	0x3d2805fe	0.04102134
170	0x3db1113f	0.086458676
171	0xbd5bafe4	-0.05363454
172	0xbd72863a	-0.05921004
173	0xbd249f60	-0.040191054
174	0x3d18ed62	0.03733576
175	0xbb9cbdf0	-0.0047833845
176	0x3d03ff44	0.032225862
177	0x3adea680	0.0016986877
178	0x3bfcfba0	0.0077204257
179	0xbd23d8c7	-0.040001657
180	0x3dabc0bf	0.08386373
181	0x3d285a46	0.041101716
182	0x3db2d14d	0.08731327
183	0xbd77e212	-0.06051833
184	0x3a492a80	0.00076738745
185	0x3d6983a6	0.057010315
186	0x3d7e77b2	0.06212587
187	0x3d9a8505	0.07544903
188	0xbd8c472e	-0.06849514
189	0x3daa9d83	0.08330824
190	0xbd8bf176	-0.068331644
191	0x3d9ecb25	0.077535905
192	0x3d89f50b	0.06736191
193	0xbd8738d2	-0.066026345
194	0x3d559536	0.05214425
195	0x3d07b9fa	0.033136345
196	0xbca8c70c	-0.020602725
197	0xbd9f1e2f	-0.07769429
198	0xbd85b52a	-0.06528695
199	0xbd4639a1	-0.048394803
200	0xbd6ef8c4	-0.05834271
201	0xbd862ed2	-0.06551899
202	0x3d4c8e02	0.049940117
203	0xbca5672c	-0.020190798
204	0x3d8b11ef	0.0679053
205	0x3cfec9c4	0.031102069
206	0xbd8919ad	-0.066943504
207	0xbda66ef8	-0.08126634
208	0xbbf658c0	-0.007517904
209	0x3cb90044	0.022583134
210	0xbbab0970	-0.005219631
211	0x3d8e4a51	0.069477685
212	0xbd4d1e7d	-0.050077904
213	0xbce49b78	-0.027906165
214	0xbda38321	-0.07983995
215	0xbbe0afa0	-0.0068568736
216	0xbd881d17	-0.066461734
217	0xbda3e7c7	-0.080031924
218	0xbbea7530	-0.007155083
219	0x3cfe8ad4	0.031072058
220	0x3bea4610	0.0071494654
221	0x3b969810	0.004595764
222	0xbd119925	-0.03554644
223	0x3ccddc38	0.025129423
224	0x3da4c441	0.08045245
225	0x3da5dc1b	0.080986224
226	0xbd2f0a21	-0.04273427
227	0xbcd55246	-0.026040208
228	0x3c137a98	0.009001397
229	0xbd38c6f5	-0.045111615
230	0xbd760d2c	-0.060071155
231	0xbd9a82db	-0.0754449
232	0xbd8554e2	-0.06510331
233	0x3d1f9c0a	0.03896717
234	0x3c1e14f8	0.009648554
235	0x3d8bbd2f	0.06823193
236	0xbc6d4488	-0.014481671
237	0xbd26439b	-0.040591817
238	0x39dcb700	0.00042098016
239	0xbd0f1728	-0.034934193
240	0xbd860769	-0.06544382
241	0x3d805bef	0.06267535
242	0xbcfe4922	-0.031040732
243	0xbd5971a5	-0.053086895
244	0xbdb33608	-0.0875054
245	0xbda6f59e	-0.081523165
246	0x3d870607	0.065929465
247	0xbd1b1346	-0.037860177
248	0x3d60efde	0.054916255
249	0x3d6aa22a	0.057283558
250	0x3d38480e	0.04499059
251	0xbd004bba	-0.03132222
252	0xbd1656ce	-0.036703877
253	0xbda507bf	-0.08058118
254	0xbd365273	-0.044512223
255	0x3d1c5616	0.038168035
