models/audio_classifierCNN2.pth (torch, 72906 bytes, 5 tensors)

conv1.weight f4 [48, 24, 3]
0	0x3d6b8e85	0.057508964
1	0x3da8f505	0.08249859
2	0xbd459244	-0.048235193
3	0x3d84a5d2	0.0647694
4	0xbd0b9aa4	-0.034083024
5	0xbda43338	-0.08017582
6	0x3daf01e9	0.08545286
7	0xbabd8d02	-0.0014461579
8	0x3d29f941	0.041497473
9	0xbd986b26	-0.07442312
10	0x3d779366	0.060443304
11	0x3a9f24da	0.001214172
12	0xbd242505	-0.040074367
13	0xbd09c783	-0.033637535
14	0x3a0caeaf	0.0005366606
15	0x3a93d6a6	0.001127918
16	0xbc906522	-0.017626349
17	0xbd8b2963	-0.06795003
18	0xbdb18bbc	-0.0866923
19	0xbb9ddaa6	-0.0048173247
20	0xbd9385b9	-0.0720324
21	0x3cb89911	0.022533925
22	0x3db5acb5	0.08870832
23	0xbdba2acf	-0.09090196
24	0xbc52708f	-0.012844219
25	0x3de278c0	0.110581875
26	0xbda94232	-0.08264579
27	0x3cbb35bb	0.02285277
28	0xbd1f4899	-0.038887594
29	0x3bc62a2a	0.006047507
30	0x3d7a2c1e	0.06107723
31	0xbca8b060	-0.020591915
32	0x3da64ec1	0.0812049
33	0xbd22617b	-0.039643746
34	0x3de777eb	0.113021694
35	0x3d754d2f	0.05988806
36	0x3d109e51	0.035307232
37	0xbb6a54f1	-0.0035756195
38	0xbd9db2f9	-0.07700152
39	0xbd9da85f	-0.0769813
40	0x3d80f2cc	0.0629631
41	0xbd921fb9	-0.07134957
42	0xbc0d8c92	-0.008639472
43	0x3d66be16	0.056333624
44	0x3ddba55a	0.10724898
45	0x3b231f87	0.0024890618
46	0xbdc5d196	-0.09659116
47	0x3cfcc465	0.030855367
48	0x3ce60b19	0.028081464
49	0xbdb70d08	-0.089380324
50	0xbd896b2f	-0.06709897
51	0x3de0c09d	0.10974238
52	0xbb3ad047	-0.002850549
53	0x3d9c928c	0.07645139
54	0xbc6f4c03	-0.014605525
55	0x3dbf3619	0.0933649
56	0xbceab4bf	-0.02865064
57	0x3dedcd69	0.116114445
58	0x3de2b81d	0.11070273
59	0x3d832c53	0.064049385
60	0xbcee5e1b	-0.029097607
61	0x3cfed540	0.031107545
62	0xbda0809e	-0.07837032
63	0x3ddcd8e4	0.10783556
64	0x3d7c9d52	0.06167347
65	0x3aabd1ad	0.0013108753
66	0xbd355b0d	-0.044276286
67	0x3d348507	0.044072177
68	0xbdd37280	-0.103245735
69	0x3dde03aa	0.108405426
70	0x3d280c05	0.041027088
71	0xbd7cb006	-0.061691307
72	0xbd9019d4	-0.07036176
73	0x3d1a1bf2	0.037624307
74	0x3c84df46	0.016219746
75	0xbc75d374	-0.015004028
76	0xbd82b2e2	-0.063817754
77	0x3dcb597d	0.09929178
78	0x3d8e034e	0.06934224
79	0x3ccdd9e2	0.025128309
80	0xbcd63b93	-0.026151454
81	0xbd775884	-0.06038715
82	0xbc7232bf	-0.014782607
83	0x3bdf7575	0.006819422
84	0xbd0694e9	-0.032856856
85	0x3be2c92f	0.0069209556
86	0x3d9b3865	0.07579116
87	0xbd477e74	-0.04870458
88	0x3d0a76a0	0.033804536
89	0x3d56c7b8	0.05243656
90	0x3cc016cc	0.02344837
91	0x3cf75de3	0.030196136
92	0xbcb0f425	-0.021600792
93	0x3d85d199	0.06534118
94	0xbd11af02	-0.03556729
95	0x3daac972	0.08339204
96	0x3dcd1dae	0.100154266
97	0xbd70c997	-0.058786
98	0xbbbd05f2	-0.005768531
99	0x3dc36907	0.09541517
100	0x3dbcbc74	0.09215632
101	0x3b88610e	0.0041619604
102	0x3d9e8040	0.077393055
103	0x3d8991d9	0.06717271
104	0x3dd04ac0	0.101705074
105	0x3de403fc	0.111335725
106	0x3da36122	0.07977511
107	0xbd591915	-0.053002436
108	0xbd8dfa0a	-0.06932457
109	0xbd6af6e5	-0.057364363
110	0x3cb533e7	0.022119476
111	0x3d89a16e	0.067202434
112	0xbd36d5d0	-0.0446375
113	0xbd9820f9	-0.07428164
114	0x3cc398ac	0.02387651
115	0x3dd77bb0	0.105216384
116	0x3dc3a4e4	0.09552935
117	0xbdeb3fa6	-0.11486749
118	0xbde61587	-0.11234575
119	0x3d2baa3a	0.041910388
120	0xbd5abaac	-0.05340068
121	0x3dd3ac46	0.10335593
122	0x3d6b24ed	0.057408262
123	0x3c132fcc	0.008983564
124	0x3dbdc5d0	0.09266245
125	0x3d69e60e	0.057104163
126	0xbdf0a2b7	-0.117497854
127	0x3db7e92b	0.0898002
128	0xbd281332	-0.04103393
129	0x3d50000d	0.0507813
130	0xbdc3a465	-0.0955284
131	0x3c51361b	0.012769247
132	0x3bc22f0b	0.005926018
133	0x3d94e15f	0.072695486
134	0xbd7b2fd5	-0.061324913
135	0xbd20429a	-0.039126016
136	0x3d34366d	0.043997217
137	0xbcec67c5	-0.028858075
138	0x3d8718ca	0.06596525
139	0x3b96bcdd	0.004600151
140	0xbd112fc8	-0.03544596
141	0xbd0d6fc9	-0.034530435
142	0xbdbe6812	-0.092971936
143	0x3c6a1743	0.014287773
144	0x3d817246	0.06320624
145	0xbdd4a2fb	-0.103826486
146	0x3d0a10e8	0.03370753
147	0xbd241ebb	-0.04006837
148	0xbcec87b4	-0.028873302
149	0x3da8e57f	0.08246898
150	0x3da3be45	0.079952754
151	0x39f1abe6	0.00046095176
152	0x3dd948c8	0.10609585
153	0x3d26dbb3	0.040736865
154	0xbb0fb38e	-0.0021927091
155	0x3ce62936	0.028095823
156	0x3da694ee	0.08133875
157	0x3d545183	0.051835548
158	0x3d1f94d2	0.038960285
159	0x3d600eb7	0.054701533
160	0x3cec9cd2	0.028883372
161	0x3c263708	0.010144956
162	0xbd4e9f45	-0.05044486
163	0x397bafbc	0.00024002691
164	0xbbadd44e	-0.0053048497
165	0x3da0ad0d	0.07845507
166	0xbd14fcdc	-0.036373958
167	0xbd924351	-0.07141746
168	0xbc8b076b	-0.01697131
169	0x3dc8a817	0.097976856
170	0xbd7cd92a	-0.06173054
171	0x3d3c075e	0.045905463
172	0x3ba79e83	0.0051153316
173	0xbcd752da	-0.026284624
174	0xbd8784e7	-0.06617146
175	0xbd62a23e	-0.055330507
176	0xbc10d477	-0.008839718
177	0x3d7872fb	0.06065653
178	0xbcc092fd	-0.02350759
179	0xbd9290eb	-0.07156547
180	0x3d1af97d	0.037835587
181	0x3d5b5d52	0.053555794
182	0xbda0f112	-0.078584805
183	0xbce69471	-0.028146954
184	0x3dc368ee	0.09541498
185	0xbdd3667c	-0.10322282
186	0x3d9ced20	0.076624155
187	0x3db8d68f	0.09025299
188	0xbc03e0da	-0.008049214
189	0xbc97e6a1	-0.01854259
190	0x3c6a863e	0.014314232
191	0xbc6bca0e	-0.014391435
192	0xbddf4576	-0.109019205
193	0xbdc51f26	-0.09625082
194	0x3d02c07b	0.031921845
195	0xbd975ad1	-0.07390369
196	0xbc15987b	-0.009130592
197	0x3de1be3b	0.11022612
198	0x3c60d4d3	0.013722616
199	0xbd30bb36	-0.04314729
200	0xbb528e39	-0.0032128228
201	0xbd626c03	-0.05527879
202	0xbd8dcbba	-0.069236234
203	0x3da8e717	0.08247202
204	0xbd8ce687	-0.06879907
205	0x3d76bbdf	0.06023776
206	0xbdf86066	-0.121277615
207	0xbda4a8a0	-0.08039975
208	0xbd959e81	-0.07305623
209	0xbda77edc	-0.081784934
210	0x3dac309d	0.0840771
211	0xbd9ec2d8	-0.07752007
212	0x3dea01e8	0.11426145
213	0xbd8e76f8	-0.06956285
214	0xbd1b1442	-0.037861116
215	0x3c8740fd	0.016510481
216	0x3dc67bc3	0.096915744
217	0xbbc0b416	-0.005880843
218	0xbdba38e4	-0.09092882
219	0xbd56e9c4	-0.05246903
220	0xbdb32dd3	-0.08748975
221	0x3dd4b88f	0.10386764
222	0x3d862afb	0.065511666
223	0xbd875ab9	-0.06609101
224	0x3cf7419a	0.030182648
225	0x3b1de5c9	0.0024093261
226	0x3d0dd42b	0.034626167
227	0x3cff5213	0.031167066
228	0x3d0230e1	0.031784896
229	0x3d415752	0.047202416
230	0x3d4c165d	0.049826015
231	0xb974a9b5	-0.00023332874
232	0xbbb6abe2	-0.0055746892
233	0x3d240acb	0.040049355
234	0x3d7710c9	0.060318742
235	0x3a543d07	0.0008096252
236	0x3c42805f	0.011871426
237	0x3d83f4e8	0.064431965
238	0x3c801a3e	0.015637513
239	0xbd71983e	-0.05898308
240	0x3df25e6b	0.11834415
241	0xbdca9147	-0.09890991
242	0xbdccfa4b	-0.10008677
243	0x3d7c3cff	0.061581608
244	0x3b847d7d	0.0040432797
245	0x3d101d62	0.03518427
246	0xbd9a3ab2	-0.075307265
247	0xbd58a6ce	-0.052893452
248	0x3d901148	0.07034546
249	0x3da928e9	0.08259756
250	0xbb2ff0b7	-0.0026846358
251	0x3cc72235	0.024308303
252	0xbd807179	-0.06271643
253	0xbdd923b5	-0.10602514
254	0xbcde8eb5	-0.027167657
255	0xbd036f72	-0.032088704

conv1.bias f4 [48]
0	0xbdd64974	-0.10463229
1	0x3c9f4621	0.01944262
2	0xbc9cceda	-0.019141603
3	0x3d829c40	0.063774586
4	0x3dbbe090	0.09173691
5	0x3d631c18	0.055446714
6	0xbd911204	-0.07083514
7	0xbd70a003	-0.05874635
8	0xbdd74f5d	-0.10513184
9	0x3cb506c3	0.02209795
10	0xbdb20220	-0.086918116
11	0xbd1b4b17	-0.037913408
12	0xbda936b1	-0.08262385
13	0x3dc3463c	0.095348805
14	0xbdc644dd	-0.096811034
15	0x3e00e481	0.12587167
16	0xbdd3209d	-0.10308955
17	0xbd00f2f0	-0.031481683
18	0x3db2b65f	0.08726191
19	0xbd117946	-0.035516046
20	0x3abb9faf	0.0014314557
21	0xbdc3bb51	-0.09557212
22	0x3d1ee4ff	0.038792606
23	0xbc424266	-0.011856651
24	0xbd314b0c	-0.04328446
25	0xbbbaad55	-0.0056969323
26	0xbdaad60a	-0.08341606
27	0x3d725153	0.059159588
28	0x3dd43e4c	0.10363445
29	0xbdc8c6b9	-0.09803528
30	0xb987eb75	-0.00025924636
31	0x3d1b87b9	0.037971232
32	0xbc9d9a2b	-0.019238552
33	0x3cdfd672	0.027323935
34	0x3da69767	0.081343465
35	0xbdce2a1c	-0.100666255
36	0x3d08ff9f	0.033446904
37	0xbdcb8351	-0.09937156
38	0x3deb5b7a	0.11492057
39	0xbdc9e813	-0.09858718
40	0xbdda1509	-0.106485434
41	0x3d0e2ba5	0.03470959
42	0x3d16b9f9	0.03679845
43	0x3da2a292	0.07941164
44	0x3cf888f1	0.030338736
45	0x3d1e10ad	0.038590122
46	0x3d81bc9b	0.06334802
47	0x3da463c4	0.08026841

conv2.weight f4 [96, 48, 3]
0	0x3d89c128	0.06726295
1	0x3d0ab3ce	0.03386288
2	0x3d8aea2d	0.06782947
3	0x3d761918	0.060082525
4	0xbd1188a4	-0.0355307
5	0x3d914e50	0.07095015
6	0xbd000575	-0.031255204
7	0xbd99543d	-0.0748677
8	0x3b59e321	0.0033246952
9	0x3bb10a4d	0.0054028393
10	0x3d959ed2	0.07305683
11	0x3d39872c	0.045294926
12	0xbda2d551	-0.07950843
13	0x3c8dd0f2	0.017311547
14	0xbce3b8a9	-0.027798014
15	0xbd69c91c	-0.05707656
16	0xbd99d1b7	-0.07510703
17	0x3b8591e9	0.0040762317
18	0x3d528192	0.0513931
19	0x3d3c6dbf	0.0460031
20	0x3d220494	0.039555147
21	0xbd8bac7e	-0.0682001
22	0xbd36bd15	-0.044613916
23	0xbd80527c	-0.06265733
24	0x3c936ba5	0.017995665
25	0xbbd6d8c9	-0.0065566045
26	0x3d93583b	0.07194563
27	0xbbc67b40	-0.006057173
28	0x3d85f858	0.065415084
29	0x3c588c74	0.01321708
30	0xbd51c3a3	-0.051211964
31	0x3cc9c4ab	0.024629911
32	0xbb97e8e4	-0.004635917
33	0xbd13c419	-0.036075685
34	0x3c8e8cbf	0.017401097
35	0xbc22bfb9	-0.009933406
36	0xbd8df289	-0.069310255
37	0x3da396cb	0.07987746
38	0x3d2c5f0d	0.042082835
39	0x3b61afb3	0.0034437
40	0x3d7298b3	0.059227657
41	0x3c91df3e	0.017806645
42	0x3d893944	0.06700376
43	0x3d47fa07	0.04882243
44	0x3d2e0abc	0.042490706
45	0xbd871fac	-0.06597838
46	0x3b33bb39	0.0027424826
47	0x3cc34c60	0.02384013
48	0x3d2abbf2	0.041683145
49	0x3cbd8691	0.023135455
50	0xbd083e57	-0.033262577
51	0xbc56a0a5	-0.013099824
52	0x3ce1e9b3	0.027577257
53	0x3c75b842	0.014997544
54	0x3d6d3a3a	0.057916857
55	0x3c13d542	0.009023013
56	0xbd818c4e	-0.06325589
57	0xbd6c0610	-0.05762297
58	0x3d8fd143	0.070223354
59	0x3d683f63	0.056701075
60	0xbd1d1d6e	-0.038358144
61	0x3c9f66e2	0.019458238
62	0xbd00c9dc	-0.031442508
63	0xbc5f7d3b	-0.013640697
64	0xbced9f75	-0.0290067
65	0x3d80dc14	0.062919766
66	0xbcfdf68d	-0.031001354
67	0xbd250a6d	-0.040293146
68	0x3a6d9721	0.00090633525
69	0x3d4ad5d5	0.049520332
70	0xbcc7f5a8	-0.02440913
71	0xbcd61722	-0.026134077
72	0x3c73fc34	0.014891673
73	0xbcc95246	-0.024575364
74	0xbd35a753	-0.044349026
75	0xbc545e2b	-0.0129619045
76	0x3d2b4758	0.041816086
77	0x3d975511	0.07389272
78	0x3cca1f3c	0.024673097
79	0x3d32952b	0.04359929
80	0x3c4924d3	0.012276846
81	0xbcf7f1e7	-0.030266715
82	0x3cec1343	0.028817778
83	0x3d95c39a	0.07312699
84	0xbc5c3af1	-0.013441787
85	0x3d76e921	0.060280923
86	0x3d7141a7	0.0589005
87	0x3d6c029b	0.057619672
88	0xbd743677	-0.059622254
89	0x3c34bae7	0.011030889
90	0xbcd3921d	-0.025826508
91	0xbcd4e0f9	-0.025986182
92	0xbb943b98	-0.0045237057
93	0x3d324537	0.04352304
94	0x3a2d2e0b	0.0006606287
95	0xbcebf689	-0.02880408
96	0x3cb7d525	0.022440502
97	0xbca68d7c	-0.020331137
98	0x3d2ad6fb	0.041708928
99	0xbd4a7e06	-0.04943659
100	0xbd9b4834	-0.07582131
101	0xbd21fb42	-0.03954626
102	0xbcc796a2	-0.02436382
103	0x3d06b2f3	0.032885503
104	0x3ca594f5	0.02021263
105	0xbd940b67	-0.07228737
106	0x3dad3837	0.08457988
107	0x3daaa51d	0.08332274
108	0x3c74d7eb	0.014944057
109	0x381ae36a	3.6928257e-05
110	0xbd2ed11b	-0.042679887
111	0x3d642c1c	0.05570613
112	0x3dacaf0a	0.084318236
113	0x3c166a65	0.00918064
114	0x3d8726ee	0.06599222
115	0xbd56e45d	-0.052463878
116	0x3c2a20d5	0.010383804
117	0x3c617fa9	0.013763347
118	0xbbe18e9a	-0.0068834545
119	0xbd9c0ddd	-0.07619832
120	0xbd5f0dac	-0.054456398
121	0x3c79502d	0.015216869
122	0x3d61d1ff	0.05513191
123	0x3d7a4adb	0.061106544
124	0xbc6c30cc	-0.014415931
125	0x3cb7e089	0.022445934
126	0x3b1027b8	0.002199633
127	0x3c1f96c8	0.009740539
128	0xbccb26e6	-0.024798822
129	0xbd536af2	-0.051615663
130	0x3d381656	0.044943176
131	0x3d92affe	0.07162474
132	0xbcc3396d	-0.023831094
133	0x3cac11c3	0.021004563
134	0xbd9d369c	-0.076764315
135	0xbba8eddc	-0.005155308
136	0xbd6d0d1f	-0.05787384
137	0x3d9c9df9	0.076473184
138	0x3d5954ca	0.053059377
139	0xbd844428	-0.06458312
140	0xbd6631dd	-0.056199897
141	0xbcc157f4	-0.02360151
142	0x3d67de9b	0.056608777
143	0xbd777ee5	-0.06042375
144	0xbd196880	-0.037453175
145	0x3cc00cf5	0.023443678
146	0xbd5e88ee	-0.054329805
147	0x3d6e47be	0.058173887
148	0xbd39a2bf	-0.045321222
149	0xbd4c49ba	-0.049875
150	0xbc8c94a6	-0.017160725
151	0xbd4e60a6	-0.05038514
152	0x3d793b2d	0.06084745
153	0x3d14aff3	0.03630061
154	0x3d62bbdf	0.05535495
155	0x3da30a23	0.07960918
156	0xbcb5ae34	-0.022177793
157	0x3a4e6a78	0.00078741414
158	0x3ccc5fd6	0.024948042
159	0x3d52a7d6	0.051429592
160	0xbd064aca	-0.03278617
161	0xbd4b54b2	-0.04964132
162	0x3d4aa092	0.049469538
163	0x3da31652	0.07963242
164	0x3ada82d0	0.0016671065
165	0x3d9a6cc9	0.0754028
166	0x3d3be689	0.045874152
167	0x3ca84448	0.020540372
168	0xbcf6023c	-0.030030362
169	0xbda4f31d	-0.08054183
170	0xbb1ac61f	-0.0023616625
171	0xbcc0ce40	-0.023535848
172	0xbc190070	-0.009338483
173	0xbd7d99b1	-0.06191415
174	0x3d79151a	0.06081114
175	0x3d5b011e	0.053467862
176	0xbbdb0873	-0.006684357
177	0x3d019218	0.031633466
178	0xbbee83ae	-0.007278881
179	0xbba58776	-0.0050515486
180	0xbbfe780a	-0.0077657746
181	0x3ca7e0b5	0.02049289
182	0x3d1c2e11	0.03812987
183	0xbceb367c	-0.028712504
184	0x3b01d1a8	0.0019808803
185	0xbc922c6d	-0.01784345
186	0xbd070e9f	-0.032972928
187	0x3ce29a69	0.02766152
188	0xbc5e6ce3	-0.013575765
189	0xbd2679ae	-0.040643387
190	0xbd835ab9	-0.06413788
191	0x3c1c1e7b	0.0095287515
192	0x3c813550	0.015772492
193	0x3d838b11	0.06423009
194	0xbb98645e	-0.0046506366
195	0x3c6d8471	0.0144969085
196	0x3c679563	0.014134738
197	0xbcae4f46	-0.021278035
198	0x3d120f2b	0.035658997
199	0x3d3a3b81	0.045466904
200	0x3d8a05e7	0.06739407
201	0x3d0fb629	0.03508583
202	0xbced2721	-0.028949322
203	0x3d813a42	0.0630994
204	0x3d0c5e26	0.034269474
205	0x3c22bc20	0.009932548
206	0xbcd6ca34	-0.026219465
207	0x3d66bada	0.05633054
208	0xbd238cc2	-0.03992916
209	0x3cffa353	0.031205809
210	0xbd0894dc	-0.03334509
211	0x3d3fe290	0.046846926
212	0xbd74302e	-0.05961626
213	0xbc7493d9	-0.014927828
214	0xbd108459	-0.035282467
215	0xbc1bb9f5	-0.009504785
216	0x3d4125b9	0.047155116
217	0xbd89bbf6	-0.06725304
218	0xbc6f8ad0	-0.014620498
219	0x3cce9382	0.025216822
220	0xbdac3964	-0.08409384
221	0x3d8ae9b8	0.067828596
222	0xbd18a33a	-0.03726504
223	0x3c890ad3	0.016728794
224	0xbd7b2e63	-0.061323535
225	0x3d6c933d	0.057757605
226	0x3d95212c	0.07281718
227	0x3d815cd5	0.063165344
228	0xbd91d8e5	-0.071214475
229	0x3cb06857	0.021534128
230	0x3d20e678	0.039282292
231	0x3d8b9b50	0.06816733
232	0x3d088da4	0.033338204
233	0x3d12dc6b	0.03585474
234	0xbd795dd3	-0.060880493
235	0x3d54794b	0.051873486
236	0x3d78a7b7	0.06070682
237	0x3d334359	0.0437654
238	0xbb355952	-0.0027671647
239	0xbd171d05	-0.03689291
240	0xbc9ea823	-0.019367283
241	0xbd0baf61	-0.0341028
242	0xbc2e07f9	-0.010622018
243	0xbd85f59b	-0.06540986
244	0xbd3f0e23	-0.04664434
245	0x3d9b2a75	0.075764574
246	0x3cdcabb0	0.026937336
247	0x3c275a05	0.010214333
248	0xbd814491	-0.06311906
249	0x3d94c102	0.07263376
250	0x3d3c08fa	0.045907
251	0x3d22e964	0.03977336
252	0xbc9c1a94	-0.019055642
253	0xb9bbf56d	-0.00035850276
254	0xbce8f0e8	-0.028435186
255	0xbdaa0fe0	-0.08303809

conv2.bias f4 [96]
0	0xbc56722f	-0.013088747
1	0x3d80383e	0.06260727
2	0xbce677b0	-0.028133243
3	0x3cac9330	0.021066278
4	0x3d8cea9a	0.06880684
5	0xbd8d7616	-0.06907289
6	0xbd998d4d	-0.07497654
7	0xbd596505	-0.053074855
8	0xbc9ac1f9	-0.018891321
9	0x3cd95aa1	0.026532473
10	0x3c2b2644	0.010446135
11	0xbd559de7	-0.05215254
12	0xbd74d27e	-0.059771053
13	0x3d533182	0.051560886
14	0x3d8c7607	0.068584494
15	0xbda40e16	-0.08010499
16	0xbd1bbc97	-0.03802165
17	0x3d36dc1a	0.0446435
18	0x3d9cd469	0.076577015
19	0x3d591012	0.05299384
20	0xbc804530	-0.015657991
21	0x3d09096b	0.033456247
22	0x3cc6a9d2	0.024250899
23	0xbc195eee	-0.009361012
24	0xbbfc2b4d	-0.0076955915
25	0xbd680ed2	-0.05665476
26	0x3d78901b	0.060684305
27	0xbba2b774	-0.004965717
28	0x3ca87ff6	0.020568829
29	0x3cd931ba	0.02651297
30	0x3d651492	0.05592782
31	0xbc5bc8ac	-0.013414543
32	0xbc755329	-0.01497344
33	0x3b857837	0.0040731686
34	0xbd86e0a5	-0.06585816
35	0xbd73d13f	-0.059525725
36	0x3d87d2ba	0.0663199
37	0x3d0f3456	0.03496202
38	0xbcbd1fed	-0.023086512
39	0x3d98e39b	0.07465287
40	0xbd7a38ca	-0.061089315
41	0xbd1d975d	-0.03847443
42	0x3bf1f7d8	0.0073842816
43	0x3ce7127c	0.028207056
44	0x3d5937bf	0.05303168
45	0x3c7a55fa	0.0152792875
46	0x3d0b4e11	0.034009997
47	0xbd6edaea	-0.05831424
48	0xbd636473	-0.055515718
49	0xbd613b7c	-0.05498837
50	0x3d59f0d2	0.05320818
51	0x3cc15d37	0.023604019
52	0x3d3bd493	0.045857023
53	0xbd731d74	-0.05935426
54	0xbcd0ad9c	-0.025473408
55	0x3d74d9b1	0.05977792
56	0xbca23af2	-0.019803498
57	0x3d2a3a19	0.041559312
58	0x3a9c856e	0.0011941621
59	0xbd355286	-0.044268154
60	0xbb9e67a0	-0.0048341304
61	0x3c278afd	0.0102260085
62	0x3b0ea885	0.0021767926
63	0x3ce868e1	0.028370323
64	0xbcca6058	-0.024704143
65	0xbd461000	-0.048355103
66	0x3d13435e	0.03595292
67	0xbc36ddce	-0.011161281
68	0x3d78764f	0.060659703
69	0x3d2563f8	0.04037854
70	0xbd0db7c1	-0.03459907
71	0x3cb03a68	0.021512225
72	0xbd9d058c	-0.076670736
73	0x3d5b236c	0.053500578
74	0xbd6733a5	-0.056445736
75	0x3c522c7d	0.01282799
76	0x3cc6ddb3	0.024275636
77	0x3d797342	0.060900934
78	0x3d66b9d1	0.056329552
79	0x3c506f04	0.012721781
80	0x3d814f00	0.06313896
81	0xbd35b96e	-0.044366293
82	0xbd0276a2	-0.03185142
83	0x3c25d732	0.010122107
84	0xbda642ba	-0.08118196
85	0x3d2fb93a	0.042901255
86	0x3d1d646f	0.03842586
87	0x3d92bbea	0.07164748
88	0x3d92793c	0.0715203
89	0x3d7094e8	0.058735758
90	0xbd19524f	-0.03743201
91	0xbd5f21dd	-0.054475654
92	0x3c8711d5	0.016487995
93	0x3cf63027	0.030052258
94	0x3cbf7f37	0.02337609
95	0xbcf14bf1	-0.029455157

fc.weight f4 [1, 96]
0	0x3bba26c2	0.00568089
1	0xbbddf39f	-0.0067734267
2	0xbca9c057	-0.020721598
3	0xbccee249	-0.025254386
4	0x3dbf0f54	0.093290955
5	0x3bb2a6af	0.005451999
6	0x3daf7fc2	0.0856929
7	0xbbdfdabc	-0.006831495
8	0x3d09537e	0.03352689
9	0xbbe50f72	-0.0069903666
10	0xbd2830aa	-0.041062035
11	0xbd8e96cb	-0.06962355
12	0x3dced3d8	0.10099
13	0x3d34ef1a	0.044173338
14	0xbdc65824	-0.0968478
15	0x3d5fa066	0.054596327
16	0xbb668b2c	-0.0035178168
17	0x3cd92c68	0.026510432
18	0xbccde74d	-0.025134707
19	0xbd96abe7	-0.073570065
20	0xbc767b6e	-0.015044076
21	0x3c021da2	0.007941635
22	0x3d75591b	0.05989943
23	0xbde5e7da	-0.11225863
24	0x3db115db	0.08646747
25	0x3d913dab	0.0709184
26	0x3da18519	0.078867145
27	0x3b7bc6b8	0.0038418006
28	0xbc921c28	-0.017835692
29	0xbd67ac10	-0.056560576
30	0xbda6411a	-0.08117886
31	0xbc9de32b	-0.019273361
32	0xbd699706	-0.057028793
33	0xbca6268a	-0.020282049
34	0x3cf7f376	0.030267458
35	0xbcd9ce22	-0.02658755
36	0xbd938f21	-0.07205034
37	0xbd8e0ef1	-0.069364436
38	0xbd944f19	-0.07241649
39	0xbdc1aaab	-0.094563805
40	0x3b455c7a	0.0030114935
41	0x3c6cdb0d	0.014456523
42	0xbdb1a8b9	-0.086747594
43	0xbd361485	-0.044453163
44	0x3d98e838	0.07466167
45	0xbd16f574	-0.036855176
46	0x3c0a15a3	0.00842801
47	0xbd088d3c	-0.033337817
48	0xbd98bb7a	-0.07457633
49	0xbda38ea5	-0.07986192
50	0x3cea3db6	0.02859388
51	0xbcfa9be3	-0.03059191
52	0x3dd8a838	0.1057896
53	0x3ced546f	0.028970925
54	0xbd64095b	-0.055672985
55	0xbbf49e5a	-0.007465166
56	0xbd6afd63	-0.057370555
57	0x3c2ba5e3	0.010476562
58	0x3abf78bf	0.0014608129
59	0xbce86e8b	-0.028373023
60	0xbd55ccf7	-0.052197423
61	0x3da55857	0.0807349
62	0x3d8d51a5	0.06900338
63	0xbd514954	-0.05109532
64	0x3d904994	0.07045284
65	0x3cceb486	0.025232565
66	0xbdd69df2	-0.104793444
67	0xbb141f0a	-0.0022601509
68	0x3dd6b131	0.10483015
69	0xbda4c8d9	-0.08046121
70	0xbdc01686	-0.09379296
71	0x3cb8bc79	0.022550808
72	0x3d2152aa	0.039385475
73	0xbd2c0c14	-0.042003706
74	0x3d137d14	0.036007956
75	0xbc7061ca	-0.014671752
76	0x3d87e651	0.06635726
77	0xba8851fe	-0.0010400412
78	0xbd83dc9f	-0.064385645
79	0x3d0d7d72	0.034543462
80	0x3a458a4a	0.000753556
81	0xbd2e6811	-0.042579714
82	0xbca0a818	-0.019611403
83	0x3a8ff928	0.0010984289
84	0xbd65646d	-0.056003977
85	0xbd69b9f4	-0.057062104
86	0x3ca720b2	0.020401333
87	0xbd0b889f	-0.03406584
88	0xbdca06e9	-0.09864599
89	0xbdb0b555	-0.08628336
90	0xbd84a8dc	-0.0647752
91	0xbdacee0d	-0.08443842
92	0x3dac31b0	0.08407915
93	0xbdb79098	-0.08963126
94	0xbc276030	-0.010215804
95	0x3d54e80e	0.051979117
