models/audio_classifierVowels.pth (torch, 72990 bytes, 5 tensors)

conv1.weight f4 [48, 24, 3]
000000 ca c4 79 bc 3a 2b c7 bd 73 38 93 3c 0a 50 d3 3d
       -0.015244672 -0.09725042 0.017971253 0.103180006
000010 02 eb a1 3d d0 ed ca 3b cc 20 99 3d 4c e2 d7 3d
       0.07906152 0.0061929002 0.07476959 0.105412096
000020 ad cb 3c 3d 9a e7 a7 3d 5f 16 b7 3d f2 07 61 bd
       0.046092678 0.08198471 0.08939814 -0.054939218
000030 dd b6 92 bd 27 7c 7a 3d 17 f7 d9 bc 29 7a db 3c
       -0.07163785 0.061153557 -0.02660708 0.026791649
000040 2e af 9a bd 96 68 c6 b6 d1 c8 61 bd 47 52 9d bd
       -0.07552944 -5.9130352e-06 -0.055123154 -0.07681709
000050 c6 08 fd ba 8d f4 cf bd 83 eb 63 bc 3c 65 74 bd
       -0.0019304983 -0.10154066 -0.013911131 -0.059666857
000060 5a e2 ab bb b6 ea d5 39 a1 d3 ad 3d c5 10 30 bd
       -0.005245489 0.000408014 0.08487631 -0.042984743
000070 e3 3c 1b bd 0f c7 b9 3d b5 7c a8 3b ac a3 55 ba
       -0.037899863 0.090711705 0.0051418194 -0.0008149694
000080 87 ef a8 bd 9a 6c 29 bd 94 b9 f0 bd 20 3a fe 3c
       -0.08248811 -0.041363336 -0.11754146 0.031033576
000090 fe 4e 9c 3c 23 20 77 bb 9d 9a d4 3c 3c a1 49 3d
       0.019080635 -0.0037708364 0.025952632 0.04922603
0000a0 9f 0f 4e 3d 9c 73 9f 3d de ca 5c 3d b7 cd 65 bd
       0.050307866 0.077857226 0.053904407 -0.056104388
0000b0 f1 db 97 bd e2 7c c2 3b 6d 83 8d bd b3 49 26 bc
       -0.07414997 0.0059352973 -0.06909833 -0.010149407
0000c0 c9 23 0a 3d 70 e2 92 3d 15 53 c3 3d 1f bd e8 bd
       0.033725534 0.07172096 0.09537331 -0.11364197
0000d0 40 0a 9a bd ec 8b 30 3d 72 f3 97 3d 58 43 ea ba
       -0.07521486 0.04310219 0.074194804 -0.0017872853
0000e0 12 63 c9 36 27 82 4f bd 6f c4 89 3c 4f 88 1f bd
       6.0018e-06 -0.050661232 0.0168173 -0.038948353
0000f0 03 81 12 3d 9e c3 a3 bd 1f 0b cb bc 97 fd 2c 3d
       0.035767566 -0.079962954 -0.024785576 0.04223403
000100 27 d9 ee bc b2 df a2 bd 63 4a 11 bd d0 5e a1 bd
       -0.02915628 -0.07952823 -0.03547133 -0.07879412
000110 a6 2a 1e 3d 01 b2 30 bd de 3d 8c 3b 22 37 d9 3d
       0.03861489 -0.043138508 0.004279836 0.10606219
000120 af e4 32 3d 08 8d 92 bd 1a 80 02 3d 21 d4 0b 3c
       0.04367512 -0.07155806 0.03186045 0.008534462
000130 81 64 4b bd 9d 17 60 3d 7f f4 be 3d 3a fb 08 bd
       -0.049656395 0.05471002 0.09323978 -0.033442713
000140 bf 33 1b bc 10 da 81 3d ba 89 16 3d d5 da 2e 3d
       -0.009472786 0.0634042 0.03675244 0.042689163
000150 e0 9c a8 3d 36 08 36 3d 94 9e c8 3d 60 b0 4f 3d
       0.082330465 0.044441424 0.097958714 0.050705314
000160 1d 14 83 3c 42 73 be b8 cf 08 44 bd f9 b8 3e 3d
       0.016000802 -9.0813744e-05 -0.047859963 0.046563122
000170 05 50 6d bd 53 8e aa 3d 81 59 d7 bb 3f de 91 bd
       -0.05793764 0.083279274 -0.006571949 -0.07122468
000180 0b 5d 86 bb 42 bc 53 bb 19 02 03 bd 8a 88 34 bd
       -0.004100447 -0.0032308255 -0.031984422 -0.044075526
000190 67 67 9e bc 63 8b 47 bd 7f 85 4f bd 30 60 21 3d
       -0.019336415 -0.048716914 -0.05066442 0.039398372
0001a0 98 0e d9 bc e9 08 6d 3b 92 19 81 bd a5 db 81 bd
       -0.026496217 0.003616864 -0.06303705 -0.06340722
0001b0 08 20 3e bd 10 c9 b0 3d f2 1f 89 3d 99 7e 6c bd
       -0.046417266 0.086321 0.06695546 -0.05773792
0001c0 e0 91 b9 3d 5f ad 46 3c f3 d8 37 b9 ca 96 40 bd
       0.090610266 0.012126296 -0.0001753306 -0.047018804
0001d0 2d 8e 83 bd 7d 13 45 bd 41 6b b4 3d 64 0d 85 3c
       -0.06423602 -0.04811429 0.088095196 0.016241737
0001e0 e7 e5 d0 bb 91 6f 37 bd 4f ad 32 bd 7e fb 6e 3d
       -0.0063750627 -0.044784132 -0.04362231 0.05834531
0001f0 c0 ad 63 bd 1d 66 87 3b 6a 19 04 bd a0 90 e0 3b
       -0.055585623 0.004132046 -0.0322508 0.006853178
000200 56 6c b6 bd 72 52 3c bd 44 56 5d bd 3e 93 5b 3c
       -0.08907382 -0.045977063 -0.054037347 0.0134018045
000210 7f 13 70 3d 7a b4 5b 3d 9a 2f 2c bd fd df 6a 3d
       0.058612343 0.053638913 -0.042037584 0.057342518
000220 21 fb 78 3c 8d 57 5f bd 55 ff 5c 3c ea 18 ad 3d
       0.015196593 -0.054526854 0.01348861 0.084520176
000230 c3 79 2b 3d 3b df 86 bd b9 4c 4b 3c 0d 41 89 3d
       0.041864168 -0.065855466 0.012408429 0.067018606
000240 c4 14 ad 3d 44 48 a4 bd 89 05 bf 3d f2 5a bd bc
       0.08451226 -0.08021596 0.093272276 -0.023114655
000250 38 d6 ae bc 57 66 17 3d 36 54 7a bd f4 d1 ee bc
       -0.021342382 0.036962833 -0.061115466 -0.029152848
000260 ef ca 58 3d 39 04 b7 bd d2 26 dc 3d 91 f8 11 3d
       0.052927908 -0.08936352 0.10749592 0.035637442
000270 2e 7d 2f bc e9 97 de 3d a5 ef a3 3d f8 ca a4 3c
       -0.0107109975 0.10868818 0.08004693 0.020116314
000280 50 d9 b3 3b e2 b6 c9 3b 50 d5 c6 bd c2 cf d7 bd
       0.005488552 0.0061558345 -0.09708655 -0.105376735
000290 3d a0 f8 bc 08 c5 76 3c b4 f5 24 bd 46 bb bc 3d
       -0.030349845 0.015061624 -0.040273383 0.09215407
0002a0 8e 59 17 bd b4 c6 da bd 3a fe 90 bb 39 bf 4d bd
       -0.03695064 -0.10682431 -0.0044248374 -0.050231192
0002b0 19 fd ae 3d 23 66 89 bd 01 fb 1a bd 5a b3 2e 3c
       0.08544368 -0.06708934 -0.037837032 0.010662878
0002c0 ec 2e 9e bd 54 49 c9 3d e7 97 dd 3d 3b b3 89 bd
       -0.077237934 0.09828439 0.10819989 -0.067236386
0002d0 27 5f 6e 3d 49 be a3 bc 60 ee 53 38 f5 43 d6 3c
       0.058196213 -0.019988196 5.0528324e-05 0.026155451
0002e0 18 d5 bd 3d 5d d7 b2 bd c0 61 e4 3d bc 70 df 3d
       0.0926916 -0.087324835 0.11151457 0.10910174
0002f0 7d 39 93 bd e4 fd 3c 3d 08 99 bc bb 1e 5d 9e 3c
       -0.071886994 0.046140566 -0.0057555474 0.019331511
000300 70 f7 c5 bc cb ee 83 3d 8c d9 0f 3d 9c 5f fe bc
       -0.024165839 0.064420305 0.03511958 -0.03105145
000310 bf 99 d8 bd e2 54 ba 3d 82 cd 55 bd b8 56 71 b9
       -0.105762 0.09098221 -0.05219794 -0.00023015856
000320 a8 08 d4 bd ac b2 28 3d 2d 59 87 bd cd aa 0d 3d
       -0.103532135 0.04118602 -0.06608806 0.034586716
000330 0b ec 18 bd 54 48 44 bd e3 2d 00 bd 80 94 8d bd
       -0.037334483 -0.04792054 -0.03129376 -0.0691309
000340 ed a5 80 3c ab ab 6e bd b8 77 d0 bd 84 e8 06 bd
       0.01570412 -0.058269184 -0.101790845 -0.032936588
000350 2f 97 3c bc 99 dd 77 3d 74 2e e1 3c f2 98 8a 3a
       -0.011510654 0.060514066 0.02748797 0.0010574146
000360 1c 17 6f 3d 3d 49 58 3d f0 07 00 bd 7f 76 bb bd
       0.05837165 0.05280422 -0.03125757 -0.09153461
000370 a1 2e dc bd 1e 6c bd 3d 64 b6 a5 3c 60 40 16 3d
       -0.10751081 0.09249137 0.020228572 0.036682487
000380 ef fd 2d bd 3e be c7 bd a6 21 a7 ba 83 67 97 3c
       -0.042478498 -0.09753083 -0.0012751117 0.018481975
000390 52 fc 69 bd e9 b4 03 bd 46 d3 bd bd 92 ec a2 b9
       -0.057125397 -0.03215495 -0.09268813 -0.00031075306
0003a0 a3 74 83 bd 53 1c 9b 3c b8 10 65 bd e5 70 48 ba
       -0.06418731 0.018934404 -0.055924147 -0.0007646217
0003b0 f4 a6 be bd 2a ca c5 3d 4a f0 02 bd 92 71 90 bd
       -0.093091875 0.096577 -0.03196744 -0.07052912
0003c0 b5 0a d1 bc 71 12 bc bd 48 26 c2 bc b2 7b d2 3d
       -0.0255178 -0.09183205 -0.023699895 0.10277499
0003d0 c9 86 47 3d 3a 7f 5e 3c 35 1c 2e 3d e9 46 77 3c
       0.048712526 0.013580138 0.04250737 0.01509259
0003e0 89 38 29 bd ce 52 da 3d 45 a1 18 3d fb 71 85 bd
       -0.04131368 0.10660325 0.037263174 -0.06515881
0003f0 b8 9c 41 bc 4d a6 a7 3d a7 bb 3a 3c da b8 98 bc
       -0.01181715 0.08186016 0.011397279 -0.018642832

conv1.bias f4 [48]
000000 d7 f6 d2 3d 9c f6 82 bd 29 32 d0 bd ed e9 4b bd
       0.10300987 -0.06394693 -0.10165817 -0.049783636
000010 76 f3 72 bc 94 4b 8a 3d 56 5a 59 3d 23 bc 96 bc
       -0.014828553 0.06752697 0.053064667 -0.018400257
000020 86 da 9a bd ac 94 0b 3d ec 75 14 3d 00 51 d9 bd
       -0.07561211 0.03407733 0.03624527 -0.10611153
000030 11 93 4d bc cd d7 1c 3d 73 5a a0 3d 4a bb 12 bd
       -0.01254727 0.03829174 0.07829752 -0.035823144
000040 3d 77 f5 bc 1b f4 f7 bc 9f 93 69 3d 95 5f cc bd
       -0.029964084 -0.030267766 0.057025548 -0.09979168
000050 26 22 9f 3c ce f8 ef 3b 60 f3 a6 bc a2 83 65 bd
       0.019425463 0.007323361 -0.020379722 -0.056033738
000060 0a 18 fa 3b 0f bb de bd 46 8c 80 bd c8 56 40 bd
       0.00763226 -0.10875522 -0.06276755 -0.04695776
000070 21 d9 93 3d ef 7a 8c 3d 45 6e 08 bd dd ba 8b 3c
       0.072191484 0.06859385 -0.033308286 0.017056877
000080 1f fe 8c bc c3 a1 d5 3c 8d 05 ea 3d f7 a1 24 bd
       -0.017211018 0.02607811 0.1142684 -0.040193524
000090 64 e1 b3 3b 0f 58 2d 3d f3 54 19 3d 27 57 91 3d
       0.005489515 0.042320307 0.03743453 0.07096701
0000a0 d0 92 95 bd cd 6e 62 bc 46 a6 57 bc c6 a5 88 3d
       -0.07303393 -0.013820362 -0.013162201 0.06672244
0000b0 73 24 8d bb 37 42 fb 3b fe 7a 92 bc 33 18 42 3d
       -0.0043073236 0.0076678055 -0.017880913 0.04738636

conv2.weight f4 [96, 48, 3]
000000 21 18 89 bd 21 97 8d bc bc dc 8f 3d 02 bc f8 3c
       -0.06694055 -0.017283978 0.070245236 0.030363087
000010 4a 52 79 3d 27 9e 91 bc 22 97 63 3c 65 2a 19 3d
       0.060869493 -0.017775608 0.013891013 0.037393946
000020 87 8d 8c bd 49 4c fe bc 0b 02 8f bd 17 b2 67 3d
       -0.06862932 -0.031042235 -0.069828115 0.056566324
000030 e4 54 9d 37 fd 95 a8 3d 6c f7 77 bd e6 fd 69 3c
       1.8755389e-05 0.08231733 -0.060538694 0.0142817255
000040 fc 16 5a bd 35 c9 2a bd 41 28 4d 3d a0 d3 93 bd
       -0.053244576 -0.041695792 0.050087217 -0.07218099
000050 e9 4a 12 bd 73 07 73 bb 78 03 0a bd f9 ff 92 3d
       -0.03571597 -0.0037083298 -0.033694714 0.07177729
000060 7c 8b f8 3c 3f f1 0a 3d 14 34 7f 3d be 9b 66 3a
       0.030339949 0.033921476 0.062305525 0.0008797011
000070 86 d1 f8 bb 91 c2 43 bd fb bb 94 bb bb 12 5e 3d
       -0.0075933365 -0.047792975 -0.0045390106 0.05421708
000080 48 44 8b bc 56 86 fd 3c a0 ad 88 bc 00 76 96 3d
       -0.017000332 0.030947845 -0.016684353 0.073467255
000090 9c a8 8d 3d fe 9e 9f 3c a1 73 98 bd ce b2 8a bd
       0.06916925 0.019484993 -0.074439295 -0.067723855
0000a0 ca 25 0f 3d 7b e6 98 bb f5 7e 69 bd a8 99 99 bc
       0.034948148 -0.0046661473 -0.05700584 -0.018750027
0000b0 3b 45 6d 3d 7e 37 35 bd 00 4a 96 3d b8 79 3f 3c
       0.05792735 -0.044242375 0.07338333 0.011686735
0000c0 64 a9 a7 3c 64 a9 81 3d b0 60 17 bd b9 2e 6b 3c
       0.020466514 0.06331137 -0.036957443 0.014354401
0000d0 7c e9 ef bb 28 d5 8e 3d 72 0f 73 3d 6d c6 6f 3c
       -0.0073215347 0.0697425 0.0593409 0.014634711
0000e0 ed d2 7d 3c 10 1a b9 38 ba e5 61 3d 5b 35 ea 3c
       0.015492183 8.826342e-05 0.055150725 0.028589895
0000f0 6e fe 30 bd b0 4f 9d bc 92 9d 59 bd 28 0f fd bb
       -0.043211393 -0.019203037 -0.053128786 -0.007722754
000100 31 ff 5f bd 02 96 20 bb 14 79 46 bd ce c3 43 bd
       -0.05468673 -0.0024503474 -0.048455313 -0.047794156
000110 b4 6f 0e 3d eb a5 4e bd a6 a7 0d 3d 72 6e 78 3d
       0.034774497 -0.0504512 0.03458371 0.060652204
000120 cb 1d 55 3b 3f e7 b8 3a e2 20 92 3d 95 f4 92 3d
       0.0032518979 0.0014107003 0.07135178 0.071755566
000130 68 6d a1 3d da c2 ee bc e2 0b 78 3c 50 62 2e 3d
       0.07882196 -0.029145647 0.015139552 0.042574227
000140 b3 b6 2d bd 33 7a 24 bd f5 77 59 3d 60 08 fc bc
       -0.042410564 -0.0401556 0.053092916 -0.030765712
000150 9f 20 76 bd 4e 88 a9 3c bb ce 66 bd 1d f4 fc 3c
       -0.060089704 0.020694878 -0.056349497 0.030878121
000160 87 07 49 bd 9d c6 32 bd b2 79 29 3d fd 45 9e 3d
       -0.049079444 -0.043646444 0.041375823 0.07728193
000170 53 4a 23 bd a9 2d 88 3d ed 8c 1f 3d c8 bd 12 3c
       -0.039865803 0.06649334 0.038952757 0.00895638
000180 ee bc 31 bb 71 43 e8 bc cf 50 57 bb 28 75 ed bc
       -0.0027120668 -0.028352471 -0.0032854562 -0.028986529
000190 10 b4 79 3c 15 99 1a bd 40 4e 64 b7 d8 b0 57 3d
       0.015240684 -0.037743647 -1.3608078e-05 0.052658886
0001a0 34 50 5b 3d 37 ac 1f 3d 8b 07 05 3d 7b df 80 bd
       0.053543285 0.038982596 0.032477897 -0.062926255
0001b0 4e d3 34 3b 81 34 02 bd c1 f6 2a bd 5e 87 94 35
       0.0027591768 -0.031788353 -0.04173923 1.1066256e-06
0001c0 1a 56 47 bd a3 a8 6a 3d a4 10 d0 bc b2 f8 9d 3d
       -0.048666097 0.05728973 -0.02539856 0.077134505
0001d0 f2 dd 95 3d c9 f2 b0 ba cd e7 7c bd e7 04 5a 3d
       0.07317723 -0.001350009 -0.0617445 0.05322733
0001e0 6e e4 d9 bc 41 95 19 3c a2 ff b7 b7 62 af c9 ba
       -0.026598182 0.009373964 -2.1934338e-05 -0.0015387351
0001f0 56 d5 4e bd 29 9c 68 3d f2 40 8e bc dd 2f 0a 3d
       -0.05049642 0.05678955 -0.017364953 0.033737052
000200 1b d5 87 bd 28 4e ec bc 70 48 37 bd 48 46 76 bd
       -0.066324435 -0.028845862 -0.044746816 -0.06012562
000210 83 a0 45 3d 01 9e 01 3d a8 24 04 3d 53 de 79 bd
       0.04824878 0.031644825 0.03226152 -0.06100304
000220 ee 9f 1a 3c 0d 67 8c bc 67 aa 95 3d f8 17 cd bc
       0.009437544 -0.017138982 0.07307892 -0.025035843
000230 58 5c 8a 3d 0d 3c 1e 3d d2 06 17 bd 83 67 6f 3d
       0.067558944 0.038631488 -0.03687174 0.058448326
000240 1d de 6a bd 10 27 87 3d 76 ad d2 bb 16 a0 a6 ba
       -0.05734073 0.065992475 -0.0064293696 -0.0012712504
000250 16 ab 75 3d 14 69 04 bd 01 73 4d bd 9e cd c5 3c
       0.059977613 -0.032326773 -0.050158504 0.024145897
000260 09 7c 1c b9 6e 10 b0 bc 66 2b d3 bc c8 26 23 3d
       -0.00014923526 -0.02149221 -0.02577753 0.039831907
000270 32 2b 8b 3d a0 e5 8f bd 62 32 01 bd ba a8 5d 3d
       0.06795348 -0.07026219 -0.03154219 0.05411599
000280 73 13 72 bd b6 f2 c0 bb 3a 4c c8 3a 2a 3e 2a 3d
       -0.05910058 -0.0058883084 0.0015281506 0.04156319
000290 59 29 43 3d c0 cf 31 bd 0b aa bc 3c ea 9b 58 bd
       0.047646854 -0.043411016 0.023030302 -0.052883066
0002a0 2c 49 94 3c a8 1d 8b 3d b2 0d 39 3c 4c cd e7 3c
       0.018101297 0.06792766 0.011294769 0.028296135
0002b0 7d f0 9e 3d df 89 95 bd 28 0f db 3b 88 6c 8b bd
       0.07760713 -0.073016874 0.0066851564 -0.0680781
0002c0 3e cf 77 ba a6 9e bf bb bb 52 14 3d 45 f4 23 bc
       -0.0009453184 -0.00584777 0.03621171 -0.010006969
0002d0 05 33 99 bd 27 31 7d 3d be f2 81 bd 8f 50 c8 bb
       -0.07480434 0.061814453 -0.063451275 -0.006113119
0002e0 47 db e8 bb ec 1a 36 bd 4a 76 2d 3d 73 97 f1 3c
       -0.007106218 -0.04445927 0.042349137 0.029491162
0002f0 2e e9 cd 3b 7d c8 2c 3d 77 94 26 bd 62 fa 20 3d
       0.0062839007 0.042183388 -0.04066893 0.039301284
000300 94 a5 70 3d 51 ff 81 bd d4 17 f6 3c 99 3b 12 bd
       0.058751658 -0.06347526 0.030040659 -0.035701368
000310 ec 61 74 3d ed 23 7a bd 7e 64 14 bd be a9 58 bc
       0.059663698 -0.061069418 -0.03622865 -0.013224063
000320 58 50 50 3d 70 8d 20 3c ae e2 e4 bc ea c3 0f 3c
       0.05085787 0.009799346 -0.02794012 0.008774737
000330 e0 87 3b bd 40 c4 5f 3c 37 7f 3f bd 21 bc 3e 3c
       -0.045783877 0.0136576295 -0.04675218 0.011641533
000340 75 59 d9 bc 24 1d 17 bd 7d f2 00 bd e2 71 28 bd
       -0.026531914 -0.036893025 -0.031481255 -0.041124232
000350 d4 4e fe bc a1 ba e8 bc 9e bf c7 3c 33 9a 6f bd
       -0.031043448 -0.028409304 0.024383362 -0.058496665
000360 4a dd 65 bc 60 ba 27 3d e5 48 eb 3b 70 ce 3d 3d
       -0.01402981 0.040949225 0.0071803206 0.046339452
000370 b9 f9 60 3d 99 f3 97 bd 99 2a 34 bc 64 2f 3e bd
       0.054925654 -0.074195094 -0.010996484 -0.046431914
000380 be e1 26 bd 11 0f 93 bc 75 62 9e bd f9 5a 79 3d
       -0.04074263 -0.01795152 -0.07733623 0.060877774
000390 9f b0 19 bd b8 ad 02 3d 91 04 12 3c 8d c9 28 3b
       -0.037521955 0.031903952 0.0089122215 0.00257549
0003a0 bd 6f 87 bd 3f 96 18 bd db d3 a8 bc 22 5c 6a bd
       -0.06613109 -0.03725266 -0.020608833 -0.05721677
0003b0 e0 58 ae 34 87 9f f8 bc 40 9b f5 bc 0f 42 13 3d
       3.247469e-07 -0.030349506 -0.029981256 0.03595167
0003c0 f9 77 7b 3d 8a ee cb bc 26 17 b1 bb 5c 29 fb 3c
       0.06139371 -0.024894018 -0.005404371 0.03065937
0003d0 86 c5 99 3d a9 08 79 3d f7 e9 85 bd ab 0e 1a 3d
       0.07508378 0.060799275 -0.06538766 0.037611645
0003e0 aa ba fa bc 0d 1e 18 bd d4 a2 17 3d b6 8d 8a 3c
       -0.030606586 -0.037138034 0.03702052 0.016913276
0003f0 9a 0b 60 3b e2 7d ee 3c bf 80 a8 3c 0a 82 53 3d
       0.0034186603 0.02911276 0.020569203 0.051637687

conv2.bias f4 [96]
000000 14 ff a6 bd 5d 6d d7 bc a9 3b 12 bc 41 90 cc bc
       -0.08154121 -0.026297266 -0.008925357 -0.02497113
000010 53 c6 5d 3d b3 02 88 3d 76 8d 80 3d 2b 9e 79 3d
       0.054144215 0.0664114 0.062769815 0.060941856
000020 f2 52 28 bd 23 ba 91 bd 86 82 74 bc 62 d5 40 bd
       -0.041094728 -0.07115581 -0.014923697 -0.047078498
000030 fe 4a 95 3d cc ab 65 3d 9a 8e aa 3c 32 8a 97 3a
       0.07289694 0.05607204 0.02081995 0.0011561571
000040 03 fe 75 3d c9 51 91 3d 1c 6a b8 ba 64 20 41 3d
       0.060056698 0.070956774 -0.0014069709 0.04715003
000050 27 ae 6c bd 3a a1 88 bd 38 7e 0f 3d b8 9f 55 3c
       -0.057783272 -0.066713765 0.03503248 0.013038568
000060 73 98 07 bd a9 36 1d bb c1 a8 8b 3d d5 64 90 bc
       -0.03310437 -0.0023988879 0.06819297 -0.017626205
000070 3a 6a 42 bd c7 a1 55 bd d2 54 4f bd 82 4d 2a bc
       -0.047464587 -0.052156236 -0.050618 -0.010394456
000080 5f 20 8e bd 2d 18 a8 bd 95 cc 89 bd 55 f7 2a 3c
       -0.06939768 -0.08207736 -0.06728474 0.010434945
000090 1d 7d 7d 3d ad 69 33 3d b8 f4 1c ba fc ad ef 3c
       0.061886895 0.043801952 -0.00059873937 0.029257767
0000a0 68 b2 c3 ba b0 95 fe bc 28 9f 36 bd 06 27 80 3d
       -0.0014930489 -0.031077236 -0.044585377 0.06257443
0000b0 04 60 4d bd 87 be a4 3d ad e2 9c bc 4f ab 06 bd
       -0.050140396 0.08044153 -0.019151056 -0.032878216
0000c0 a4 1d 9e 3d 3f c9 b0 bc 01 47 23 3d 6b 43 10 3d
       0.07720497 -0.021580337 0.039862636 0.035220545
0000d0 d2 fb 4b bd 20 6c d9 3b 95 1a 4b bd 5e 56 07 bd
       -0.0498007 0.006635204 -0.049585897 -0.03304135
0000e0 30 ea a1 3d 71 a1 76 bd 70 db a2 bd 91 6d fc 3b
       0.07905996 -0.060212556 -0.07952011 0.007703491
0000f0 1e 9b 35 3d 57 e7 2d bd 49 b2 32 3d 63 0b aa 3d
       0.044337384 -0.04245695 0.043627057 0.08302953
000100 54 50 4f bd 05 71 9a 3d 81 6f 79 3d 4d 3a 70 bd
       -0.050613716 0.07541088 0.060897354 -0.05864935
000110 50 4e 5b bd 99 01 0c bd 30 f2 a5 3d 13 25 bb 3c
       -0.05354148 -0.03418121 0.08102834 0.022844827
000120 ce 6c a5 3d 47 39 8a bd 1d d9 6a bd 09 f4 e1 b9
       0.080773935 -0.06749206 -0.05733596 -0.00043097165
000130 17 27 db bb 3c 05 9c bc 15 d3 fd 3c 00 ba 45 3c
       -0.0066880095 -0.019045465 0.03098444 0.012068272
000140 d3 88 8f bc 95 ce 8f bc d2 4e 88 bc f4 4a 94 bd
       -0.017521298 -0.01755456 -0.016639147 -0.07240859
000150 ae 73 f1 bc 29 60 fa 3a a9 e7 91 3d 9b 10 5c 3d
       -0.029474106 0.0019102144 0.07124264 0.053726774
000160 45 2f 95 3d 5b 4b 77 bc eb 5f 5c 3d c5 78 f2 3a
       0.072844066 -0.01509365 0.053802412 0.0018499127
000170 d9 81 46 3d ef ab 89 3c 9a 9c fa bc 0c f5 a3 bc
       0.048463676 0.016805617 -0.030592252 -0.020014308

fc.weight f4 [1, 96]
000000 2c 82 b3 3d 49 8c 92 bd d4 7c c9 bd c4 eb 17 3d
       0.08765063 -0.071556635 -0.09838262 0.037090078
000010 b5 a3 82 3d 32 5e a7 3d 41 fe a9 3c 8b e0 29 3d
       0.06378881 0.08172263 0.02075112 0.041473906
000020 e4 61 91 ba 85 1f 48 3d e4 0b ce bd 75 49 b3 3d
       -0.0011091796 0.048858184 -0.10060862 0.08754245
000030 7c 10 d9 3a 8b d2 a6 bb 85 81 1b bd 5e 21 a1 bd
       0.0016560699 -0.0050910166 -0.037965316 -0.078676924
000040 a8 f4 9c 3d c7 8c 62 3b ce b0 a6 3d ff 17 b0 bc
       0.07663852 0.0034568773 0.081391916 -0.021495817
000050 71 ff cd 3d 0b 44 ad 3d 27 0f 7a bd 2a 2b db bc
       0.10058487 0.08460244 -0.061049607 -0.02675398
000060 de 2d c1 3d 9c 5e c3 bd 5b 02 8d bd 29 b3 32 bd
       0.094325766 -0.0953953 -0.06885215 -0.04362789
000070 c3 89 73 3c ff 6b 0f 3c b7 5e 90 3d 1d 95 d7 3a
       0.014864388 0.008753776 0.070493154 0.0016447637
000080 30 23 96 bb e2 35 42 3d 8d 7e 05 bc cc 66 d6 38
       -0.0045818314 0.047414668 -0.008147848 0.000102234626
000090 d4 41 13 bd a2 35 ce 3a 77 ed 0c 3d f6 22 8c bd
       -0.03595145 0.0015732537 0.03440615 -0.06842606
0000a0 a3 e8 99 bd 25 cb 74 3c d1 8e 94 3c 64 92 b0 3d
       -0.07515075 0.014941012 0.018134506 0.08621672
0000b0 13 6b cd 3d 49 2c 23 bd 7f 27 a6 3d 96 02 c8 bd
       0.100301884 -0.039837155 0.08113002 -0.09766118
0000c0 6f 29 2e 3d 62 cb ac 3b d3 e4 b0 3d b3 0b ae bd
       0.042519983 0.0052732686 0.08637395 -0.08498325
0000d0 27 b2 b3 3d 16 5a 9e 3d 89 29 a3 3d f1 b6 43 3d
       0.08774214 0.07732026 0.079669066 0.04778189
0000e0 d1 fe 84 3d 02 3e d1 bd 6f 1d b8 3d c5 53 6f 3d
       0.06493915 -0.10216905 0.08989989 0.0584295
0000f0 49 8f ec 37 e1 95 97 bd 56 e0 71 bd 9e 1b 92 bc
       2.8200115e-05 -0.07401634 -0.059051834 -0.017835435
000100 e6 af 16 bd 36 2b 24 bd f4 53 b1 3c 59 f0 a5 bc
       -0.036788844 -0.04008027 0.021646477 -0.020256208
000110 38 74 4f 3d 97 14 7b ba b8 8c 45 bd fb 4b 19 bc
       0.050647944 -0.0009577958 -0.048229903 -0.009356494
000120 f9 ea 2f bd 4b 45 94 3d e9 0b 22 3d bf 27 90 bd
       -0.042948697 0.07239779 0.03956214 -0.07038831
000130 55 7c 9b bc b2 5d c6 3d cc 6d c8 3d 79 5c c2 3c
       -0.018980185 0.0968584 0.09786567 0.023725735
000140 29 3b a7 3c 76 66 a5 bd 24 3b b3 3d 18 94 aa bd
       0.020413952 -0.080761835 0.087515146 -0.08329028
000150 cf 27 05 3c 09 9b 21 3d 3f 90 88 bb 37 15 d1 bc
       0.008127167 0.039454494 -0.004167586 -0.025522811
000160 f0 54 68 bd 48 29 5e bc ad bc 36 bd 39 42 82 bc
       -0.056721628 -0.013559647 -0.04461353 -0.015900718
000170 fd 99 b6 3d 28 69 c9 3c 6a 20 fc 3b 70 c1 a3 bd
       0.0891609 0.024586275 0.0076942937 -0.0799588
